results/models/Bovespa_LSTM_model.pth (torch, 905029 bytes, 19 tensors)

lstm1.weight_ih_l0 f4 [512, 6]
00000000: dc26 5b3c 85f7 32bd bab0 85bd 6566 073d
00000010: 757e 333d 77af 74bd 5340 593d 90da 673d
00000020: 4187 b3bd b97e 893c 756a 82bd 34ca 87bc
00000030: 50f9 abbd dd70 863d fa6b 033d 31c3 ddbc
00000040: a5b1 823c 35c9 9dbb 229d 8fbd 542f a7bc
00000050: 1394 0b3d 973d d7bc a651 1b3d d2cf 553d
00000060: ea59 9c3d 6266 a03c 36d3 ab3c 6e78 703c
00000070: e4fb 8dbb 0f21 8bbc 0684 eeba 3449 30bd
00000080: c644 853d 608c 973d e73b b93d 88a1 d03d
00000090: 7867 4fbd a528 c63c d153 023d 4347 8bbd
000000a0: 9692 d8bb 12a8 e23a d7d9 e43c fd50 9ebd
000000b0: 9246 a4bd 5cc4 d93c 0009 c8bc 811f 3dbd
000000c0: 6837 af3c 7dee c3bd b3b8 23bc de79 a3bb
000000d0: 0377 33bd 29c4 5f3d 016d 733b bb5a 853d
000000e0: f7cd 9dbd bf1b c23d a1c9 2d3d 66aa 8f3d
000000f0: 1a11 693c 9b57 653d 2bf9 853d 0c47 143d
00000100: e570 1f3d 9c4e e73c 9d70 d5bd c6fb 8d3c
00000110: d087 e43c b9bc b0bd 4345 ed3c 6c05 c23c
00000120: 5e75 d5bd d167 58bd a8b3 aabd a866 463d
00000130: 5b88 7e3c b9c2 073d 1728 803d c31e d7bc
00000140: a73a 273d aae5 f3bb 12ad 65bc 4199 df3c
00000150: 3146 823c c2d1 5a3d 96eb 863d 870c 74bd
00000160: 0703 06bd dc6b 6dba d4a9 c73d 0554 893d
00000170: 97bb 393d 65ce 6f3c 8b98 5ebc 02a3 b539
00000180: 007a 3e3d 1432 60bd 2abf d0bd 6dd1 1cbd
00000190: 6ec6 363d f56b 913d 52af 753d 992e 683d
000001a0: 28a3 aabb d415 d3bc 7403 b0bd 0342 1fbd
000001b0: 02bf 10bc 7991 db3c 8f9c e0bc c7ee 333d
000001c0: dd53 833b e995 0dbd 89fc 013d 51f6 b8bc
000001d0: 003c 1a3d 4c87 26bd 8f67 c3bd 80cc febc
000001e0: 510d e63c 8ead 8e3d e793 4d3d d206 f33c
000001f0: f800 bebd 321f 533d c873 8fbd a74e 11bc
00000200: 4b5e 76bd d2b5 913d 5c5c 8ebc 5149 cd3b
00000210: b011 333c a154 113b c742 dc3c 6533 8c3d
00000220: 3279 823d 39ae 9bbd d507 c83c c4d9 993c
00000230: 9c25 2ebd b8d3 44bd 4baf 993c d6f0 7ebd
00000240: 4d32 3fbd 745a a33d 79e2 493d 0a66 063d
00000250: 6c1e 13bd 7dea 17bd 9487 0dbd 843e 15bd
00000260: a61a 153c 0728 29bd c0ff 61bb 46ef d83c
00000270: e3a2 c03d cce4 4d3d 4cc4 33bd d260 993d
00000280: 8a9b d33c aab0 9a3d 2e7e d43d 32af c7bb
00000290: d8e6 78bd b153 a23d 910c 69bd 998a 8d3d
000002a0: 90db 723c 9071 23bd 0bcb 1cbb 43dc d9bc
000002b0: 6719 75bd 5272 9f3d 9bd2 a7bc 8890 623c
000002c0: d6bb 11bd 9664 2cbc 15a5 8d3d 19fb ef3d
000002d0: a075 c73d 5551 833d bbe4 20bb 5913 a83d
000002e0: 59a6 01bc 524c a1bd 3007 fb3b 29bf f23c
000002f0: 557c c83d b953 313d ff21 683d e284 c93d
00000300: d45d 973d 1882 643d 8717 44bd 507a 123d
00000310: 1d7e 3f3d 517b 69bd a2c6 9d3d 27d5 2bbd
00000320: 5ed5 9f3d 82e7 e33c 0b16 59bc 1737 2d3d
00000330: a223 bdba 587d 4c39 529c ae3d 9051 7abb
00000340: ce94 6e3b c122 2cbd bf8e 55bd 39cd 4a3d
00000350: 0985 b1bc ee33 13bd 37c5 2d3d a598 253d
00000360: af69 9d3c 131b b13c 5c33 90bc 8827 863c
00000370: d085 5c3c db0a 6c3b 1e55 bcbc ee87 db3d
00000380: a333 823d 7f66 963d 7515 7e3d dbf9 43bd
00000390: d3cc 893b bc55 aabc ede5 9fbc 2596 c33c
000003a0: 4ab3 a23c 502b 28bc 6d22 cbbd 5117 ce3c
000003b0: 62a1 9ebc cda1 9cbd e553 76bd a852 2c3d
000003c0: 3086 f2bc 1f0e bc3a f865 06bb de57 00bd
000003d0: ade3 9c3d 348f 02bd f141 36bd 0407 3a3d
000003e0: 9960 913d 86e9 9cbd 4dcb 50bd 62b5 8bbd
000003f0: 043a 18bc d21a d2bc 7691 ca3d 6d44 94bc
0.013375964 -0.043693084 -0.065278485 0.033056635 0.04382177 -0.05973765 0.05303986 0.05660492
-0.08766032 0.016784059 -0.06367961 -0.01657591 -0.08397162 0.06564496 0.032085396 -0.027070614
0.015953848 -0.0048152455 -0.070123926 -0.02040831 0.03407676 -0.026274486 0.037919663 0.052200146
0.07634337 0.01958007 0.020974737 0.01467715 -0.004333006 -0.016983537 -0.0018197305 -0.043038562
0.06507258 0.07399821 0.090446286 0.1018706 -0.050635785 0.024189303 0.031818215 -0.068007015
-0.0066092713 0.001729252 0.027935905 -0.07730291 -0.08021273 0.02658289 -0.024418354 -0.046172623
0.021388724 -0.095669724 -0.009992766 -0.004988893 -0.04381467 0.054630432 0.0037143829 0.06511446
-0.077053 0.094779484 0.042428616 0.07014923 0.014225269 0.05599175 0.06541666 0.036200568
0.038926024 0.028235726 -0.1042187 0.017331969 0.027896792 -0.08629746 0.02896369 0.023684226
-0.10422777 -0.052833382 -0.08335048 0.048437744 0.015535439 0.033144686 0.062576465 -0.026259786
0.04082742 -0.0074431496 -0.014018314 0.027294757 0.01590261 0.053422697 0.06587903 -0.05958226
-0.03271773 -0.0009056905 0.09749189 0.067054786 0.045344915 0.014636611 -0.013586174 0.0003464446
0.046503067 -0.05473526 -0.10192712 -0.03828566 0.04462283 0.07100669 0.05998165 0.056685064
-0.005207438 -0.025767244 -0.08594409 -0.038881313 -0.008834602 0.026802765 -0.027418403 0.043928888
0.0040078 -0.034566794 0.031734977 -0.02257839 0.037654877 -0.040656373 -0.095412366 -0.031103373
0.028082522 0.06966697 0.05018988 0.029666338 -0.092775285 0.051543422 -0.070045054 -0.00886885
-0.06014852 0.071147576 -0.017378025 0.0062648435 0.01092951 0.0022175687 0.02688731 0.0684574
0.063707724 -0.0760159 0.024417797 0.018780597 -0.042516336 -0.048053473 0.018760344 -0.062241398
-0.04667883 0.07976237 0.049288247 0.032812156 -0.035917684 -0.03708886 -0.034553126 -0.036436573
0.009100592 -0.04129794 -0.0034484714 0.026481282 0.09406068 0.050267026 -0.043888375 0.0748917
0.025831003 0.07553227 0.10375629 -0.006093883 -0.060767025 0.07926119 -0.05689675 0.06911201
0.014822856 -0.039903224 -0.0023924734 -0.026594287 -0.05983868 0.07785477 -0.020486167 0.013828404
-0.035579525 -0.010522028 0.069162525 0.11717815 0.09739232 0.06411997 -0.0024550396 0.08206815
-0.0079131955 -0.07875885 0.007660769 0.029632168 0.097893395 0.043292735 0.056673046 0.098397985
0.07390943 0.05578813 -0.047874 0.035761178 0.04675113 -0.05700237 0.07703902 -0.041951325
0.078043684 0.027820352 -0.013249884 0.042288866 -0.0014430175 0.0001950165 0.085259095 -0.0038195588
0.0036404612 -0.04202533 -0.052138086 0.04951212 -0.021669881 -0.035938196 0.042424407 0.040428776
0.019215433 0.021619355 -0.017602615 0.016376272 0.013459638 0.0036017213 -0.022989806 0.10719286
0.06357505 0.07343768 0.06203218 -0.047845703 0.004205325 -0.020792834 -0.019518817 0.023875305
0.019860882 -0.010264233 -0.099186756 0.025157603 -0.019364063 -0.076480485 -0.0601386 0.042071015
-0.029605001 0.001434747 -0.0020507555 -0.031333797 0.07660613 -0.03187485 -0.04449648 0.045416847
0.07098503 -0.076617286 -0.050975133 -0.068217054 -0.009291176 -0.025647555 0.09891026 -0.018099034

lstm1.weight_hh_l0 f4 [512, 128]
00000000: af09 8e3c 8876 853d a902 03bd 2c29 5cbd
00000010: 0a66 90bd 5c86 9a3d 8f6d cebc 86bd 6dbd
00000020: 982e 88bd ca75 65bd 9e9b 6c3d 0fda 8dbd
00000030: 7eb9 0b3d 8934 72bd b99e 79bd 89b5 553d
00000040: 82cf b9bd 232c 7fbd 457b f73c 8fda 78bd
00000050: 7b99 333d 17ca 9bbd b30b ab3d b8d0 9ebd
00000060: d431 24bd 2214 a1bd 5679 8ebc dce7 7e3d
00000070: 23f7 19bd 19bb 343d 26cc b5bc 36d8 34bd
00000080: 09ad 5d3d f78d 763d 0542 45bd 24b5 a1bd
00000090: e532 85bd 0a5b 50bd cfcb 9f3d e090 6c3d
000000a0: 9640 38bd a4eb 83bd 12e4 73bc 1968 c0bd
000000b0: c542 28bc 225a 44bc 5ed9 a63d 231f fb3c
000000c0: 7324 32bb bf01 acbd ea6b 85bb a6f7 1abb
000000d0: 8691 52bd 1a01 903c ab33 823d 2ec6 1c3d
000000e0: a87e 44bd bd73 bcbd 0912 12bd cfaa cebc
000000f0: 5c0f 8bbd 6f67 77bc 38a5 71bd d472 993d
00000100: d40c 91bd 6696 4cbd 2d3e 87bd fe44 593d
00000110: 0d93 d3bc 4366 973d e0ec 793d cc16 753d
00000120: 0076 f63c 4484 453d 2caf 70bd 8c20 7a3d
00000130: 8550 a73c 9605 8e3d 73fb 7e3c ce78 8bbc
00000140: 5874 2e3d c708 61bc 1670 b63c 310a 00bd
00000150: 6137 a8bd b7e0 83bc a7a8 39bd a340 89bc
00000160: 3e77 43bd 7d77 683d 9a17 9e3d 0c7b 643d
00000170: 91e5 99bd f3b8 343d 9341 92bd 32bd 103d
00000180: a199 85bd 12eb 58bc fe01 1e3d fb5b 153d
00000190: 1d7e 5b3d a3ba c83b 0a2d 823c a69d db3c
000001a0: ef04 bb3d 88c6 c1bc 5faf 073d d2ed 73bd
000001b0: 8d45 dd3c 2e0a 713d 1c22 38bd 8002 8cbd
000001c0: 45d3 553c 7f8e a43d 97cc 343d 86c8 f63c
000001d0: a2ff 96bd 7d54 8ebd 2115 68bd 80a9 a7bc
000001e0: 2844 3abd 91fa 7cbc 90cc a03d 1794 4f3d
000001f0: 8d4d 8a3d bead 18bd 686a 0d3b 5f7d c63d
00000200: af5c 95bd 78b7 e13b ecf9 ccbc 5548 91bc
00000210: 59d1 0fbd 6f00 023c 6c06 44bd d525 79bd
00000220: 7a23 673d de8e 3dbd f8b7 a13d 781c 9c3c
00000230: 7c14 5cbd 2c77 943b 3e86 2fbd 8776 c6bd
00000240: d745 ff3c 11da 553d ba61 553d 6b74 5d3b
00000250: bb27 9bbd 0294 59bb f50f f1bc cb26 19bd
00000260: d947 b93b 9c3d 1f3d 48bd 523d e80a 293c
00000270: 759e d4bc 37b3 673d b523 55bd f303 27bd
00000280: b0a3 8e3d 96bd cd3d 1c91 653d 50f3 b33d
00000290: 8a27 063c d8b7 d0bd a4f0 2e3d 0588 973c
000002a0: c5d6 1ebd 0f62 1dbd d9b5 7bbd e5eb 9c3b
000002b0: e904 70bd 3a22 aabd fe8e 17bc 0bc0 773d
000002c0: 33a1 053c e95b 643c db80 203c 2e79 453d
000002d0: 49e2 78bd ff9a 883d a7b6 90bd f6ab 8bbb
000002e0: 2e63 75bd 7dce 643d 2b5c 23bd 3e69 0d3b
000002f0: aad4 6a3d bb19 87bd 1f8d ddbd da7d 443d
00000300: dca6 863c b15c 21bd 91c9 8c3d 9cff 30bd
00000310: 3e9b aa3c ec16 bf3c 12ae 63bd 042e 85bd
00000320: e584 ef3b 4859 8d3c 56bc 3c3d 12a6 553c
00000330: 1ee7 93bd 2af9 b2bd 2047 a83d c68a 3ebd
00000340: 367d 91bd 42fc 80bb b28b 0c3d 3891 9a3d
00000350: 40d4 7cbd 69e6 bc3d 1c70 223d 30ee 54bd
00000360: 7a7d d53d 9b32 163c 0b59 c43d a9c5 3e3d
00000370: 13af 0abc f400 e0bc 6ddb ae3d 4750 53bd
00000380: 0625 9abc 3380 3ebd 381e 0c3d ea59 9438
00000390: 5761 a5bc 1ce8 25bd 1d46 843d 5d55 9a3d
000003a0: 3c48 28bd 7645 83bd d7c5 8c3d 69dc 94bd
000003b0: 0092 7cbd 1b7b b3bd 3a85 8a3c a422 823d
000003c0: 14de 6d3d b01b 933a 878f d7bd f051 9e3d
000003d0: b12b a1bd 9594 303d 6826 db3d 1f86 c4bd
000003e0: 6935 033d a4b1 393d 882e 55bc ced2 b83d
000003f0: 0c24 ae3c 134a a13d 3c35 9d3c 5621 2dbd
0.017338602 0.06516749 -0.03198496 -0.053750202 -0.070507124 0.07545158 -0.025198726 -0.05804207
-0.06649512 -0.056020536 0.057765596 -0.06926357 0.034112446 -0.059132133 -0.060942385 0.05217508
-0.09072782 -0.06229795 0.030210147 -0.06075531 0.043847542 -0.07606905 0.08351841 -0.07754654
-0.040086582 -0.07865168 -0.017391842 0.062232837 -0.037589204 0.044123743 -0.022192072 -0.044151507
0.054120097 0.060193982 -0.048158664 -0.07895878 -0.06503848 -0.05086807 0.07802545 0.05775535
-0.04498347 -0.06441429 -0.014885919 -0.09394855 -0.010269825 -0.01198438 0.08146928 0.030654496
-0.002718237 -0.083987705 -0.0040717022 -0.0023646145 -0.051408313 0.01757865 0.06357511 0.038274936
-0.04797235 -0.09201763 -0.03566173 -0.025227932 -0.06790039 -0.015100344 -0.058995456 0.07492605
-0.07082525 -0.04994812 -0.06603656 0.05304431 -0.025826955 0.07392552 0.061016917 0.059836194
0.030085564 0.04822184 -0.058760807 0.061066195 0.020424137 0.06934659 0.01556288 -0.017025378
0.042591423 -0.013735003 0.022270244 -0.03125972 -0.08213688 -0.016098363 -0.045326855 -0.016754454
-0.04772114 0.056754578 0.077193454 0.05578141 -0.075144894 0.044121694 -0.071414135 0.03533668
-0.06523443 -0.013239639 0.03857612 0.036464673 0.053587068 0.0061257645 0.015890617 0.026808571
0.091318004 -0.023654237 0.03312623 -0.059552975 0.027010703 0.0588476 -0.044954404 -0.06836414
0.013050859 0.080349915 0.044140425 0.030124914 -0.07372977 -0.069497086 -0.056660775 -0.020466566
-0.045475155 -0.015440599 0.07851517 0.05067834 0.06753073 -0.03727507 0.0021578316 0.096918814
-0.072930686 0.0068883263 -0.025021516 -0.017734686 -0.03511176 0.007934674 -0.047857687 -0.060827095
0.056430317 -0.046278827 0.078964174 0.019056544 -0.053730473 0.004530808 -0.042852633 -0.09690576
0.031161232 0.052209917 0.052095152 0.0033791314 -0.07575937 -0.0033199792 -0.029426554 -0.03739051
0.005654317 0.038877115 0.051450044 0.010317542 -0.025954464 0.056567397 -0.052036006 -0.04077525
0.06964815 0.10045926 0.05604659 0.087866426 0.008188138 -0.101913154 0.04270996 0.018497476
-0.03877904 -0.038423594 -0.06145272 0.004788863 -0.058598433 -0.083073094 -0.009250401 0.06048588
0.008156109 0.013937929 0.009796347 0.04821127 -0.060762677 0.06670188 -0.07066088 -0.0042624427
-0.05990904 0.055860985 -0.03988282 0.0021577622 0.05733172 -0.065967046 -0.10817932 0.047971584
0.016436987 -0.039395038 0.06874383 -0.043212518 0.020825978 0.02332636 -0.05558593 -0.065029174
0.0073095434 0.017254487 0.04607805 0.0130400825 -0.072218165 -0.087389305 0.08216691 -0.046519063
-0.0710396 -0.0039363215 0.03431291 0.075472295 -0.061725855 0.09223635 0.039657697 -0.051984966
0.104243234 0.009167339 0.09587296 0.046575222 -0.0084645925 -0.027344204 0.08537946 -0.05159023
-0.018816482 -0.04650898 0.034208506 7.073938e-05 -0.020188017 -0.04050456 0.064586855 0.07535813
-0.041084513 -0.06409733 0.068736725 -0.072686024 -0.061662674 -0.08763715 0.01690923 0.063542634
0.05807312 0.0011223461 -0.105254225 0.07730472 -0.078696616 0.04311045 0.10700685 -0.09595894
0.032033358 0.045335427 -0.013011582 0.09024583 0.021257423 0.07875457 0.019190423 -0.04226812

lstm1.bias_ih_l0 f4 [512]
00000000: 0d07 8e3d 6bd5 4d3d 0f75 c4bc ddf3 4e3c
00000010: 4536 9ebd 5a4b 843d 096e 053d d8e5 983d
00000020: 6057 9a3d 5e87 493d db95 c93c b06f f2bc
00000030: e4d7 a33d 4892 b0bd 70ca 7039 9430 353d
00000040: 9ab6 83bb 848e b23d af49 52bb 28aa 5d3c
00000050: b907 863d 8ed4 863d eaf2 c53c 597c 623d
00000060: 4724 4ebd 3547 ecbb d136 c0bd d353 4ebd
00000070: 8f04 99bd 06ad 85bc 2b20 afbd 16af 5cbd
00000080: d467 9d3c ec9c e9bc fad3 903d 98bd a03c
00000090: d011 4c3b 238c fcbc a170 793b 7390 82bd
000000a0: 2f08 203d b998 c7bd 438f 98bc 74b7 b2ba
000000b0: 666f 733c f3da 863d 085c 19bd 76cb aabc
000000c0: 0b94 1cbd d778 263d 13b0 b5bd b5d1 99bd
000000d0: bdde a03c d53a abbc c210 c73c b396 2abc
000000e0: 830a 62bd 3d0e 173c b080 47bd d044 863d
000000f0: eaaf a53c 5b2c 2d3d 2fa1 993d dd33 15bb
00000100: 19af 293c bd14 ccbd 1003 923d d9db 4b3d
00000110: cfcc 15bc 1897 f13c 2b5c 05bd 65d5 ba3c
00000120: 2dee 943d bb7c 993b c1fe 6cbd 84e0 c9bc
00000130: 6d08 8dbd 49ce a4bc b390 82bd 6044 90bd
00000140: 6a55 383d 705d 89bc b109 d23c 5da1 8fbb
00000150: 3d5d 9bbd d62c c33c e490 57bd c8e9 8cbd
00000160: 6ee8 06bd 024f 7f3d fc63 5ebd fc84 7dbc
00000170: 7e48 8a3d 2531 8f3c ffee c03d 746f 46bd
00000180: 0142 5c3c 72b3 913c 0630 4dbd aa1f 0abc
00000190: a6f2 2fbd 7384 643d 51e0 aa3d 17bb a6bd
000001a0: 459a 393d 2045 953d 88ae 873c 2fba a5bd
000001b0: 3143 8b3d 7687 413d 23ff 3c3c 6371 b4bd
000001c0: a15c 813c 7343 14bd 14f1 5cbc 4798 4c3d
000001d0: e468 803d 68d4 813a 0159 f2ba fb5c 5d3c
000001e0: a3c5 af3d bb01 5c3d 363d 42bc e55f a03d
000001f0: 2376 713c f736 a5bd cb13 bc3b 28a9 9d3c
00000200: 8af6 5c3d ab52 93bb e4ba bcbb 3a8c 0b3c
00000210: 02bb 563d 3abb 79bc 212c 953d 0537 6e3d
00000220: 055c 9bbc 285a e73c fda5 d4bd c682 a23d
00000230: 9acc 393d 1c9b 7dbb 6c22 6fbd 786b 73bd
00000240: 8e40 433d b38e 523d 66d0 6cbd 548e 0dbd
00000250: d1ef e63a 98a9 aabd 258f ed3c 5ba4 f7bc
00000260: abfd 8bbb f48b 903d 3041 183c 7c8b a3bc
00000270: d0ae abbb d993 9ebd ad56 a33c bd37 d2bd
00000280: e1b2 6d3c db9c c4bd 1588 a8bb 77b1 113b
00000290: 1122 86bd 4420 9c3c 8768 643d 6433 3a3d
000002a0: 88c7 113d 4c13 493d 847c 42bd ab9f b43c
000002b0: 3750 1fbc d112 bc3c 548b 923d 05ba 253d
000002c0: 23dd 5bbd cfd7 c5bd 4035 023d f093 6abd
000002d0: efa5 323d 9a19 623d 7380 6d39 87b9 3b3d
000002e0: 8ba3 a3bd 493a 91bd 92f4 7d3d 1ea9 b7bc
000002f0: e815 313c b030 453d f7fc fd3c 6a6d a93b
00000300: 7e70 a03d 057e d3bb f144 2c3d e7e4 7a3d
00000310: 69c6 c4bd c3ee 3dbd 57c4 3fbd 70a5 913c
00000320: 7ba4 853d a1ab 583c 4d52 b0bd 6ff6 683d
00000330: a00c c2bc 6869 4cbb 002d 163d c1c4 25bd
00000340: 46d8 063d 460f bdbd 25d9 313b 0aaf 5ebb
00000350: d9d4 973d d19e d8bc ff54 24bc f8b5 de3c
00000360: 0c6b 13bc d1be a13d 21be 4f3d 3d13 35bd
00000370: fe7f 8f3d 9763 ae3d cc8d 2a3c 1162 203d
00000380: 4997 86bd 5eb4 99bd e07a 21bc 0b68 ec3b
00000390: b70c 89bc d245 0a3d ac35 9dbd 2626 2a3c
000003a0: 98fb b23d 1ee0 903c 4a9b 8f3d f639 07bc
000003b0: 7711 553d 5bd1 143d 13e0 6ebc 280f 60bd
000003c0: e4f3 cbbb c1f0 a5bd 86da f73b 4a1a 763d
000003d0: 11e4 763d 0ecd 243d e40b de3d 3dea fc3c
000003e0: 6ed7 e53c 2a96 87bd 346e 91bd e910 763d
000003f0: 2525 0bbd cdfc 4e3c e668 193d e561 3aba
0.069349386 0.05025236 -0.0239816 0.012631384 -0.07725195 0.06459685 0.03257564 0.07465714
0.07536197 0.04920136 0.02460759 -0.029594272 0.08000162 -0.08621651 0.00022963597 0.04423578
-0.0040195705 0.08718589 -0.0032087376 0.013529338 0.06544442 0.0658351 0.024163682 0.05529437
-0.050327566 -0.007210637 -0.093854554 -0.05037291 -0.074715726 -0.016317856 -0.085510574 -0.053877912
0.019214548 -0.028517209 0.07071681 0.019621655 0.0031138547 -0.030828541 0.0038061517 -0.06375208
0.039070304 -0.097459264 -0.018623 -0.0013634996 0.014858102 0.0658473 -0.037441283 -0.02084897
-0.038227122 0.040642586 -0.08871474 -0.075107016 0.01963746 -0.020902077 0.024299983 -0.010411906
-0.055185806 0.009219703 -0.04870671 0.06556094 0.020225484 0.04227863 0.075014465 -0.0022766509
0.010356688 -0.09964893 0.071294904 0.04977021 -0.009143068 0.029490992 -0.0325586 0.022806833
0.07271991 0.0046840585 -0.05786014 -0.02464319 -0.06886373 -0.020117896 -0.063752554 -0.070442915
0.045003332 -0.016768187 0.025639387 -0.0043832497 -0.07586143 0.02382509 -0.052628413 -0.06880528
-0.032936506 0.062331207 -0.05429457 -0.0154736005 0.06752108 0.017479489 0.09420585 -0.048446134
0.013443471 0.017785762 -0.050094627 -0.008430401 -0.042956017 0.055790376 0.08343566 -0.08141153
0.04531314 0.07288575 0.016562715 -0.08092152 0.06799925 0.047248326 0.011535439 -0.08810689
0.01579124 -0.036197137 -0.013485212 0.04994991 0.06270006 0.0009905221 -0.001848966 0.013510938
0.08582618 0.053712588 -0.011855414 0.078307904 0.014737639 -0.08067124 0.005739664 0.019245699
0.053946055 -0.004495939 -0.005759584 0.008517319 0.05242444 -0.015242392 0.072838075 0.05815794
-0.018964777 0.028241232 -0.10383222 0.07935099 0.04536114 -0.0038697189 -0.058382437 -0.059428662
0.047668986 0.05140562 -0.05781593 -0.034559563 0.0017619078 -0.08333129 0.02899892 -0.030229738
-0.004272183 0.07057944 0.009292886 -0.019963972 -0.005239345 -0.077430435 0.019938791 -0.102645375
0.01450798 -0.0960023 -0.0051431754 0.0022231021 -0.065494664 0.019058354 0.055763748 0.045459166
0.03559068 0.04909067 -0.04748203 0.022048792 -0.009723715 0.022958191 0.07155481 0.040460605
-0.05367769 -0.09660303 0.031789064 -0.05726999 0.043615278 0.055200197 0.00022649932 0.04583123
-0.07990178 -0.07091195 0.06200082 -0.022419509 0.0108084455 0.048142135 0.031004412 0.005170514
0.07833956 -0.0064542317 0.042057935 0.061253455 -0.09608156 -0.04637028 -0.046818104 0.017779082
0.06525513 0.013224513 -0.08609448 0.056875642 -0.02368766 -0.0031190757 0.03666401 -0.040470842
0.0329211 -0.09231429 0.0027137485 -0.0033978843 0.07413644 -0.026442917 -0.01003003 0.027186379
-0.00899769 0.078977235 0.05071843 -0.0442078 0.070068344 0.08515089 0.010409784 0.039156023
-0.06571824 -0.075051054 -0.009855956 0.0072145513 -0.016729696 0.033757992 -0.07676253 0.010385072
0.08739394 0.017684992 0.07012041 -0.008253565 0.05201861 0.03633247 -0.014579791 -0.054701954
-0.0062241424 -0.08102561 0.007563892 0.060083665 0.060276095 0.040234618 0.10842112 0.030873412
0.028056826 -0.066204384 -0.07101098 0.06007472 -0.03397097 0.012633515 0.037453555 -0.00071099243

lstm1.bias_hh_l0 f4 [512]
00000000: ed67 a83d f3c5 c43c 4111 1f3d 03ad b73d
00000010: 02a2 b0bc 1134 7c3c 6ecf 9f3c d45e 6bbd
00000020: 9446 97bc 30f3 d0bc 84b7 9abd d0ba 9f3c
00000030: 4358 d5bb 83b0 893d a3cd 583d 6063 323d
00000040: 24ac 693d e454 a2bc ba2d e2bb 2fe0 a03d
00000050: 952c abbd 2e9b 863c aabb 69bd 5ad8 983d
00000060: cbd3 983c 1a1e d13a 3e7b 5dbd 8d7b 57bc
00000070: 3e27 d1bc b4ff 91bc a64d 74bd 8474 aebd
00000080: 580c debc a648 75bb f1f8 933c 9930 b9bd
00000090: a67d 39bd 4149 003d d5cd e7bc 761b 163d
000000a0: 39b8 653d bbdf 7e3c e1dd b0bd d4c7 993d
000000b0: 9def 21bc e2fa c1bd b2d8 24bc c21c 83bd
000000c0: d5c4 b2bd 9a2a d5bc 121f ef3a 5dfa afbd
000000d0: b081 24bd b7a8 ecbb 04a1 91bd 695d 5bbd
000000e0: 6a7d 82bc c5a3 453d 40a1 253d ca7d be3d
000000f0: 273e 133d c517 7fbd 9e7c 9a3d 1136 08bd
00000100: be52 a73c cc72 c93c 017b 713d fc25 aebd
00000110: b5c7 cf3b 35e5 993d 4796 873c a8aa 75bd
00000120: edda ddbb 1f32 a73d ec6c 943b 61f7 09bd
00000130: 8513 2abd 1840 a2bd 4956 4d3b 531c efbc
00000140: e9ed 263d abfa 0bbc 835f a8bd 4071 bb3c
00000150: 4a4e 4ebd 6584 273d 0e54 0fbd e5fa 37bd
00000160: ccf8 5bbd 82bb 4d3d f2d9 b03d ec37 97bc
00000170: 0337 863d 8ab9 18bb effb 223d 703b b8bd
00000180: c9c4 5b3d a6e1 943d 302a af3d fd4d 823d
00000190: 9657 823c dd74 803d 4b15 7abd 5ff4 1abd
000001a0: 6fc4 c83d ca36 bbbd 090a 293d 49da 7ebd
000001b0: 3d6a 95bc 043a e73c c239 9dbd 21a4 8bbc
000001c0: 4a5f 803d 0a99 7abd ef9a 8dbd df72 133c
000001d0: 4c19 a5bd af0e 0abc 7dd2 2e3d 7078 8ebb
000001e0: fab7 48bb 64be 10bd d430 293b 8711 e2bc
000001f0: 19f4 b7bd 6144 673d 4e6f b53b 2492 333d
00000200: f737 8a3d abec 0b3c 8f0f 0c3d 8558 ac3d
00000210: 2237 42bd f1dd a9bd 932a 59bd 4920 a0bd
00000220: b62c b1bd 13bb 94bd a6a5 e4bc 4ffb d43c
00000230: d1f5 b03c 78d4 30bc 2643 83bd 7f21 4d3d
00000240: a24e 97bd 6d19 9d3d d863 e13b bc6d 613d
00000250: 99bd b63c f4c3 393d 47a2 99bd c3d8 94bc
00000260: fa67 0d3b f166 0abc 52fa 013d 66fe 7b3d
00000270: b715 a2bd dd5d 9b3d 037e febc 1fb3 473d
00000280: 974d 303d 11a4 c93b 8332 f73c 53a1 3d3d
00000290: 3491 98bd 1e8f 973d 7fef 94bc 5530 303d
000002a0: d526 90bd d5a5 a9bd f972 54bd 38a3 2ebd
000002b0: 9f3e 213d d941 5bbd b8e9 b2bd b793 95bd
000002c0: 9849 903d 3acc 80bd d669 b33c 63a9 fdbc
000002d0: e9ef c03d 3ae6 36bd 107b 9f3d 8073 48bd
000002e0: 512b b5bd 2807 c4bc 086f 843d ac7b e83c
000002f0: d8d0 fc3c 4a61 383d 44b1 79bd ad3b b1bc
00000300: 938e 77bd 9cb4 debc 241d c13d 3818 b8bd
00000310: 7dec 973c fb94 903d 11df 323d cb0e 893d
00000320: b452 413c a27e 5a3d 42e5 50bc 31ee 9d3d
00000330: e769 cebc ddfd 90bd 327d 953d 387c 853d
00000340: 1713 6d3d e9ba 16bc b33d 233c 14e1 533d
00000350: f720 f4bc 92e8 093c 9e9e 513d bb8f 82bb
00000360: 6e87 743d bd41 ac3d d10e 3f3d a4bc cfbc
00000370: 40ed 013d aa5b 8dbd 692e 4d3d f4b2 b53c
00000380: 3335 8abd 9c48 553d 4f98 413d 9284 273d
00000390: b4c9 98bd 25a9 9fbd 529e 2fbd 2a0b 143d
000003a0: b89d feba 2cfe 91bd cba0 13bc 4ad1 54bc
000003b0: 8d67 083d 236e 833d f737 97bd 6317 71bd
000003c0: 4bbe 8abd 2650 67bb e3e2 9abd 8e0c 613d
000003d0: c326 8c3d 423a 323c c055 943c 9836 a73d
000003e0: 7609 b23c d58e 813d 1cf8 753d aabb 823c
000003f0: 5cc5 913d 3ab7 753d d6a9 c43c 2e1e 9abd
0.08222947 0.02402017 0.038834814 0.08968546 -0.021561626 0.015393273 0.01950809 -0.057463482
-0.018466271 -0.025506586 -0.07554534 0.019498259 -0.0065107658 0.0672312 0.052930485 0.043551803
0.05704893 -0.01981587 -0.0069024237 0.078552596 -0.08358113 0.016431417 -0.057063736 0.07463141
0.018655678 0.0015954406 -0.05407261 -0.013152015 -0.025531407 -0.017822124 -0.059644364 -0.08518317
-0.027105495 -0.0037427335 0.01806304 -0.090424724 -0.045285843 0.03131986 -0.02829639 0.036647283
0.05608389 0.015556271 -0.0863607 0.07508817 -0.009883788 -0.0947168 -0.01006143 -0.064019695
-0.08728949 -0.02602129 0.0018243513 -0.08592675 -0.040162742 -0.007222261 -0.071107894 -0.05355588
-0.015928943 0.048251886 0.040436983 0.09301336 0.035947945 -0.062278528 0.075433 -0.033254687
0.020425197 0.024590872 0.058955196 -0.08503339 0.0063409456 0.07514421 0.01655115 -0.059977204
-0.0067704828 0.08163857 0.004529586 -0.033683185 -0.04152252 -0.07922381 0.0031331948 -0.02918831
0.040754233 -0.008543651 -0.082213424 0.02288115 -0.05036763 0.040897746 -0.03499227 -0.044917006
-0.053704068 0.05022765 0.0863532 -0.018459283 0.065534614 -0.002330395 0.039791044 -0.08995712
0.053654466 0.072696015 0.085529685 0.06362531 0.015910905 0.0627229 -0.061055463 -0.037830707
0.09803092 -0.091413096 0.041269336 -0.06221989 -0.018239135 0.028225906 -0.07677032 -0.017046036
0.06268175 -0.061181106 -0.06914317 0.008999555 -0.080614656 -0.008426352 0.042681206 -0.0043478534
-0.0030627237 -0.03533782 0.0025816457 -0.027596248 -0.08982105 0.056461696 0.00553695 0.043840542
0.06748956 0.008540313 0.034194525 0.08415321 -0.04741586 -0.08294285 -0.053019118 -0.07818658
-0.08651106 -0.07262244 -0.027911019 0.02599874 0.02160159 -0.010792844 -0.06409292 0.050080772
-0.07388045 0.07670865 0.0068783574 0.05503629 0.022307204 0.04535289 -0.07501655 -0.018169766
0.0021576867 -0.008447395 0.031732865 0.06152191 -0.07914298 0.075862624 -0.031065946 0.048754808
0.043042745 0.0061535914 0.030175453 0.04629643 -0.0744957 0.07400344 -0.018180607 0.043014843
-0.070386566 -0.08283583 -0.05186746 -0.042636126 0.03936636 -0.053529594 -0.087359846 -0.07303565
0.07045287 -0.06288953 0.021901052 -0.030964559 0.09420759 -0.044653155 0.07787144 -0.048938274
-0.088461526 -0.023929194 0.0646649 0.028379284 0.030861303 0.045014657 -0.06096007 -0.021634901
-0.060438704 -0.02718573 0.09429386 -0.08988994 0.018545384 0.07059666 0.043669764 0.06692275
0.011799503 0.053343423 -0.012749972 0.07711447 -0.025196983 -0.070796706 0.0729927 0.065178335
0.057879534 -0.009199836 0.009963441 0.051728323 -0.029800875 0.0084172655 0.05117666 -0.003984419
0.05969947 0.08410976 0.04664499 -0.025358506 0.0317204 -0.06902249 0.05009309 0.022180058
-0.06748428 0.0520712 0.047264393 0.040897913 -0.07460347 -0.07795934 -0.042875595 0.03614346
-0.0019425666 -0.071285576 -0.009010504 -0.0129893515 0.03330188 0.06417491 -0.07383721 -0.058860194
-0.06774577 -0.0035295575 -0.075628065 0.054943614 0.06843331 0.010878148 0.018107295 0.0816471
0.021733027 0.06326071 0.06005107 0.015958626 0.071177214 0.05998919 0.024006765 -0.075252876

lstm1.weight_ih_l0_reverse f4 [512, 6]
00000000: 6c15 833b f906 1f3d f627 583d 5f09 973d
00000010: d231 803d 2877 903d 5ee2 8abd c609 90bd
00000020: 9cdd 4a3c 9230 723d 9381 aabd 62fd f4bb
00000030: cb08 91bd 95dc cebc 0b5c 92bd 9cd7 aa3d
00000040: 3520 953c d129 f13c 8109 a43d 4d58 813d
00000050: c5e8 1c3d 2642 9bbd 0662 27bd 2e89 8cbd
00000060: af15 ccbd 1b15 94bd 48ae 4fbc a74c a6bd
00000070: 0c90 263d ea73 5e3c a9af 643d cbc0 66bd
00000080: 04b6 c4bd 05b0 96bc 8ffe 92bd b135 17bc
00000090: 284a 06bd 836e 21bb e3b9 993c 01dd 1c3c
000000a0: c5ec ca3d dcf0 833d 8acc e4bc 47f5 d3bd
000000b0: 935f b5ba d5c6 f7ba 9c7d 8a3c 2c74 9abd
000000c0: 9ed8 193d 50bf 11bd 7a81 6a3d 673d 81bd
000000d0: 00cc 92bd 1564 0d3d 44f4 17bb 8f73 9dbd
000000e0: e021 eabb 7700 b3bd cf55 bc3c 6da2 90bd
000000f0: d33a 0fbb 5bd2 d0bc 4a43 30bd d59c 373d
00000100: 8f25 fd3c 8bff 443d f601 57bd 0c3b 043d
00000110: d806 883c 4919 14bd 4aea e93b 52a6 1c3d
00000120: df9c a7bd 683e a4bd 8851 a8bc e03e 493c
00000130: dd68 6b3d dd24 84bb e6b7 823d 5702 9bbd
00000140: 22d4 903d ae41 14bd 3e62 ce3d 6e93 713d
00000150: c18d 1abd d12f 69bd 029e 533d 698b 8a3d
00000160: 2b21 ecbc 537e 21bd 21ed 213d fba2 38bd
00000170: 1919 923d 68f1 c6bb e790 703d dc47 b43d
00000180: bf98 193d 46a9 e5bc 84b5 2abc 14c4 a7bc
00000190: bc67 66bb 84d2 103d 2ac6 ab3d e63d e33c
000001a0: 0e7b c43c 7b9a 75bd 51ed adbd 476a a0bd
000001b0: 1528 033d f2bc 303d a608 71bd ae97 6fbd
000001c0: 7600 b33d 976b 2abd cb7d 8ebd e46b b13d
000001d0: a951 c03d 2399 f43b 7a2e aebd 3c24 813d
000001e0: 27e5 4c3c bdef 9eba 0521 743d c759 ebbd
000001f0: 0c22 81bd 426d c2bd cc88 523c 8d6b 4d3d
00000200: 8b39 d83b bd17 e83b 0dae b03b 14d2 bcbd
00000210: 397c 05bc f0d0 413d ba34 8a3d 6592 46bc
00000220: 73b9 8fbd 5f2f d13b 0835 8bbd df5e 8c3d
00000230: 8032 9fbd 26d6 f43c 81f1 7e3c 25ad f0bb
00000240: 1a29 523c 5247 3fbc 8ed2 a4bd 2cc9 023c
00000250: d152 9cbd 9057 1f3d 8422 973c e97d 8a3d
00000260: 7fde 4fbd 2037 393d 2aaa 363d 6a0f b53d
00000270: cf92 e4bc 70e9 ae3c 4483 9f3d d230 c03d
00000280: 32dc 2abd 19d7 953d bd33 893c 6c01 96bc
00000290: 2615 edbb 10d8 36bd a6c8 67bd 8e8c 353d
000002a0: a226 10ba f190 b8bd 7dab a7bd 0aab 67bd
000002b0: 46b3 863c 341a dd3c 7328 7fbd a7d8 38bc
000002c0: 87b8 77bd 7230 c1bb 4d68 743d e4f6 b8bb
000002d0: cf74 6cbd 1ba9 df3c ac01 a9bd b24f 94bc
000002e0: 05c3 cb3b 9407 5d3b 4ca0 0c3d 4bc9 bbbc
000002f0: 1ddb 6cbd 2d27 393d 03f3 2b3c d8df f83c
00000300: 7b4c 583c c4bf dbbc ae3d 243d 43d8 1fbd
00000310: 4f04 05bc 6bc8 fa3d f181 7ebd 91ea b8bb
00000320: 51ec 203d 1e67 0b3c 55e7 073c 4668 93bc
00000330: d35c abbd fd10 993c a4a3 15bd 7eec 4fbd
00000340: 8974 713d 8439 f53d 2fe8 ba3c b36c 96bd
00000350: b06e 853d c6ed 5abd 4ed9 653d d51c 9cbc
00000360: 6b8b 0dbd 1294 9cbd 2c7b 6c3d fc17 7cbd
00000370: f061 17bd 7b11 2d3c a9ba 5ebd 3b8e bd3c
00000380: cf20 a3bb c4a2 1c3c 9fca f4bc 6d7c 04bd
00000390: b94a 82bd 65cd 803d 8dce f4bc 8b7c 37bb
000003a0: 6965 853c ff1e 903c 6549 b63c 2279 723d
000003b0: 004f 103d edf1 d33c 90a7 18bd 2e6d 43bd
000003c0: 9aba 64bd 7910 563d 10e5 453d 079a 8fbd
000003d0: 922e 7c3d 1917 563d c494 28bd 24e4 753c
000003e0: 13ee e4bc 2af0 8cbd 0f3d a7bd 41b6 693d
000003f0: 4dd6 d13c 3575 353d 1a6f 8cbd 2fcb 88bd
0.0040003564 0.03882501 0.052772485 0.07374834 0.062595025 0.07053977 -0.06781457 -0.07033114
0.012381937 0.05912835 -0.083254956 -0.0074764946 -0.07081755 -0.025251666 -0.07146462 0.083419055
0.018203834 0.029438885 0.08009625 0.0631567 0.038307924 -0.07580976 -0.040864967 -0.068621024
-0.09965073 -0.07230588 -0.012675829 -0.08120089 0.040664718 0.013577441 0.055831585 -0.056336205
-0.09605029 -0.01839448 -0.071774594 -0.00922911 -0.032785565 -0.002463252 0.018765396 0.009574176
0.099084415 0.06442425 -0.027929563 -0.10349517 -0.0013837687 -0.0018903861 0.016905598 -0.07541689
0.037560098 -0.03558284 0.057252385 -0.0631054 -0.07167816 0.034519274 -0.0023186365 -0.07688057
-0.0071451515 -0.08740323 0.022990135 -0.0706223 -0.002185513 -0.02549093 -0.04303292 0.0448273
0.030901698 0.048095267 -0.052492104 0.032282874 0.016604826 -0.036156926 0.007138525 0.038244553
-0.08184218 -0.080197155 -0.02054669 0.012283057 0.057473052 -0.0040327148 0.06382732 -0.07568806
0.07071711 -0.03619545 0.10077332 0.05897849 -0.037732843 -0.056930367 0.05166436 0.067648716
-0.02882441 -0.039427113 0.039532784 -0.045077305 0.07133693 -0.0060712583 0.05873194 0.088027686
0.037499186 -0.028034817 -0.010419253 -0.02047924 -0.0035157045 0.035357013 0.08387406 0.027739476
0.023984458 -0.059961777 -0.0849253 -0.07832771 0.032020647 0.043148942 -0.05884614 -0.058494262
0.08740322 -0.041606512 -0.06957587 0.08663157 0.093905754 0.0074645444 -0.085049585 0.06305739
0.012505806 -0.0012125891 0.059601802 -0.11491733 -0.06305322 -0.094934955 0.012849998 0.050151397
0.0065986565 0.007082908 0.005391842 -0.09219757 -0.008147293 0.0473184 0.06748338 -0.012119864
-0.070177935 0.006383821 -0.06797224 0.06854033 -0.07773304 0.02988727 0.015560509 -0.007344859
0.012827182 -0.011674719 -0.080479726 0.007982533 -0.076329835 0.038901865 0.018449076 0.06762297
-0.0507493 0.045218587 0.044595875 0.088408306 -0.027902035 0.021351546 0.07788709 0.09384312
-0.0417139 0.07316417 0.016748304 -0.018311225 -0.007235187 -0.044639647 -0.056587838 0.044323497
-0.0005498921 -0.090120204 -0.08187006 -0.0565596 0.016442906 0.026990034 -0.062294435 -0.011282123
-0.060478713 -0.0058956677 0.05966978 -0.005644666 -0.057728585 0.027302315 -0.08252272 -0.018104408
0.0062183165 0.003372644 0.03433256 -0.022923132 -0.05782615 0.045203377 0.01049495 0.030380175
0.013201828 -0.02682484 0.040097885 -0.039024603 -0.008118703 0.12245258 -0.06213564 -0.005643197
0.03928787 0.008508472 0.0082949 -0.017994057 -0.08367314 0.018684858 -0.036533013 -0.050762646
0.058949027 0.11973861 0.022815792 -0.073449515 0.065152526 -0.053449415 0.05611544 -0.019056717
-0.034556787 -0.0764543 0.057734653 -0.06154631 -0.036958635 0.01056325 -0.05437723 0.02313911
-0.0049782763 0.009560291 -0.029881774 -0.032345224 -0.063619085 0.06289176 -0.029883647 -0.0027997817
0.016283708 0.017592905 0.022251794 0.059197553 0.03523159 0.025872195 -0.037269175 -0.047711544
-0.05584202 0.052261803 0.048314154 -0.070118 0.06156785 0.05226812 -0.0411575 0.015008006
-0.027945554 -0.06881745 -0.08165943 0.057058576 0.025614882 0.04430123 -0.068571284 -0.06679379

lstm1.weight_hh_l0_reverse f4 [512, 128]
00000000: 1ac0 0c3c f09c 95bd b69b 97bd 3b3e bd3d
00000010: a731 80bd c83b 453d c544 283d 2666 03bc
00000020: f64a 983c 5707 debb e031 94bd e01c 3a3d
00000030: b993 9f3d 6276 9ebd 7ff0 6b3c d131 64bd
00000040: 06d2 14bd aeae 513d 655c 1abd df0a edbc
00000050: 6ac1 6f3d d107 4e3d a558 533c b4b1 9abc
00000060: 85a5 30bd b56d f1bc 0805 7cbd 7a62 0b3d
00000070: 795d 36bd 86d9 b33b 9f86 cabc 6b0d 4b3d
00000080: ed16 bb3d 04bb 4abb 6d29 cd3d 8880 95bb
00000090: bc8e f53c 6e14 54bd 432e 53bd d3a7 1c3d
000000a0: bbf3 9c3c 8c09 613d 54c4 133d 29ba 253d
000000b0: fc06 6d3d ca22 933d 6975 86bd 379e b8bc
000000c0: 5826 863c cb8f a23d c6c1 783d 7eb2 cabc
000000d0: 62de 883c 7bc1 5fbd e07c 9fbd 2037 7fbd
000000e0: c1c7 65bd 91a1 1f3d 936b 00bc ea11 cbbd
000000f0: 1c22 ad3d a5b4 fcbc 41e7 27bd e4f5 35bd
00000100: 3187 1c3d 5c89 403d 4f1b 1bbd 8842 bf3c
00000110: 22e1 c03c 706d 80bd 6287 063d c09a 873d
00000120: abe9 9cbc 2621 7abd dcef 1dbd 2c21 0ebd
00000130: fd29 0dbc 4d67 b9bd 6370 813c 4c18 06bd
00000140: 40a0 a9bd 8663 3c3d 1e3f 36bd d17a 73bd
00000150: 21f4 983b c719 a3ba d17f a0bd 617c 223d
00000160: cfbc af3c 3743 ce3d c9e2 503d ba6a 8c3c
00000170: 98a7 d33d 7d63 8b3d 310d 453c 940d 3fbd
00000180: 8a8c df3c ca7a f63c 590b 613d e0a3 af3d
00000190: f917 c63c e99b 2d3d 09ea 8cbd 903b 0bbc
000001a0: 15f1 e33c 56ab b83d 2a98 32bd 3251 48bd
000001b0: 285e 3e3c 198e a93d 316a a33d e3ff a9bd
000001c0: 8bed 113d 5292 db3c c9d9 1b3d b455 d7bc
000001d0: 1e00 82bd fdba b13d 7bb7 1c3d 88e6 6a3d
000001e0: cbe4 cabc 9ff6 d4bd 1ac2 52b9 96ea 4dbc
000001f0: 56c6 20bd 2b01 1f3d 9f9a 9f3d e931 743d
00000200: a915 03bc a803 92bd ffc3 08bd d324 573d
00000210: 17df 8a3d 9cf4 35bc 3b9d 97bc ef5e 323c
00000220: 17e2 69bd af4e 93bc e24c 4e3d 369e 8ebc
00000230: 8e0a 8abd 666d 993d b678 303d c73b 493d
00000240: 20bc 82bd 7517 56bd 02a9 38bd 360b cd3c
00000250: 902a aa3c fcc2 a1bd 3b3f 323d 88c8 65bd
00000260: 5489 a53c 9df9 d4bc 4be5 8d3d c69b a43d
00000270: c561 01bd a840 0f3d c8d9 963c de08 c3bc
00000280: 571a 8abd ba93 06bd a363 943c e55b 53bd
00000290: eb4d b3bd 0da3 443d 4a97 b43c 912a 013d
000002a0: f92b ebbb 33cf df3b 166f cc3c 1f64 943d
000002b0: 9ac6 2a3d 0ae4 a6bd f135 653d 945c 8abd
000002c0: 9ba9 a23d 710d 3e3d 11d3 30bd f257 973d
000002d0: ef23 eabc 29c5 47bd 52c2 e93c f3f2 a0bd
000002e0: d615 23bc 8e0a 113d c1f9 9f3d 5cfb 033d
000002f0: afe4 41bd 0818 1fbc 4c5f 90bd 8d05 223d
00000300: bca8 e03b 1a61 8bbd 95fe 923d d6f6 833c
00000310: 2a6b 353d fca0 5f3d c146 5ebd e168 bdbc
00000320: 6419 933d 5f28 223d a690 e03c 67f0 31bd
00000330: a472 aebd 2625 1e3d 9a67 1e3c 00ce 933c
00000340: a6e0 f43c 9111 44ba 2868 033c fd51 7e3d
00000350: dfda 79bd 3bcb 2c3d ac14 73bd 3e12 843d
00000360: 9f41 b03c 1858 07bd b824 e0bd bc12 5cbc
00000370: 40de 9d3d 3784 2a3c 27cc 103d a013 2fbd
00000380: ac54 eebc e2a1 533b 6916 643d 2571 353c
00000390: 99fe 2ebc 2ac3 90bc 1bfa 7ebd 7909 573d
000003a0: f311 33bc ac74 a4bc e778 83bd 4124 993d
000003b0: b2b6 953d 6b28 4d3d 3dd8 a33d 329f 8fbd
000003c0: df61 073c 5e47 8c3d e4d3 44bd 63c7 253a
000003d0: 08a5 713b 03fb cabc a804 2b3c 5531 80bd
000003e0: ab34 833b a3d7 3b3d e96d 62bd 1a7a 7cbd
000003f0: 5a7a 243d 4085 cb3c 486f c23d e307 c6bd
0.008590722 -0.07305324 -0.074027464 0.09240385 -0.062594704 0.048152715 0.04108121 -0.00801996
0.018590432 -0.0067757773 -0.072360754 0.045437694 0.07791848 -0.077374235 0.0144006 -0.05571157
-0.036333106 0.05119198 -0.03768577 -0.028935848 0.058534063 0.050300423 0.0128995525 -0.018883564
-0.0431266 -0.029471258 -0.061528236 0.03402946 -0.044522736 0.0054885773 -0.024722395 0.049573343
0.09135232 -0.0030934224 0.10017667 -0.0045624413 0.029975288 -0.051777296 -0.05155779 0.038245987
0.019159188 0.054940745 0.036075905 0.04046074 0.05786799 0.0718437 -0.06565363 -0.02253638
0.016375706 0.079375826 0.06073167 -0.024743315 0.016707603 -0.054627877 -0.0778749 -0.06230843
-0.056098703 0.03897244 -0.007838148 -0.09915526 0.084537715 -0.030847857 -0.040992025 -0.044423953
0.038214866 0.047005996 -0.03786784 0.023347154 0.023544852 -0.062708735 0.032843955 0.06621313
-0.01915439 -0.06106677 -0.038558826 -0.034699604 -0.008615968 -0.09052906 0.01580066 -0.032738015
-0.082825184 0.04599335 -0.044493787 -0.0594433 0.0046677743 -0.0012443595 -0.07836879 0.0396694
0.021452336 0.10071414 0.05099753 0.017140735 0.103347 0.06806085 0.012027071 -0.04664381
0.027288694 0.030087847 0.054942463 0.085761786 0.024181353 0.042385016 -0.06880576 -0.0084980875
0.027824918 0.09017055 -0.043602146 -0.04890556 0.011619128 0.08279056 0.07979239 -0.0830076
0.03562693 0.02680317 0.038049493 -0.026285984 -0.063476786 0.08678243 0.038260918 0.057348758
-0.0247673 -0.10398602 -0.00020099469 -0.012568137 -0.039251648 0.038819473 0.077931635 0.05961791
-0.00800077 -0.071296036 -0.03339004 0.052525353 0.06780832 -0.011105683 -0.01850759 0.010886892
-0.05710038 -0.017981855 0.05036629 -0.017409425 -0.067402944 0.07491569 0.04308387 0.049129274
-0.06383538 -0.052268464 -0.045083053 0.02502976 0.020772249 -0.078985184 0.043517333 -0.056099445
0.020207085 -0.025997931 0.069285 0.08037524 -0.03158738 0.03497377 0.018414393 -0.02380794
-0.06743305 -0.032855727 0.018113917 -0.05160131 -0.08755096 0.04800706 0.022044796 0.031534735
-0.007176873 0.00683012 0.024955314 0.07245659 0.041693307 -0.08148964 0.055959646 -0.06755939
0.07942506 0.046399537 -0.04317004 0.07389821 -0.028581588 -0.04877201 0.028535042 -0.07858839
-0.009953937 0.035410456 0.07811309 0.032222137 -0.04733723 -0.009710319 -0.070494264 0.039556075
0.006856052 -0.0680563 0.07177464 0.016108911 0.044291653 0.054596886 -0.054266695 -0.0231213
0.07182577 0.039589282 0.027412724 -0.043442156 -0.0851796 0.038609646 0.009668255 0.018042564
0.029892277 -0.0007479424 0.008020438 0.06208991 -0.060999747 0.042186003 -0.059345886 0.06448792
0.021515666 -0.033042997 -0.109445035 -0.013432201 0.077084064 0.010407499 0.035350945 -0.042743325
-0.02909311 0.0032292535 0.055685434 0.011074339 -0.010680818 -0.017671186 -0.062250238 0.05249927
-0.010929572 -0.020075165 -0.06419545 0.07477618 0.07310237 0.050087374 0.080002286 -0.07012786
0.00826308 0.0684955 -0.048053637 0.00063239614 0.0036872048 -0.024777895 0.010438122 -0.06259409
0.0040040812 0.045859944 -0.0552806 -0.061639883 0.040155746 0.024843812 0.094938815 -0.09669473

lstm1.bias_ih_l0_reverse f4 [512]
00000000: d5ff d3bd dc6a 203d e588 87bc 7c9d 123d
00000010: df19 0b3d ed56 b13b 2e09 1b3d fcd4 923d
00000020: f183 893d 6ffc 9ebd c081 493d e4a2 203d
00000030: ccf9 52bd d8bd 403d 5611 93bb cd72 63bd
00000040: 9166 ccbc 2ca8 a63d 14de 403d 1a6f 99bd
00000050: 298e 4d3d e07e 9bbd d297 23bd 0bd5 02bd
00000060: c135 a93d 18b1 3d3d f272 9a3d 64a9 9cbc
00000070: 4bf5 073d 16a4 d5bc f932 b8bd 6686 97bc
00000080: 1f82 1c3d 8645 5abd d847 04bb 3913 753d
00000090: 24e5 843b cb42 aebd b8aa 2fbd 8193 fcbc
000000a0: 5031 0a3d a704 653d 9bf9 45bd ff46 9d3d
000000b0: 6a0f abbc 1b54 b13b 5a34 723d 0b7b 13bd
000000c0: 26b7 3e3d ed5e 9fbd 9377 aa3a 698b a1bd
000000d0: 16d9 a03d ee3d d73c d2f7 0fbd 99d3 b7bd
000000e0: bfd4 903d ec0c 29bd 858a 9eba 4826 88bd
000000f0: 7733 713d 88fb 063d b439 7ebc 53b5 aebd
00000100: 7f09 81bb 8d1d dfbc 0411 bb3d 99f1 713b
00000110: d93d 44bd 9e76 7a3c 8c9f 79bd d66e a0bd
00000120: 16de c8bd f5dc c23c 8743 3bbc ff68 523d
00000130: 37b9 083d eb4a 70bc 8f0a bdbc 3afd 203d
00000140: a6bc 6a3d ec2c 093d 050d abbc 8fbf e03c
00000150: be42 5e3d 7b66 28bc 5f16 98bd 2e5c 5a3d
00000160: d80f 0b3d b8bd 4cbd c40c c0bc e708 143d
00000170: 0f8d 6bbc 5733 503c 7659 aabd 1dc4 8eba
00000180: 5b4b 933d a4c5 39bd af75 6fbd 00d7 7dbd
00000190: cbf3 4fbc 28a2 993d 141f 71bd e5bc b0bd
000001a0: f11c 2abd 81f9 92bd ba36 0fba 35d9 f03c
000001b0: 38e2 983c 5636 32bd b795 6a3c 875b 88bd
000001c0: 4ccb 53bc 84bf 4c3d 3dbc 58bc bff0 0fbc
000001d0: f439 6bbd 6479 bfbb b7f5 09bc 9064 e73c
000001e0: cdfd a23c 964e ecbb 37c9 42bd 55fb 8cbd
000001f0: 84d9 013d 16e1 a03d ac6f 92bd eca6 9abb
00000200: 25d5 043d 6efa 4ebd 1ddf b4bd 4fec dc3c
00000210: 418d 3c3c 0507 0e3d c8b2 083d ef65 4c3d
00000220: 349f 99ba e1f5 603d f015 a23c adb7 f53d
00000230: dba5 2b3c 982d 14bc e29d 07bd 64c5 fbbc
00000240: 7d6c d03b a203 0ebd 2dad 3c3d 3397 873d
00000250: bc8a a3bc 653e 4cbd 94ab 8fbd 0989 d23d
00000260: 1d51 b73d bf4c ab3d bf8a 14bd b807 873d
00000270: 9845 7abd b7ca 463d 1669 433d 1f00 c9bc
00000280: 1a32 0dbd e205 1cbd 649d a6bd 3fa7 133d
00000290: c622 55bd 20c4 aabd 5955 52bd aa55 cfbd
000002a0: 30c6 8dbd 51d3 0ebd 5016 123d b4e1 85bc
000002b0: 286b 883d 5dc8 51bc 53b4 e83b 2360 73bd
000002c0: 4e88 02bc f890 e6bc 033d 523d be4a dfbc
000002d0: b723 87bd e33c 973d 6383 7b3d cddd 703d
000002e0: 4e7e 023d 79e1 973d 59c8 bebd a9e1 b73d
000002f0: c71c 7cba 2708 9e3d 2f65 9b3d aa3f 82bd
00000300: 1070 d83c 7e8e 1e3c b98c 423d 00aa 5c3d
00000310: 663b 7cbd e21e a23c 0a0d 7cbd fb24 a03d
00000320: 0a9b 3ebd 0d09 833d f5e0 993d 75f3 363d
00000330: db88 c3bd a9aa ae3d dab6 6e3d aab0 54bd
00000340: d2db 96bd a57e c5bc 28e9 febc ce8a f1bc
00000350: 9cd0 893b 7c5a 4e3d 9987 cd3b 5088 633d
00000360: 2e4f af3c eb20 cc3d 8943 cabd fd64 d63c
00000370: 0603 0b3d 05f5 80bd 665f 9dbd 7a7c ab3c
00000380: 3b51 573d e0f8 69bc b5fa d33c ff67 bd3c
00000390: 951d 793d 3875 d83b 8436 ebbb 6293 7cbb
000003a0: 1a86 99bd e146 babb 38a3 86bc 46c1 353d
000003b0: f977 da3d 3d68 36bd fd3c 6fbd 54f3 23bd
000003c0: 5f12 f13a 4c60 353c 32c5 5bbd 241a 8ebd
000003d0: ef1e cc3b 84bf a0bd 1682 b5bd 2c92 9bbc
000003e0: b4c2 e93b e6bb 62bc 348a c03c e79b 263d
000003f0: cd4c 06bd 84b8 0bbc 8d1e a1bd 6dd6 313c
-0.103515305 0.03916441 -0.016544769 0.03579472 0.03396022 0.0054119737 0.03785055 0.0716953
0.06714619 -0.07762992 0.049196005 0.039217845 -0.051507756 0.04705605 -0.0044881506 -0.055529404
-0.024951251 0.08137545 0.04708679 -0.07491894 0.050184403 -0.07592559 -0.03993971 -0.031941455
0.08262206 0.046311468 0.07541455 -0.01912374 0.033192914 -0.026079219 -0.08994097 -0.018496703
0.03821003 -0.05328896 -0.0020184424 0.059832785 0.004055636 -0.085088335 -0.04288742 -0.030832054
0.033738434 0.05591264 -0.048333745 0.07679557 -0.020881373 0.0054116375 0.059131958 -0.036006015
0.046561383 -0.077817775 0.0013005607 -0.078879185 0.07853906 0.026274648 -0.03514845 -0.08975906
0.07071828 -0.04127209 -0.0012095725 -0.066479266 0.05888697 0.032954723 -0.015516687 -0.085306786
-0.0039378996 -0.02723577 0.09134105 0.0036917685 -0.047910545 0.01528707 -0.06094317 -0.0783364
-0.098079845 0.023787001 -0.011429674 0.051369663 0.03337976 -0.014666299 -0.023076324 0.039303996
0.057308815 0.033490106 -0.020880232 0.027435092 0.05426287 -0.0102783395 -0.07426142 0.053310566
0.033950657 -0.049985617 -0.023443587 0.036141302 -0.014376893 0.012707553 -0.083178446 -0.0010892187
0.07192107 -0.0453545 -0.05846184 -0.061972618 -0.012692402 0.07501632 -0.05886753 -0.08629779
-0.041531507 -0.07176495 -0.0005463172 0.029400447 0.018662557 -0.04350885 0.014317921 -0.066580825
-0.012926888 0.04998733 -0.013228473 -0.008785426 -0.057428315 -0.0058433283 -0.008420399 0.028246194
0.019896412 -0.0072115166 -0.047555175 -0.06883875 0.03170158 0.07855432 -0.07150206 -0.0047196057
0.032429833 -0.050531797 -0.08831618 0.02696815 0.011508287 0.034674663 0.033373624 0.0499019
-0.001172042 0.05492199 0.019785851 0.11997924 0.010476555 -0.0090440735 -0.033109553 -0.030733772
0.006360589 -0.034671433 0.04606359 0.06620636 -0.019963615 -0.04986419 -0.07015148 0.10280044
0.08951018 0.083642475 -0.03626513 0.06593269 -0.061101526 0.048533168 0.04770764 -0.02453619
-0.03447161 -0.038091548 -0.08135489 0.03604817 -0.052035116 -0.08338189 -0.051350925 -0.10123761
-0.06922567 -0.034869496 0.03566581 -0.016342975 0.066610634 -0.012804118 0.0071015744 -0.059417855
-0.007967068 -0.028145298 0.051327717 -0.02725732 -0.06598609 0.0738466 0.061404597 0.058805276
0.031858735 0.07416052 -0.09315557 0.08978588 -0.0009617325 0.07716399 0.075876586 -0.06359799
0.026420623 0.0096775275 0.047497485 0.053873062 -0.061580084 0.019790117 -0.061535873 0.078195535
-0.046534576 0.06398211 0.0751361 0.044665772 -0.095475875 0.085286446 0.05827985 -0.051926292
-0.07366146 -0.02410824 -0.031117037 -0.029485133 0.0042057764 0.05037926 0.006272268 0.05554992
0.02140006 0.09967216 -0.098761626 0.026171202 0.03393843 -0.06296734 -0.076842114 0.020933378
0.0525677 -0.014280528 0.025876382 0.023120878 0.060819227 0.0066057704 -0.0071781296 -0.0038539995
-0.07496281 -0.005684719 -0.01643525 0.044373773 0.10667414 -0.044533003 -0.058407772 -0.040026978
0.0018392316 0.011070322 -0.053654857 -0.0693858 0.0062292735 -0.07849029 -0.088627025 -0.018990599
0.007133806 -0.013838744 0.0235034 0.040676024 -0.032788087 -0.008527879 -0.07867155 0.010854346
