results/models/Bovespa_GRU_model.pth (torch, 683243 bytes, 19 tensors)

gru1.weight_ih_l0 f4 [384, 6]
0	0x3d68d12d	0.05684011
1	0x3cb0ed65	0.021597574
2	0x3d84b9e0	0.06480765
3	0xbcb36df6	-0.02190302
4	0x3c084835	0.008317997
5	0x3cbdaeea	0.023154695
6	0xbcbdb018	-0.023155257
7	0xbd8eadc0	-0.06966734
8	0xbd1c93c6	-0.038226865
9	0x3d2492be	0.040179007
10	0xbd1bcd71	-0.03803772
11	0xbb4e6bc4	-0.0031497339
12	0xbcf0048a	-0.02929904
13	0x3d7ce2ef	0.06173986
14	0xbd9d797e	-0.076891884
15	0xbd7adf5c	-0.06124817
16	0x3d68c731	0.05683059
17	0xbd8e1de2	-0.069392934
18	0xbdae093d	-0.08497856
19	0xbd8e7180	-0.06955242
20	0xbb437fd8	-0.002983084
21	0xbcaf022a	-0.021363337
22	0x3c89df8d	0.01683023
23	0x3b20d4e8	0.0024540965
24	0xbd29d516	-0.04146298
25	0xbd99436a	-0.07483561
26	0xbbc082a8	-0.0058749504
27	0x3c170f2b	0.009219925
28	0x3d478d9e	0.04871904
29	0xbd4cacef	-0.04996961
30	0xbce9643d	-0.02849018
31	0xbd84ed2e	-0.06490551
32	0x3daea851	0.085281976
33	0xbca5e71b	-0.020251801
34	0xbc8e4c11	-0.017370256
35	0x3c311120	0.010807306
36	0xbc6d8db6	-0.014499119
37	0x3d899300	0.06717491
38	0xbc2ac83c	-0.010423716
39	0x3d415a13	0.047205042
40	0xbd872d25	-0.066004075
41	0xbccff8ef	-0.025387255
42	0xbdac8422	-0.0842364
43	0x3d95ed35	0.07320634
44	0x3d22a774	0.039710477
45	0xbd509e64	-0.050932303
46	0x3d0e2217	0.03470048
47	0xbc304475	-0.010758509
48	0x3c3950de	0.011310784
49	0x3ca63c2c	0.020292364
50	0x3ceee93f	0.029163955
51	0xbd863f56	-0.06555049
52	0xbdbd78f5	-0.09251586
53	0x3d7831b0	0.06059426
54	0xbcf97fa2	-0.030456368
55	0x3d6eba0a	0.05828289
56	0x3cfa005c	0.03051775
57	0xbcb08849	-0.02154936
58	0xbdbfd56b	-0.09366878
59	0x3d9a2737	0.07527011
60	0xbd8e875d	-0.06959412
61	0x3cf532b4	0.029931404
62	0x3d6832dc	0.05668913
63	0x3d864451	0.06555999
64	0x3a0745c1	0.00051602355
65	0xbd93f85b	-0.072251044
66	0xbcdcf53a	-0.026972402
67	0x3d97550d	0.07389269
68	0x3da4a437	0.08039134
69	0x3b8f223c	0.0043680947
70	0x3d0487ed	0.03235619
71	0xbd508c21	-0.050914887
72	0x3d54e3a8	0.051974922
73	0xbccc2568	-0.02492018
74	0x3d22f887	0.039787795
75	0x3db7b4a8	0.08970004
76	0x3c86bcc0	0.016447425
77	0xbca47d27	-0.020079209
78	0xbc009fca	-0.007850597
79	0x3c797c4d	0.0152273895
80	0xbd56ee34	-0.052473262
81	0xbd2784a0	-0.040897965
82	0xbd848e5f	-0.06472468
83	0xbd51c3a2	-0.05121196
84	0x3d79ae15	0.060957033
85	0xbd4a8c55	-0.049450237
86	0x3a0d0fa5	0.00053810544
87	0xbd0cb034	-0.034347728
88	0xbc86fdb8	-0.016478404
89	0xbce8d1d1	-0.02842036
90	0x3d7108dd	0.058846343
91	0xbda52221	-0.0806315
92	0xbcdcba1d	-0.026944214
93	0x3cbe06c7	0.023196591
94	0x3cb262c0	0.021775603
95	0x3c0a22f9	0.00843119
96	0x3d18e39f	0.03732645
97	0x3d6834db	0.056691032
98	0xbd540f86	-0.051772617
99	0x3b90d4d7	0.0044199037
100	0xbb0642c0	-0.0020486563
101	0x3c903027	0.017601086
102	0x3d96a3a9	0.073554344
103	0x3cdde770	0.027087897
104	0x3d4cb1d4	0.049974278
105	0xbcd23b11	-0.02566293
106	0x3d2262f6	0.039645158
107	0x3d3970e7	0.045273688
108	0xbda39f42	-0.079893604
109	0x3ca2b815	0.019863168
110	0x3b0929d8	0.0020929482
111	0x3ce6f5ba	0.028193343
112	0xbd9d1c19	-0.07671375
113	0xbd180f63	-0.03712405
114	0xbcf236dd	-0.029567176
115	0xbd9fb9d7	-0.07799118
116	0x3d3c4dc4	0.0459726
117	0x3dbea9b5	0.09309713
118	0x3ce6eb58	0.028188393
119	0x3d522498	0.05130443
120	0x3cc92978	0.024555907
121	0xbda09eb8	-0.07842773
122	0x3c01fbdc	0.007933583
123	0x3d68dc82	0.056850918
124	0x3d9546de	0.072889075
125	0xbd973ba9	-0.07384426
126	0xbbb8cedc	-0.005639894
127	0x3da25364	0.07926062
128	0x3d0cc249	0.034364972
129	0x3db7be35	0.08971826
130	0xbd9c8b60	-0.07643771
131	0xbdc6958d	-0.09696493
132	0xbd65ec4e	-0.05613356
133	0x3c0674f5	0.008206596
134	0x3d5af314	0.053454474
135	0x3d349c54	0.0440944
136	0x3c8c6680	0.01713872
137	0x3da766e2	0.0817392
138	0xbd90f729	-0.07078392
139	0xbd8a3ea6	-0.067502305
140	0x3da7dedb	0.08196803
141	0xbda5ce67	-0.08096009
142	0xbd5d35bb	-0.05400632
143	0x3da4e689	0.080517836
144	0xbcc1b667	-0.023646547
145	0xbd732d4b	-0.059369367
146	0xbdac8759	-0.08424253
147	0x3d129ace	0.035792165
148	0x3d609604	0.054830566
149	0x3d86e63c	0.065868825
150	0xbcfbea3f	-0.030751346
151	0xbce6c743	-0.028171187
152	0xbceaa28b	-0.02864196
153	0x3d9ee650	0.077587724
154	0x3bb0e9cd	0.005398965
155	0xbda95d39	-0.08269734
156	0xbd8c752b	-0.068582855
157	0x3d1686b9	0.036749575
158	0x3da11324	0.07864979
159	0x3cb0e8a7	0.021595312
160	0x3d2f7bd9	0.04284272
161	0xbda0fc8f	-0.07860672
162	0x3c85754b	0.016291281
163	0xbcd1f422	-0.025629107
164	0x3b95ee5c	0.004575534
165	0xbd77328c	-0.06035094
166	0xbd37b826	-0.044853352
167	0x3d5e0b2f	0.054209884
168	0x3d08d609	0.033407245
169	0x3c49f702	0.012326958
170	0x3dac141b	0.08402272
171	0xbd872f89	-0.066008635
172	0x3c461d3e	0.012091933
173	0xbc375286	-0.011189109
174	0xb9fbb4a7	-0.00048009047
175	0xbd137c7b	-0.036007386
176	0xbcdb0056	-0.026733559
177	0x3ca80826	0.020511698
178	0xbdbdd36a	-0.0926884
179	0x3d51bbf4	0.051204637
180	0x3d8aaa2b	0.06770738
181	0x3bc0dcca	0.005885695
182	0x3d2e170a	0.04250244
183	0xbcf29751	-0.029613169
184	0x3d8d2dca	0.06893499
185	0xbbd98411	-0.006638058
186	0xbd844a3c	-0.064594716
187	0x3d56dd9c	0.052457437
188	0xbdaaa4b2	-0.083321944
189	0xbd9256f0	-0.07145488
190	0x3b5c8b8d	0.0033652515
191	0xbabb37aa	-0.0014283557
192	0xbd8e13b4	-0.06937352
193	0x3d866974	0.06563082
194	0x3d4284e0	0.04749
195	0x3b34cc62	0.0027587642
196	0x3d62a0aa	0.055329002
197	0x3d8c998f	0.068652265
198	0x3d31669f	0.043310758
199	0x3d9832c3	0.07431557
200	0xbbb7ae38	-0.0056054853
201	0xbc4cd518	-0.012501977
202	0xbd026aaf	-0.031840023
203	0x3d93912a	0.07205422
204	0x3d084862	0.033272155
205	0x3ca8f964	0.020626731
206	0x3d9bb912	0.07603659
207	0x3d881545	0.06644682
208	0x3d2509dd	0.04029261
209	0xbdb426c1	-0.08796454
210	0x3c817d15	0.015806714
211	0x3d41b12e	0.047288112
212	0xbbc619ae	-0.0060455417
213	0x3c0a4c5a	0.008441055
214	0x3d7347a2	0.059394486
215	0xbbf2f0fb	-0.007413981
216	0x3d04d826	0.032432698
217	0x3d4ae90e	0.049538665
218	0x3d0154ca	0.031575
219	0xbd50c604	-0.050970092
220	0x3d919570	0.07108581
221	0xbdbfb005	-0.09359745
222	0xbda6202a	-0.081116036
223	0xbc7ead4e	-0.015544249
224	0x3c4de4eb	0.012566785
225	0xbd746781	-0.05966902
226	0xbd5725e3	-0.052526366
227	0x3d6604a3	0.056156766
228	0x3bdda7de	0.006764396
229	0xbd20f82a	-0.039299168
230	0xbd422dd8	-0.047407
231	0x382af252	4.0756837e-05
232	0xbda3704d	-0.07980404
233	0x3d45b82e	0.04827135
234	0xbd6f0a54	-0.05835946
235	0x3d837ee5	0.064206876
236	0xbd95454e	-0.072886094
237	0x3dae8834	0.085220724
238	0xbd9c1193	-0.076205395
239	0xbd803afc	-0.062612504
240	0xbd7bb1a5	-0.061448712
241	0xbd966175	-0.07342807
242	0x39dd81cd	0.00042249114
243	0xbbe03778	-0.00684255
244	0xbd76abf4	-0.06022258
245	0x3bec5e36	0.0072133793
246	0xbd3d588d	-0.046227027
247	0xbcaa5213	-0.02079109
248	0x3c1b34d5	0.009473045
249	0x3da51c6d	0.080620624
250	0xbd463083	-0.048386108
251	0x3c44c33e	0.01200944
252	0x3d4b05eb	0.04956619
253	0xbc633294	-0.013867039
254	0x3d2b129a	0.041765787
255	0x3c1a9728	0.0094354525

gru1.weight_hh_l0 f4 [384, 128]
0	0xbd9b194a	-0.07573183
1	0xbd4d3b10	-0.050105155
2	0x3c55ebdf	0.013056724
3	0xbd2a36b6	-0.041556083
4	0xbd88b69b	-0.06675454
5	0xbcdf238f	-0.027238635
6	0xbd82b00d	-0.06381235
7	0xbcbe18d8	-0.023205206
8	0x3d09b0e0	0.033615947
9	0x3da77363	0.08176305
10	0xbd83282d	-0.06404147
11	0x3d57c27b	0.052675705
12	0xbc6e0045	-0.014526431
13	0x3d9feede	0.07809232
14	0x3da65754	0.08122125
15	0xbc07b327	-0.008282459
16	0x3dba1e0f	0.090877645
17	0x3cf70727	0.030154778
18	0xbc1d3c78	-0.009596936
19	0x3da042e8	0.07825261
20	0x3da9a7ac	0.08283934
21	0x3d44e27c	0.048067555
22	0x3d1670ab	0.036728542
23	0x3a0e173d	0.0005420333
24	0x3d6f498f	0.05841976
25	0xbda86b15	-0.08223549
26	0x3d463cf9	0.04839799
27	0x3d429cae	0.047512703
28	0x3d8a0435	0.06739084
29	0x3beb22a7	0.0071757617
30	0x3d4f257d	0.05057286
31	0x3c734332	0.014847564
32	0xbd775bb5	-0.060390193
33	0xbc18233a	-0.009285742
34	0x3d9b060f	0.07569515
35	0x3d01fb09	0.031733546
36	0x3d7c5a76	0.061609708
37	0xbd983345	-0.07431654
38	0xbc9b3a6a	-0.018948752
39	0xbd8c435e	-0.06848787
40	0x3c9daadb	0.01924651
41	0xbcfecf31	-0.031104656
42	0x3d39ba46	0.04534366
43	0x3d3e78f3	0.046502065
44	0xbc7ae660	-0.015313715
45	0xbd6efaf5	-0.0583448
46	0x3bfd1ba9	0.0077242446
47	0x3db70e14	0.08938232
48	0xbd608334	-0.054812625
49	0xbd738876	-0.05945631
50	0xbd6cd168	-0.057816893
51	0x3d9d92ef	0.07694041
52	0xbd1dee34	-0.038557246
53	0x3c1470d2	0.009060102
54	0x3cad0f52	0.02112547
55	0xbd97d308	-0.07413298
56	0xbd21727c	-0.03941582
57	0xbd887095	-0.06662098
58	0x3d461fb3	0.048370074
59	0x3db143cc	0.08655509
60	0x3cd84f0a	0.026404876
61	0xbcaf1bea	-0.021375615
62	0x3c7d381b	0.015455271
63	0x3c0f4833	0.008745241
64	0x3d07fe90	0.033201754
65	0x3d388f7c	0.045058712
66	0x3dae39f5	0.08507148
67	0xbb20e16a	-0.002454842
68	0x3d55d6f2	0.05220694
69	0x3a7a2f71	0.00095438125
70	0xbbb9c79e	-0.005669548
71	0xbd78ca41	-0.06073976
72	0xbc6a5dbc	-0.014304575
73	0x3da45527	0.08024054
74	0xbd47e7da	-0.048805095
75	0x3d76f2b4	0.060290053
76	0x3d9ccbca	0.07656057
77	0xbd2d2d7f	-0.042279717
78	0x3db0bff7	0.086303644
79	0x3db7daba	0.08977266
80	0x3d9f1e25	0.077694215
81	0xbd54ac96	-0.051922403
82	0xbd07420b	-0.033021968
83	0xbd0d12a3	-0.0344416
84	0x3d639b38	0.05556795
85	0x3d5970ff	0.053086277
86	0xbd8b53db	-0.068031035
87	0xbbc7f9be	-0.0061027696
88	0x3d0d283c	0.0344622
89	0x3bd0c3f6	0.0063710166
90	0x3d5cee8e	0.05393844
91	0xbcee5fc3	-0.029098397
92	0x3d54e21f	0.05197346
93	0xbd6daac9	-0.0580242
94	0x3d768e1b	0.060194116
95	0x3a43ad6f	0.0007464503
96	0x3d43f8b9	0.047844622
97	0xbc81e1af	-0.015854685
98	0x3d2235f8	0.03960225
99	0x3cd5f8c3	0.026119595
100	0xbccff6a6	-0.025386166
101	0xbd0966be	-0.03354525
102	0x3d2b2108	0.041779548
103	0xbd99a637	-0.07502406
104	0xbd4ec128	-0.050477177
105	0x3d62a56a	0.055333532
106	0xbd24b3d3	-0.040210556
107	0xbd3049e5	-0.04303922
108	0x3d32a73c	0.04361652
109	0x3cbedd01	0.023298742
110	0x3c92cc67	0.017919732
111	0x3d7cbecf	0.061705407
112	0xbcbe174b	-0.023204466
113	0x3d431105	0.047623653
114	0xbd4d6b42	-0.050151117
115	0xbbc1ebfa	-0.005918023
116	0xbc0b4efa	-0.008502716
117	0x3cc5557c	0.024088614
118	0x3ccd29e4	0.02504439
119	0xbd4b47a5	-0.049628872
120	0xbc6f20e9	-0.014595249
121	0xbd5926ea	-0.053015627
122	0x3b554b9b	0.0032546285
123	0xbb036848	-0.002005117
124	0x3cf12718	0.029437587
125	0x3d85317b	0.06503578
126	0x3c969343	0.018380767
127	0xbd9fada2	-0.0779679
128	0x3d6266a3	0.055273663
129	0xbd1184eb	-0.03552715
130	0x3d6e38db	0.05815969
131	0x3ce1c7bb	0.02756106
132	0xbd86fa8a	-0.06590755
133	0x3b61f1a3	0.0034476302
134	0x3dbae26b	0.09125217
135	0x3c06943c	0.008214053
136	0xbcf0cb9b	-0.029393962
137	0x3da8c0af	0.082398765
138	0x3d245213	0.040117335
139	0xbd965b06	-0.0734158
140	0x3d8129c2	0.06306793
141	0xbb13690a	-0.0022493028
142	0xbcace7c3	-0.021106606
143	0x3da8da16	0.082447216
144	0xbb51edcf	-0.0032032614
145	0xbd159ab7	-0.0365245
146	0x3d753ec9	0.05987433
147	0xbd66bf20	-0.056334615
148	0xbd98d756	-0.07462947
149	0x3d4ceca5	0.05003037
150	0x3d6a19b4	0.05715342
151	0x3d87c873	0.066300295
152	0x3d71a909	0.058999095
153	0xbd676b19	-0.05649862
154	0x3d3c5c8a	0.04598669
155	0xbd195948	-0.03743866
156	0x3cd252b5	0.025674203
157	0xbda57c9d	-0.08080409
158	0x3d2b304e	0.041794114
159	0xbd74dedf	-0.05978286
160	0x3d3f21fa	0.046663262
161	0x3d77549a	0.060383417
162	0xbc7aaf3a	-0.015300566
163	0x3d93ab57	0.07210415
164	0x3bf3a530	0.0074354634
165	0xbcab5976	-0.020916682
166	0xbc1c0b0d	-0.009524119
167	0xbcc3dfd5	-0.023910442
168	0x3c0f63c5	0.008751814
169	0xbd7e4672	-0.0620789
170	0x3d5c9600	0.05385399
171	0x3d2f5366	0.042804144
172	0x3cf57701	0.029963972
173	0xbc1969ac	-0.009363573
174	0x3d2071c7	0.039171007
175	0xbcb8f2e7	-0.022576762
176	0xbbbd8b2a	-0.005784412
177	0xbd035376	-0.032062016
178	0x3d8af3bf	0.06784772
179	0x3d194c91	0.037426535
180	0xbc13b05b	-0.009014214
181	0x3ce84230	0.028351873
182	0x3d8ad1ff	0.06778335
183	0x3cbc21ad	0.022965277
184	0xbd8f756a	-0.07004817
185	0xbd79c8eb	-0.060982626
186	0x3d50b17d	0.050950516
187	0x3d898f35	0.06716768
188	0xbd4e1987	-0.050317314
189	0x3d3c969a	0.046042062
190	0xbd5a4682	-0.053289898
191	0xbd76f94d	-0.060296346
192	0xbcf93eb3	-0.030425405
193	0xbd5ac575	-0.053410966
194	0x3d960957	0.07326
195	0xbc67d19b	-0.014149095
196	0x3d9c3690	0.076275945
197	0xbd4aee3b	-0.0495436
198	0xbd02c6ef	-0.031928
199	0x3da6dbf9	0.08147425
200	0x3d338f9a	0.04383812
201	0xbd137ec6	-0.036009572
202	0xbcd4f442	-0.025995377
203	0xbcae6821	-0.021289887
204	0xbda07c3c	-0.07836196
205	0x3d914050	0.07092345
206	0x3b413940	0.0029483587
207	0x3d70c242	0.05877901
208	0x3d9950ba	0.074861005
209	0x3d9ccefe	0.07656668
210	0x3d75ac3b	0.059978705
211	0xbd52e1bf	-0.05148482
212	0xbc8d0afc	-0.017217152
213	0x3d09ac70	0.033611715
214	0xb8b8af49	-8.806453e-05
215	0xbd24b507	-0.040211704
216	0x3bc1eab3	0.005917871
217	0x3c5e6b82	0.013575437
218	0xbd15a7a0	-0.036536813
219	0x3db2d2c2	0.08731605
220	0x3d5258dc	0.051354274
221	0x3d985f1c	0.07440016
222	0xbd916df3	-0.07101049
223	0x3d0140ad	0.03155582
224	0x3a91ae2b	0.0011114528
225	0x3d847ccf	0.06469118
226	0x3cfae44b	0.030626437
227	0x3d295b3e	0.04134678
228	0xbd96b83b	-0.07359358
229	0x3d8cc73f	0.06873941
230	0xbce3dca3	-0.027815169
231	0xbd2063fb	-0.03915785
232	0x3d11c246	0.035585664
233	0x3bfca9bc	0.0077106636
234	0x3d11b8cb	0.035576623
235	0xbc5e20cc	-0.013557624
236	0xbc54c4a2	-0.012986334
237	0xbd8dc195	-0.069216885
238	0x3d749449	0.05971173
239	0xbdaaacf1	-0.08333767
240	0x3cfd24ae	0.03090128
241	0xbd1ff3ee	-0.03905099
242	0xbd3140fe	-0.043274872
243	0x3d46c6c6	0.04852941
244	0xbcb038ce	-0.021511462
245	0xbd58c4b7	-0.052921977
246	0xbd5b9a3b	-0.053613883
247	0xbafd85da	-0.0019342259
248	0xbd318702	-0.043341644
249	0xbb9ec053	-0.004844704
250	0xbd93b634	-0.07212487
251	0x3d174958	0.03693518
252	0xbd8cf978	-0.0688352
253	0x3d67786a	0.05651132
254	0x3b0f4d01	0.0021865966
255	0xbc5f23c5	-0.013619368

gru1.bias_ih_l0 f4 [384]
0	0x3dafcd99	0.085841365
1	0xbdafc62f	-0.085827224
2	0x3d5fa3e9	0.054599676
3	0xbda1861b	-0.07886907
4	0xbc77150e	-0.015080703
5	0xbd48c6c8	-0.049017698
6	0xbd5a6de2	-0.05332745
7	0xbdb071a4	-0.08615425
8	0xbb80f6bb	-0.0039356626
9	0x3c747575	0.014920582
10	0x3d9b5598	0.07584685
11	0xbda84709	-0.08216674
12	0xbb0a937e	-0.002114504
13	0xbdab8855	-0.08375613
14	0x3d8e36cd	0.06944046
15	0x3d294116	0.041321836
16	0xbd6415a9	-0.05568472
17	0xbd14dadc	-0.036341533
18	0x3d9bf1cc	0.076144785
19	0x3c102af5	0.008799304
20	0xbd6665e8	-0.05624953
21	0x3b676381	0.0035307112
22	0x3b33c01c	0.0027427739
23	0x3d9125b5	0.0708727
24	0x3da433a9	0.08017666
25	0x3d48b30e	0.048998885
26	0x3c95686c	0.018238269
27	0x3d17b79b	0.037040334
28	0x3dba7948	0.09105164
29	0xbd209678	-0.039206
30	0x3c99421e	0.018708285
31	0x3a75f69f	0.00093827577
32	0xbd82c5b7	-0.06385367
33	0x3dab516a	0.08365138
34	0x3d240e8d	0.04005294
35	0x3a445eaf	0.00074909156
36	0xbcfcaa5e	-0.030842956
37	0x3d06ac12	0.032878943
38	0x3c307229	0.010769405
39	0xbd0fbb4f	-0.03509074
40	0x3ca6a907	0.02034427
41	0xbd768020	-0.060180783
42	0x3d189b84	0.037257686
43	0x3cb268d6	0.021778505
44	0x3d6e07d5	0.058112938
45	0x3ae46e40	0.0017427877
46	0xbd8ce914	-0.068803936
47	0x3c49ad27	0.012309349
48	0xbd4fa3fb	-0.050693493
49	0xbcae2e8f	-0.021262435
50	0xbd4950c7	-0.0491493
51	0xbd14108f	-0.036148604
52	0xbd9ee787	-0.07759004
53	0x3d8ad41e	0.067787394
54	0xbd9a296c	-0.07527432
55	0x3cf69ac7	0.0301031
56	0x3d2a1441	0.041523222
57	0x3d557f1c	0.052123174
58	0x3d9bd96a	0.07609828
59	0x3d8bb00d	0.068206884
60	0x3a8febc0	0.0010980293
61	0x3c22d829	0.009939232
62	0x3c380a75	0.011232962
63	0xbd0397fb	-0.03212736
64	0x3c10e5cd	0.008843851
65	0xbc5fee3d	-0.01366764
66	0xbd09be91	-0.033629004
67	0x3bfd87a5	0.0077371174
68	0x3d49812e	0.04919546
69	0xbc20bce3	-0.009810659
70	0xbdad0fe1	-0.08450294
71	0xbd64f022	-0.05589307
72	0x3d893baf	0.06700837
73	0xbd57a0bb	-0.05264352
74	0xbb408c70	-0.0029380582
75	0x3c12ee3d	0.008967933
76	0xbd195d35	-0.037442405
77	0x3d3fdc20	0.046840787
78	0xbcaa2f60	-0.020774543
79	0x3dbd7cbd	0.092523076
80	0xbd0958a8	-0.033531815
81	0x3d8dc6a8	0.06922656
82	0x3dac2a5f	0.08406519
83	0x3dafcbd9	0.08583803
84	0xbd574c44	-0.052562967
85	0xbccce564	-0.025011726
86	0xbc88bad9	-0.016690658
87	0xbbb1e321	-0.005428687
88	0xbc02a369	-0.00797353
89	0x3d0c702b	0.03428666
90	0x3d4427d7	0.047889557
91	0x3c0a062d	0.008424324
92	0x3d66f3cf	0.056384858
93	0xbd0031d2	-0.031297512
94	0x3d46701a	0.048446752
95	0xbd92793a	-0.071520284
96	0x3d20f48f	0.03929573
97	0x3d757111	0.05992228
98	0x3d11efa3	0.035628926
99	0x3ceba885	0.02876688
100	0xbce4a933	-0.027912712
101	0xbd050019	-0.032470796
102	0x3c19a096	0.009376666
103	0xbc10906d	-0.008823496
104	0xbc9fbb97	-0.01949863
105	0x3d8204ad	0.06348548
106	0x3cd65abb	0.02616631
107	0xbd25578e	-0.0403667
108	0x3c8df9eb	0.017331084
109	0xbcff1fd4	-0.031143107
110	0xbcf8284b	-0.03029265
111	0x3d05885e	0.032600753
112	0x3d67bab1	0.056574527
113	0xbcb52acf	-0.02211514
114	0x3cd1151f	0.025522767
115	0x3d9537cb	0.07286032
116	0x3d2039f7	0.03911778
117	0xbd55512c	-0.052079365
118	0x3da0d116	0.0785238
119	0x3ccfcaae	0.0253652
120	0xbd411e99	-0.04714832
121	0x3d4995f9	0.04921529
122	0x3d60d6a6	0.054892205
123	0xbcaa8c35	-0.020818809
124	0xbc10f5a6	-0.00884763
125	0x3d54781c	0.051872358
126	0x3d6c8a0c	0.05774884
127	0x3d8eb2aa	0.06967671
128	0xbc850b7c	-0.016240828
129	0x3d91c4e9	0.07117636
130	0xbcf2a4aa	-0.029619534
131	0xbd571570	-0.05251068
132	0x3dab0809	0.08351142
133	0x3caf09f4	0.02136705
134	0xbc5df8de	-0.013548104
135	0x3d046518	0.032322973
136	0x3c2ec202	0.010666372
137	0x3ce98e8d	0.028510356
138	0x3cc6a0e1	0.024246635
139	0xbc2f5f2f	-0.010703846
140	0x3c4409f2	0.011965262
141	0xbd643018	-0.05570993
142	0xbdb235f6	-0.087016985
143	0xbd8c14c5	-0.06839899
144	0x3cba3ffd	0.02273559
145	0x3cfeadc4	0.031088717
146	0x3cfb530a	0.030679245
147	0x3c45d25d	0.01207408
148	0x3dba3226	0.09091596
149	0x3d6d3d07	0.05791953
150	0xbd8bc38d	-0.06824408
151	0x3d1645d6	0.036687694
152	0x3d92a6db	0.071607314
153	0xbd386b5d	-0.045024265
154	0x3bb928dc	0.005650623
155	0x3c93784e	0.018001702
156	0x3d842503	0.06452372
157	0x3d372eed	0.044722486
158	0xbd1e486f	-0.038643297
159	0x3ca3af49	0.019981043
160	0xbcec3b2f	-0.028836815
161	0x3d3c85d6	0.046026073
162	0xbc6d21a3	-0.014473352
163	0xbd281964	-0.04103984
164	0xbd94fecd	-0.07275162
165	0xbd8c127c	-0.06839463
166	0x3d84eade	0.0649011
167	0x3a9b68a3	0.0011856746
168	0x3dab1814	0.08354202
169	0x3d908164	0.07055929
170	0xbc477a5f	-0.012175172
171	0xbd43725c	-0.047716483
172	0xbd8b551b	-0.06803342
173	0xbd7d219a	-0.061799623
174	0x3aed4857	0.0018103224
175	0xbd047b5c	-0.032344207
176	0x3cbcc4ce	0.023043063
177	0xbd923e0f	-0.07140743
178	0x3ccdfca7	0.025144888
179	0x3af2738a	0.0018497568
180	0x3db7d0b6	0.08975355
181	0x3d1ea81d	0.038734544
182	0xbb5610fa	-0.0032663927
183	0x3c717108	0.014736421
184	0x3c955e82	0.018233541
185	0xbbe1e9f9	-0.006894347
186	0x3a82a91c	0.0009968611
187	0xbced3092	-0.028953824
188	0xbd2701b1	-0.040773097
189	0x3c4086c2	0.011750879
190	0xbd827317	-0.06369608
191	0x399b4e32	0.00029622164
192	0x3d1445a3	0.036199223
193	0x3d815e20	0.06316781
194	0xbd77e7d2	-0.060523815
195	0xbc10a44c	-0.008828234
196	0xbcd74eab	-0.026282629
197	0x3d594acb	0.053049844
198	0x3d8fbf21	0.07018877
199	0xbda26895	-0.07930104
200	0xba95bc8d	-0.001142399
201	0x3c56dfec	0.013114911
202	0x3db2d8fe	0.08732794
203	0xbd182349	-0.037143026
204	0x3d99b03a	0.07504316
205	0xbd5c950b	-0.053853076
206	0x3da6845a	0.08130713
207	0x3d1e4af9	0.03864572
208	0x3da54ad0	0.0807091
209	0x3c095600	0.00838232
210	0x3d14d0d4	0.036331967
211	0x3cbffda3	0.023436373
212	0xbd9b2389	-0.07575137
213	0xbd705e85	-0.05868389
214	0xbd86e3e0	-0.065864325
215	0x3d2a6a73	0.041605424
216	0x3beb36b9	0.0071781543
217	0x3c998b45	0.018743167
218	0xbd92bd56	-0.07165019
219	0xbc45958c	-0.012059581
220	0xbc8fb4ea	-0.017542321
221	0xbda433d7	-0.080177
222	0xbd81b29f	-0.063328974
223	0xbcf8dc0a	-0.03037836
224	0xbcc460a3	-0.023971861
225	0x3cb225de	0.021746572
226	0x3d3a1c63	0.045437228
227	0xbdb47729	-0.088117905
228	0xbc48ed67	-0.012263632
229	0x3dabe924	0.083940774
230	0x3d825850	0.063645005
231	0xbd80b2e1	-0.062841184
232	0xbcdf850d	-0.027285123
233	0xbd8d4044	-0.06897023
234	0xbcc7cfba	-0.024391044
235	0xbd8ad44f	-0.06778776
236	0x3d546aff	0.051859852
237	0xbda102f3	-0.07861891
238	0xbd5fa484	-0.054600254
239	0x3d7a21a6	0.061067246
240	0x3d515351	0.051104847
241	0x3ca82faf	0.02053055
242	0xbdc053cd	-0.09390984
243	0xbd10d68b	-0.035360854
244	0xbd375d5f	-0.04476678
245	0xbd45997d	-0.04824208
246	0x3d8dfdc4	0.069331676
247	0x3dc3796e	0.09544645
248	0xbd954fdb	-0.07290622
249	0x3d92abec	0.07161698
250	0xbcbcd99f	-0.023052989
251	0xbb482448	-0.0030539203
252	0xbdb0841b	-0.08618947
253	0xbd9bbf91	-0.07604898
254	0xbc98b6b6	-0.01864181
255	0x3d5e1ec5	0.054228563

gru1.bias_hh_l0 f4 [384]
0	0xbd189a92	-0.037256785
1	0x3d8ce089	0.06878764
2	0x3d5010b9	0.050797198
3	0xbcb4cebe	-0.022071239
4	0x3bf46a50	0.0074589625
5	0xbda346ed	-0.079725124
6	0xbd89812a	-0.06714089
7	0xbd9069a1	-0.07051397
8	0xbd40c096	-0.047058664
9	0x3d0c942c	0.034320995
10	0x3d69fbd5	0.05712493
11	0xbcf21e98	-0.029555604
12	0x3b3e8d04	0.002907575
13	0xbda6583c	-0.08122298
14	0x3c2a498b	0.010393511
15	0x3d26474a	0.04059533
16	0xbda10169	-0.07861597
17	0x3d9a7813	0.075424336
18	0x3ba3ff3c	0.0050047915
19	0x3b723414	0.003695731
20	0x3cb81c7e	0.022474524
21	0x3da96a7a	0.08272262
22	0xbc8b060e	-0.01697066
23	0xbce044fa	-0.02737664
24	0x3d700a55	0.058603603
25	0x3daa2766	0.08308296
26	0xbd07a7f4	-0.033119157
27	0x3d83a2a2	0.06427504
28	0x3d756997	0.05991515
29	0x3c8987e6	0.016788434
30	0x3b6e7abb	0.003638907
31	0xbda7e6b9	-0.08198304
32	0x3c8cf8c3	0.017208463
33	0xbdb479b6	-0.08812277
34	0xbd98ba16	-0.07457368
35	0x3d7bc132	0.061463542
36	0x3cb64f00	0.022254467
37	0xbd0d81df	-0.034547683
38	0x3d93046f	0.0717858
39	0x3d4069e8	0.046976
40	0xbc8d7355	-0.017266909
41	0x3d013156	0.03154119
42	0xbcecf8bd	-0.028927201
43	0xbccfd543	-0.025370246
44	0x3d9eaee9	0.07748205
45	0x3d794dce	0.060865216
46	0xbd4f59bd	-0.05062269
47	0xbd35239b	-0.04422341
48	0x3d822971	0.063555606
49	0x3d2439ab	0.04009406
50	0xbd839b28	-0.06426078
51	0x3d6a78a0	0.057243943
52	0xbd9990a3	-0.074982904
53	0xbdb0347b	-0.0860376
54	0x3d5773d7	0.052600708
55	0xbd68754a	-0.05675248
56	0xbdc25215	-0.09488312
57	0x3d0cc2de	0.034365527
58	0xbd3880d3	-0.04504473
59	0x3d034c80	0.032055378
60	0x3d434aa7	0.047678616
61	0xbc1f4521	-0.009721071
62	0xbd5135c1	-0.051076654
63	0xba95cc90	-0.0011428762
64	0xbcc9cafe	-0.024632927
65	0x3d73e417	0.059543695
66	0xbc4b1b49	-0.012396642
67	0xbd088668	-0.033331305
68	0x3d6d83fc	0.0579872
69	0x3c55b257	0.013043008
70	0xbc56f704	-0.013120417
71	0x3ceea455	0.029131094
72	0x3d39bc98	0.045345873
73	0x3cb3510b	0.02188923
74	0xbcc0fbea	-0.023557622
75	0xbd08958e	-0.03334575
76	0xbd768440	-0.060184717
77	0xbd8b1b81	-0.06792355
78	0xbd667bdf	-0.056270476
79	0x3d8711e4	0.06595209
80	0xbc0818c5	-0.008306687
81	0xbd06f5cc	-0.032949254
82	0xbd3ed509	-0.046589885
83	0xbd13d712	-0.03609378
84	0x3d0779f6	0.033075295
85	0x3d5b4f04	0.053542152
86	0x3d75eccb	0.060040276
87	0xbda555e2	-0.080730215
88	0x3ac86ede	0.001529183
89	0x3d59fa2b	0.053217094
90	0xbd9db120	-0.076997995
91	0x3d9ef979	0.07762427
92	0x3d92a2b4	0.071599394
93	0x3d818f3b	0.06326147
94	0xbd88f0c1	-0.06686545
95	0xbd468dd1	-0.04847509
96	0xbd6914a7	-0.05690446
97	0x3d42c06f	0.0475468
98	0xbca045cd	-0.019564534
99	0xbcd9ebe5	-0.026601741
100	0x3b9e21f9	0.004825827
101	0x3cb98b78	0.022649512
102	0x3d87b333	0.066259764
103	0xbc73d265	-0.014881705
104	0x3d8cc69e	0.06873821
105	0x3daeb29a	0.08530159
106	0x3da4e7b4	0.08052006
107	0x3d1936a3	0.03740562
108	0xbbcba16e	-0.0062143123
109	0x3d1d6d10	0.03843409
110	0x3d5f5a48	0.05452946
111	0x3da92da7	0.082606606
112	0xbd9a48e9	-0.07533438
113	0x3c011df0	0.007880673
114	0x3b8e93a7	0.0043510976
115	0xbd43859e	-0.04773485
116	0xbda7ab78	-0.08187002
117	0xbd08a5b6	-0.03336116
118	0xbd9bae0a	-0.07601555
119	0xbcd2f594	-0.025751866
120	0xbab73009	-0.0013976108
121	0xbd96e8e7	-0.07368641
122	0x3da94b59	0.082663245
123	0xbc4d24d3	-0.012520987
124	0x3cdb24a3	0.026750868
125	0x3d8cae4c	0.06869182
126	0xbd495fb5	-0.04916354
127	0xbc7bcba1	-0.015368373
128	0x3d225c5d	0.039638866
129	0x3d496f3e	0.049178354
130	0x3d72d052	0.0592807
131	0x3d2913f7	0.041278806
132	0xbdaea25c	-0.08527061
133	0xbc9a654e	-0.018847134
134	0xbd1050cb	-0.0352333
135	0xbda0e17d	-0.078555085
136	0xbd6fbf51	-0.058532063
137	0x3d4555ec	0.048177645
138	0xbd396c9a	-0.045269586
139	0x3d89260c	0.0669671
140	0x3da06551	0.078318246
141	0x3c3aaed6	0.011394223
142	0xbceab0d0	-0.028648764
143	0x3d92dccd	0.07171021
144	0xbc6fec13	-0.014643687
145	0x3d34457e	0.044011585
146	0x3da1196a	0.078661755
147	0xbc7aff1d	-0.015319613
148	0xbd8cade9	-0.06869108
149	0x3d3f0bdb	0.046642166
150	0x3d518d21	0.05115998
151	0xbd994147	-0.07483154
152	0xbcda3ec4	-0.026641257
153	0x3d8fb072	0.07016076
154	0xbd90e023	-0.07074001
155	0x3d9b11d6	0.07571761
156	0x3d4b9403	0.0497017
157	0xbd27e658	-0.040991157
158	0xbd0f9cae	-0.03506153
159	0xbd09995d	-0.033593524
160	0xbd3a35e9	-0.04546157
161	0x3d17fa5e	0.037104003
162	0xbccdb345	-0.025109896
163	0xbc18484b	-0.00929458
164	0xbdb4f4d5	-0.088357605
165	0x3cb49605	0.022044191
166	0x3d94c290	0.07263672
167	0xbb92abf9	-0.004476067
168	0x3ceefb09	0.029172437
169	0xbbbc35c4	-0.005743714
170	0xbd29901a	-0.04139719
171	0x3d66dea7	0.05636468
172	0x3cb52505	0.022112379
173	0x3cd58ede	0.026069101
174	0xbc14f71a	-0.009092117
175	0xbd1894ee	-0.037251405
176	0x3cd509bc	0.026005618
177	0x3cd734db	0.02627032
178	0x3dc231c8	0.09482151
179	0x3d43c987	0.047799613
180	0x3d466921	0.048440102
181	0xbd9ae53b	-0.075632535
182	0xbbcdcf2a	-0.0062807994
183	0xbb64335b	-0.003482065
184	0x3d6bf2fa	0.057604767
185	0xbcb07ced	-0.021543944
186	0xbd54fb9b	-0.051997762
187	0x3cfca311	0.030839475
188	0x3da3d9e6	0.08000545
189	0x3d2c3db6	0.04205104
190	0x3cc2ae38	0.023764715
191	0x3d5c7b83	0.053828727
192	0xbda348b1	-0.07972849
193	0x3d2672a3	0.04063667
194	0x3d1a3bfa	0.037654854
195	0xbd904a4b	-0.0704542
196	0x3d831719	0.0640089
197	0x3ca1dbd0	0.019758135
198	0xbdb53ea2	-0.08849837
199	0x3cb923cb	0.022600075
200	0x3d7f4e60	0.062330604
201	0x3d124b73	0.035716485
202	0x3da293c9	0.07938344
203	0xbc7e624a	-0.015526364
204	0xbd34e80f	-0.04416662
205	0x3d0b1a4a	0.033960618
206	0xbc4f0d6f	-0.01263748
207	0x3d8b2eaa	0.0679601
208	0x3cf1c985	0.029515037
209	0xbc87d732	-0.016582105
210	0x3cfafdc1	0.030638577
211	0x3c559b10	0.013037458
212	0x3d11fc27	0.03564086
213	0xbd8e5cba	-0.0695128
214	0xbd957828	-0.072983086
215	0xbd0cd30d	-0.03438096
216	0x3cf8382a	0.030300219
217	0x3d9d372b	0.07676538
218	0x3b585e04	0.0033015022
219	0xbd8efdd7	-0.0698201
220	0xbd4a957e	-0.049458973
221	0x3d61670e	0.05502992
222	0xbd21ced7	-0.0395039
223	0x3c747975	0.014921536
224	0xbd2599ce	-0.040429883
225	0x3d581476	0.052753888
226	0x3d0f204a	0.034942903
227	0xbd6c7684	-0.057730213
228	0xbd84651f	-0.064646
229	0xbd907b88	-0.07054812
230	0x3d1a4b75	0.037669618
231	0x3d44e7e1	0.0480727
232	0xbd92fddc	-0.07177326
233	0xbcb666ff	-0.02226591
234	0x3d955720	0.072920084
235	0x3c374dee	0.0111880135
236	0x3da15149	0.07876832
237	0xbdb2b59d	-0.08726046
238	0x3d3353f4	0.043781236
239	0xbd906a29	-0.070514984
240	0x3d875371	0.06607712
241	0xbd947f6b	-0.072508655
242	0xbd20c358	-0.039248794
243	0x3d1f82f3	0.038943242
244	0xbdb6c33d	-0.089239575
245	0xbbfee9a1	-0.0077793156
246	0xbcdff423	-0.027338093
247	0x3ccc403e	0.024932977
248	0xbc88d4a3	-0.016702956
249	0x3d5fa319	0.0545989
250	0xbd0b02b3	-0.03393812
251	0xbda5e993	-0.08101191
252	0x3d934c7f	0.07192325
253	0xbc2ff271	-0.010738955
254	0xbd8ff45f	-0.07029032
255	0x3d39d782	0.04537154

gru1.weight_ih_l0_reverse f4 [384, 6]
0	0x3d42d2c5	0.047564287
1	0xbdb1df9c	-0.08685228
2	0x3d8c2323	0.06842639
3	0xbc866fac	-0.016410671
4	0x3d868246	0.065678164
5	0x3d5477e6	0.051872157
6	0xbd890fd7	-0.06692474
7	0xbcb74b21	-0.022374691
8	0xbb86ed57	-0.0041176486
9	0x3c52017d	0.012817738
10	0xbc0ccbfa	-0.008593554
11	0x3d2d1438	0.04225561
12	0xbcdeb7b9	-0.027187215
13	0xbda46b95	-0.08028332
14	0xbd8f7d5c	-0.07006332
15	0xbd5e9e31	-0.05435008
16	0x3cd6d8ce	0.026226427
17	0xbd8f3be9	-0.06993849
18	0xbd5918ea	-0.053002276
19	0x3d8429f6	0.06453316
20	0x3d3605fd	0.044439305
21	0x3b287d5c	0.0025709486
22	0x3d0f9fa0	0.03506434
23	0xbd892556	-0.066965744
24	0x3da725de	0.081615195
25	0xbce9d3ba	-0.028543342
26	0x3cc9ff0a	0.024657745
27	0xbc8c3b25	-0.017118046
28	0x3d940f6f	0.07229506
29	0x3d384c00	0.044994354
30	0xbcc1d6f9	-0.023662077
31	0xbda1ab5a	-0.07894011
32	0x3d9a7ac0	0.07542944
33	0x3bf3cd70	0.0074402615
34	0xbd9dc5e4	-0.0770376
35	0x3c65d739	0.014028364
36	0xbb7f22d7	-0.0038930678
37	0xbc0baff6	-0.008525839
38	0x3d142c1a	0.03617487
39	0xbdaa5911	-0.08317769
40	0x3cb41e75	0.02198718
41	0x3c4d2a88	0.012522347
42	0xbd48ec5c	-0.049053535
43	0xbbcd8e05	-0.0062730336
44	0x3cfb7048	0.030693188
45	0xbd436a6f	-0.047708925
46	0xbda47462	-0.08030011
47	0x3d9252b8	0.071446836
48	0xbd8fafa4	-0.07015923
49	0x3cc698bd	0.024242753
50	0x3cced46f	0.02524778
51	0x3bc141ad	0.0058977217
52	0x3ce53eb6	0.027984004
53	0xbd915c4a	-0.07097681
54	0xbda2a5fc	-0.07941815
55	0x3d8ae9ea	0.06782897
56	0xbc2cc34c	-0.010544609
57	0xbd775761	-0.060386065
58	0xbd45b117	-0.04826459
59	0x3c20a4bd	0.009804902
60	0xbd19578b	-0.037437003
61	0xbca49a33	-0.02009306
62	0xbd6dba6c	-0.058039114
63	0xbd6d2856	-0.057899795
64	0x3d7533af	0.059863742
65	0xbda27b74	-0.07933703
66	0x3da8107b	0.082062684
67	0xbc671798	-0.014104746
68	0xbb1f7214	-0.002432947
69	0xbdb48f33	-0.088163756
70	0xbbf43f75	-0.0074538537
71	0x3d39ca8e	0.045359187
72	0x3d400712	0.046881743
73	0xbc98896d	-0.018620217
74	0x3da82e4a	0.08211954
75	0x3d0f5597	0.034993734
76	0x3bf19b3f	0.007373243
77	0xbda590f8	-0.08084291
78	0xbd28126f	-0.041033205
79	0x3d8ad006	0.067779586
80	0x3da69b8f	0.08135139
81	0x3d9b569f	0.07584881
82	0x3cfaf2d6	0.030633371
83	0x3d8a2428	0.067451775
84	0xbd315426	-0.04329314
85	0xbceaa1af	-0.02864155
86	0xba860af1	-0.001022665
87	0xbd5b4fe3	-0.053542983
88	0x3d18e20f	0.03732496
89	0xbd47ee61	-0.04881132
90	0xbd51320d	-0.051073123
91	0xbd1ea528	-0.038731724
92	0x3cb3040e	0.02185252
93	0x3cafc32a	0.021455366
94	0x3d12a3e5	0.035800833
95	0xbcef3181	-0.02919841
96	0xbdb089a6	-0.08620004
97	0x3d8c5404	0.06851962
98	0xbd70cbd4	-0.058788136
99	0x3d96f8f1	0.073717006
100	0xbc244242	-0.010025563
101	0xbbe0db78	-0.0068621
102	0xbc96de5b	-0.018416574
103	0xbda55974	-0.080737025
104	0xbd4bc16e	-0.049745016
105	0x3cb19ca7	0.021681143
106	0x3d0b7aba	0.034052588
107	0x3c3c141c	0.011479404
108	0xbdbc16b6	-0.09184019
109	0xbca72dc1	-0.02040756
110	0xbd2e8c45	-0.04261424
111	0x3d85aaf5	0.06526748
112	0xbd871f77	-0.06597798
113	0x3d92c0b9	0.07165665
114	0xbc8ef2e7	-0.01744981
115	0xbd7a0c6a	-0.061046995
116	0xbb9e42ae	-0.004829726
117	0x3d64912d	0.055802513
118	0x3cc8c350	0.024507195
119	0xbd66b572	-0.056325383
120	0xbd294991	-0.041329924
121	0xbda3ca10	-0.07997525
122	0x3cc93623	0.024561947
123	0x3d75b155	0.05998357
124	0x3d92a96a	0.071612194
125	0xbd8657a6	-0.06559686
126	0xbd812799	-0.06306381
127	0x3d043519	0.0322772
128	0x3c5d0cf0	0.013491854
129	0xbc838e41	-0.016059043
130	0x3cc815c3	0.02442444
131	0xbb429b0d	-0.0029694468
132	0xbc5da48a	-0.013527999
133	0x3dac16bc	0.08402774
134	0x3cb97757	0.022639913
135	0xbca842aa	-0.0205396
136	0xbda3761c	-0.07981512
137	0x3d8099fd	0.06279371
138	0x3bde4f5b	0.0067843623
139	0xbd7b19b3	-0.061303806
140	0x3ceadb44	0.028669007
141	0x3daf4dd5	0.08559767
142	0x3d431182	0.04762412
143	0xbdd6d2ce	-0.104894266
144	0xbd95832a	-0.07300408
145	0xbdca6031	-0.09881628
146	0xbc890c70	-0.016729563
147	0xbc708e2f	-0.014682337
148	0x3d7dea58	0.061991066
149	0xbd107cab	-0.035275143
150	0xbc3f4c30	-0.011675879
151	0xbd110090	-0.035400927
152	0x3d0b360c	0.03398709
153	0xbd651e7b	-0.05593727
154	0xbd3c185e	-0.045921676
155	0x3d75fa05	0.06005289
156	0x3c47f99c	0.012205508
157	0x3bd21ea3	0.0064123436
158	0xbdaaa491	-0.0833217
159	0x3d99cabd	0.075093724
160	0xbd820934	-0.063494116
161	0x3d41ca07	0.04731181
162	0x3d9eaab1	0.077474006
163	0x3d883782	0.06651212
164	0x3c4f8e0e	0.012668146
165	0xbdb07580	-0.08616161
166	0xbcde267f	-0.027117966
167	0xbd803468	-0.06259996
168	0xbd9227d1	-0.071365006
169	0xbd27213f	-0.04080319
170	0x3ca0130b	0.01954033
171	0xbc945351	-0.018106135
172	0xbd999430	-0.07498968
173	0x3dc5806c	0.09643635
174	0xbd2a60e7	-0.04159632
175	0x3ce4c542	0.027926091
176	0xbc0eed13	-0.008723515
177	0xbdb35d37	-0.08758014
178	0x3c817e87	0.015807403
179	0xbd98975b	-0.07450744
180	0x3cc3ad6d	0.023886407
181	0x3db84408	0.08997351
182	0x3d772961	0.060342196
183	0xbcdb80b3	-0.026794767
184	0x3d129d4f	0.035794552
185	0xbd802376	-0.06256764
186	0xbdabf689	-0.08396632
187	0x3cd2af5e	0.025718387
188	0x3d00b846	0.031425737
189	0x3dad7614	0.08469787
190	0xbdbaf187	-0.09128099
191	0xbba77a5c	-0.005111022
192	0x3d5bf816	0.05370339
193	0x3da318b0	0.07963693
194	0xbcba348b	-0.022730133
195	0x3d9186c6	0.07105784
196	0xbc4f6f74	-0.01266085
197	0x3da66d1e	0.08126281
198	0x3c827cc3	0.015928632
199	0xbd65b073	-0.05607648
200	0x3d85d765	0.06535224
201	0xbd8116c6	-0.06303172
202	0xbd277369	-0.040881548
203	0x3d186965	0.037209887
204	0xbdb21150	-0.08694708
205	0xbda21014	-0.07913223
206	0xbdb3cbd8	-0.087791145
207	0x3da76ca5	0.08175019
208	0x3dc4298d	0.09578238
209	0x3da0424c	0.07825145
210	0xbcd1f52a	-0.025629599
211	0xbd9c083d	-0.07618759
212	0x3c0e0a2d	0.008669418
213	0xbcfc03a3	-0.030763453
214	0xbcdbd3a5	-0.026834318
215	0xbc8e60d3	-0.017380154
216	0xbc91df71	-0.01780674
217	0xbd8a7b80	-0.06761837
218	0x3c95e2f3	0.018296694
219	0x3d627255	0.055284817
220	0x3d1e8d2e	0.03870886
221	0xbd63c9b3	-0.055612277
222	0xbcedb45a	-0.029016662
223	0x3d90cfa1	0.07070852
224	0xbd1907c2	-0.037360914
225	0xbd0e8520	-0.034794927
226	0xbd944252	-0.07239212
227	0x3dc59a02	0.09648515
228	0x3c7e9381	0.015538097
229	0x3d2d2800	0.042274475
230	0xbb001be7	-0.001954788
231	0xbd2ac372	-0.041690297
232	0x3d9d9d01	0.07695962
233	0x3b17223a	0.0023061172
234	0xbbe63728	-0.007025618
235	0x3d89445c	0.06702492
236	0x3c9f2700	0.019427776
237	0x3da6792d	0.08128581
238	0x3d42ec63	0.047588717
239	0xbc9fbe44	-0.019499905
240	0xbcd0b8fe	-0.025478836
241	0x3cfe7f19	0.031066464
242	0x3d7583e9	0.059940252
243	0xbd89e993	-0.06734004
244	0xbbc587e5	-0.006028163
245	0xbc22be46	-0.00993306
246	0xbd6f8a9c	-0.058481798
247	0xbcc54c20	-0.02408415
248	0x3d2e66dc	0.042578563
249	0x3daeefdd	0.08541844
250	0x3d2719cc	0.040796086
251	0xbdc61c18	-0.09673327
252	0xbccd38c0	-0.025051475
253	0x3da1ea28	0.0790599
254	0x3d8f3390	0.06992257
255	0x3c0462ab	0.008080165

gru1.weight_hh_l0_reverse f4 [384, 128]
0	0x3c19b0bd	0.009380517
1	0xbd89f040	-0.06735277
2	0x3d0175b0	0.031606376
3	0x3d638c6b	0.055553835
4	0xbc973153	-0.018456137
5	0x3d79a490	0.060947955
6	0x3d3b2d22	0.04569734
7	0x3d9182ed	0.0710505
8	0x3d761d98	0.060086817
9	0xbdbbdff4	-0.09173575
10	0x3dabd79e	0.08390735
11	0xbd2e4cb9	-0.042553637
12	0x3cab3a95	0.020901958
13	0x3da21ff9	0.079162546
14	0xbd1cbf4a	-0.038268365
15	0x3c37081e	0.011171369
16	0xbdc052a0	-0.093907595
17	0x3a20a8fa	0.0006128695
18	0xbcd80d58	-0.02637355
19	0xbbeb772f	-0.0071858387
20	0x3d0a4c86	0.033764385
21	0xbcb98d45	-0.02265037
22	0x3cf133bc	0.029443614
23	0xbc880f05	-0.016608724
24	0xbcc5f125	-0.024162838
25	0x3d6f3649	0.05840138
26	0xbd8c2f8f	-0.068450086
27	0x3d1889e3	0.037240874
28	0x3d702b21	0.05863488
29	0xbd53e460	-0.051731467
30	0xbc178375	-0.00924765
31	0xbd2307c6	-0.039802335
32	0x3a6a936e	0.00089483603
33	0xbd766f5f	-0.060164806
34	0xbc8f2dd8	-0.017477915
35	0x3ca347a5	0.019931624
36	0x3d6bc78a	0.057563342
37	0x3a9285c0	0.0011178777
38	0xbcbb66f1	-0.022876235
39	0xbb847569	-0.0040423167
40	0xbdb04e77	-0.08608716
41	0xbd073d94	-0.03301771
42	0x3c8013e5	0.015634486
43	0xbc5c0855	-0.013429721
44	0xbcba4e87	-0.022742523
45	0x3c598faf	0.013278886
46	0x3d727587	0.059194114
47	0xbc8f928a	-0.01752593
48	0x3d9faad7	0.07796257
49	0x3dbeb4e2	0.093118444
50	0x3c9dbbc3	0.01925457
51	0xbd623189	-0.05522302
52	0x3c8de75d	0.017322237
53	0xbd99aa0c	-0.07503137
54	0xbcb0f977	-0.02160333
55	0x3d2c51bd	0.04207014
56	0x3d4622db	0.048373085
57	0xbd1146b1	-0.035467807
58	0xbd88509d	-0.06656001
59	0xbd93b22e	-0.072117195
60	0xbd916d54	-0.07100931
61	0xbdac4a7d	-0.08412645
62	0xbd62367f	-0.055227753
63	0x3ce58b1d	0.028020436
64	0xbd898e44	-0.06716588
65	0x3d0ce9b5	0.034402568
66	0xbd8394ab	-0.064248405
67	0xbc9b3d84	-0.018950231
68	0xbd0760ec	-0.033051416
69	0x3db7d2c5	0.08975748
70	0xbd196495	-0.037449438
71	0x3d8711ba	0.06595178
72	0xbd85f602	-0.06541063
73	0xbd3645f7	-0.044500317
74	0xbbdeebc0	-0.006803006
75	0x3cbc63ad	0.022996748
76	0xbd21a08e	-0.039459758
77	0x3d891207	0.066928916
78	0xbc71c4cc	-0.014756393
79	0xbd744099	-0.059631918
80	0xbd97662f	-0.07392537
81	0xbc637ec3	-0.013885203
82	0xbd63816a	-0.05554334
83	0xbd2411ee	-0.04005616
84	0xbd95fb99	-0.07323379
85	0xbd3341ee	-0.043764047
86	0xbd5ea3e0	-0.054355502
87	0xbd822637	-0.06354945
88	0x3cea5a27	0.028607441
89	0xbdad03d8	-0.08447999
90	0x3b644256	0.0034829578
91	0x3d23b5e8	0.0399684
92	0xbd80635f	-0.062689535
93	0x3ad0ef0a	0.001594038
94	0x3d305dcf	0.043058213
95	0xbd8a5f57	-0.06756466
96	0x3d432d63	0.047650706
97	0x3d19c367	0.037539866
98	0xbd728881	-0.05921221
99	0xbd885d71	-0.066584475
100	0x3ccab544	0.024744637
101	0xbc192ce5	-0.009349083
102	0x3d2bd414	0.0419503
103	0xbd197678	-0.037466496
104	0x3d87c8ec	0.0663012
105	0x3b1654c8	0.0022938717
106	0x3dbb5523	0.09147098
107	0x3c9864e9	0.018602805
108	0xbcc9c98c	-0.024632238
109	0xbd02628f	-0.031832274
110	0xbc280f74	-0.010257591
111	0x3d0afec1	0.03393436
112	0xbd203404	-0.039112106
113	0xbdb1c636	-0.08680384
114	0xbd94bc85	-0.0726252
115	0xbd1c174a	-0.038108148
116	0x3c776b7b	0.015101309
117	0xbc45663e	-0.012048302
118	0xbc57b48d	-0.013165605
119	0xbd55f67e	-0.052237026
120	0xbd2bf3a4	-0.0419804
121	0xbc59688f	-0.013269558
122	0x3d3a13ed	0.04542916
123	0x3d8aebb5	0.06783239
124	0x3cf8337d	0.030297989
125	0xbc7288d0	-0.014803126
126	0xbc591e3d	-0.013251838
127	0xbd38da80	-0.045130253
128	0x3cc9792c	0.024593912
129	0xbd8e1d27	-0.06939154
130	0xbd842f72	-0.06454362
131	0xbd9440ca	-0.0723892
132	0x3d71d6f8	0.0590429
133	0x3d144ddb	0.03620706
134	0x3d3a54ac	0.045490906
135	0x3d95cd62	0.07314564
136	0x3d374dc0	0.044751883
137	0xbb8199a9	-0.0039550853
138	0x3d767098	0.06016597
139	0x3d7808e3	0.06055535
140	0xbd8c80fa	-0.06860538
141	0xbd4aa8e8	-0.049477488
142	0xbd26ad97	-0.040692892
143	0x3d98ce36	0.074612066
144	0xbd5bcf4c	-0.05366449
145	0x3c2a252f	0.010384842
146	0xbd221d1d	-0.039578546
147	0x3d6a1576	0.057149373
148	0x3cbb66cc	0.022876166
149	0xbd4f0547	-0.050542142
150	0x3bf971c5	0.0076124393
151	0x3d2330fa	0.03984163
152	0xbd8d2884	-0.06892493
153	0xbd84e825	-0.064895906
154	0xbd995051	-0.07486022
155	0xbb4fb6f6	-0.0031694747
156	0xbc2da963	-0.010599467
157	0x3d937779	0.07200522
158	0xbd672dd6	-0.056440197
159	0x3cbc2bd0	0.02297011
160	0xbd5fc426	-0.05463042
161	0xbdaf075d	-0.08546326
162	0xbda4b605	-0.0804253
163	0xbd7b6015	-0.061370928
164	0x3c58bdd3	0.013228851
165	0xbd1b3527	-0.037892487
166	0x3d2fae42	0.042890795
167	0x3c7cabd4	0.015421826
168	0x3da0c71f	0.07850479
169	0x3d1c1179	0.0381026
170	0xbda39ca9	-0.07988865
171	0x3cfd1fbc	0.030898921
172	0x3d1b4627	0.0379087
173	0x3d2cb7d6	0.042167507
174	0xbd460492	-0.048344202
175	0x3d4633ce	0.04838925
176	0x3ccabc5b	0.024748018
177	0x3d169125	0.036759514
178	0xbadcc1fd	-0.0016842481
179	0xbd714623	-0.05890478
180	0xbb5ce9d6	-0.0033708713
181	0xbdaa2e6b	-0.08309635
182	0xbba1f1ca	-0.0049421536
183	0xbd6d95e8	-0.05800429
184	0xbc38ee1f	-0.011287241
185	0x3c5cdf67	0.013480998
186	0xbd9493c8	-0.072547495
187	0xbd688998	-0.056771845
188	0xbc628002	-0.013824465
189	0x3d7fefae	0.062484436
190	0xbdb462be	-0.08807896
191	0xbd663eba	-0.056212164
192	0x3c395600	0.011312008
193	0xba71324a	-0.0009200914
194	0x3d46ac0a	0.048503913
195	0x3cd0d3c8	0.02549161
196	0x3d71df33	0.05905075
197	0xbcc43b7d	-0.023954147
198	0xbdaa8dbb	-0.08327814
199	0x3d2b5949	0.041833196
200	0x3d92215f	0.07135271
201	0xbda79b8b	-0.08183964
202	0x3d09c19e	0.033631913
203	0x3cd82d7a	0.026388872
204	0x3db255f8	0.087078035
205	0xbd97f4a5	-0.07419709
206	0x3d9edab7	0.0775656
207	0x3d847baf	0.06468903
208	0x3d085bbe	0.033290617
209	0x39d65989	0.0004088397
210	0xbb9c3c7d	-0.004767953
211	0xbc76ab77	-0.015055529
212	0x3d565480	0.05232668
213	0xbbf4ac7f	-0.007466852
214	0x3db34ba4	0.08754662
215	0xbd688bdc	-0.056774005
216	0x3d989b52	0.074515
217	0xbd1b29d0	-0.037881672
218	0xbd22112c	-0.039567158
219	0x3d3535db	0.044240814
220	0x3c23fb74	0.010008682
221	0x3d1a3103	0.037644397
222	0x3d4080ca	0.046997823
223	0x3d936e82	0.07198812
224	0xbd9177f2	-0.07102956
225	0xbc9e63e7	-0.019334747
226	0x3da8bc07	0.08238988
227	0xbd326164	-0.04354991
228	0xbd0cf4b9	-0.034413073
229	0x3d2b5505	0.041829128
230	0x3d68a0b8	0.0567939
231	0x3d44dd0a	0.04806236
232	0x3d771195	0.060319502
233	0xbd6ce3d4	-0.05783446
234	0xbd93a5c5	-0.072093524
235	0x3bc71e57	0.006076615
236	0xbc3d19e6	-0.011541819
237	0xbd7c758b	-0.061635535
238	0x3d878433	0.06617012
239	0x3d6f919d	0.058488477
240	0xbcd70b14	-0.0262504
241	0x3c8f1c8e	0.01746967
242	0x3cf83535	0.030298809
243	0xbc923cfb	-0.017851343
244	0xbd758747	-0.059943464
245	0xbd0f4cba	-0.03498528
246	0x3b96ae18	0.0045983903
247	0x3d4337d7	0.047660675
248	0x3db87ac2	0.09007789
249	0x3b57a51e	0.0032904814
250	0xbc030093	-0.007995742
251	0xbd19ca5a	-0.037546493
252	0xbce35029	-0.027748184
253	0x3dad8f94	0.08474651
254	0xbd3113a5	-0.043231625
255	0x3d834113	0.06408896

gru1.bias_ih_l0_reverse f4 [384]
0	0xbd746471	-0.0596661
1	0xbd85e5c3	-0.06537964
2	0xbd9539c7	-0.07286411
3	0xbc4c8b81	-0.012484432
4	0x3d4e5f51	0.05038387
5	0x3d00246e	0.031284742
6	0x3c597f10	0.013274923
7	0xbdada7f6	-0.08479302
8	0xbd914791	-0.07093728
9	0xbd152c26	-0.036419056
10	0x3d57078e	0.05249744
11	0xbd9a620d	-0.07538233
12	0x3d42b532	0.047536083
13	0x3d569573	0.05238862
14	0x3d8d566e	0.06901251
15	0x3d878735	0.066175856
16	0xbd9eb0f6	-0.07748596
17	0xbdac3d1a	-0.08410092
18	0xbd3d1541	-0.046162847
19	0x3d736309	0.05942062
20	0xbd8c9969	-0.06865198
21	0x3d2f32bd	0.042772997
22	0x3d281c1d	0.041042436
23	0x3d81a439	0.06330151
24	0xbd84c7ae	-0.064833984
25	0x3c840a2a	0.016118128
26	0x3cf3be67	0.029753877
27	0xbcb53b08	-0.022122875
28	0xbd85844a	-0.06519373
29	0x3ce25c42	0.027631883
30	0xbcaf0b32	-0.021367643
31	0xbdb58a46	-0.08864264
32	0xbd6e7890	-0.058220446
33	0x3d188168	0.037232786
34	0x3c4a0d80	0.01233232
35	0xbda7571b	-0.08170911
36	0x3d9e5275	0.07730571
37	0x3d3912bb	0.04518388
38	0xbd931641	-0.07181979
39	0x3d710853	0.05884583
40	0xbc0e2d11	-0.008677737
41	0xbda19f3c	-0.078917
42	0x3c9bc373	0.019014096
43	0x3da20ab3	0.07912197
44	0xbc216884	-0.009851579
45	0x3d77064f	0.06030875
46	0xbd94f756	-0.07273738
47	0x3ce67fa7	0.028137041
48	0xbd7c3c20	-0.061580777
49	0x3c6e44d2	0.014542775
50	0xbd0c311a	-0.034226514
51	0xbcfc9339	-0.03083192
52	0x3d5578cb	0.05211715
53	0x3c9ca303	0.019120699
54	0x3c89e439	0.016832458
55	0x3c2cc80f	0.010545745
56	0xbd0c64a5	-0.03427567
57	0xbd9c638e	-0.07636176
58	0x3d23cd4b	0.039990705
59	0xb9cde3af	-0.00039270284
60	0xbd784bcf	-0.06061917
61	0xbc364e90	-0.011127129
62	0xbc8efb36	-0.017453771
63	0x3d2e4b81	0.042552475
64	0x3d0ff1c7	0.035142686
65	0x3d8f03a8	0.06983119
66	0x3da1e0bb	0.07904192
67	0xbdb7d500	-0.089761734
68	0xbd351c36	-0.044216357
69	0x3d39a053	0.045318913
70	0x3da3a779	0.07990927
71	0x3d29b851	0.041435543
72	0xbcb1998a	-0.021679658
73	0xbd53208c	-0.05154471
74	0xbdad0563	-0.08448293
75	0x3d10d9d4	0.035363987
76	0xbd6ccaf4	-0.05781074
77	0x3d69ee46	0.057112
78	0xbdaf33dc	-0.08554813
79	0xbbce2c8f	-0.006291933
80	0x3d46c1c2	0.048524626
81	0x3d4d1822	0.050071843
82	0xbd826cc8	-0.063684046
83	0xbd9fa20e	-0.07794581
84	0xbd8786b9	-0.06617493
85	0x3db41f77	0.08795064
86	0xbd8467e8	-0.06465131
87	0xbd29183c	-0.041282877
88	0x3d1b7cb0	0.03796071
89	0x3d073018	0.03300485
90	0xbd4dad1d	-0.05021392
91	0x3ba4bcc9	0.0050273878
92	0x3db76345	0.08954481
93	0x3cb9239c	0.022599988
94	0xbca90103	-0.020630365
95	0x3ce9d1a0	0.02854234
96	0x3d09eb5e	0.03367173
97	0xbc9e869b	-0.019351294
98	0x3bc441bf	0.005989283
99	0xbd9d0d4d	-0.076685525
100	0x3d155158	0.03645453
101	0xba2df45a	-0.00066358375
102	0x3c7ed95d	0.015554753
103	0xbd4fb287	-0.050707366
104	0xbd49505a	-0.049148895
105	0x3d48eeaf	0.04905575
106	0xbd80c20d	-0.06287012
107	0xbcb39176	-0.021919947
108	0xbbc9b0e0	-0.0061551183
109	0x3cd18583	0.025576359
110	0x3d7a864f	0.061163243
111	0xbdbc1dae	-0.091853485
112	0xbc05df1d	-0.00817087
113	0x3d6b4688	0.05744031
114	0xbd1ea1f3	-0.038728666
115	0xbd76703b	-0.060165625
116	0x3d7f6254	0.062349632
117	0x3dafb2c2	0.08579017
118	0x3c84eedb	0.016227176
119	0x3d5da6ab	0.054114025
120	0xbd13622a	-0.03598229
121	0x3da41b70	0.08013046
122	0x3c6c2c80	0.0144149065
123	0x3be54804	0.0069971103
124	0xbd156591	-0.036473814
125	0xbd512c0a	-0.05106739
126	0x3d00a7ea	0.031410135
127	0xbc7a97d8	-0.015294991
128	0xbcdf7ef9	-0.027282225
129	0x3d1c974b	0.03823022
130	0x3d394536	0.04523202
131	0xbd7952c5	-0.06086995
132	0xbd98334d	-0.0743166
133	0x3c907438	0.017633542
134	0xbcc9bb5f	-0.024625478
135	0x3ca703f3	0.020387625
136	0xbd150f32	-0.036391445
137	0xbda9cf42	-0.082914844
138	0xbcf14956	-0.029453915
139	0x3d5fc94c	0.05463533
140	0xbd97b6b1	-0.074078925
141	0xbd99e1fe	-0.07513808
142	0x3d5f136e	0.05446189
143	0x3d038c3b	0.032116156
144	0x3b931ded	0.0044896514
145	0xbcb9b610	-0.022669822
146	0x3d3d85eb	0.046270292
147	0xbd95ba57	-0.07310932
148	0xbc7c44ab	-0.015397231
149	0xbcb264de	-0.021776613
150	0x3da4828a	0.08032711
151	0xbd576f7c	-0.052596554
152	0x3c9383fa	0.018007267
153	0x3cba0475	0.022707203
154	0x3d0527f2	0.032508798
155	0x3d66d51a	0.056355573
156	0x3d07c6f3	0.033148717
157	0xbb5750c5	-0.003285454
158	0x3d233a76	0.039850675
159	0xbcce76db	-0.02520316
160	0xbd987449	-0.07444055
161	0x3d774050	0.060364068
162	0x3cb688a3	0.02228195
163	0x3dac35f8	0.08408731
164	0x3c8145ff	0.015780447
165	0xbd1d82d8	-0.03845486
166	0xbdab9ec5	-0.08379892
167	0xbcb29ca0	-0.0218032
168	0xbc472f7a	-0.012157315
169	0x3c94b0fc	0.018150799
170	0xbdb267a4	-0.08711174
171	0x3db53500	0.088479996
172	0x3d850590	0.064952016
173	0x3cedb542	0.029017095
174	0x3b5364ef	0.0032256206
175	0xbd555e0d	-0.052091647
176	0x3bd0462a	0.0063560205
177	0x3d18bdec	0.0372905
178	0x3c3eb7d6	0.01164051
179	0xbc295495	-0.010335107
180	0xbd8cff1d	-0.068845965
181	0xbbcdc364	-0.006279396
182	0x3ca8e49e	0.020616826
183	0x3d56e127	0.052460816
184	0xbcd7a571	-0.026324006
185	0x3daaf81f	0.083481066
186	0x3c8c8ac9	0.017156022
187	0x3d70a294	0.058748797
188	0x3c11ccbe	0.008898912
189	0x3d3402f8	0.043948144
190	0xbcb2525e	-0.021767791
191	0x3b80b988	0.003928367
192	0x3d7b03fa	0.06128309
193	0x3d2d311e	0.04228317
194	0x3c815e25	0.015791962
195	0xbd8de559	-0.0692851
196	0x3dababa8	0.0838235
197	0xbca40195	-0.020020286
198	0xbd20f5c8	-0.039296895
199	0x3d7d368f	0.06181961
200	0xbd84eca2	-0.064904466
201	0xbb44bfe9	-0.0030021614
202	0x3d6c7844	0.05773188
203	0xbc149e9d	-0.0090710195
204	0xbd293fed	-0.04132073
205	0x3d502773	0.05081887
206	0x3d858fa8	0.06521541
207	0x3d9a1d4a	0.07525118
208	0xbd91b7fe	-0.07115172
209	0x3bb653b7	0.005564179
210	0x3bc6c51a	0.006065977
211	0xbda9ec09	-0.08296973
212	0xbd99dbc4	-0.0751262
213	0x3cc1d421	0.023660721
214	0x3db2c9a8	0.08729869
215	0x3d34e9aa	0.044168152
216	0xbd4cf836	-0.0500414
217	0xbd21990c	-0.039452597
218	0xbcd5f376	-0.026117068
219	0x3d6f82e4	0.058474436
220	0xbcd846f7	-0.026401026
221	0xbc181ef7	-0.009284726
222	0x3d30e546	0.043187402
223	0xbbe7f5eb	-0.0070788763
224	0x3c6b6a32	0.014368581
225	0x3db9f28f	0.090794675
226	0x3d809375	0.06278125
227	0x3d38ae0f	0.04508787
228	0xbc162be7	-0.009165741
229	0x3d8f7662	0.070050016
230	0xbda407ba	-0.08009286
231	0x3b77331e	0.0037719677
232	0xbd9776be	-0.07395695
233	0xbbc01ad3	-0.0058625727
234	0xbd6dfadd	-0.05810057
235	0x3da38edf	0.07986235
236	0xbd8a306a	-0.067475155
237	0x3d9bc725	0.07606343
238	0xbae3c938	-0.0017378693
239	0xbd38449c	-0.044987306
240	0xbd441000	-0.04786682
241	0xbd12928e	-0.035784297
242	0x3c26977d	0.010167954
243	0x3db22c02	0.086998
244	0xbc85bc28	-0.016325071
245	0x3c939e39	0.018019782
246	0x3c2b8f47	0.010471172
247	0x3c84f147	0.016228331
248	0x3d953cc0	0.07286978
249	0xbda2b46e	-0.079445705
250	0xbc4088cd	-0.011751366
251	0x3d49c3ad	0.049258877
252	0x3d4d5e19	0.050138567
253	0xbd9af610	-0.07566464
254	0x3d1e8f7f	0.038711067
255	0x3d4bef79	0.049788926
