results/models/DAX40_GRU_model.pth (torch, 683191 bytes, 19 tensors)

gru1.weight_ih_l0 f4 [384, 6]
0	0x3d74c2dc	0.059756145
1	0xbc3c57d2	-0.011495547
2	0x3d96c0c2	0.073609844
3	0x3d8642ac	0.065556854
4	0x3cd6f4f9	0.026239859
5	0xbcdd45c9	-0.027010815
6	0x3cb84bf8	0.022497162
7	0x3a9e0008	0.0012054453
8	0x3d4c97ce	0.04994946
9	0xbdaad5cd	-0.083415605
10	0xbd9bdc2a	-0.07610352
11	0x3b41e61a	0.0029586614
12	0xbcede513	-0.029039895
13	0x3d9088f9	0.070573755
14	0x3d3e4471	0.04645199
15	0x3d1db319	0.03850088
16	0xbd82bf24	-0.063841134
17	0x3d128e7b	0.03578041
18	0x3d83818e	0.06421195
19	0xba944d68	-0.0011314573
20	0x3d0ecc96	0.034863077
21	0xbdaeda9b	-0.085377894
22	0x3cd4d760	0.025981605
23	0xbd3c574c	-0.04598169
24	0xbbb724c4	-0.0055890996
25	0x3d94d28a	0.0726672
26	0x3d80cc2d	0.062889434
27	0x3d887e11	0.0666467
28	0x3d637076	0.055527173
29	0xbcd1996f	-0.025585858
30	0xbcfd8e1a	-0.030951548
31	0xbd930e70	-0.07180488
32	0xbb93733f	-0.0044998224
33	0x3d918795	0.07105938
34	0x3d4bf0bb	0.049790125
35	0x3c5fd9ff	0.013662814
36	0x3c8b6e06	0.017020237
37	0xbd8bcf74	-0.06826678
38	0xbd0a8934	-0.033822253
39	0xba8bc92d	-0.0010664813
40	0xbcb493ca	-0.022043128
41	0x3d3e9e56	0.04653772
42	0x3d89e975	0.067339815
43	0x3dbb7a96	0.09154241
44	0x3d80fe2b	0.06298479
45	0x3d9ad792	0.07560648
46	0x3d52dad4	0.051478222
47	0xbcbc2df4	-0.02297113
48	0xbd782903	-0.060585987
49	0x3c8f1658	0.017466709
50	0x3b99765f	0.0046833004
51	0x3c466b77	0.012110583
52	0x3d2b0e02	0.041761406
53	0xbd4ff895	-0.050774176
54	0x3d89bbd0	0.067252755
55	0xbd6cf2dc	-0.057848796
56	0xbbfa3b27	-0.007636446
57	0x3d43480a	0.047676124
58	0x3daf2945	0.085527934
59	0x3ce6beb8	0.028167114
60	0x3b120fa4	0.0022287155
61	0x3d93131b	0.071813785
62	0x3d245eb3	0.040129375
63	0x3cfdeed8	0.030997679
64	0xbc36f2ae	-0.011166258
65	0xbc7d1eaa	-0.015449205
66	0x3bbb5649	0.005717073
67	0x3c30613e	0.010765372
68	0x3d2b020b	0.041749995
69	0x3d8b9cf2	0.06817044
70	0x3ca48515	0.02008299
71	0xbc03034b	-0.007996391
72	0x3d7d383f	0.06182122
73	0xbd8df7f0	-0.06932056
74	0x3c69fd55	0.0142815905
75	0xbda474c8	-0.08030087
76	0xbd46c5d2	-0.0485285
77	0xbcdd5141	-0.027016284
78	0x3d0bcaf1	0.034129087
79	0x3d9e8ef1	0.07742108
80	0xba02ed78	-0.0004994492
81	0x3dc83881	0.09776402
82	0x3d926d2c	0.07149729
83	0x3d86d931	0.06584395
84	0x3d9480d7	0.07251137
85	0xbcc6b9d8	-0.02425854
86	0xbd16e970	-0.036843717
87	0xbd0499cb	-0.03237323
88	0x3cf87257	0.030327959
89	0x3dae321c	0.08505651
90	0xbd1a49d3	-0.03766806
91	0xbcdf405b	-0.027252367
92	0xbd6e6b99	-0.058208082
93	0x3cd4146e	0.025888648
94	0xbcf8dd20	-0.030378878
95	0x3d8b8b46	0.06813674
96	0xbc65835e	-0.014008371
97	0x3da1466e	0.078747615
98	0xbd8b745a	-0.06809302
99	0xbd13cb78	-0.036082715
100	0xbc44fdaa	-0.012023369
101	0xbc2d721b	-0.010586287
102	0x3db1d7d9	0.08683748
103	0xbbb09698	-0.005389046
104	0x3d7d9472	0.061909147
105	0xbc0cd56e	-0.0085958075
106	0x3ce2ae2e	0.027670946
107	0xbbd02a15	-0.006352673
108	0x3da94806	0.082656905
109	0xbba75595	-0.0051066377
110	0x3d7daa50	0.06193
111	0x3c750f0f	0.0149572035
112	0x3d83d33c	0.06436774
113	0x399327c1	0.00028067644
114	0x3db5e9ff	0.08882522
115	0x3d8e81cd	0.06958351
116	0xbcd86336	-0.026414495
117	0x3d65c34b	0.05609445
118	0xbdb87e73	-0.09008493
119	0x3d0f3764	0.034964934
120	0x3d4de735	0.050269324
121	0xba80908f	-0.0009808707
122	0x3d119214	0.0355397
123	0xbdb4a805	-0.0882111
124	0xbd6e21d8	-0.058137745
125	0xbd71b51a	-0.059010603
126	0x3c38e046	0.01128394
127	0xbcbc1a1b	-0.022961667
128	0x3c36a3c5	0.011147444
129	0x3b90db8b	0.004420703
130	0x3dcadb98	0.099051654
131	0xbd84bf20	-0.06481767
132	0x3d7654e1	0.06013954
133	0x3dacb944	0.08433774
134	0x3d77bb81	0.060481552
135	0x398cd3ab	0.00026860586
136	0x3a630b69	0.0008661063
137	0x3d84991d	0.064745165
138	0x3d9f0e2b	0.07766374
139	0xbd442cff	-0.047894474
140	0xbdaef89a	-0.08543511
141	0xbbeb2d96	-0.007177065
142	0xbc146a46	-0.009058541
143	0x3d90f70c	0.070783705
144	0xbc9cce48	-0.019141331
145	0x3d9e98f6	0.07744019
146	0x3d920aa0	0.07130933
147	0x3d065530	0.032796085
148	0x3da3ed1b	0.08004209
149	0x3dbf64d6	0.09345405
150	0x3cf34418	0.029695556
151	0x3d45dea7	0.04830804
152	0xbcc0533d	-0.023477191
153	0x3be7c46e	0.007072977
154	0x3a115d16	0.0005545182
155	0x3d239a30	0.039941967
156	0xbd029f79	-0.031890366
157	0x3da345d6	0.079723045
158	0x3b839ac0	0.0040162504
159	0xbc2cd5d1	-0.010549025
160	0xbd009802	-0.031394966
161	0x3cded40d	0.027200723
162	0x3d68989c	0.056786165
163	0x3d97cfde	0.074126944
164	0x3c62d192	0.013843911
165	0x3d3b4860	0.04572332
166	0x3d894445	0.067024745
167	0x3dbc79c3	0.09202912
168	0x3bdae6d3	0.0066803484
169	0x3d74e92e	0.05979269
170	0x3d4e57f9	0.050376866
171	0xbc8e32bc	-0.017358176
172	0xbd48a928	-0.048989445
173	0xbcd49bf4	-0.02595327
174	0xbd8bb146	-0.068209216
175	0xbd45ed90	-0.04832226
176	0xbb79c4df	-0.003811173
177	0xbd47a36b	-0.048739832
178	0xbd8cfc80	-0.06884098
179	0xbd8cae29	-0.06869156
180	0x3c335f15	0.010947962
181	0x3cb2dff4	0.021835305
182	0xbdba1069	-0.09085161
183	0xbdbfbbfe	-0.093620285
184	0xbcbdbba2	-0.02316076
185	0x3dc1040c	0.094246
186	0x3d92cf45	0.0716844
187	0x3d27fc61	0.04101217
188	0xbd27ab25	-0.0409347
189	0x3d5ae233	0.053438377
190	0x3d503593	0.050832342
191	0xbd891031	-0.066925414
192	0x3c5ee67c	0.013604756
193	0x3c15aebb	0.009135897
194	0x3d1e8237	0.0386984
195	0x3ba554a5	0.005045491
196	0x3d95c72e	0.07313381
197	0xbd17540f	-0.0369454
198	0xbd2913df	-0.041278716
199	0x3d8dbdd9	0.06920976
200	0xbd5b9ff0	-0.053619325
201	0xbd87f6f8	-0.066389024
202	0xbcd766f1	-0.026294203
203	0x3dadcdb4	0.084865004
204	0xbc8fcda4	-0.017554112
205	0xbd8ab57c	-0.06772897
206	0x3dc0a0a8	0.09405643
207	0xbd12e509	-0.035862956
208	0x3d7675ea	0.060171045
209	0xbcc3a293	-0.023881232
210	0x3c4a06d7	0.012330732
211	0x3d6080ff	0.05481052
212	0x3cde2877	0.027118905
213	0x3aa7bcd0	0.0012797359
214	0xbd0ac696	-0.033880793
215	0x3c3e2703	0.011605981
216	0x3d066a29	0.032816086
217	0x3d0634d5	0.03276523
218	0xbcfa42f2	-0.0305495
219	0xbdac8742	-0.08424236
220	0xbd09e525	-0.033665795
221	0x3db5a0b2	0.08868541
222	0x3d7867ac	0.060645744
223	0x3cab7519	0.02092986
224	0x3d0245d5	0.03180488
225	0xbdaf0f15	-0.085477985
226	0x3b96b1f9	0.0045988527
227	0xbc9ce054	-0.019149937
228	0xbd45643b	-0.04819129
229	0x3b0344e1	0.0020030069
230	0x3daddb05	0.0848904
231	0x3d2bc02b	0.041931313
232	0xbd6ab1c5	-0.05729844
233	0x3bb52f06	0.0055292873
234	0x3d4d8b5b	0.050181728
235	0xbd8483a8	-0.06470424
236	0xbd0d3bc3	-0.03448082
237	0xbd1887f9	-0.03723905
238	0xbcba4954	-0.022740044
239	0xbd9d02b8	-0.07666534
240	0x3d7ec8e2	0.062203296
241	0xbc927913	-0.017879998
242	0xbd3206b4	-0.043463424
243	0xbd13af09	-0.0360556
244	0x3d876ef7	0.06612962
245	0x3d6d4a65	0.057932276
246	0x3d02e403	0.03195573
247	0x3d8e7f8a	0.0695792
248	0x3cd31c67	0.02577038
249	0xbd176bdb	-0.036968093
250	0x3a0c5a9d	0.00053540786
251	0xbd91d0cd	-0.07119904
252	0xbd0880d2	-0.033325978
253	0x3bebcb4e	0.0071958667
254	0x3ca8a176	0.020584803
255	0x3cb3b2ed	0.021935904

gru1.weight_hh_l0 f4 [384, 128]
0	0x3b8550d8	0.004068475
1	0x3c95378b	0.018214962
2	0x3c716142	0.014732661
3	0xbc16590c	-0.009176504
4	0xbd93588b	-0.071946226
5	0xbd3f5142	-0.046708353
6	0x3c194d6c	0.009356838
7	0xbd494465	-0.04913749
8	0x3d0241f2	0.03180117
9	0xbca5a8ab	-0.020222029
10	0x3db1c3e8	0.08679944
11	0xbbaa15e9	-0.0051906
12	0xbcb1cb21	-0.021703305
13	0xbcff701b	-0.031181386
14	0x3d17b2c4	0.03703572
15	0x3d9aa936	0.07551806
16	0xbce2a24f	-0.027665285
17	0xbd79f468	-0.0610241
18	0x3d775c67	0.060390856
19	0x3cbe9c0a	0.023267765
20	0xbcec8090	-0.028869897
21	0x3c2eb0f2	0.010662304
22	0xbc87e56c	-0.016588889
23	0xbd9ec099	-0.07751579
24	0x3d797fc7	0.060912874
25	0xbce831bc	-0.028344028
26	0x3c1ed9b3	0.009695458
27	0x3d9fa6a6	0.077954575
28	0x3dc0cfa1	0.09414602
29	0xbd9c8722	-0.07642962
30	0xbd1e420a	-0.0386372
31	0x3d812239	0.063053556
32	0x3d43c8fd	0.0477991
33	0xbd63f17e	-0.055650227
34	0xbd9b33df	-0.07578253
35	0xbd9eab3b	-0.07747503
36	0x3d07c849	0.03314999
37	0x3d9321db	0.07184192
38	0x3ca1561a	0.019694377
39	0xbd5598c4	-0.05214764
40	0x3d3bcfbe	0.045852415
41	0xbcc2f9a9	-0.023800688
42	0xb9d5ae3c	-0.0004075634
43	0x3da47a12	0.080310956
44	0xbdb41bec	-0.08794388
45	0x3d87b520	0.06626344
46	0x3d6087fa	0.054817177
47	0xbd645cd2	-0.055752583
48	0x3cf75617	0.030192418
49	0x3d91af94	0.07113567
50	0x3da2364d	0.07920513
51	0xbd63b46c	-0.055591986
52	0x3b0c6661	0.0021423327
53	0xbd06560a	-0.032796897
54	0xbd8f312f	-0.06991803
55	0x3d55512d	0.05207937
56	0xbc9890b8	-0.018623695
57	0xbdacd28e	-0.084385976
58	0xbd968220	-0.07349038
59	0x3af00128	0.0018310891
60	0xbd85c8e1	-0.06532455
61	0x3d15b935	0.03655358
62	0xbcbf4d52	-0.023352299
63	0xbd716dd6	-0.05894264
64	0x3d06f261	0.032945994
65	0x3c4c607f	0.012474178
66	0xbd9f8891	-0.0778972
67	0x3d6811ec	0.056657717
68	0x3d01a642	0.031652696
69	0xbda09ca7	-0.07842379
70	0x3d8d3600	0.06895065
71	0xbc4e6ec9	-0.012599655
72	0xbd227b7f	-0.039668556
73	0x3d92a83e	0.07160996
74	0xbd4f89e5	-0.050668616
75	0x3cdcfa3b	0.026974788
76	0xbcc1ac19	-0.023641633
77	0xbda92b46	-0.08260207
78	0x3b1c37ac	0.0023836894
79	0x3d82cdb0	0.06386888
80	0x3d77c952	0.06049473
81	0xbd87c6d9	-0.06629724
82	0x3c0fd65b	0.008779134
83	0x3d6d6fe3	0.05796803
84	0xbd3d70a0	-0.046249986
85	0xbd8b9866	-0.06816177
86	0x3cc4adba	0.02400862
87	0xb88e5714	-6.787307e-05
88	0xbd4ef4d2	-0.050526448
89	0x3c76fd36	0.015075019
90	0xbb188e06	-0.0023278012
91	0x3d702468	0.05862847
92	0x3cbb3b57	0.022855444
93	0x3c3f1d9d	0.011664775
94	0xbd9e1c24	-0.07720211
95	0xbd629f39	-0.055327628
96	0x3dab38dc	0.083604544
97	0x3d261683	0.040548813
98	0x3d1f09a6	0.03882756
99	0x3caad556	0.02085368
100	0xbd689861	-0.056785945
101	0x3c0cbbea	0.008589724
102	0xbd7116cb	-0.058859628
103	0x3da8d3a4	0.08243492
104	0x3d4d49b5	0.05011912
105	0xbd901fbf	-0.07037305
106	0xbd867161	-0.06564594
107	0x3d8a7e5b	0.06762382
108	0x3db7191c	0.08940336
109	0xbd924bf9	-0.07143397
110	0x3a739fc4	0.0009293521
111	0x3db98613	0.09058776
112	0xbd64b6bf	-0.055838343
113	0x3d838eb1	0.064237006
114	0x3d9988b3	0.074967764
115	0xbd9e6161	-0.07733417
116	0x3d82caa6	0.06386308
117	0xbd97f84c	-0.07420406
118	0xbcc0e4a1	-0.023546519
119	0x3d0e193b	0.03469203
120	0xbd1a3542	-0.037648447
121	0x3d88e536	0.066843435
122	0xbc4df217	-0.012569926
123	0x3cc8942e	0.02448472
124	0x3cda5d1a	0.026655722
125	0x3d9c3bd3	0.07628598
126	0x3d67afc8	0.056564122
127	0x3cb0d434	0.021585561
128	0xbc71498e	-0.014727009
129	0x3b9b82bf	0.0047458108
130	0xbd9394d4	-0.07206121
131	0xbd69c85f	-0.057075854
132	0xbd8a348b	-0.06748303
133	0x3d9d6db1	0.076869376
134	0x3cae2365	0.021257112
135	0x3d0957af	0.033530887
136	0xbd847b05	-0.064687766
137	0xbd79d9b0	-0.06099862
138	0x3d347354	0.044055298
139	0xbd1de2b1	-0.038546268
140	0xbcc44640	-0.023959279
141	0xbd652fda	-0.055953838
142	0xbd9e478f	-0.077284925
143	0xbdab76b1	-0.08372248
144	0xbdb3fef7	-0.08788865
145	0xbd7c062f	-0.061529335
146	0xbcd066d8	-0.025439665
147	0xbcc4b52c	-0.02401217
148	0xbdaac426	-0.083381936
149	0xbac7cbb3	-0.0015243202
150	0xbdb1ea4e	-0.08687268
151	0xbd493865	-0.049126048
152	0x3da1d25d	0.07901452
153	0xba1f7dca	-0.00060841127
154	0x3d3089ec	0.043100283
155	0x3c4464a2	0.011986883
156	0x3c805430	0.015665144
157	0xbb25dda4	-0.002530911
158	0xbd22e353	-0.039767575
159	0xbd805373	-0.06265917
160	0x3d43dc8a	0.047817744
161	0x3d97f0b1	0.07418955
162	0x3caf3cc5	0.021391282
163	0xb95b5377	-0.0002091656
164	0x3d96d5c8	0.07364994
165	0xbda547ed	-0.080703594
166	0xbc46825a	-0.012116039
167	0xbd4d5b21	-0.050135735
168	0xbd7ecf46	-0.06220939
169	0xbd43ca2d	-0.04780023
170	0x3d58c4e2	0.052922137
171	0x3d7e6a77	0.06211325
172	0x3d6c8186	0.05774071
173	0x3d861fc5	0.06549028
174	0x3d84c590	0.064829946
175	0xbd481184	-0.04884483
176	0x3da15126	0.07876806
177	0x3dc42f96	0.09579389
178	0x3b7eae9e	0.0038861404
179	0x3d38bac5	0.045099992
180	0xbc22c377	-0.009934298
181	0x3d313498	0.043263048
182	0xbcffa256	-0.031205337
183	0x3daa1fea	0.083068684
184	0x3c7042fe	0.01466441
185	0x3d0e244c	0.034702584
186	0xbd334ed7	-0.04377636
187	0x3d6928e2	0.056923755
188	0x3d5ee095	0.054413397
189	0xbd70097a	-0.058602788
190	0x3c89349c	0.016748719
191	0xbd331877	-0.043724503
192	0xbd60bd2a	-0.0548679
193	0xb9614afc	-0.00021485606
194	0xbc2645ac	-0.010148447
195	0x3d4e3090	0.05033928
196	0xbd80e2ae	-0.06293236
197	0x3dbb2f43	0.09139874
198	0x3d63e4cb	0.055638116
199	0xbc070f74	-0.00824343
200	0x3d59a906	0.05313971
201	0xbd34ce46	-0.04414203
202	0xbdb5c0d2	-0.08874668
203	0xbd8f04b2	-0.069833174
204	0x3b126388	0.0022337157
205	0x3d66023a	0.056154467
206	0x3d503abb	0.05083726
207	0x3dbbf29d	0.09177134
208	0x3d9d97ce	0.0769497
209	0xbd05fc75	-0.032711465
210	0xbd80fbc1	-0.06298018
211	0x3dab4faa	0.08364804
212	0x3c9f333e	0.019433614
213	0xbc4afbd2	-0.01238914
214	0xbb011919	-0.0019698797
215	0xbd228083	-0.03967334
216	0x3cbc9b17	0.023023171
217	0xbc1b82f4	-0.009491671
218	0xbd879639	-0.066204496
219	0x3d7db39b	0.061938863
220	0xbd98fe1c	-0.074703425
221	0xbd7f4146	-0.06231811
222	0x3bbf3561	0.0058352207
223	0x3d9513dd	0.07279179
224	0xbd938aa0	-0.07204175
225	0x3d28625e	0.041109435
226	0xbcccd0b8	-0.025001869
227	0xbcb41e55	-0.02198712
228	0xbbd32304	-0.006443383
229	0xbcc2f94c	-0.023800515
230	0x3daf6cff	0.08565711
231	0x3dc55a84	0.09636405
232	0x3d038ae1	0.032114867
233	0xbd935120	-0.07193208
234	0x3d94a002	0.072570816
235	0xbd937a5f	-0.07201075
236	0xbdb06cde	-0.08614515
237	0xbd98d831	-0.0746311
238	0xbcb6c557	-0.022310896
239	0xbd81fc32	-0.063469306
240	0xbd80733a	-0.06271978
241	0x3d87b55a	0.06626387
242	0xbd757aa6	-0.05993142
243	0xbcf1e49f	-0.02952796
244	0xbcbd200e	-0.023086574
245	0x3db70a72	0.08937539
246	0x3c255689	0.010091432
247	0xbcd7ccd8	-0.026342794
248	0x3ca49091	0.020088466
249	0x3d6af957	0.057366695
250	0xbd7b5212	-0.061357565
251	0xbd9a17d3	-0.07524075
252	0xbca70926	-0.020390105
253	0xbc898c3c	-0.016790502
254	0xbc7d4e5d	-0.015460578
255	0xbd94d79d	-0.072676875

gru1.bias_ih_l0 f4 [384]
0	0x3d65ebe4	0.056133166
1	0xb9b427ec	-0.0003436202
2	0x3d8f7d21	0.07006288
3	0x3bd59e97	0.0065191495
4	0xbcea99e8	-0.028637841
5	0x3d96aed3	0.07357564
6	0xbda1d8f2	-0.07902707
7	0xbcf419a3	-0.02979738
8	0x3bb4444f	0.005501307
9	0x3d21311e	0.039353482
10	0xbce0f44c	-0.02746024
11	0xbd8f82d0	-0.070073724
12	0xbd8f671f	-0.07002091
13	0xbd3ef820	-0.04662335
14	0xbdb5a0c8	-0.08868557
15	0x3d1eb4df	0.03874671
16	0xbd106d25	-0.03526034
17	0x3d0aa358	0.033847183
18	0x3d925932	0.07145919
19	0xbd85c099	-0.06530876
20	0x3dac7ca9	0.084222145
21	0xbcc5dcd5	-0.024153152
22	0xbcf7e48b	-0.030260345
23	0xbcd93cea	-0.026518304
24	0xbc246f19	-0.010036253
25	0x3d61487c	0.055000767
26	0xbbb9b983	-0.0056678667
27	0xbbc01051	-0.00586132
28	0xbd745170	-0.059647977
29	0x3d599ac6	0.05312612
30	0xbda55cb7	-0.080743246
31	0x3d967b3b	0.07347723
32	0x3d1c7c94	0.038204744
33	0xbd4cc789	-0.04999498
34	0xbd8fe106	-0.07025342
35	0x3ccc6b30	0.024953455
36	0xbccff05c	-0.025383167
37	0x3ccb68a0	0.024830163
38	0xbdb1c052	-0.0867926
39	0xbcdf51f4	-0.027260758
40	0x3d933667	0.07188111
41	0xbb3b7283	-0.002860219
42	0x3d8fc1e4	0.070194036
43	0x3cfbb6c6	0.030726802
44	0xbd58e6fe	-0.052954666
45	0x3d7db4be	0.061939947
46	0xbd9979e4	-0.07493952
47	0x3da1f279	0.07907576
48	0xbd34b696	-0.04411944
49	0x3d7ad4cc	0.061238095
50	0xbb89ea97	-0.0042088735
51	0x3ce124f6	0.027483445
52	0x3ce70efd	0.02820539
53	0xbd474702	-0.048651703
54	0xbbf7d85d	-0.0075636343
55	0xbd2ac29d	-0.041689504
56	0x3cb74716	0.022372764
57	0xbd5bd532	-0.053670116
58	0xbd35a955	-0.04435094
59	0x3d5c7be7	0.0538291
60	0x3da92f0a	0.08260925
61	0xbd552949	-0.052041326
62	0xbba83585	-0.005133333
63	0x3d807a5d	0.06273339
64	0xbd1cd7ed	-0.03829186
65	0xbcb1240f	-0.02162364
66	0x3db7d3b2	0.089759246
67	0x3d451ad5	0.048121292
68	0xbd5e72dc	-0.054308757
69	0x3d09aa87	0.033609893
70	0xbcbb8412	-0.022890124
71	0xbd9344f2	-0.07190885
72	0xbca51fb0	-0.020156711
73	0x3d814853	0.06312623
74	0x3d808879	0.0627603
75	0xbd5a2203	-0.053255092
76	0x3d0f51e2	0.0349902
77	0x3d90e5af	0.07075059
78	0x3d8f7942	0.0700555
79	0xbd8f6712	-0.07002081
80	0xbd104fc4	-0.03523232
81	0xbd845ebb	-0.06463381
82	0xbd66c8ae	-0.056343727
83	0x3c9387c1	0.018009068
84	0xbd81eeda	-0.063443854
85	0xbd83ddc4	-0.06438783
86	0xbd1515d2	-0.036397763
87	0x3da511f4	0.08060065
88	0xbd3222bb	-0.043490153
89	0xbcebbf6c	-0.0287778
90	0xbda55741	-0.08073283
91	0x3c2361b7	0.0099720275
92	0x3d3d95ca	0.046285428
93	0xbd1a0e8e	-0.037611537
94	0x3d1a897d	0.037728775
95	0xbcd44010	-0.025909454
96	0xbda68868	-0.08131486
97	0x3d333e5b	0.04376064
98	0xbcffdc99	-0.031233119
99	0x3d2e4557	0.042546596
100	0xbdb796f2	-0.089643374
101	0x3c665843	0.014059129
102	0x3d1b4ae2	0.03791321
103	0x3d296bc5	0.041362543
104	0x3da213c5	0.07913927
105	0x3d0289a5	0.03186955
106	0x3d9d8ee9	0.076932736
107	0xbcc6f19b	-0.024285128
108	0xbb92040d	-0.0044560493
109	0x3d93b6f2	0.072126284
110	0xbd86eae6	-0.06587772
111	0xb9d6aca3	-0.00040945885
112	0xbc6d8a50	-0.014498308
113	0xbabd6dd3	-0.0014452286
114	0xbd87db29	-0.06633598
115	0xbccd2b9d	-0.02504521
116	0x3d618c5e	0.055065505
117	0xbd328695	-0.04358538
118	0xbd00d486	-0.03145268
119	0x3d1a1019	0.03761301
120	0xbcea2d5c	-0.028586082
121	0xbd70a463	-0.05875052
122	0xbc9c47ff	-0.0190773
123	0xbd8e5276	-0.06949322
124	0x3da639f5	0.08116523
125	0x3c44d560	0.012013763
126	0x3d43e0c9	0.047821794
127	0xbd9c279c	-0.076247424
128	0x3c59b081	0.013286711
129	0x3cf5c005	0.029998789
130	0x3c34fee3	0.011047098
131	0x3ceb510f	0.028725175
132	0x3d8a680a	0.06758125
133	0x3d9406e2	0.07227875
134	0x3d2e608f	0.042572554
135	0xbccf003d	-0.025268668
136	0x3d896379	0.06708426
137	0xbd062dc9	-0.032758508
138	0x3d19e445	0.03757121
139	0xbd9ee583	-0.0775862
140	0x3d351cf0	0.04421705
141	0x3d8003e7	0.06250744
142	0xbc7c9df5	-0.015418519
143	0xbd7db100	-0.06193638
144	0x3c7f62d7	0.01558753
145	0xbd82d80d	-0.06388865
146	0x3cc8bdea	0.02450462
147	0xbd941a6d	-0.07231603
148	0x3d3b28b0	0.0456931
149	0x3ce48a64	0.027898021
150	0x3d0006a3	0.03125633
151	0x3d9139a1	0.0709107
152	0x3d32614c	0.04354982
153	0x3d562a56	0.05228647
154	0x3d05d9bc	0.03267835
155	0xbc670da6	-0.014102375
156	0xbdaeede0	-0.08541465
157	0xbd179ce8	-0.03701487
158	0x3d14d37f	0.03633451
159	0xbd87e505	-0.06635479
160	0x3d157e81	0.036497597
161	0x3d99626d	0.07489476
162	0xbd787f90	-0.060668528
163	0xbcaab1a7	-0.020836664
164	0xbc3ac054	-0.011398394
165	0x3d93c567	0.07215386
166	0xbdab1957	-0.083544426
167	0xbdc78f2d	-0.097441055
168	0xbd102239	-0.035188887
169	0xbd8ae406	-0.06781773
170	0x3d38f099	0.045151327
171	0x3b3c7764	0.0028757686
172	0xbd2555cd	-0.04036503
173	0xbc6a36a8	-0.014295258
174	0x3d89cf86	0.06729035
175	0xbd548c9d	-0.05189191
176	0x3d3bfc13	0.045894694
177	0x3da7fc8f	0.082024686
178	0xbc59f553	-0.013303119
179	0xbcf807f2	-0.030277226
180	0xbd06d8fa	-0.03292177
181	0xbcfce594	-0.03087119
182	0x3d937482	0.071999565
183	0xbcaec6f1	-0.021335097
184	0x3c7e85de	0.015534846
185	0x3d92a552	0.071604386
186	0xbbf8bbfb	-0.0075907684
187	0xbd1a25f8	-0.037633866
188	0xbd74f444	-0.059803262
189	0x3d71a46a	0.058994688
190	0xbd29ae17	-0.04142579
191	0x3b3f53f2	0.0029194322
192	0x3cf572a3	0.02996189
193	0x3cdcbd55	0.02694575
194	0xbd8e1eab	-0.06939443
195	0xbd0d58bd	-0.034508456
196	0x3d669eff	0.056303974
197	0x3cd4ba40	0.025967717
198	0xbc8a5ec8	-0.016890898
199	0xbc4c2739	-0.012460523
200	0x3d8bd0af	0.068269126
201	0x3c223360	0.009899944
202	0xbd22e4fd	-0.03976916
203	0x3cfefee0	0.031127393
204	0x3d8a090c	0.06740007
205	0x3d0903bd	0.03345083
206	0x3cacc4d6	0.021089952
207	0x3ca25842	0.019817475
208	0xbbc6e121	-0.006069318
209	0xbd98e64c	-0.07465801
210	0xbdac0d26	-0.08400945
211	0xbd4f890c	-0.050667807
212	0x3d10558b	0.03523783
213	0x3d29f976	0.04149767
214	0xbab7d979	-0.0014026604
215	0x3d4e630b	0.050387423
216	0xbd72d634	-0.05928631
217	0xbda72a7e	-0.081624016
218	0x3db3e5ec	0.087840885
219	0xbce3020e	-0.02771094
220	0x3c7f66a0	0.015588433
221	0x3d23a8ed	0.039956022
222	0xbd046d5f	-0.032330867
223	0x3d27f55a	0.04100547
224	0x3d3afc37	0.045650687
225	0x3ba951e5	0.0051672333
226	0xbd3fc2a6	-0.04681649
227	0x3a819412	0.0009886047
228	0xbb64d216	-0.003491526
229	0x3d1616b5	0.03664275
230	0x3d2761c4	0.04086472
231	0xbb65b509	-0.0035050532
232	0x3d128ee0	0.035780787
233	0x3d7c1df5	0.061552007
234	0xbdbb5000	-0.09146118
235	0xbc55579e	-0.013021378
236	0xbb5e4a88	-0.0033918936
237	0x3d04a781	0.032386307
238	0xbd25e922	-0.040505536
239	0xbc58e9dd	-0.013239351
240	0xbd81895e	-0.06325029
241	0x3befe1b4	0.007320607
242	0x3d8fbe3f	0.070187084
243	0xbd333f45	-0.04376151
244	0xbd90c18d	-0.07068167
245	0x3c1aa1d3	0.009437996
246	0x3d2c78af	0.04210728
247	0xbc62fea5	-0.013854657
248	0x3c9e29bc	0.01930701
249	0x3d59f0c4	0.053208128
250	0x3d8ab164	0.06772116
251	0x3dafa1c5	0.08575777
252	0xbcf3de3d	-0.029769057
253	0x3d77345a	0.06035266
254	0x3d9abdbd	0.07555721
255	0x3cba67e7	0.022754623

gru1.bias_hh_l0 f4 [384]
0	0xbcc69109	-0.02423908
1	0x3b6253dc	0.0034534847
2	0x3cdb1686	0.026744138
3	0x3d7c3051	0.061569516
4	0x3cf87db7	0.030333383
5	0x3c16e1b5	0.009209086
6	0x3c92e101	0.017929556
7	0xbd5b67e3	-0.05356587
8	0xbd746434	-0.059665874
9	0x3cdd8c3f	0.027044414
10	0x3d42829c	0.04748784
11	0x3d710fa9	0.058852825
12	0x3b23d874	0.0025000842
13	0x3d7ccc89	0.061718497
14	0xbd33b53a	-0.043874003
15	0xbdb3cc42	-0.087791935
16	0xbdaf7897	-0.085679226
17	0xbc8e2e8e	-0.017356183
18	0x3d85582f	0.0651096
19	0x3c8254c5	0.015909562
20	0xbc1f4b0f	-0.009722485
21	0xbd798685	-0.060919303
22	0x3d9776b9	0.073956914
23	0xbc430366	-0.011902666
24	0x3d9e0a3a	0.07716794
25	0x3da461ee	0.08026491
26	0x3d8b56d2	0.06803669
27	0x3c0bc6a8	0.00853125
28	0xbd041e44	-0.032255426
29	0xbdb6904e	-0.08914243
30	0x3cc554e1	0.024088325
31	0xba9d233f	-0.0011988654
32	0xbd3cc3bc	-0.046085104
33	0xbd97623a	-0.07391782
34	0xbd513d03	-0.051083576
35	0x3d93c15e	0.07214616
36	0x3cd3833d	0.025819415
37	0xbd07570e	-0.033042006
38	0xbdb54a43	-0.08852055
39	0xbb50ce43	-0.0031861223
40	0xbc00040b	-0.007813464
41	0x3d295022	0.041336186
42	0x3d485528	0.048909336
43	0x3d498f15	0.04920872
44	0x3b9e7b20	0.004836455
45	0x3d992d39	0.07479329
46	0xbda8194e	-0.082079515
47	0x3c69e5ab	0.0142759485
48	0xbdb2dd4c	-0.08733615
49	0xbdb14e02	-0.08657457
50	0xbc2c72fc	-0.010525461
51	0x3d0558ce	0.032555394
52	0x3d64dbd0	0.055873692
53	0xbd82cf19	-0.06387157
54	0xbc7495cf	-0.014928295
55	0x3cdfefd6	0.027336042
56	0x3bc1ece2	0.005918131
57	0xbd7eea35	-0.062235076
58	0x3b83f58f	0.0040270756
59	0x3d3cd971	0.046105806
60	0x3d3680eb	0.04455654
61	0xbdb99962	-0.090624586
62	0x3d4f26f7	0.05057427
63	0x3d5e1771	0.054221574
64	0xbb4ff6ed	-0.0031732873
65	0xbd85cc36	-0.06533091
66	0x3c77977c	0.0151118
67	0xbd0e02f7	-0.034670796
68	0x3da6a110	0.08136189
69	0xbcb1b16c	-0.021691047
70	0x3c9b84e7	0.018984271
71	0x3ce18287	0.02752806
72	0x3a899364	0.0010496196
73	0xbdae8c4d	-0.08522854
74	0x3d4e2334	0.05032654
75	0x3d13aacd	0.03605156
76	0x3caa65f7	0.020800574
77	0x3bb511d4	0.005525807
78	0x3d7d08f2	0.06177611
79	0x3c3a7655	0.011380752
80	0x3c5e54fb	0.013570066
81	0xbda14b0e	-0.07875644
82	0xbcac57b7	-0.02103792
83	0xbd5400ca	-0.051758565
84	0xbd27596e	-0.04085677
85	0x3d2c80ba	0.04211495
86	0x3c92d57d	0.017924065
87	0x3c6c9968	0.014440872
88	0x3d9578da	0.07298441
89	0x3d34c99c	0.044137582
90	0xbd67666c	-0.05649416
91	0x3d70f151	0.058823887
92	0x3c9d6d65	0.019217202
93	0xbda396a3	-0.07987716
94	0xbd8938fb	-0.06700321
95	0x3d576f48	0.05259636
96	0x3c28b67c	0.010297414
97	0x3d939978	0.07207006
98	0x3d7b05eb	0.06128494
99	0xbcfe130f	-0.031014947
100	0xbd977df3	-0.0739707
101	0x3d065fdf	0.032806274
102	0x3d0d47bf	0.03449225
103	0xbc98b4f0	-0.018640965
104	0x3d94f67b	0.07273575
105	0xbdc07a45	-0.09398321
106	0x3d4680b8	0.0484626
107	0x3d03e444	0.032200113
108	0xbd022be3	-0.031780135
109	0x3d86c7bd	0.06581066
110	0xbd88b74e	-0.066755876
111	0xbd99c2db	-0.07507869
112	0xbd063480	-0.03276491
113	0x3dae53db	0.08512088
114	0xbbfca675	-0.007710273
115	0x3c984379	0.018586861
116	0xbd690d63	-0.056897532
117	0x3c8d4b69	0.017247872
118	0x3b8ad0de	0.0042363247
119	0xbd7c2f6b	-0.06156866
120	0xbd5dd516	-0.054158293
121	0xbcb1b581	-0.021692993
122	0xbd7f1570	-0.062276304
123	0xbd8ada96	-0.06779973
124	0xbd3b3dfd	-0.045713414
125	0xbdbae41d	-0.091255404
126	0xbcf8e3c8	-0.030382052
127	0x3cecbdc9	0.02889909
128	0x3d9d34be	0.076760754
129	0xbbc2e26c	-0.0059474017
130	0xbdb4200d	-0.08795176
131	0x3b0644ae	0.0020487714
132	0x3dc4e601	0.09614182
133	0x3cc47c19	0.023984956
134	0x3d8e3476	0.069436
135	0x3d9e3a65	0.077259816
136	0xbd9302f6	-0.07178299
137	0x3c293a87	0.010328895
138	0x3d6a1c0b	0.05715565
139	0x3d3f47cd	0.046699334
140	0xbd848b1a	-0.06471844
141	0x3d7b4226	0.06134238
142	0x3d6a89de	0.057260387
143	0x3cbcb0c4	0.023033507
144	0x3d96f633	0.073711775
145	0xbdac79c3	-0.08421662
146	0xbdba6a7d	-0.09102342
147	0x3cb40ca0	0.021978676
148	0x3cf5ea84	0.030019052
149	0xbd5a0dfa	-0.053235985
150	0xbd8e6074	-0.06951991
151	0xbce445a0	-0.027865231
152	0xbd8a84d8	-0.06763619
153	0xbc0e5a9a	-0.008688593
154	0x3d34bfab	0.0441281
155	0xbc52cf50	-0.01286681
156	0x3d2b4d89	0.04182199
157	0x3cb8db48	0.022565499
158	0x3d988498	0.07447165
159	0xbd8ac0bb	-0.06775042
160	0xbd790e8f	-0.0608049
161	0x3d824941	0.06361628
162	0x3d3d92fd	0.046282757
163	0x3b4a2da4	0.0030849958
164	0x3d3f48cf	0.046700295
165	0xbd421d0c	-0.047390983
166	0x3d15b2f5	0.03654762
167	0xbdc290e1	-0.0950029
168	0xbba298b5	-0.0049620518
169	0xbd7c2c4f	-0.061565693
170	0x3c7ff4b7	0.015622309
171	0xbd8340c4	-0.064088374
172	0x3d1b3667	0.03789368
173	0x3d70413b	0.05865596
174	0xbd6620d5	-0.056183655
175	0xbd627ae1	-0.055292968
176	0x3d9a4960	0.075335264
177	0xbc427102	-0.0118677635
178	0x3d8688b6	0.06569044
179	0x3d64f058	0.055893272
180	0x3d820968	0.0634945
181	0x3be17e84	0.006881537
182	0x3d76bc8a	0.0602384
183	0xbc0fcb0b	-0.008776437
184	0x3d0a35b3	0.033742618
185	0xbd40913b	-0.047013503
186	0x3d8e46b5	0.0694708
187	0x3d2df88a	0.042473353
188	0x3ce47b56	0.027890842
189	0x3d447e47	0.04797199
190	0x3ca6e77a	0.020374049
191	0xbcefc672	-0.02926943
192	0xbd05d308	-0.03267196
193	0xbd88433c	-0.06653449
194	0xbc909a51	-0.017651709
195	0xbd654adf	-0.055979606
196	0xbd577974	-0.05260606
197	0xbd98c822	-0.07460047
198	0xbd470c6e	-0.04859584
199	0x3d19a4ac	0.03751056
200	0x3da2330e	0.07919894
201	0xbd256c42	-0.040386446
202	0xbd833be4	-0.064079076
203	0x3d81b63b	0.06333586
204	0xbd26214d	-0.0405591
205	0x3d103fb7	0.035217013
206	0xbd7595fe	-0.059957497
207	0x3ba8678c	0.005139297
208	0x3d0798b1	0.033104602
209	0xbdb54fe3	-0.08853128
210	0xbd33456a	-0.04376737
211	0xbbf9f1c2	-0.0076276967
212	0xbd65a525	-0.056065697
213	0x3d540ab6	0.051768027
214	0xbc690a3b	-0.014223631
215	0x3cfac377	0.030610783
216	0x3d8d3fcb	0.06896933
217	0x3d17aabe	0.037028067
218	0x3d8f2881	0.069901474
219	0x3d8481d5	0.06470076
220	0xbda8148f	-0.08207046
221	0x3d9d24f2	0.076730624
222	0xbd8338fd	-0.06407354
223	0x3bfa4d3a	0.0076386007
224	0x3b55acd1	0.0032604227
225	0x3d5fdce0	0.054654002
226	0x3d7a6b11	0.061137263
227	0xbc046f4d	-0.008083177
228	0xbd8268f6	-0.06367676
229	0xbd1011cf	-0.035173234
230	0xbd88ea09	-0.06685264
231	0x3d1ae8b6	0.037819587
232	0xbbc2e445	-0.005947622
233	0x3dad5c25	0.08464841
234	0x3c276e64	0.01021919
235	0xbd4f7773	-0.050651025
236	0xbd66f26a	-0.056383528
237	0xbc97457a	-0.018465746
238	0x3d8d0c43	0.06887104
239	0xbcd9c0e4	-0.026581235
240	0x3ca0ec9a	0.01964407
241	0x3bdb852b	0.0066992245
242	0xbb06dcb4	-0.0020578327
243	0xbd978ed9	-0.07400293
244	0x3d2d610d	0.042328883
245	0xbccb2f6f	-0.024802892
246	0xbd98f953	-0.0746943
247	0xbd5b2502	-0.05350209
248	0xbd59fba7	-0.05321851
249	0xbd061884	-0.032738224
250	0x3d0bc288	0.034121066
251	0xbd817a9f	-0.06322216
252	0xbc9a5289	-0.018838184
253	0x3d3c3500	0.045948982
254	0xbd3d3608	-0.046194106
255	0xbd5ac8b0	-0.053414047

gru1.weight_ih_l0_reverse f4 [384, 6]
0	0xbd986b59	-0.0744235
1	0xbd06eb24	-0.03293909
2	0xbd97b747	-0.07408004
3	0xbce55c3f	-0.027998088
4	0xbd68cbcb	-0.056834977
5	0x3dbaf4f5	0.09128753
6	0xbd910d2c	-0.070825905
7	0x3d03899c	0.032113656
8	0x3d08e20c	0.0334187
9	0x3cfdb0e0	0.03096813
10	0x3d8da929	0.0691703
11	0x3d517094	0.051132753
12	0x3d808432	0.06275214
13	0xbd0852ff	-0.033282276
14	0xbd82d152	-0.06387581
15	0xbd8e435b	-0.06946441
16	0x3d186320	0.037203908
17	0xbbc307a0	-0.0059518367
18	0xbd32cd4d	-0.04365282
19	0xbcabffd0	-0.020996004
20	0xbd9cbf61	-0.0765369
21	0x3ccecb2e	0.025243368
22	0xbdb759fd	-0.08952711
23	0xbc829927	-0.01594217
24	0x3d98fc14	0.07469955
25	0xbd16a788	-0.036780864
26	0xbc2daada	-0.010599816
27	0xbc1b2aa1	-0.009470613
28	0x3ad62391	0.0016337504
29	0xbd404ba2	-0.04694713
30	0x3d62069b	0.05518208
31	0x3d8dddf1	0.069270976
32	0xbd891306	-0.066930816
33	0xbd89c687	-0.06727319
34	0xbda68351	-0.08130515
35	0x3c2272dd	0.009915081
36	0x3d2f9577	0.04286715
37	0xbd5ba4c8	-0.053623945
38	0x3d9f63a4	0.07782677
39	0x3c7dd073	0.015491593
40	0x3ce07c58	0.027403042
41	0x3d5f127a	0.05446098
42	0xbb67e4ce	-0.003538418
43	0x3bf7bdc2	0.0075604627
44	0xbb98e34a	-0.004665767
45	0xbb8a4720	-0.0042199045
46	0xbd21fe55	-0.03954919
47	0x3d5be123	0.053681504
48	0xbdab088a	-0.08351238
49	0x3d759989	0.059960876
50	0xbd75aa7c	-0.05997704
51	0x3d6413d1	0.05568296
52	0x3d13f99b	0.036126714
53	0x3d41522f	0.047197517
54	0x3c8bffb2	0.017089698
55	0x3d9e8617	0.07740419
56	0xbd7ae1f9	-0.06125066
57	0xbc271ac4	-0.0101992525
58	0x3c3681cb	0.0111393435
59	0xbda99e80	-0.082821846
60	0xbd39f584	-0.045400158
61	0x3cc7c05b	0.024383714
62	0xbce6c342	-0.028169278
63	0x3b80a43f	0.0039258297
64	0x3cc290f9	0.023750769
65	0x3dbd8ea3	0.092557214
66	0x3cc0302b	0.023460468
67	0xbd8cf42a	-0.06882508
68	0xb9985fa2	-0.0002906295
69	0x3ca2bceb	0.019865474
70	0x3d15a813	0.03653724
71	0x3db4847b	0.08814331
72	0x3d81fadc	0.06346676
73	0xbd557092	-0.05210931
74	0xbd3e9f2d	-0.04653852
75	0xbc7d36af	-0.015454932
76	0xbc8d359a	-0.017237473
77	0xbc129203	-0.008945945
78	0x3d9a4e66	0.075344846
79	0xbd91d245	-0.07120184
80	0xbcb31270	-0.021859378
81	0xbcff8543	-0.031191474
82	0x3da1ad3a	0.078943685
83	0xbd78e0a2	-0.0607611
84	0xbd262baf	-0.040569004
85	0xbdb1ae29	-0.086757965
86	0xbda9f5cc	-0.08298835
87	0x3cb70dfc	0.022345535
88	0x3cfb5f2e	0.030685034
89	0xbd8898a0	-0.06669736
90	0xbd9edc21	-0.0775683
91	0x3c797390	0.015225306
92	0xbb84f9f1	-0.0040581156
93	0xbd77f289	-0.060534034
94	0xbd942353	-0.072333
95	0xbb374575	-0.0027964984
96	0xbd96fdf0	-0.073726535
97	0x3cf3d5a6	0.029764961
98	0x3a10ccb5	0.0005523668
99	0x3d30e106	0.04318335
100	0x3c56e6fe	0.013116596
101	0x3d3a0dbc	0.045423254
102	0x3ae1a9f3	0.0017216787
103	0x3d342436	0.043979846
104	0x3d71474d	0.05890589
105	0xbbb50d57	-0.005525272
106	0xbc5b8903	-0.013399365
107	0xbb872373	-0.004124099
108	0x3da6169d	0.08109782
109	0xbcc93fd5	-0.02456657
110	0x3cae0243	0.021241313
111	0xbcef5052	-0.029213104
112	0x3ba8380e	0.0051336354
113	0xbd44bb2f	-0.048030075
114	0x3d88fc29	0.06688721
115	0x3c9f2c17	0.019430203
116	0xbc83d131	-0.016090961
117	0x3c516e1d	0.012782601
118	0x3d374d8d	0.044751693
119	0x3d48a898	0.04898891
120	0x3d0842db	0.033266883
121	0x3ca1ca57	0.019749803
122	0x3cc670d7	0.024223728
123	0xbc30f7b2	-0.010801243
124	0x3d88fd21	0.066889055
125	0x3d1a6739	0.037696097
126	0x3ce2c2fd	0.027680868
127	0xbd8bbc6d	-0.06823049
128	0x3c6e8c08	0.014559753
129	0xbc833329	-0.016015606
130	0x3cd17286	0.025567304
131	0x3d02bfeb	0.03192131
132	0xbd2f8470	-0.04285091
133	0xbc08cb67	-0.008349276
134	0xbd409a56	-0.047022186
135	0x3b936d39	0.0044991043
136	0x3c96ae4c	0.018393658
137	0xbae3be54	-0.0017375448
138	0x3d8d5351	0.06900657
139	0x3c97b804	0.018520363
140	0x3d788ec4	0.060683027
141	0x3d0ffb4a	0.035151757
142	0x3bcb9866	0.0062132357
143	0x3d821db3	0.06353321
144	0xbc9c50a5	-0.019081423
145	0xbd508f63	-0.050917994
146	0xbbedc477	-0.0072560865
147	0x3c1cfba0	0.009581476
148	0x3d0329d7	0.032022323
149	0x3d136744	0.035987154
150	0xbc109a85	-0.008825903
151	0x3b570b2a	0.003281305
152	0xbd017097	-0.031601515
153	0x3d3a0625	0.045416016
154	0x3b39b4d0	0.0028336532
155	0xbc440014	-0.011962909
156	0xbd932aa0	-0.071858644
157	0xbd02afe3	-0.03190602
158	0x3d83c194	0.064334065
159	0x3d5d2b6c	0.05399649
160	0x3d283ba7	0.041072514
161	0x3d899967	0.06718712
162	0x3d8f223c	0.069889516
163	0x3d8ab17b	0.06772133
164	0xbd1ddd67	-0.038541224
165	0xbd063b18	-0.0327712
166	0xbd99e334	-0.07514039
167	0xbd869d50	-0.06572974
168	0x3d0b022c	0.033937618
169	0xbcc30050	-0.02380386
170	0x3d7864f2	0.060643144
171	0xbcd85007	-0.026405348
172	0xbdb789d6	-0.08961837
173	0xbc889999	-0.016674804
174	0x3ca8dd7b	0.020613423
175	0xbc177d86	-0.009246236
176	0x3d89376e	0.067000255
177	0x3bd1a0e4	0.0063973535
178	0xbd82b890	-0.06382859
179	0xbc1bfcc4	-0.009520713
180	0x3c0987fd	0.008394239
181	0xbd524484	-0.051334873
182	0x3d9944d3	0.0748383
183	0x3d900b02	0.070333496
184	0x3cb2b569	0.021815019
185	0xbda613c7	-0.08109241
186	0xbcd11a52	-0.025525246
187	0xbd2984be	-0.04138636
188	0xbbd9407b	-0.006630001
189	0x3da2cac5	0.079488315
190	0x3d76cb02	0.060252197
191	0xbdbde81f	-0.09272789
192	0x3a8557e8	0.0010173293
193	0xbd30d425	-0.043171067
194	0x3c8050ba	0.015663493
195	0xbd44b769	-0.048026476
196	0xbcfa8069	-0.030578809
197	0x3d55ab22	0.052165158
198	0xbcea626f	-0.02861139
199	0xbcca5ba7	-0.024701906
200	0xbd0ceea9	-0.03440729
201	0xbcaee333	-0.021348571
202	0x3d3c32c6	0.04594686
203	0xba66863f	-0.0008793808
204	0x3d66aa73	0.056314897
205	0xbcd059a0	-0.025433362
206	0x3d9442f3	0.07239332
207	0xbc8ee1ba	-0.01744162
208	0xbdc837f9	-0.09776301
209	0x3cfab937	0.030605895
210	0xbd7b5c4a	-0.06136731
211	0xbdbe626b	-0.092961155
212	0xbdba14c2	-0.090859905
213	0xbda8433d	-0.0821595
214	0x3d2f598a	0.04281
215	0x3c7bdbfe	0.015372274
216	0x3d7daf12	0.06193454
217	0xbd80f5fc	-0.06296918
218	0x3bee11b3	0.0072652935
219	0xbb6d3d8f	-0.0036200022
220	0xbcd482d9	-0.0259413
221	0x3d043d3f	0.03228497
222	0x3d98e790	0.07466042
223	0x3d1b3d9a	0.037900545
224	0x3dbadeea	0.09124549
225	0xbd65218d	-0.0559402
226	0xbd8b4835	-0.06800882
227	0xbd8c9fd4	-0.06866422
228	0xbd810b03	-0.063009284
229	0x3ce93a22	0.028470103
230	0x3c56072c	0.013063233
231	0xbd0e4adf	-0.03473937
232	0xbd098155	-0.033570606
233	0xbd4e2059	-0.050323818
234	0xbd7060ec	-0.058686182
235	0x3d0c0921	0.034188394
236	0x3d397468	0.04527703
237	0xb96694db	-0.00021989962
238	0xbd3f50d8	-0.046707958
239	0x3a551245	0.00081280275
240	0xbdae52af	-0.085118644
241	0xbbd764e0	-0.0065733045
242	0xbd9db9ca	-0.07701452
243	0x3cc37c6e	0.023863044
244	0x3d009653	0.03139336
245	0xbd1b1b69	-0.037867937
246	0x3d8f64d7	0.070016555
247	0x3d8bbed6	0.068235084
248	0x3c263e28	0.010146655
249	0xbd8646b1	-0.06556452
250	0xbdc2d366	-0.09512977
251	0x3d71e161	0.05905283
252	0xbd3030cd	-0.04301529
253	0xbcd16971	-0.025562974
254	0xbd9ef7d0	-0.0776211
255	0xbd586e9a	-0.052839853

gru1.weight_hh_l0_reverse f4 [384, 128]
0	0x3d9d851e	0.07691406
1	0x3d20b490	0.039234698
2	0xbcacf043	-0.02111066
3	0xbda5087f	-0.08058261
4	0xbc9ddd92	-0.019270692
5	0xbd830597	-0.063975506
6	0x3cf6dffe	0.030136105
7	0x3d8eb13a	0.06967397
8	0xbc0b58e9	-0.008505085
9	0xbc2272ef	-0.009915098
10	0xbd34cb96	-0.044139467
11	0xbce360da	-0.027756143
12	0x3d38bd05	0.045102138
13	0xbd633602	-0.055471428
14	0x3d97a83c	0.07405135
15	0x3d041b0e	0.032252364
16	0x3c66a780	0.014078021
17	0xbc949fa3	-0.018142527
18	0xbd4bce28	-0.049757153
19	0x3da38bf2	0.07985677
20	0x3cc0949c	0.023508362
21	0x3d69ec9c	0.057110414
22	0x3d99c830	0.07508886
23	0xbd8cb9c6	-0.06871371
24	0x3d92f760	0.07176089
25	0xbc3d14ec	-0.011540633
26	0xbd8c7960	-0.06859088
27	0xbd511505	-0.051045436
28	0x3d8a1efc	0.06744191
29	0x3d986b81	0.0744238
30	0x3bbbace0	0.0057273954
31	0xbd3fc13c	-0.046815142
32	0x3d923709	0.071394034
33	0xbd31a3d9	-0.043369148
34	0x3d89d945	0.06730894
35	0xbd5f572d	-0.054526497
36	0x3d5374f0	0.051625192
37	0x3d3b730d	0.045764018
38	0x3d3dbc75	0.046322305
39	0xbc321dd8	-0.010871373
40	0xbd1d635a	-0.038424827
41	0xbdad4da4	-0.084620744
42	0xbd21f8ad	-0.039543796
43	0xbd2f41da	-0.04278741
44	0xbd9a3aed	-0.075307705
45	0xbce473e8	-0.0278873
46	0x3b76c9fa	0.0037657009
47	0x3d66c467	0.056339648
48	0xbd6049a5	-0.054757733
49	0xbd20247a	-0.039097287
50	0x3cce4c41	0.025182845
51	0xbd0a3099	-0.033737753
52	0x3d8e0078	0.06933683
53	0x3d4d02df	0.050051566
54	0x3d6c5e2a	0.05770699
55	0x3d1ead8e	0.038739733
56	0x3d60c449	0.054874692
57	0xbda95165	-0.08267478
58	0x3d285dae	0.041104965
59	0xbce8bb99	-0.028409766
60	0xbca1bfc5	-0.019744763
61	0xbda554a0	-0.080727816
62	0x3c3d9922	0.011572154
63	0x39d8c981	0.00041348863
64	0x3d89fac6	0.06737284
65	0x3d84d781	0.064864166
66	0x3d73ab06	0.059489273
67	0x3ba4b1e3	0.0050260886
68	0xbd1a714a	-0.037705697
69	0xbc8a4234	-0.016877271
70	0x3da8691e	0.082231745
71	0xbd0db333	-0.034594726
72	0xbcd5a457	-0.02607934
73	0xbcc2481c	-0.023716025
74	0x3d12b3c3	0.035815965
75	0x3da7cc10	0.08193219
76	0x3dadd593	0.08488002
77	0xbd948e44	-0.072536975
78	0xbb87ca4f	-0.00414399
79	0xbd7ceffb	-0.0617523
80	0xbd8011eb	-0.062534176
81	0xbd87800d	-0.066162206
82	0xbd9d8d88	-0.076930106
83	0xbd40408c	-0.046936557
84	0xbd37e5d0	-0.0448969
85	0x3d1e18c0	0.038597822
86	0x3d4f7e2a	0.05065743
87	0x3ccc7028	0.024955824
88	0xbd875923	-0.06608798
89	0x3da19e13	0.078914784
90	0xbd7385f8	-0.059453934
91	0xbc8d8a90	-0.017277986
92	0xbd8cc79c	-0.0687401
93	0x3ccde6cf	0.025134472
94	0xbda6281e	-0.081131205
95	0x3d256372	0.04037804
96	0xbd03aaa9	-0.032145176
97	0x3c5747ce	0.013139678
98	0x3d3b9586	0.045796894
99	0x3b8502df	0.00405918
100	0xbd5698c7	-0.052391794
101	0xbd0f953f	-0.03505444
102	0x3d72019e	0.059083574
103	0x3cca29a7	0.024678065
104	0xbd56ece6	-0.052472018
105	0x3d67d465	0.05659904
106	0xbda6b11e	-0.08139251
107	0x3d572011	0.052520815
108	0x3dadb05a	0.08480902
109	0x3d9e48c9	0.077287264
110	0xbbd15ffd	-0.0063896165
111	0xbc8a1828	-0.016857222
112	0xbd8fd6e5	-0.0702341
113	0x3d6805da	0.056646205
114	0x3d2a7a57	0.04162058
115	0xbbb4c667	-0.0055168155
116	0x3d91a76a	0.0711201
117	0x3d988df7	0.07448953
118	0x3d92b977	0.07164281
119	0xbd5f5d1b	-0.05453215
120	0x3ca8e2dd	0.02061599
121	0x3cf88f52	0.030341778
122	0xbc4be3dd	-0.012444464
123	0x3c3b88d7	0.011446199
124	0x3d5edc9b	0.054409605
125	0x3d976353	0.073919915
126	0x3d76d50a	0.060261764
127	0x3d50a491	0.050938193
128	0xbcc53168	-0.02407141
129	0xbcc56e18	-0.024100348
130	0x3cb5368a	0.022120733
131	0xbd955b44	-0.07292798
132	0xbc5d7308	-0.013516195
133	0x3d62782e	0.055290394
134	0x3d8e592d	0.06950603
135	0xbdab5cfe	-0.08367346
136	0xbdbb1733	-0.09135284
137	0xbda498b9	-0.08036942
138	0xbd50b84b	-0.050957005
139	0xbb0a2cf3	-0.002108392
140	0x3bf29a44	0.007403644
141	0x3cd0b511	0.025476964
142	0xbc672156	-0.014107069
143	0x3d114413	0.03546531
144	0x3c18359a	0.009290123
145	0x3d59ef6e	0.053206854
146	0xbd46fd5f	-0.048581477
147	0xbd9b076d	-0.07569776
148	0xbd8b54c2	-0.06803276
149	0xbd09528d	-0.033525992
150	0xbd982b7b	-0.07430168
151	0x3d97a9c7	0.07405429
152	0xbd757f3a	-0.059935786
153	0x3c2ba529	0.010476389
154	0xbc202f61	-0.009776921
155	0x3d4e87e0	0.05042255
156	0x3d0819de	0.033227794
157	0xbd8b0e1f	-0.06789803
158	0xbcae600d	-0.021286035
159	0xbd837f96	-0.064208195
160	0xbd4fc28f	-0.050722655
161	0x3caa6a8b	0.020802757
162	0x3c33bdde	0.010970561
163	0x3d88712c	0.06662211
164	0xbdb07013	-0.086151265
165	0xbd9559ab	-0.072924934
166	0xbca1edc9	-0.019766705
167	0xbda1f778	-0.07908529
168	0x3da02e5e	0.07821344
169	0xbd81212f	-0.063051574
170	0xbd15ec85	-0.036602516
171	0x3da4e6d9	0.08051843
172	0xbda163a0	-0.0788033
173	0xbd468028	-0.048462063
174	0xbce0b553	-0.027430212
175	0x3d8ae34c	0.06781635
176	0x3d3c4c44	0.04597117
177	0x3cdbcc37	0.026830776
178	0xbcd8b35f	-0.026452718
179	0x3da8d92f	0.082445495
180	0xbd84d778	-0.0648641
181	0x3d55afce	0.052169614
182	0xbd830856	-0.06398074
183	0x3d975234	0.07388726
184	0x3c53e408	0.012932785
185	0x3dab5bcb	0.083671175
186	0x3d8b340e	0.06797038
187	0xbccfbe2e	-0.02535924
188	0xbd9227a9	-0.07136471
189	0x3cd21c39	0.025648223
190	0xbcdd822f	-0.027039615
191	0xbd119cbd	-0.035549868
192	0xbd78f545	-0.060780782
193	0xbca174a1	-0.019708933
194	0xbd3890a0	-0.0450598
195	0xbda9b36b	-0.082861744
196	0xbd6a8d90	-0.05726391
197	0x3d00c144	0.031434312
198	0x3d6bedc9	0.057599816
199	0x3b3b69fa	0.0028597103
200	0x3d019fee	0.03164666
201	0xbd9841ff	-0.07434463
202	0xbd8e0f2e	-0.06936489
203	0xbc355844	-0.011068407
204	0xbd538ce5	-0.05164804
205	0xbb6b1bfc	-0.0035874834
206	0x3c1b9ffc	0.0094985925
207	0x3d3b5f4e	0.045745187
208	0xbda5d0f6	-0.08096497
209	0xbce005c7	-0.027346505
210	0x3da4f1f1	0.08053959
211	0xbda2817a	-0.07934852
212	0xbd5626aa	-0.052282967
213	0x3d9588a0	0.0730145
214	0x3d27eb40	0.040995836
215	0xbca6d708	-0.020366207
216	0xbd8e4c20	-0.069481134
217	0xbc9647ce	-0.018344786
218	0xbd39430e	-0.045229964
219	0xbcb3972c	-0.02192267
220	0x3d4441f4	0.04791446
221	0xbd1e3b94	-0.038631037
222	0x3d19001b	0.037353616
223	0x3c005017	0.007831595
224	0x3d59b4a2	0.05315078
225	0x3ca1df3b	0.019759765
226	0xbd9e7b1d	-0.07738326
227	0x3cb3e7cc	0.021961115
228	0x3d618ca4	0.055065766
229	0x3d42fedd	0.047606338
230	0x3d6a24e0	0.057164073
231	0x3d63457b	0.055486184
232	0x3d8804ef	0.06641566
233	0xbd92216a	-0.071352795
234	0xbcdc6fcc	-0.026908778
235	0x3c282376	0.010262361
236	0x3d10663e	0.035253756
237	0xba24e39d	-0.00062900205
238	0xbd82e7fc	-0.06391904
239	0x3d45895b	0.048226696
240	0xbcd55f5e	-0.026046451
241	0x3d04eee2	0.03245438
242	0xbd1dda5c	-0.03853832
243	0xbd0fdf13	-0.03512485
244	0xbd771351	-0.060321156
245	0xbd8ccb71	-0.06874741
246	0xbdb04db7	-0.08608573
247	0xbca8f2c7	-0.020623578
248	0x3d81f049	0.06344659
249	0x3d5b12bb	0.05348466
250	0xbce22eca	-0.027610201
251	0x3c88f19c	0.01671677
252	0xbd9f55d3	-0.077800415
253	0x3dae7ac8	0.085195124
254	0x3d87109f	0.06594967
255	0xbd21469c	-0.03937398

gru1.bias_ih_l0_reverse f4 [384]
0	0x3da7dc4d	0.08196316
1	0x3d339a8d	0.043848563
2	0x3d86b4c7	0.06577449
3	0x3d7d8da2	0.06190265
4	0x3d080b15	0.033213694
5	0x3c88d97e	0.01670527
6	0x3d4fafab	0.05070464
7	0x3d0f4a53	0.03498299
8	0xbd3e6970	-0.04648727
9	0x3c09d532	0.008412646
10	0xbd1618d4	-0.03664477
11	0x3db01e74	0.085995585
12	0xbd78fd75	-0.06078859
13	0x3d6353b7	0.05549976
14	0xbd2ce991	-0.042214934
15	0x3da68976	0.08131687
16	0xbd4c5f46	-0.049895547
17	0x3d8e5dd4	0.0695149
18	0x3da18070	0.07885826
19	0x3dc0953b	0.094034635
20	0x3d304fae	0.04304474
21	0xbd368356	-0.044558845
22	0xbc5496f5	-0.012975444
23	0x3da450a3	0.08023193
24	0x3b01c055	0.0019798477
25	0xbd001ea0	-0.031279206
26	0x3d827039	0.06369061
27	0x3d09e6bd	0.033667315
28	0xbd0aab1f	-0.0338546
29	0x3db50f8f	0.08840858
30	0xbc5564b0	-0.013024494
31	0x3d1e4c2f	0.038646873
32	0x3daf197d	0.085497834
33	0xbd91dd7f	-0.07122325
34	0x3bc83e4f	0.0061109434
35	0x3bdc6050	0.0067253485
36	0xbd5c3163	-0.053758036
37	0x3cb4d85f	0.02207583
38	0x3c4b5901	0.012411357
39	0xbdbcdedc	-0.092221946
40	0x3c3f09c1	0.01166004
41	0xbb74b7da	-0.003734103
42	0x3d52e2af	0.051485714
43	0xbd80450d	-0.062631704
44	0xbd90e98c	-0.070757955
45	0x3d6cb7be	0.057792418
46	0xbd0c60d7	-0.03427204
47	0xbc06cd67	-0.008227683
48	0xbb98fc40	-0.0046687424
49	0xbd8062f4	-0.06268874
50	0x3ced2189	0.028946655
51	0xbd49ba8e	-0.049250178
52	0xbdac91f4	-0.08426276
53	0xbd6f949c	-0.058491334
54	0xbb6cce71	-0.003613379
55	0xbda3e549	-0.08002717
56	0x3d3590b8	0.044327468
57	0xbd3c384e	-0.045952134
58	0x3c8911e2	0.01673216
59	0xbd729d4f	-0.059232052
60	0x3da0fa9e	0.078603014
61	0x3d3d71ed	0.046251226
62	0x3ce3f1c1	0.027825238
63	0xbcb0b58f	-0.021570949
64	0xbccded47	-0.025137557
65	0x3d4943c7	0.049136903
66	0x3b8ef737	0.0043629664
67	0x3dab136d	0.083533145
68	0xbd1d4aaf	-0.038401302
69	0x3d0be9cd	0.034158517
70	0x3d9fe1e7	0.07806759
71	0x3d3e9c09	0.046535525
72	0x3d7fe423	0.062473428
73	0x3cf8bfb4	0.030364849
74	0xbd2ef6b2	-0.042715736
75	0xbcfbb5e7	-0.030726386
76	0xbc67fdfc	-0.014159676
77	0xbd88e5fc	-0.06684491
78	0xbd8e11ce	-0.0693699
79	0x3ccc8a93	0.024968421
80	0x3d2487dc	0.040168628
81	0x3d9839f0	0.07432926
82	0x3d5a127f	0.053240295
83	0xbd4c6ab6	-0.049906455
84	0xbc8eb8d7	-0.017422123
85	0x3be9b2ce	0.007131911
86	0x3d8763c4	0.06610826
87	0x3cceee0e	0.025259998
88	0x3c0fc652	0.008775311
89	0x3d99a7e4	0.07502726
90	0x3d248405	0.040164966
91	0x3da21d58	0.07915753
92	0xbbf78b9a	-0.0075544836
93	0xbca2673a	-0.019824613
94	0xbcc3704d	-0.02385726
95	0x3d8dd0c8	0.069245875
96	0xbcdd1527	-0.026987625
97	0x3d6d1d3a	0.0578892
98	0x3d991e2d	0.07476459
99	0xbd2a9090	-0.04164177
100	0x3d991588	0.0747481
101	0xbd0a5282	-0.03377009
102	0xbd790a07	-0.06080058
103	0x3ce236a1	0.02761394
104	0xbce968fb	-0.028492441
105	0xbc8e656a	-0.017382342
106	0x3cad930c	0.021188281
107	0xbd8420ac	-0.06451544
108	0x3cdf20e8	0.02723737
109	0x3d96ce47	0.07363563
110	0x3d03441d	0.03204738
111	0xbd41c590	-0.04730755
112	0xbd0dd201	-0.034624103
113	0x3b7541ae	0.0037423181
114	0xbd37c3f1	-0.0448646
115	0x3d62aaf9	0.055338833
116	0xbd765669	-0.060141
117	0xbda77b2a	-0.081777886
118	0x3d5bf0db	0.053696495
119	0x3d1e3570	0.03862518
120	0xbcf8aa0c	-0.030354522
121	0xbc2e37f5	-0.010633458
122	0x3c1d152d	0.009587568
123	0x3cef304b	0.029197833
124	0x39c6d33a	0.0003792288
125	0xbdaab226	-0.0833476
126	0xbd94677b	-0.072463
127	0x3d404c79	0.04694793
128	0xbcd4abd5	-0.025960842
129	0x3da7aa5a	0.08186789
130	0x3d0d8170	0.03454727
131	0xbd5e95fd	-0.05434226
132	0x3dbfc546	0.09363799
133	0x3ca05262	0.019570533
134	0xbd961ad8	-0.07329339
135	0xbd21b628	-0.03948036
136	0xbda5fa4f	-0.08104383
137	0x3d32e929	0.04367939
138	0xbd191fb0	-0.037383735
139	0x3b9f7b4f	0.0048669945
140	0x3d83c954	0.06434885
141	0xbb9fe9f5	-0.004880185
142	0x3d4e0f39	0.050307486
143	0x3c219003	0.009860995
144	0x3d1ec4bd	0.038761843
145	0xbd8e8702	-0.069593444
146	0x3bb3ac7c	0.005483208
147	0xbd3df9c0	-0.04638076
148	0xbdb29728	-0.08720237
149	0xbd83f6d7	-0.06443565
150	0xbd9382b4	-0.07202664
151	0xbc0adf04	-0.008476023
152	0xbd138f4e	-0.036025338
153	0xbd4b0c1f	-0.049572106
154	0xbcdc4a8c	-0.026891015
155	0xbdac8a7c	-0.08424851
156	0x3d757768	0.059928328
157	0xbc8ac05f	-0.016937433
158	0x3cf41b7a	0.029798258
159	0xbd87a36a	-0.06622966
160	0xbd2b17a8	-0.041770607
161	0xbd665600	-0.05623436
162	0x3d55200a	0.052032508
163	0xbd513dee	-0.05108445
164	0x3c33612b	0.01094846
165	0xbca27f6a	-0.019836146
166	0x3be56f9c	0.0070018303
167	0xbce88a99	-0.028386401
168	0x3cac0898	0.021000192
169	0x3bbeda5c	0.0058243703
170	0x3aa81cf8	0.0012826016
171	0xbd96d329	-0.07364494
172	0xbd65642c	-0.056003734
173	0x3d88bc42	0.06676532
174	0x3d910634	0.07081261
175	0xbc8f7187	-0.017510189
176	0xbd00c4aa	-0.031437553
177	0xbac411d1	-0.0014958923
178	0xbd9fc229	-0.07800705
179	0x3dacebd3	0.084434174
180	0xbd774f27	-0.06037822
181	0x3cd2f6b2	0.0257524
182	0xbc2a9f65	-0.010413979
183	0xbbeb860a	-0.0071876096
184	0xbc9d743d	-0.019220466
185	0xbadc4086	-0.0016803897
186	0xbd806d24	-0.06270817
187	0x3cffa1d0	0.031205088
188	0xbd2774b5	-0.040882785
189	0x3d303a2d	0.04302423
190	0xb951e340	-0.0002001645
191	0x3c924fb1	0.017860265
192	0x3cbcd619	0.023051308
193	0xbd8e8721	-0.069593675
194	0xbda5be8f	-0.08092987
195	0xbd4c14fa	-0.049824692
196	0x3d9833b1	0.07431734
197	0x3bb4b663	0.0055149063
198	0xbdb7f5ee	-0.08982454
199	0xbd9c6583	-0.07636549
200	0x3d494745	0.049140234
201	0xbc56656b	-0.013085703
202	0x3ba32a4f	0.004979409
203	0x3b6bd021	0.0035982209
204	0x3da6b0e7	0.0813921
205	0x3da65630	0.08121908
206	0x3d371585	0.044698257
207	0xbcfd06f8	-0.030887112
208	0xbd2f1192	-0.042741366
209	0x382e6442	4.1578205e-05
210	0xbd46194d	-0.048363972
211	0xbce80fe9	-0.028327899
212	0x3d09316e	0.033494405
213	0xbd32c671	-0.04364628
214	0xbc77dcaf	-0.015128299
215	0x3d98bd41	0.07457972
216	0xbd9013c1	-0.07035018
217	0x3c0bd4d2	0.008534627
218	0xbd84ed89	-0.06490619
219	0xbda90759	-0.082533546
220	0x3d7387e1	0.059455756
221	0xbd97b85d	-0.074082114
222	0xbba485a3	-0.0050208136
223	0xbca75271	-0.020425053
224	0x3d77f5d2	0.060537167
225	0x3d8eeb73	0.06978502
226	0x3d9564af	0.072945945
227	0x3d7b7302	0.061388977
228	0xbd866fd9	-0.06564302
229	0xbb987ba4	-0.004653411
230	0x3d4df34d	0.050280858
231	0xbd319f2e	-0.043364696
232	0xbda35407	-0.07975011
233	0x3b5dbe6d	0.0033835426
234	0xbd7f5499	-0.062336538
235	0xba51ba05	-0.00080004364
236	0x3af25173	0.0018487409
237	0x3d4c060e	0.04981046
238	0x3ce2e1fd	0.02769565
239	0xbd6e5462	-0.058185942
240	0xbd817c06	-0.06322484
241	0xbdb5d819	-0.08879108
242	0xbcf30dc2	-0.029669646
243	0x3d68162a	0.056661762
244	0x3bb5a8f3	0.005543822
245	0x3c774cae	0.015093965
246	0x3d48968e	0.048971705
247	0x3db5f75a	0.08885069
248	0x3be55adc	0.0069993567
249	0x3cd4c35d	0.025972063
250	0xbd0144e5	-0.031559844
251	0x3d9dd6b9	0.07706971
252	0x3d1a6469	0.037693415
253	0x3d6d2e17	0.057905283
254	0x3d6ccd7f	0.057813164
255	0x3d0d20f3	0.03445525
