results/models/DAX40_LSTM_model.pth (torch, 904977 bytes, 19 tensors)

lstm1.weight_ih_l0 f4 [512, 6]
0	0x3d62e4f1	0.055394117
1	0x3be70241	0.0070498292
2	0x3cef0117	0.029175324
3	0xbd8cea05	-0.06880573
4	0xbd74f5e6	-0.05980482
5	0xbd86a908	-0.06575209
6	0x3c255755	0.010091622
7	0xbd883a8c	-0.06651792
8	0x3c86330c	0.016381763
9	0xbc88886f	-0.01666662
10	0xbd1fff56	-0.039061867
11	0xbdfafbba	-0.12255044
12	0x3d2adbd3	0.041713547
13	0xbcae659b	-0.021288684
14	0x3da69191	0.08133233
15	0x3d851717	0.06498545
16	0x3dbac742	0.09120037
17	0x3cdcfba4	0.02697546
18	0x3d808b82	0.06276609
19	0x3d996668	0.074902356
20	0x3d9450d4	0.07241979
21	0xbd8d4a90	-0.06898987
22	0xbd1c901c	-0.03822337
23	0xbdcb5165	-0.09927634
24	0xbd8824ba	-0.0664763
25	0x3cd9dbbc	0.026594035
26	0xbd6631c7	-0.056199815
27	0x3d385f33	0.045012664
28	0xbd880534	-0.066416174
29	0xbcf9569a	-0.030436803
30	0xbc501bd8	-0.012701951
31	0x3d38ee12	0.045148917
32	0x3c3c1a1f	0.011480837
33	0x3cb4f1e4	0.022087999
34	0x3d925cfd	0.07146642
35	0x3c76fc01	0.015074731
36	0x3d1090d1	0.035294358
37	0xbd3adb27	-0.045619156
38	0xbcd6f24d	-0.026238585
39	0xbd55ec01	-0.052227024
40	0xbc8343b9	-0.016023504
41	0xbcb91858	-0.022594616
42	0x3b2edbd3	0.0026681318
43	0xbcd97609	-0.026545541
44	0xbdb8f337	-0.090307645
45	0x398730d8	0.00025785598
46	0x3d6a8512	0.057255812
47	0x3c8154f8	0.015787587
48	0xbb801d28	-0.0039097257
49	0xbc32366e	-0.010877235
50	0xbd532fbd	-0.0515592
51	0x3c00cd96	0.0078615155
52	0xbd9d48e3	-0.07679918
53	0x3c921eae	0.017836895
54	0xbc406e38	-0.011745028
55	0x3da389b9	0.07985253
56	0xbd6da10b	-0.05801491
57	0xbd9427b4	-0.07234135
58	0x3cf1af84	0.029502638
59	0xbd0aeff9	-0.033920262
60	0x3d9276ce	0.071515664
61	0x3c8b5164	0.017006584
62	0xbd29e00e	-0.04147344
63	0x3d9209a9	0.07130749
64	0xbd87dd01	-0.0663395
65	0xbbacfd2a	-0.005279203
66	0xbd68360d	-0.05669217
67	0x3d28cfe9	0.041213904
68	0x3d65e5fe	0.05612754
69	0x3c21e1a5	0.009880458
70	0x3d02ded7	0.031950798
71	0xbc10ca66	-0.008837318
72	0x3dc306e6	0.095228
73	0x3d47da22	0.048792012
74	0xbc666db0	-0.0140642375
75	0x3d6105a6	0.054937027
76	0xbd8a45d7	-0.06751602
77	0xbc7e2762	-0.015512319
78	0xbccfbca6	-0.02535851
79	0x3d709afb	0.05874155
80	0x3d5921cd	0.05301075
81	0x3c3dc1c0	0.011581838
82	0xbb820ca3	-0.0039687916
83	0x3dc7d6d6	0.097577736
84	0xbda50599	-0.08057708
85	0x3bdd8ef9	0.0067614284
86	0x3cea9319	0.028634595
87	0xbdd585c8	-0.104259074
88	0x3d8f70df	0.0700395
89	0xbcd9a89a	-0.026569653
90	0xbcae27ad	-0.021259153
91	0xbd4d366b	-0.050100725
92	0xbcc09219	-0.023507165
93	0xbda64ec2	-0.081204906
94	0x3d8f54fb	0.069986306
95	0xbc21450c	-0.009843122
96	0x3cb534ee	0.022119965
97	0x3cc5e47b	0.0241568
98	0xbc60812e	-0.013702674
99	0x3d5f427d	0.054506768
100	0x3d812c41	0.06307269
101	0x3dc17e1a	0.0944788
102	0x3d11190d	0.03542428
103	0xbd79a0b9	-0.060944293
104	0xbdd013c1	-0.10160018
105	0xbddba77c	-0.107253045
106	0xbd2b5907	-0.04183295
107	0xbb37a705	-0.0028023135
108	0x3dbcef04	0.09225276
109	0x3d9f8efc	0.07790944
110	0xbd4d6cf6	-0.05015274
111	0xbc937bc9	-0.018003361
112	0x3d8e5c31	0.06951178
113	0x3b0c9e45	0.002145664
114	0x3d510db7	0.05103847
115	0xbcb3ddb8	-0.02195631
116	0x3d834d19	0.064111896
117	0xbdb16879	-0.08662505
118	0xbd05b6e1	-0.03264511
119	0x3ce5def5	0.028060416
120	0xbd44fb66	-0.048091315
121	0xbd4220de	-0.047394626
122	0x3caf94ca	0.021433253
123	0xbcd5b3a6	-0.02608664
124	0xbc6f3f62	-0.014602514
125	0x3c098388	0.008393176
126	0x3d076fc2	0.033065565
127	0xbd933f2f	-0.07189786
128	0x3d8715dd	0.06595967
129	0x3d7e90fc	0.062149987
130	0x3d5ce680	0.05393076
131	0x3aa9b5f6	0.0012947905
132	0xbd964384	-0.07337096
133	0x3d04f549	0.032460485
134	0xbd2ef450	-0.042713463
135	0xbda8ba27	-0.08238631
136	0xbce65d66	-0.028120708
137	0xbd9f544b	-0.077797495
138	0xbdc8319b	-0.097750865
139	0x3bab042b	0.0052190027
140	0x3cb82f08	0.022483364
141	0x3d619dd1	0.055082146
142	0xbd5cec1b	-0.053936105
143	0xbcdda9a5	-0.027058432
144	0x3d1b4533	0.03790779
145	0xbd98e061	-0.07464672
146	0xbc59acb2	-0.013285803
147	0xbd901848	-0.07035881
148	0xbd211a34	-0.03933163
149	0xbdb0fb15	-0.0864164
150	0x3c2e7dd5	0.010650118
151	0x3d70e736	0.05881425
152	0x3d2f0228	0.042726666
153	0x3d34ec21	0.044170503
154	0xbce7c4b4	-0.028292038
155	0xbd54eddd	-0.051984657
156	0x3db942ec	0.090459675
157	0xbd790bc3	-0.060802232
158	0x3d1f0673	0.03882451
159	0x3d789624	0.06069006
160	0xbd16e6a3	-0.036841046
161	0xbd1cb562	-0.038258918
162	0x3cb64f09	0.022254484
163	0x3c532338	0.012886815
164	0x3d60a056	0.05484041
165	0xbcda3766	-0.026637744
166	0xbd938ecd	-0.072049715
167	0x3d0751a4	0.033036843
168	0xbc7f6942	-0.01558906
169	0xb94a56a3	-0.00019296496
170	0xbd30b289	-0.043139014
171	0xbdb0ea74	-0.086384684
172	0x3d4c9afc	0.049952492
173	0x3dab60ab	0.08368047
174	0x3d4bcf97	0.04975852
175	0x3db22880	0.08699131
176	0x3d3296f0	0.043600976
177	0x3db1e58c	0.08686361
178	0xbcb0589a	-0.021526624
179	0xbdc7a128	-0.09747535
180	0x3bc5803e	0.0060272506
181	0xbce7162a	-0.02820881
182	0xbd892ff0	-0.066985965
183	0xbd6e6236	-0.05819913
184	0xbdbbb119	-0.09164638
185	0x3d86e8c6	0.06587367
186	0x3b0f822e	0.0021897661
187	0xbdd0149d	-0.10160182
188	0xbda459aa	-0.080249146
189	0xbada2fd6	-0.0016646336
190	0x3d2b7a02	0.041864403
191	0x3d83f667	0.06443482
192	0xbd2b1421	-0.041767243
193	0x3d5405f3	0.051763486
194	0xbb2893e5	-0.0025722918
195	0x3d68937c	0.056781277
196	0xbdb80d22	-0.0898688
197	0xbd84a774	-0.06477252
198	0xbd8b26f2	-0.067945376
199	0xbbe880b1	-0.0070954193
200	0xbd18992f	-0.037255462
201	0x3da1004d	0.078613855
202	0xbbc25a90	-0.005931206
203	0x3d5da203	0.054109585
204	0x3cc908ae	0.024540272
205	0x3ceda55d	0.029009515
206	0x3c2bf9af	0.010496541
207	0xbd7532fa	-0.05986307
208	0xbc4ec9a6	-0.012621319
209	0xbb5bcf9a	-0.0033540488
210	0xbdaad046	-0.08340506
211	0x3d08aec8	0.03336981
212	0xbd56ccb1	-0.052441303
213	0x3c8dfd5b	0.017332723
214	0x3d9d0a8d	0.07668028
215	0xbd289def	-0.041166242
216	0xbb2f5c0d	-0.0026757747
217	0x3c736b48	0.014857121
218	0xbdb931d0	-0.09042704
219	0xbd9cc55a	-0.07654829
220	0x3d1b54a5	0.03792252
221	0x3d4fd217	0.050737467
222	0xbc881dcc	-0.01661577
223	0x3da235f2	0.079204455
224	0x3d4cc011	0.049987856
225	0x3d0afa2a	0.03392998
226	0x3c9ff866	0.019527625
227	0xbda0e398	-0.0785591
228	0xbb98efe8	-0.004667271
229	0xbd69182d	-0.05690782
230	0xbc8b06a1	-0.016970934
231	0x3d95afd7	0.073089294
232	0x3d5906bb	0.052984934
233	0xbc42b3dc	-0.011883702
234	0xbca07868	-0.019588664
235	0x3bcf0264	0.0063174237
236	0xbcd2223f	-0.025651095
237	0xbd0c33fe	-0.03422927
238	0x3d3fabd6	0.046794735
239	0x3d7821db	0.060579162
240	0xbd7126c1	-0.05887485
241	0x3d6fab09	0.05851272
242	0x3daf3ee8	0.0855692
243	0x3d565c2a	0.05233399
244	0xbd1b6709	-0.03794006
245	0x3d2b02de	0.04175078
246	0x3ddb048b	0.10694226
247	0x3d9f067e	0.0776491
248	0x3c5cdba9	0.013480105
249	0xbd7e9ea4	-0.06216301
250	0x387d856c	6.044416e-05
251	0x3d8bf2be	0.06833409
252	0xbd916a82	-0.07100393
253	0xbd752072	-0.059845395
254	0x3db30638	0.087414205
255	0xb922e057	-0.00015533097

lstm1.weight_hh_l0 f4 [512, 128]
0	0xbd3712f6	-0.044695817
1	0xbdd0f165	-0.10202292
2	0x3d4c0d1e	0.049817197
3	0x3d148c53	0.036266636
4	0x3cb17d10	0.02166608
5	0xba298bbe	-0.00064676616
6	0x3d862937	0.0655083
7	0xbc05ab21	-0.008158476
8	0x3d81eb38	0.063436925
9	0x3d1f7a2e	0.03893488
10	0x3d15159e	0.03639757
11	0xbd876e93	-0.06612887
12	0x3d95fe42	0.073238865
13	0xbd84ca39	-0.064838834
14	0xbd25c2b5	-0.04046889
15	0x3ca2f10a	0.019890327
16	0x3cee60ac	0.029098831
17	0xbd83e872	-0.0644082
18	0xbd3e33a1	-0.046435956
19	0xbd537e67	-0.05163422
20	0xbd8bf2ea	-0.068334416
21	0xbd328e4b	-0.043592732
22	0x3d5d8309	0.054080043
23	0xbd9960f1	-0.07489193
24	0x3d4af972	0.049554296
25	0x3af470be	0.0018649322
26	0xbc30e3c8	-0.010796495
27	0x3d8071f7	0.06271737
28	0x3d8e48f5	0.06947509
29	0x3d847a27	0.06468611
30	0xbd93e8ff	-0.07222175
31	0xbd9545c4	-0.07288697
32	0x3d395c80	0.04525423
33	0x3d60cb10	0.054881155
34	0xbd88a936	-0.066728994
35	0x3b804175	0.003914053
36	0xbd3d0cf4	-0.04615493
37	0x3c2b52e6	0.010456776
38	0xbc21f6b8	-0.0098854825
39	0x3d8ae774	0.067824274
40	0x3d13e962	0.036111243
41	0x3da6a9cc	0.08137855
42	0x3d6c0f6a	0.057631887
43	0x3c42ebd7	0.011897049
44	0xbc911520	-0.017710268
45	0x3ab57cc8	0.0013846392
46	0xbbda5667	-0.006663132
47	0x3d6503e1	0.055911902
48	0x3c20384d	0.009779048
49	0xbd441273	-0.047869157
50	0x3d90aad4	0.07063833
51	0x3d006bb7	0.031352725
52	0x3ba3de1f	0.005000844
53	0x3d2b5d9c	0.04183732
54	0xbd15ce19	-0.036573503
55	0x3d60abaf	0.05485123
56	0xbc40dc24	-0.011771236
57	0xbc03d907	-0.008047349
58	0x3be14a21	0.006875292
59	0xbcd02367	-0.025407506
60	0x3d9b569b	0.07584878
61	0x3c23f3eb	0.010006885
62	0xbc9cc7bb	-0.019138208
63	0xbd393df3	-0.045225095
64	0x3d8cd4ce	0.06876527
65	0x3d3f81b0	0.04675454
66	0x3dd408da	0.10353251
67	0xbd9f33ca	-0.0777355
68	0xbddee8b9	-0.10884232
69	0x3c89a2ef	0.016801326
70	0x3d8679b7	0.06566184
71	0x3dca44d9	0.09876413
72	0x3d3abc2d	0.045589615
73	0x3dda9cb2	0.106744185
74	0xbd03197d	-0.03200673
75	0xbd5b7195	-0.053575117
76	0xbcc1d424	-0.023660727
77	0xbd1bb729	-0.038016472
78	0xbb417cae	-0.0029523778
79	0x3bd0ee85	0.00637609
80	0x3d1eb89c	0.038750276
81	0x3c936b10	0.017995387
82	0x3c181de0	0.0092844665
83	0xbcd02f5f	-0.025413213
84	0x3d0b9cd6	0.034085117
85	0xbd91570a	-0.070966795
86	0xbd49a161	-0.04922617
87	0x3d23698c	0.03989558
88	0x3d49d437	0.04927465
89	0xbd48265d	-0.04886471
90	0xbcb0465f	-0.02151793
91	0x3d79c149	0.060975347
92	0xbdc52792	-0.09626688
93	0x3d921e73	0.07134714
94	0x3d0b76be	0.03404879
95	0x3d60387a	0.05474136
96	0xbc8926c0	-0.01674211
97	0xbd1356c8	-0.035971433
98	0x3c189e64	0.009315107
99	0x3cd8234d	0.02638402
100	0x3cce1d10	0.025160342
101	0xbd445c14	-0.047939375
102	0xbd3cf285	-0.046129722
103	0x3d9d1f2a	0.0767196
104	0x3d9dc957	0.07704418
105	0x3c286dc6	0.010280078
106	0xbbc70a65	-0.006074237
107	0x3d970347	0.07373672
108	0xbc672507	-0.014107949
109	0xbd88d512	-0.06681265
110	0xbce8bde8	-0.028410867
111	0x3b46413b	0.0030251283
112	0x3cc47ac4	0.02398432
113	0xbd20fc4a	-0.0393031
114	0xbd27acb9	-0.040936206
115	0x3d76c379	0.06024501
116	0xbd913f5f	-0.07092165
117	0x3bf8e73d	0.007595925
118	0xbdcc1702	-0.09965326
119	0x3d30a11c	0.043122396
120	0xbd45cc54	-0.048290566
121	0x3d9482d0	0.07251513
122	0x3d93dc92	0.07219805
123	0xbd4d3e8f	-0.05010849
124	0xbc35bd72	-0.011092531
125	0x3d346e18	0.044050306
126	0x3d5640be	0.052307837
127	0x3d9ce83b	0.07661482
128	0x3bfa0c96	0.007630895
129	0x3d83b7f3	0.0643157
130	0xbc06168f	-0.008184089
131	0xbda249c8	-0.07924229
132	0xbbd28aad	-0.006425223
133	0xbc29cd43	-0.01036388
134	0x3d8eda1c	0.06975195
135	0xbc1151cf	-0.008869602
136	0x3be174a6	0.0068803607
137	0x3d5df063	0.05418433
138	0xbdd641c7	-0.10461765
139	0x3af8d85c	0.0018985379
140	0x3c49be4b	0.012313436
141	0xbd09b659	-0.033621166
142	0xbd318c14	-0.04334648
143	0xbd21312e	-0.039353542
144	0x3d98a75d	0.07453797
145	0xbd8cbe32	-0.068722144
146	0x3d810462	0.06299664
147	0xbd62ff38	-0.055419177
148	0xbd1f315e	-0.03886544
149	0xbd30e65c	-0.043188438
150	0xbd10e08e	-0.035370402
151	0x3c59238e	0.013253106
152	0xbdcfa756	-0.10139339
153	0xbd6e7935	-0.05822106
154	0xbd8b12ad	-0.067906715
155	0x3bbc462a	0.005745669
156	0x3d08e119	0.033417795
157	0x3c3c8138	0.0115054175
158	0xbca87df5	-0.020567873
159	0x3d7fa87f	0.06241655
160	0xbda443bd	-0.080207326
161	0x395b5a0e	0.00020919016
162	0x3c009110	0.007847086
163	0x3d5a39e5	0.05327787
164	0xbb27c513	-0.0025599643
165	0xbda41f02	-0.08013727
166	0xbdb6e49b	-0.08930322
167	0x3dd72522	0.105051294
168	0xbd9583e8	-0.0730055
169	0xbd5448e3	-0.051827323
170	0xbd8abc75	-0.067742266
171	0xbd0b08b0	-0.033943832
172	0x3d9d44f1	0.07679165
173	0xbd6e6557	-0.058202114
174	0x3cbab28f	0.022790221
175	0xbd49a5df	-0.049230453
176	0x3b6fe7c6	0.0036606654
177	0x3d8ba011	0.068176396
178	0x3d1e01b8	0.038575858
179	0x3d2b196f	0.041772302
180	0xbd256abb	-0.04038499
181	0xbd2d13ae	-0.042255096
182	0xbd40720c	-0.046983764
183	0x3da2ae02	0.079433456
184	0x3d3423e9	0.04397956
185	0xbd8c31dd	-0.06845448
186	0xbc6e17e9	-0.014532068
187	0x3b7df296	0.0038749329
188	0x3c012a57	0.00788363
189	0xbc591a85	-0.013250952
190	0x3d361452	0.044452973
191	0xbd993ac8	-0.07481915
192	0xbdbe9691	-0.09306062
193	0x3d5e8c37	0.054332938
194	0x3d60513d	0.054764975
195	0x3d7b7f58	0.06140074
196	0xbd6ff12e	-0.058579616
197	0x3d4c44aa	0.04987017
198	0xbaf6ed7c	-0.0018839086
199	0x3d855c9e	0.06511806
200	0xbcd4b0ca	-0.025963206
201	0x3daa5bb1	0.0831827
202	0xbaacb2e1	-0.0013175869
203	0x3d47227e	0.04861688
204	0xbd852bc1	-0.06502486
205	0x3c033882	0.008009078
206	0x3d527315	0.051379282
207	0x3b77c7a7	0.003780821
208	0xbd107d45	-0.035275716
209	0xbdc31b82	-0.09526731
210	0x3d617c7b	0.055050354
211	0x3cb0e091	0.021591457
212	0x3da03e49	0.0782438
213	0xbd5e3423	-0.05424894
214	0x3cde7d72	0.027159426
215	0xbdab6125	-0.08368138
216	0x3db9a649	0.090649195
217	0xbcfd92c4	-0.030953772
218	0xbd7d17da	-0.061790325
219	0x3cecaa2a	0.028889734
220	0xbceb2b37	-0.02870713
221	0x3d5fc65d	0.054632533
222	0xbb0668c0	-0.0020509213
223	0xbd044733	-0.032294463
224	0x3dc2f87f	0.09520053
225	0xbd314dcd	-0.043287087
226	0x3d413125	0.04716601
227	0x3dcf5ea9	0.10125477
228	0xbc2e7915	-0.010648985
229	0xbcc27196	-0.023735803
230	0x3da40bdf	0.08010077
231	0x3dbaa9c4	0.091144115
232	0x3a76c58a	0.0009413591
233	0xbd2382bd	-0.039919604
234	0x3d7dabec	0.061931536
235	0x3c886061	0.01664752
236	0x3d83a424	0.06427792
237	0x3d92b1a9	0.07162792
238	0xbd912fa4	-0.07089165
239	0x3d6fd4b8	0.058552474
240	0x3d04ce6d	0.032423425
241	0x3dae797c	0.08519265
242	0x3db735f1	0.089458354
243	0x3d71a75d	0.0589975
244	0x3d8b9ca5	0.06816987
245	0xbd1cc67c	-0.038275227
246	0xbcbf73b2	-0.023370598
247	0xbd21a3fb	-0.039463025
248	0xbd1db752	-0.038504906
249	0xbc91ab22	-0.017781798
250	0x3d965903	0.073411964
251	0xbad15afb	-0.0015972549
252	0x3c7ad905	0.015310531
253	0xbc878478	-0.016542658
254	0x3d08545f	0.033283588
255	0xbd745e3f	-0.059660193

lstm1.bias_ih_l0 f4 [512]
0	0xbc64993b	-0.013952549
1	0xbd9e00d4	-0.07715002
2	0x3db6098b	0.08888539
3	0xbda8eda6	-0.08248453
4	0xbd8c3811	-0.06846631
5	0xba0ba6cc	-0.0005327284
6	0x3d85b9e7	0.06529599
7	0x3d24dc09	0.040248904
8	0x3d95f0ca	0.073213175
9	0xbc9f3ffa	-0.019439686
10	0x3d157bb5	0.03649493
11	0x3d469dee	0.048490457
12	0xbd1b8196	-0.03796538
13	0xbd8c9ff4	-0.06866446
14	0xbcaa3edc	-0.020781927
15	0xbd0defb7	-0.034652438
16	0xbcd778fc	-0.026302807
17	0x3d005e58	0.031339973
18	0xbd721493	-0.059101652
19	0xbb416d45	-0.0029514593
20	0xbbdccf64	-0.00673859
21	0xbc66d8fe	-0.014089821
22	0x3c9cdb14	0.019147433
23	0xbc2fdf77	-0.0107344305
24	0xbd605b95	-0.05477484
25	0x3dc887f1	0.09791554
26	0x37fb9045	2.9988712e-05
27	0x3cf5222b	0.02992352
28	0xbd6aa81b	-0.057289224
29	0xbcc62e3b	-0.024191966
30	0xbd0055dd	-0.031331886
31	0x3d417e7c	0.047239766
32	0x3b156224	0.0022794092
33	0x3d937862	0.072006956
34	0xbd16d21e	-0.036821477
35	0x3d8eb9cd	0.069690324
36	0xbc814132	-0.015778158
37	0xbce9a142	-0.028519277
38	0x3d145d15	0.036221582
39	0x3c034f00	0.008014441
40	0xbb121226	-0.002228865
41	0xbc4ba34e	-0.012429072
42	0x3d939e3a	0.07207914
43	0x3d723818	0.059135526
44	0x3cff90a9	0.031196909
45	0xbd80e293	-0.062932156
46	0xbca5dd21	-0.020247044
47	0xbd8f815d	-0.07007096
48	0x3d5bfb26	0.05370631
49	0x3b16f745	0.0023035568
50	0xbd0a5cdc	-0.033779964
51	0xbc02185c	-0.007940378
52	0xbd82d9e0	-0.063892126
53	0xbda3ea72	-0.08003701
54	0xbd152719	-0.03641424
55	0x3d7df2ce	0.061999135
56	0x3c1f3454	0.009717066
57	0xbc8084d1	-0.015688332
58	0xbd8538ac	-0.0650495
59	0xbd07b83f	-0.033134695
60	0x3d79ef82	0.061019428
61	0xbd56ed14	-0.05247219
62	0xbb89c38c	-0.004204219
63	0xbcdd1733	-0.026988601
64	0x3bddf991	0.0067741354
65	0x3d992670	0.074780345
66	0xbd2ce1eb	-0.04220764
67	0xbc9b0332	-0.018922422
68	0xbcee80d6	-0.029114168
69	0x3d8e4757	0.06947201
70	0xbc8de103	-0.017319208
71	0xbd8962dc	-0.06708309
72	0x3cd16b81	0.025563957
73	0xbcc14b17	-0.023595376
74	0xbd7a7f59	-0.061156604
75	0x3d8a104a	0.06741388
76	0xbd6e5372	-0.05818505
77	0xbcc4be1f	-0.024016438
78	0x3bb7e07a	0.0056114765
79	0x3cb8439d	0.022493178
80	0x3d5a32f8	0.053271264
81	0xbd8e4932	-0.06947555
82	0xba91969b	-0.0011107506
83	0x3d779e6f	0.06045383
84	0xbc9fcca5	-0.019506762
85	0xbdb1480b	-0.08656319
86	0x3dada1a7	0.08478098
87	0xbd5d840d	-0.05408101
88	0x3daf44fc	0.085580796
89	0x3d9a95f1	0.0754813
90	0x3bf77de6	0.00755285
91	0xbcf7d57e	-0.030253168
92	0x3a0bd331	0.0005333899
93	0xbb10a3d3	-0.0022070303
94	0x3cd9862d	0.026553238
95	0x3d22b2c7	0.039721277
96	0x3cdd6a01	0.027028086
97	0x3d47d7a0	0.04878962
98	0x3c7a35cf	0.015271618
99	0xbd541ed4	-0.051787212
100	0xbd15d253	-0.036577534
101	0x3d3d8ef8	0.046278924
102	0x3d4426ae	0.04788845
103	0x3d836ad7	0.064168625
104	0xba067d66	-0.000513038
105	0xbd45140f	-0.048114832
106	0xbd2fd7a4	-0.04293026
107	0xbc93095f	-0.017948804
108	0x3d941a80	0.07231617
109	0xbcad3d77	-0.021147473
110	0x3db8905e	0.09011911
111	0xbd3cd1e5	-0.04609861
112	0x3ca5b802	0.020229343
113	0x3da3beb7	0.0799536
114	0x3d8a3e8c	0.06750211
115	0x3d897d75	0.06713382
116	0x3d84d1e6	0.064853474
117	0x3d7bc320	0.061465383
118	0xbcfa94e5	-0.030588577
119	0x3d47d597	0.04878768
120	0xbbd33e28	-0.0064466186
121	0xbc3a7c30	-0.011382148
122	0xbda3637f	-0.07977962
123	0x3d3a5c03	0.045497905
124	0x3b4a5833	0.0030875325
125	0xbd6b0d47	-0.05738571
126	0x3d8f44ff	0.06995582
127	0xbd756032	-0.059906192
128	0xbc536e35	-0.012904693
129	0x3cfbc832	0.030735109
130	0x3cf3f04d	0.02977767
131	0x3d5fed08	0.05466941
132	0xbccb8227	-0.024842335
133	0xbd8f4eb4	-0.06997433
134	0xbd59c0ac	-0.05316226
135	0x3c6ddec9	0.014518448
136	0xbcb051a7	-0.02152331
137	0xbcdcda23	-0.026959484
138	0x3d14e11d	0.036347497
139	0xbd9e4d2a	-0.077295616
140	0xbdbd1ba4	-0.09233788
141	0x3d9be08f	0.076111905
142	0x3c0bf92c	0.008543294
143	0xbd89df49	-0.067320414
144	0x3d022395	0.031772215
145	0x3da35b44	0.07976392
146	0x3d5e4a26	0.054269932
147	0xbd8ad7f3	-0.0677947
148	0xbdd4d3c8	-0.103919566
149	0xbdad419b	-0.08459779
150	0xbd8822d9	-0.06647272
151	0xbd8e33be	-0.06943463
152	0xbcf62734	-0.03004799
153	0x3d0703e2	0.032962687
154	0xbd890876	-0.06691067
155	0xbd617df0	-0.055051744
156	0x3c3c3f1d	0.011489657
157	0x3cd68f34	0.026191331
158	0xbdc2aa4a	-0.09505136
159	0x3d6f819e	0.058473222
160	0x3d385090	0.044998705
161	0x3d12fa45	0.035883207
162	0xbd87f3aa	-0.06638272
163	0xbd9e39d4	-0.077258736
164	0xbc71b630	-0.01475291
165	0xbdb4cd09	-0.0882817
166	0x3ca2b9bf	0.019863961
167	0xbc74fe88	-0.014953263
168	0x3d8e58ed	0.06950555
169	0xbd167b04	-0.03673841
170	0xbda82570	-0.08210266
171	0x396d81f1	0.00022650488
172	0x3d426413	0.04745872
173	0x3d3ee655	0.04660638
174	0x3d9b7e41	0.075924404
175	0x3d51130f	0.051043566
176	0xbd857f1a	-0.06518383
177	0xbd1ca2ab	-0.03824107
178	0xbda52a5d	-0.08064721
179	0x3b342ed4	0.0027493732
180	0x3ba9db6f	0.005183629
181	0x3b825bfb	0.00397825
182	0xbae19f69	-0.0017213646
183	0xbd9b870c	-0.075941175
184	0xbb8d21a9	-0.004306991
185	0x3d76f689	0.060293708
186	0x3d13ce53	0.036085438
187	0x3d369b23	0.044581544
188	0xbda4d47b	-0.0804834
189	0x3d3eea64	0.04661025
190	0x3dadf9b6	0.08494894
191	0x3d73dc4b	0.05953626
192	0x3b1a1e78	0.0023516696
193	0xbca4de3e	-0.020125505
194	0x3c8efb5a	0.017453838
195	0x3c27dd2b	0.010245602
196	0xbdac6b4c	-0.08418903
197	0x3d25b8cf	0.04045945
198	0x3d4a7727	0.04943004
199	0x3d0bcbaa	0.034129776
200	0x3ccd4d2f	0.025061218
201	0xbcb1318b	-0.02163007
202	0xbd8d57e5	-0.0690153
203	0xbd1bcda5	-0.038037915
204	0x3d2e54d5	0.04256137
205	0xbda87447	-0.08225303
206	0x3d96a0b0	0.073548675
207	0xbd8a197b	-0.06743141
208	0x3d2d4690	0.04230362
209	0xbd8fe477	-0.07025998
210	0x3cd06088	0.025436655
211	0x3c5bf507	0.013425118
212	0x3d87ae6d	0.06625066
213	0xbdaadc2c	-0.08342776
214	0xbc61417a	-0.013748521
215	0xbd4e8313	-0.05041797
216	0x3c93851c	0.018007807
217	0xbca79921	-0.02045876
218	0x3cae1a94	0.021252908
219	0xbcd88833	-0.026432132
220	0xbdb4840c	-0.088142484
221	0xbd41b659	-0.04729304
222	0x3cd373c7	0.025812043
223	0x3d15946a	0.03651849
224	0xbd8e3a13	-0.069446705
225	0xbd28fe5e	-0.04125821
226	0xbd8e496f	-0.069476
227	0x3b66ecde	0.0035236399
228	0xbbe92ba5	-0.0071157985
229	0x3d7f3f05	0.06231596
230	0x3cae2941	0.021259906
231	0x3b8efdf5	0.00436377
232	0x3d828da1	0.0637467
233	0x3b4c67f7	0.0031189898
234	0x3d4e917d	0.050431717
235	0xbb90d16b	-0.004419496
236	0xbd347563	-0.04405726
237	0xbda03602	-0.07822801
238	0xbd441362	-0.047870047
239	0xbd3f2036	-0.046661578
240	0x3d8584b9	0.065194555
241	0x3b8f6a61	0.004376695
242	0x3d780d6b	0.06055967
243	0x3d80d4e7	0.06290608
244	0x3d062b49	0.032756124
245	0x3db43e66	0.08800964
246	0x3d0f1bfd	0.0349388
247	0xb9a9aab4	-0.00032361376
248	0xbd708bfb	-0.058727246
249	0xbccd9b49	-0.02509846
250	0xbd56d1f8	-0.052446336
251	0x3d4f8c70	0.05067104
252	0x3c14c8e9	0.009081104
253	0x3d935f24	0.07195881
254	0xbd9468e8	-0.07246572
255	0x3da37e2d	0.079830505

lstm1.bias_hh_l0 f4 [512]
0	0xbd8684d5	-0.065683044
1	0x3ca89f06	0.02058364
2	0xbd7b69f9	-0.06138036
3	0xbcad83fc	-0.0211811
4	0x3b53ad1a	0.0032299221
5	0xbd132906	-0.035927795
6	0xbcedb584	-0.029017217
7	0x3ce6f9fa	0.02819537
8	0x3d7c2bde	0.061565273
9	0xbd9cdfd0	-0.07659876
10	0x3d1bb8b5	0.038017947
11	0x3d9f50fe	0.0777912
12	0x3d4099bc	0.047021613
13	0x3c60eef6	0.013728848
14	0x3db31bdd	0.08745549
15	0xbc9128d1	-0.017719658
16	0xbd0b8650	-0.034063637
17	0xbd1a941f	-0.037738916
18	0xbc2c5a34	-0.010519553
19	0xbc5a5efd	-0.013328311
20	0x3cb05e5f	0.021529375
21	0x3d9e173a	0.07719274
22	0xbd3da72c	-0.046302006
23	0x3d5000f5	0.050782163
24	0x3d6959d1	0.05697042
25	0xbd933021	-0.07186914
26	0x3d3c6310	0.04599291
27	0x3c819db4	0.015822269
28	0xbcc6e233	-0.024277782
29	0x3ce17edf	0.027526317
30	0xbd37d281	-0.044878487
31	0x3bb81515	0.0056177475
32	0x3c975dbf	0.018477319
33	0x3cb9952b	0.022654137
34	0x3cf57119	0.029961156
35	0xbd28393e	-0.041070215
36	0x3d07dc2a	0.03316895
37	0xbd1800ef	-0.037110265
38	0xbda7396f	-0.081652515
39	0x3db0f9e1	0.086414106
40	0xbc4827a0	-0.012216479
41	0xbc9a6969	-0.018849092
42	0x3c3e1b76	0.011603227
43	0x3d435e2d	0.047697235
44	0x3c8db5e1	0.01729864
45	0x3c7412a7	0.014897025
46	0xbd98319b	-0.074313365
47	0xbc88b9f3	-0.01669023
48	0xbda0cc6d	-0.07851491
49	0x3d324c4e	0.0435298
50	0x3d90a67d	0.07063005
51	0x3d692867	0.056923296
52	0xbc5cc1b4	-0.013473917
53	0x3d8712d8	0.06595391
54	0x3d975039	0.07388348
55	0x3acef116	0.0015788402
56	0x3dc7c3ef	0.09754168
57	0x3d8e22de	0.06940244
58	0xbd9e4d15	-0.07729546
59	0xbd8e82d9	-0.06958551
60	0xbdc3efa4	-0.09567192
61	0x3d9994e2	0.074991
62	0xbd82d532	-0.0638832
63	0xbd1ce49d	-0.03830396
64	0xbd6645cc	-0.056218907
65	0xbc5fbc11	-0.013655678
66	0x3caec111	0.021332296
67	0xbc185e35	-0.009299804
68	0xbd808a3a	-0.062763646
69	0x3d4c4143	0.049866926
70	0xbd85effd	-0.06539915
71	0x3caa508a	0.020790357
72	0xbd33a057	-0.043854084
73	0x3db39ea2	0.08770491
74	0x3b827c23	0.0039820834
75	0xbca6cd3b	-0.020361533
76	0x3d16e58e	0.036840014
77	0xbc756e27	-0.014979876
78	0x3d9bf34f	0.07614767
79	0x3d5eeaff	0.05442333
80	0x3d989c1b	0.0745165
81	0x3c46d3c1	0.012135447
82	0xbcd7f3c2	-0.02636135
83	0x3c906ca4	0.017629929
84	0x3d7e5e27	0.06210151
85	0xbd0bf724	-0.03417124
86	0xbd9c7f73	-0.076414965
87	0x3cccec6d	0.02501508
88	0xbc3b78ca	-0.011442373
89	0xbd2f319a	-0.042771913
90	0x3da735bb	0.08164545
91	0x3d843e15	0.06457154
92	0xbdbb4336	-0.09143679
93	0xbd785d71	-0.060635988
94	0xbd8e8c9c	-0.06960413
95	0x3c95f278	0.018304095
96	0xbd7f71b6	-0.062364303
97	0x3d9da50e	0.07697497
98	0x3d62dda7	0.055387165
99	0xbd46d2a8	-0.04854074
100	0xbcc18c93	-0.023626601
101	0xbd38589c	-0.04500638
102	0x3d25bf31	0.040465537
103	0xbdb6867d	-0.0891237
104	0xbd3a4451	-0.045475308
105	0xbdb00fc7	-0.08596759
106	0xbce53104	-0.027977474
107	0x3d843e49	0.064571925
108	0x3d8ff5ae	0.070292816
109	0x3d1828bc	0.037148222
110	0x3ae63b48	0.0017565275
111	0x3db32752	0.08747734
112	0xbd338329	-0.043826256
113	0xba8673c8	-0.0010257894
114	0xbdd27559	-0.102762885
115	0xbcb8d288	-0.022561327
116	0x3d3d3138	0.046189517
117	0xbda30984	-0.07960799
118	0x3d378d93	0.04481275
119	0xbccd53eb	-0.02506443
120	0x3d59151f	0.05299866
121	0x3d6ca931	0.05777854
122	0xbdb40b09	-0.08791167
123	0xbdccca27	-0.09999495
124	0x3c789a38	0.015173487
125	0x3da6cc34	0.081444174
126	0x3d80aa38	0.06282467
127	0x3d6f5573	0.0584311
128	0x3d6b640e	0.057468466
129	0xbc544d76	-0.012957921
130	0x3d974f4b	0.07388171
131	0xbd58d221	-0.05293477
132	0x3c155c01	0.009116174
133	0xbd0b7c48	-0.03405407
134	0x3d856363	0.06513097
135	0xbc9b8104	-0.018982418
136	0x3c0d877e	0.008638261
137	0xbcf54ddb	-0.029944351
138	0x3d96b1e2	0.07358147
139	0xbda77024	-0.08175686
140	0xbd8bbaec	-0.06822762
141	0xbd4cb28a	-0.049974956
142	0xbd538f57	-0.05165037
143	0xbc9f5acf	-0.01945248
144	0x3c027166	0.007961607
145	0xbd89fe1c	-0.06737921
146	0xbda3dc5a	-0.08001013
147	0x3d193687	0.037405517
148	0xbc83f862	-0.01610965
149	0xbaa1d9c7	-0.0012348228
150	0x3d70537c	0.058673367
151	0xbd99aa74	-0.075032145
152	0x3be72290	0.0070536807
153	0xbceef04c	-0.029167317
154	0x3d3bd862	0.045860656
155	0x3c971287	0.018441452
156	0x3cd01b7a	0.025403727
157	0x3d41630e	0.047213607
158	0xbdb78757	-0.08961361
159	0xbc982af3	-0.018575167
160	0x3bfa3d0e	0.007636673
161	0x3c7fa4c3	0.015603247
162	0xbc9b632a	-0.018968184
163	0xbb5473ac	-0.0032417579
164	0x3d4fcc03	0.05073167
165	0xbd8988f0	-0.06715572
166	0xbd9dc7ff	-0.07704162
167	0x3d461261	0.04835737
168	0xbc0eaa20	-0.008707553
169	0x3d69c964	0.057076827
170	0xbd9faec4	-0.07797006
171	0xbd096b6e	-0.03354972
172	0xbce0994f	-0.027416853
173	0xbd96aa1b	-0.07356664
174	0x3d3dffb7	0.046386447
175	0xbd950d99	-0.07277984
176	0xbcf00095	-0.029297153
177	0x3c9fa4af	0.019487707
178	0xbdb46274	-0.08807841
179	0xbd47d72d	-0.048789192
180	0x3c49aae5	0.012308811
181	0x3d26d737	0.04073259
182	0xbda745f3	-0.08167639
183	0xbb862bdc	-0.004094584
184	0x3ddc269f	0.10749554
185	0x3daf73b2	0.08566989
186	0x3d39cbe9	0.04536048
187	0xbd385c82	-0.045010097
188	0x3cb90353	0.022584593
189	0xbcc5968c	-0.024119638
190	0x3b264503	0.0025370724
191	0x3d5cc037	0.053894248
192	0xbd44f406	-0.04808428
193	0xbcd0fe32	-0.025511835
194	0x3d5c5fea	0.05380241
195	0xbd6037fa	-0.054740883
196	0xbd99df30	-0.07513273
197	0xbbb886a2	-0.005631284
198	0x3d652ac6	0.055948995
199	0xbd9c7230	-0.07638967
200	0xbc0fb095	-0.008770128
201	0x3bb3ac63	0.0054831966
202	0x3d6450e5	0.05574121
203	0xbcbf28fa	-0.023334969
204	0xbdbdec10	-0.09273541
205	0x3c69be4c	0.014266562
206	0xbdb3443e	-0.087532505
207	0x3d784da6	0.060620926
208	0x3db2043c	0.08692214
209	0x3c85f5cd	0.016352559
210	0x3bdf98d2	0.0068236375
211	0xbd9c8468	-0.07642442
212	0x3d8154a0	0.06314969
213	0x3cc3fa81	0.02392316
214	0x3c5e0b9f	0.013552575
215	0x3bc554d7	0.0060220766
216	0x3d781dfa	0.060575463
217	0x3db238e6	0.08702259
218	0x3d87fa55	0.06639544
219	0xbd4a00ef	-0.049317297
220	0xbc1dbeb0	-0.009627983
221	0x3aaf8133	0.0013389945
222	0xbda5f781	-0.08103848
223	0xbd81c023	-0.06335475
224	0xbd203351	-0.03911144
225	0xbdc88682	-0.0979128
226	0x3db7e863	0.08979871
227	0x3bdb2ba5	0.0066885524
228	0x3d8075c5	0.06272463
229	0xbdbbfa3a	-0.09178586
230	0x3c1f3ae8	0.009718634
231	0x3cc40f69	0.02393313
232	0x3d3a8e90	0.045546114
233	0x3d5a8599	0.053350065
234	0x3d9776aa	0.0739568
235	0x3d7795ce	0.0604456
236	0xbd99f6bf	-0.07517766
237	0xbd221043	-0.03956629
238	0xbd9132ef	-0.07089793
239	0x3d12c7ba	0.035835005
240	0xbd2d41d8	-0.04229912
241	0xbc8c4f0f	-0.017127542
242	0xbd8bb892	-0.06822313
243	0x3d1ea360	0.038730025
244	0xbd49918f	-0.04921108
245	0xbd52d6d4	-0.051474407
246	0xbb0ac509	-0.002117457
247	0xbd4f8f92	-0.05067403
248	0x3d19842f	0.037479576
249	0x3d78a1eb	0.060701292
250	0x3cc9bcf9	0.024626242
251	0x3c955eee	0.018233743
252	0xbaf997f7	-0.0019042481
253	0x3d05552b	0.032551926
254	0x3d72482b	0.059150856
255	0x3bd74190	0.006569095

lstm1.weight_ih_l0_reverse f4 [512, 6]
0	0xbd256eb8	-0.040388793
1	0xbce29ec4	-0.027663596
2	0x3d961d97	0.073298626
3	0x3d7830b8	0.060593337
4	0xbc9cf779	-0.019160973
5	0x3d2108fa	0.0393152
6	0xbd2bef68	-0.041976362
7	0xbd0e2ce0	-0.034710765
8	0xbd91488a	-0.07093914
9	0x3dbb23f5	0.09137718
10	0xbcba6b03	-0.022756105
11	0x3d0cbc9e	0.034359567
12	0xbd8c7f3c	-0.068602055
13	0x3ca88c1d	0.020574624
14	0xbd6afb67	-0.057368662
15	0xbbf77b96	-0.0075525744
16	0x3d01c0d5	0.03167804
17	0xbd84316a	-0.064547375
18	0x3c958da5	0.018256018
19	0x3c152827	0.009103811
20	0x3d203aff	0.039118763
21	0x3d5ca507	0.05386832
22	0xbdb89008	-0.09011847
23	0xbdab68c8	-0.08369595
24	0xbc674a90	-0.014116898
25	0xbc8df67b	-0.017329445
26	0xbd11a623	-0.03555883
27	0xbd99006a	-0.07470782
28	0xbd03da3e	-0.032190554
29	0x3d6c2a89	0.057657752
30	0x3da8e9dc	0.0824773
31	0x3dc1bd4e	0.09459935
32	0x3d8140d7	0.06311195
33	0xbabdebac	-0.0014489791
34	0x3ba14378	0.004921373
35	0x3b7304ca	0.0037081712
36	0xbd30c868	-0.043159872
37	0xbd0f3737	-0.034964766
38	0x3c9c4e15	0.019080201
39	0x3cb067c1	0.021533849
40	0x3cb2f41a	0.021844912
41	0x3d518ee2	0.051161654
42	0xbddf8927	-0.109148316
43	0xbd07444a	-0.03302411
44	0xbaf0bc38	-0.001836664
45	0xbde0888c	-0.10963544
46	0x3d218db5	0.039441783
47	0xbda43ff4	-0.080200106
48	0xbc7e781a	-0.015531564
49	0xbd4f5e1f	-0.05062687
50	0xbcd238b9	-0.025661813
51	0xbdae6693	-0.08515658
52	0x3d0c1873	0.034203004
53	0x3d05ea1b	0.032693963
54	0x3d1a161e	0.03761875
55	0x3c978583	0.01849628
56	0xbd7730f9	-0.06034944
57	0xbd98ca9d	-0.074605204
58	0xbb8b7fcf	-0.0042571793
59	0x3c7fe5d8	0.015618764
60	0xbce31446	-0.027719628
61	0xbd226045	-0.03964259
62	0x3d31c4b0	0.043400466
63	0x3d94655d	0.07245896
64	0xbd8c31bf	-0.06845426
65	0xbd57c454	-0.052677467
66	0xbdae5621	-0.085125215
67	0x3d0bbc21	0.03411496
68	0x3d6f1968	0.05837384
69	0xbb7b9426	-0.0038387864
70	0x3daa6673	0.08320322
71	0xbd6e0242	-0.058107622
72	0x3d8a0ce8	0.06740743
73	0xbdc732d4	-0.097264916
74	0xbda97583	-0.08274367
75	0xbdc10faa	-0.09426816
76	0xbcfdf99f	-0.031002818
77	0x3d7fe5de	0.062475078
78	0x3cf75a35	0.030194381
79	0x3dbaba29	0.091175385
80	0x3d393b67	0.045222666
81	0xbd7015d4	-0.058614567
82	0xbdadc122	-0.08484103
83	0xbca01d4d	-0.019545222
84	0xbd021cd4	-0.031765774
85	0xbd581cbe	-0.052761786
86	0x3dab0cab	0.083520256
87	0xbc648b5a	-0.01394924
88	0x3d2c8dfe	0.0421276
89	0x3d42904a	0.047500886
90	0x39432855	0.00018611674
91	0x3ce93391	0.028466972
92	0x3d15a7d5	0.03653701
93	0x3dc23b5d	0.09483979
94	0xbd501979	-0.050805543
95	0x3d0eb00e	0.034835868
96	0xbc25c167	-0.0101169115
97	0xbd42885f	-0.047493335
98	0xbd931074	-0.071808726
99	0x3cc5d1db	0.024147918
100	0xbd521848	-0.051292688
101	0xbc1a13bd	-0.00940412
102	0x3d91f435	0.07126657
103	0xbd2c2fbb	-0.042037707
104	0x3cae6c99	0.021292018
105	0xbd4bd4ed	-0.04976361
106	0x3d58b8a0	0.052910447
107	0xbce38003	-0.027771002
108	0x3d859065	0.06521682
109	0xbc1eeb05	-0.009699588
110	0xbd7fb5ee	-0.06242936
111	0xbcbe757b	-0.023249378
112	0xbd0722d6	-0.032992207
113	0xbd05e451	-0.032688443
114	0xbd1ca286	-0.038240932
115	0xbd3dc3e1	-0.046329383
116	0x39424e3e	0.00018530429
117	0xbccb1ef1	-0.024795027
118	0xbc62a737	-0.013833812
119	0xb9ff87d8	-0.00048738602
120	0xbc6332db	-0.013867105
121	0x3d44176a	0.047873892
122	0xbd10a697	-0.035315122
123	0xbd94499d	-0.07240603
124	0xbd89fdd3	-0.06737866
125	0x3de018f0	0.109422565
126	0xbd49b140	-0.049241304
127	0xbd930d61	-0.07180286
128	0xbd1e1d9a	-0.03860245
129	0x3d833ec8	0.06408459
130	0x3cf2d4ed	0.029642547
131	0x3d96bc4f	0.07360136
132	0x3ca1832a	0.019715864
133	0x3d8b4f1c	0.06802198
134	0x3d2a5167	0.041581538
135	0x3ce39636	0.027781587
136	0xbcc5f431	-0.024164291
137	0x3c4ae320	0.012383252
138	0xbdd0369b	-0.10166665
139	0x3c6ab986	0.014326459
140	0xbdc744b9	-0.09729905
141	0xbdb787b7	-0.089614324
142	0x3c4aa764	0.012369011
143	0x3d5c3d8e	0.05376964
144	0x3d42203b	0.04739402
145	0x3da1e122	0.07904269
146	0xbd96e041	-0.07366992
147	0x3d28ad89	0.04118112
148	0xbc4ea37c	-0.01261222
149	0x3d6aa75e	0.05728852
150	0x3c9e0e12	0.019293819
151	0xbdc3bcc5	-0.09557489
152	0xbd93831e	-0.07202743
153	0xbd982f56	-0.074309036
154	0x3c37e2f7	0.011223546
155	0x3d610633	0.054937553
156	0x3d851c3c	0.06499526
157	0xbd83777c	-0.06419274
158	0xbd573208	-0.052537948
159	0xbd45c6eb	-0.048285406
160	0x3cf28234	0.029603101
161	0x3d8199b1	0.063281424
162	0x3c6f3f5a	0.0146025065
163	0xbd628b45	-0.0553086
164	0xbd82a047	-0.06378227
165	0x3dcbd694	0.09953037
166	0xbda0d5c7	-0.07853275
167	0x3dacf2e1	0.08444763
168	0x3d54ff56	0.05200132
169	0xbdaf3daa	-0.08556683
170	0xbae11282	-0.0017171653
171	0xbbf08428	-0.007339973
172	0xbd726e2f	-0.05918711
173	0xbc65c9d8	-0.014025174
174	0xbba5dda6	-0.005061823
175	0x3cf9b87b	0.030483475
176	0xbcda6843	-0.026661044
177	0x3dd28079	0.102784105
178	0xbda0fc10	-0.07860577
179	0xbd3af8e7	-0.045647528
180	0xbd29b076	-0.041428052
181	0xbd740479	-0.059574578
182	0x3c981b1d	0.018567616
183	0x3ccf681f	0.025318203
184	0x3ca8c26e	0.020600524
185	0x3d8bd743	0.06828167
186	0x3d064936	0.032784663
187	0x3cdd9f27	0.027053429
188	0xbd80c69e	-0.06287883
189	0xbde6c9cc	-0.112689584
190	0xbd80ae78	-0.06283277
191	0x3d4d099d	0.050057996
192	0xbd239f75	-0.039946992
193	0x3d89a2ac	0.0672048
194	0xbbd494cc	-0.0064874645
195	0xbd874200	-0.066043854
196	0xbd0712ab	-0.032976788
197	0x3d1d1656	0.03835138
198	0xbd3ab456	-0.045582138
199	0x3c7b9041	0.015354217
200	0x3d9bb362	0.07602574
201	0x3ce082bf	0.027406095
202	0x3d375026	0.04475417
203	0xbdac845c	-0.08423683
204	0x3c93e41a	0.018053103
205	0x3d16c161	0.036805514
206	0xbd85145d	-0.064980246
207	0xbd86380a	-0.06553657
208	0xbb743b26	-0.00372667
209	0xbcd8ee41	-0.026480796
210	0xbd2f2776	-0.042762242
211	0x3d9d9508	0.07694441
212	0xbdaf7d7a	-0.08568855
213	0xbd05d2df	-0.032671805
214	0xbcda4f71	-0.026649209
215	0x3d83bc46	0.06432395
216	0x3b21c9f0	0.0024687015
217	0xbda9268d	-0.08259306
218	0x3d9c4dbb	0.076320134
219	0x3cad9850	0.021190792
220	0x3cd5c500	0.026094913
221	0x3da90b2e	0.082540855
222	0x3d0d23c5	0.03445794
223	0xbd3fb7db	-0.046806198
224	0x3d7c4b43	0.061595213
225	0x3dbeb739	0.09312291
226	0x3d9e474f	0.07728445
227	0xbc8afee8	-0.016967252
228	0x3ba68f8b	0.0050830296
229	0x3cd5eb0f	0.026113061
230	0x3d37b0d7	0.044846382
231	0x3cad2d1d	0.021139676
232	0x3d715125	0.058915276
233	0xbd20f428	-0.039295346
234	0x3a53a2bb	0.000807326
235	0xbd9dfc55	-0.07714144
236	0x3c947b5a	0.018125225
237	0xbc95e49b	-0.018297484
238	0x3db5a423	0.08869197
239	0xbd4a5223	-0.049394738
240	0xbd20b090	-0.039230883
241	0x3d3894b8	0.045063704
242	0x3d2234a3	0.03960098
243	0xbd14c68f	-0.036322173
244	0x3ce3ba91	0.027798923
245	0x3d457b53	0.048213314
246	0x3c85e1be	0.016342994
247	0xbcbdd460	-0.023172557
248	0x3d7eea8a	0.062235393
249	0x3daa79a4	0.08323982
250	0xbd968025	-0.073486604
251	0xbd02802b	-0.03186051
252	0xbd8410ea	-0.064485386
253	0x3d1fef72	0.039046712
254	0x3d8f2f84	0.06991485
255	0x3d12464e	0.03571158

lstm1.weight_hh_l0_reverse f4 [512, 128]
0	0x3ca9af78	0.020713553
1	0xbd94cb4b	-0.072653376
2	0xbca5b628	-0.02022846
3	0xbca1c469	-0.019746976
4	0x3d8236f5	0.063581385
5	0xbd36e12c	-0.044648334
6	0x3d1d31b1	0.038377468
7	0xbdb5949f	-0.08866238
8	0x3db4a2f3	0.088201426
9	0x3cdea49d	0.027178103
10	0x3d9c4995	0.07631222
11	0xbd8a5463	-0.06754377
12	0x3d79d628	0.06099525
13	0xbd4a63bf	-0.04941153
14	0x3d5d01ea	0.053956904
15	0xbd7198bf	-0.05898356
16	0xbcd5ee5b	-0.026114633
17	0xbd4ded2e	-0.05027502
18	0x3aa4ed9a	0.0012583018
19	0x3d93f519	0.07224483
20	0xbd7ad315	-0.06123646
21	0xbd30ed45	-0.043195028
22	0xbd9d68be	-0.076859936
23	0x3abb8e16	0.0014309313
24	0x3d3cf606	0.046133064
25	0xbc2c945a	-0.010533417
26	0x3da6d5ac	0.081462234
27	0xbd104da3	-0.03523029
28	0xbc8b10b5	-0.01697574
29	0xbc36c64d	-0.011155677
30	0x3c4f6eba	0.012660677
31	0xbd95ce92	-0.07314791
32	0x3d9a9855	0.07548586
33	0xbdb2280d	-0.08699045
34	0xbd253094	-0.04032953
35	0xbd33bf85	-0.04388382
36	0x3d11a6c3	0.035559427
37	0x3d21b014	0.03947456
38	0xbd0eb985	-0.034844894
39	0x3cf50a70	0.029912204
40	0xbd0eb029	-0.03483597
41	0x3d6b7730	0.057486713
42	0x38d34d1e	0.00010075628
43	0x3c2531fd	0.010082719
44	0x3bf631cb	0.00751326
45	0x3dbb87a3	0.0915673
46	0x3d876a71	0.06612099
47	0x3da0a1c8	0.07843357
48	0xbd1e0c9f	-0.038586255
49	0x3da3c9d7	0.07997482
50	0xbd91e06d	-0.07122884
51	0x3c951dc6	0.018202674
52	0x3dab9598	0.08378142
53	0x3c14b8bb	0.009077246
54	0x3c0d11ae	0.008610172
55	0xbd2f7b5e	-0.04284226
56	0xbcf3cd2d	-0.029760921
57	0xbdb4a705	-0.08820919
58	0x3d9f5479	0.07779784
59	0x3d8f6df9	0.070033975
60	0x3db06131	0.08612288
61	0xbd536d16	-0.051617704
62	0x3d27ce2a	0.040968098
63	0xbd55cec2	-0.052199133
64	0xbd169ef9	-0.036772702
65	0xbd3bc891	-0.045845572
66	0xbcdf303f	-0.027244685
67	0xbd8d1270	-0.06888282
68	0x3d43a917	0.04776868
69	0xbda0f941	-0.078600414
70	0xbd6f12cc	-0.058367535
71	0x3da02186	0.07818894
72	0x3db4a5cd	0.088206865
73	0x3bf9fa9a	0.007628751
74	0xbd1accc7	-0.037792947
75	0x3db14ef6	0.08657639
76	0xbd81a367	-0.06329995
77	0x3b4ef8bd	0.0031581365
78	0xbd121c08	-0.035671264
79	0xbcaa8721	-0.020816388
80	0x3b7e9853	0.0038848117
81	0xba458111	-0.0007534186
82	0xbd979f6e	-0.07403456
83	0x3d48e03d	0.049041975
84	0x3d51acdc	0.051190242
85	0xbce13476	-0.027490836
86	0xbd9e0ee9	-0.07717688
87	0x3ba946f8	0.005165931
88	0xbb9d69e4	-0.004803883
89	0x3d07bc54	0.033138588
90	0xbd36523b	-0.044512015
91	0x3c198b84	0.009371642
92	0xbd63fc9d	-0.055660833
93	0x3d0e2a2a	0.03470818
94	0xbd82dff6	-0.063903734
95	0xbd7c9c65	-0.061672587
96	0x3c8f2468	0.017473415
97	0x3bd1e897	0.0064059007
98	0xbcd2b9f8	-0.025723442
99	0xbcf02432	-0.029314134
100	0xbda04482	-0.07825567
101	0xbd9a4d31	-0.07534254
102	0xbd13214e	-0.035920434
103	0xba009a86	-0.0004905838
104	0xbd30dc84	-0.04317905
105	0x3d21dd48	0.03951767
106	0x3d967810	0.07347119
107	0xbdaf7944	-0.085680515
108	0x3c5ca958	0.013468109
109	0xbcac9177	-0.021065457
110	0x3c4b306d	0.012401682
111	0x3daa0dfb	0.08303448
112	0xbd3350a3	-0.043778073
113	0xbd210680	-0.03931284
114	0xbd10c59d	-0.03534471
115	0xbc98b53e	-0.01864111
116	0x3d287e29	0.04113594
117	0xbd85e1f5	-0.065372385
118	0xbdae282b	-0.08503755
119	0x3d8e474b	0.06947192
120	0xbc8129d8	-0.015767023
121	0xbd0d62a0	-0.034517884
122	0xbda286be	-0.07935856
123	0x3d18030f	0.037112292
124	0x3d9d5742	0.07682659
125	0x3cdda0c4	0.027054198
126	0x3d0e5097	0.034744825
127	0x3d93ebe3	0.07222726
128	0xbd8106c9	-0.06300122
129	0x3d8ab4d7	0.06772774
130	0xbcf8499f	-0.030308543
131	0x3bfd596f	0.0077316086
132	0xbda5d40f	-0.080970876
133	0x3cf89724	0.030345507
134	0x3d987e19	0.07445926
135	0x3d48f0d7	0.049057808
136	0xbd0f3de2	-0.034971125
137	0x3c7cd06e	0.015430553
138	0x3db3e0ff	0.08783149
139	0xbc8f71c2	-0.017510299
140	0x3c807667	0.015681459
141	0x3d59c3af	0.053165134
142	0x3cefe933	0.029286003
143	0x3bbae32c	0.0057033505
144	0x3a50d652	0.00079665065
145	0x3dbc8f58	0.09207028
146	0xbcacceb6	-0.021094661
147	0xbd9a2d41	-0.07528163
148	0xbca60cdf	-0.02026981
149	0x3da67bb4	0.08129063
150	0xbc8bdedd	-0.017074043
151	0x3daa1c5c	0.0830619
152	0x3d0927c4	0.03348519
153	0xbd42d4a9	-0.04756609
154	0xbd0ad152	-0.03389103
155	0xbc2523b5	-0.010079314
156	0xbd06a08e	-0.03286796
157	0xbc29f4d4	-0.010373313
158	0xbd9f9043	-0.077911876
159	0xbcbda9fe	-0.023152348
160	0x3d0b334c	0.033984467
161	0x3d37e23f	0.0448935
162	0xbcbac538	-0.02279912
163	0x3da422c2	0.08014442
164	0x3c9a7378	0.018853888
165	0x3d983c80	0.074334145
166	0x3d1fbb54	0.03899701
167	0xbce47767	-0.027888967
168	0x3d8527a2	0.065017
169	0x3d26a3fd	0.040683735
170	0xbd56171d	-0.052268136
171	0x3d1600e0	0.03662193
172	0x3dc38fe0	0.09548926
173	0x3b8a1244	0.004213603
174	0x3d9bf5e4	0.07615259
175	0xbd508764	-0.05091037
176	0xbd8365b7	-0.06415885
177	0x3d549f35	0.051909644
178	0x3cc5fb36	0.024167638
179	0xbcc6f0f8	-0.024284825
180	0x3c7df8aa	0.015501181
181	0xbb8e3110	-0.004339345
182	0xbd1e938e	-0.038714938
183	0x3d34493a	0.044015147
184	0xbc8067cb	-0.015674492
185	0x3b4bd55d	0.0031102516
186	0x3cf0e998	0.029408261
187	0x3d656b45	0.056010503
188	0x3cc7c40e	0.024385478
189	0xbd0ad4af	-0.033894237
190	0x3c3fb47a	0.011700744
191	0xbd2a5136	-0.041581355
192	0x3d974d1d	0.07387755
193	0xbd86420c	-0.06555566
194	0x3da3bd28	0.07995063
195	0x3d1fcd5e	0.039014213
196	0xbc1a2c4a	-0.009409973
197	0x3d93124d	0.07181225
198	0xbae93129	-0.001779114
199	0x3d066fb4	0.032821372
200	0xbd46cc56	-0.048534714
201	0x3d63384d	0.055473614
202	0xbc74db82	-0.014944913
203	0xbc885f02	-0.016646866
204	0xbd430610	-0.047613204
205	0x3d8fee48	0.070278704
206	0x3d51bb24	0.05120386
207	0x3ced14ee	0.028940644
208	0x3ac148c4	0.0014746417
209	0xbcb1045c	-0.021608524
210	0x3ce7eae0	0.02831024
211	0x3d634869	0.055488978
212	0xbc3e64b8	-0.011620693
213	0xbd46d72d	-0.04854505
214	0x3d1006c3	0.0351627
215	0xbcf39362	-0.029733364
216	0x3dc5f8cc	0.09666595
217	0xbd43a705	-0.047766704
218	0x3ad5098c	0.0016253456
219	0x3db77d52	0.0895945
220	0x3da19a78	0.07890791
221	0x3d50d418	0.05098352
222	0xbd8df8a6	-0.069321916
223	0x3c204c55	0.009783824
224	0xbcffaa55	-0.03120915
225	0x3dd2f520	0.1030066
226	0x38b2395c	8.4983854e-05
227	0xbdcddd94	-0.10052028
228	0xbd87ee8d	-0.06637297
229	0x3d79e2e1	0.061007384
230	0xbd70f3e9	-0.05882636
231	0x3d11491a	0.035470106
232	0xbd971f21	-0.07378984
233	0x3d8f2672	0.06989755
234	0x3c66b283	0.014080646
235	0x3c284f93	0.010272878
236	0xbc806110	-0.015671283
237	0xbd9af66c	-0.075665325
238	0xbda8ebab	-0.08248075
239	0x3d8002a5	0.062505044
240	0xbdc55194	-0.096347004
241	0x3d90c663	0.07069089
242	0x3be0514a	0.006845628
243	0x3c835754	0.016032852
244	0x3d36e342	0.044650324
245	0xbb975a26	-0.004618901
246	0x3b67a03e	0.0035343315
247	0x3d9522a5	0.072819985
248	0xbdad06f8	-0.08448595
249	0xbd9278eb	-0.071519695
250	0x3dc11400	0.09427643
251	0xbcc19959	-0.023632692
252	0xbd1347da	-0.035957195
253	0xbd361e43	-0.044462454
254	0x3d5e69db	0.05430017
255	0xbd6e6f49	-0.0582116

lstm1.bias_ih_l0_reverse f4 [512]
0	0xbd7c9a02	-0.06167031
1	0x3c0c5ffb	0.008567805
2	0xbb9fff8e	-0.0048827594
3	0xbcd7d5fa	-0.02634715
4	0xbd59fcc1	-0.05321956
5	0xbd9529b9	-0.072833486
6	0xbd400cd2	-0.046887226
7	0x3e10fd2f	0.14159082
8	0xbd15376c	-0.036429808
9	0xbda0c740	-0.07850504
10	0xbd2759f0	-0.040857255
11	0xbc15d6e3	-0.009145471
12	0x3d7576b4	0.059927657
13	0xbd0d5835	-0.03450795
14	0xbd1503d3	-0.0363806
15	0xbd88b40b	-0.066749655
16	0x3d518826	0.051155232
17	0xbc539814	-0.012914676
18	0xbd2c78e8	-0.042107493
19	0x3ca71c86	0.020399343
20	0x3c9e4653	0.019320643
21	0x3db07700	0.086164474
22	0xbd88bfe3	-0.066772245
23	0xbbf86f77	-0.007581647
24	0x3d242f81	0.040084366
25	0x3d12c0c8	0.03582838
26	0x3d351879	0.044212792
27	0x3d90ae91	0.07064546
28	0x3c38324d	0.011242461
29	0xbd21d048	-0.039505273
30	0x3d0b1c9d	0.033962835
31	0x3db1e672	0.08686532
32	0x3ce35ffb	0.027755728
33	0xbcfae8fe	-0.030628677
34	0xbd386905	-0.04502203
35	0x3d80ed77	0.06295293
36	0xbb67e189	-0.0035382232
37	0x3d1bd711	0.0380469
38	0xbd25408c	-0.04034476
39	0xbda7ffe2	-0.08203103
40	0xbd6cdaa7	-0.05782571
41	0x3d32848f	0.04358345
42	0x3c945787	0.018108143
43	0x3c7af8ad	0.015318078
44	0xbda95c91	-0.08269609
45	0xbcec56f6	-0.02885006
46	0x3bd4fff9	0.006500241
47	0xbd61b8cc	-0.055107877
48	0x3d12c196	0.03582915
49	0xbdc2ff5a	-0.09521361
50	0xbc98c998	-0.018650815
51	0x3c7f5368	0.01558385
52	0x3cb3a1cc	0.021927737
53	0x3cd1c652	0.025607262
54	0x3b7d6d9c	0.0038670069
55	0xbcd9fb13	-0.02660898
56	0xbccecaa3	-0.02524311
57	0xbd9b2e8f	-0.0757724
58	0x3bc2140b	0.0059227995
59	0xba8aecbe	-0.0010599119
60	0xbd560c8a	-0.052258052
61	0x3bfea697	0.007771324
62	0xbdb4cd90	-0.088282704
63	0x3d76ae66	0.060224913
64	0x3d909206	0.07059102
65	0x3c231a31	0.009954975
66	0xbd634efa	-0.05549524
67	0xbcbcd26a	-0.023049552
68	0xbd677e9c	-0.05651723
69	0x3d270748	0.04077843
70	0xbcc3725e	-0.023858245
71	0x3d3b08ce	0.045662694
72	0x3cd63e8d	0.026152873
73	0x3d37f6e4	0.044913188
74	0x3d5a52bb	0.053301554
75	0xbd69bf45	-0.057067174
76	0xbd71cd7f	-0.059033867
77	0xbd84f4d6	-0.06492011
78	0xbc4ea618	-0.012612842
79	0x3daca64d	0.08430157
80	0x3cc11eec	0.023574315
81	0xbd94d902	-0.072679535
82	0x3db9008d	0.09033308
83	0x3d86e222	0.065861
84	0xbcf4d82a	-0.029888231
85	0xbccf7672	-0.025325034
86	0x3d4231d1	0.04741079
87	0x3d9284cd	0.07154236
88	0x3d669d1b	0.05630217
89	0xbd1fa641	-0.03897691
90	0x3d321fe4	0.043487445
91	0xbd51c596	-0.051213823
92	0xbd9938d8	-0.07481545
93	0xbdaf99c8	-0.08574253
94	0xbc7917cb	-0.015203427
95	0xbd269065	-0.04066505
96	0xbd2f5e2a	-0.04281441
97	0xbda1e2ca	-0.07904585
98	0x3bdfdf18	0.006832015
99	0x3c68fba3	0.014220151
100	0xbd36013c	-0.04443477
101	0xbdbd7006	-0.092498824
102	0xbdbd56f0	-0.09245098
103	0xbd941e49	-0.07232339
104	0x3d3ce27b	0.046114426
105	0x3d552d3e	0.0520451
106	0x3d18fcda	0.037350513
107	0xbd536f4f	-0.051619824
108	0xbb167321	-0.0022956806
109	0xbce2ea0f	-0.027699498
110	0xbdc6b52d	-0.09702525
111	0xbd1db0b7	-0.038498607
112	0x3c837d20	0.016050875
113	0xbc829211	-0.01593879
114	0x3cc6e404	0.024278648
115	0xbd6826dd	-0.056677688
116	0xbdb3171a	-0.08744641
117	0xbd8d9cac	-0.069146484
118	0x3c64cc34	0.013964701
119	0xbd4b0cdb	-0.049572807
120	0x3d8cde2e	0.06878315
121	0x3da038b0	0.07823312
122	0xbd6f9d3e	-0.058499567
123	0xbc11b6fd	-0.008893725
124	0xbb568f78	-0.0032739323
125	0x3d73e890	0.05954796
126	0x3c3e09bd	0.0115990015
127	0x3d459692	0.0482393
128	0xbd4f25fa	-0.050573327
129	0xbdad8ecc	-0.08474502
130	0x3abb531f	0.001429174
131	0xbda81818	-0.082077205
132	0xbcd77491	-0.0263007
133	0xbbef90b7	-0.0073109525
134	0xbb5539be	-0.0032535638
135	0xbcf3e525	-0.02977235
136	0xbc4dbf30	-0.01255779
137	0x3d730446	0.059330247
138	0x3d4bc161	0.049744967
139	0x3d1d14f3	0.038350057
140	0x3c054fcf	0.008136704
141	0x3c984c3d	0.01859104
142	0xbc57c959	-0.013170564
143	0xbd662ea9	-0.056196842
144	0xbd0fd132	-0.035111614
145	0xbd8ca2fe	-0.06867026
146	0x3d44ca81	0.048044685
147	0x3dd2dcac	0.10295996
148	0xbcaa6d53	-0.020804083
149	0x3d1b610d	0.03793435
150	0x3d961925	0.07329015
151	0xbd32f207	-0.043687847
152	0xbd48b777	-0.04900309
153	0x3c977d61	0.018492403
154	0x3ce1d5f0	0.027567834
155	0x3c3632ff	0.011120557
156	0xbdb44230	-0.08801687
157	0x3d8df5fa	0.06931682
158	0xbc6d5cb4	-0.014487434
159	0xbc05e6ad	-0.008172673
160	0xbd46a66d	-0.04849856
161	0x3c87cbdc	0.0165767
162	0x3d460935	0.048348624
163	0xbdaf4bb0	-0.08559358
164	0xbda3bff5	-0.07995597
165	0x3dab4eec	0.083646625
166	0xbc033d12	-0.008010166
167	0x3d9012d8	0.07034844
168	0xbd20804f	-0.039184865
169	0xbd2e1f10	-0.042510092
170	0x3d67e0c0	0.056610823
171	0xbda346d9	-0.079724975
172	0x3cc4580c	0.023967765
173	0x3ba13706	0.0049198894
174	0xbc56b1f6	-0.013103953
175	0x3d19acc4	0.037518278
176	0x3c2407d8	0.010011636
177	0xbd82aaf8	-0.06380266
178	0xbda3676b	-0.0797871
179	0x3d92d4b2	0.07169475
180	0x3d904319	0.07044048
181	0xbc92755f	-0.017878233
182	0x3cbfc096	0.023407262
183	0xbca78acb	-0.020451924
184	0xbcd8a455	-0.026445547
185	0x3dba6828	0.091018975
186	0xbdbda309	-0.09259612
187	0x3cb516eb	0.022105655
188	0x3d914503	0.07093241
189	0x3d5247bb	0.05133794
190	0x3cf7ebd7	0.030263824
191	0xbc79e82a	-0.015253106
192	0xba1ba8e3	-0.0005937947
193	0x3d795701	0.06087399
194	0xbdb86737	-0.09004062
195	0x3d1ec3ef	0.038761076
196	0x3d9454fa	0.072427705
197	0xbd0c52b0	-0.034258544
198	0xbd48ad8d	-0.048993636
199	0x3d4c1eac	0.04983394
200	0x3d9743e9	0.07386
201	0xbd1f3b52	-0.03887493
202	0x3d9910c5	0.07473902
203	0xbda5ec96	-0.08101766
204	0x3d7ecefe	0.062209122
205	0x3d80a9c9	0.06282384
206	0x3b93201e	0.0044899127
207	0x3d95ea1d	0.07320044
208	0x3d89768c	0.06712064
209	0x3cd11c50	0.025526196
210	0x3c879eff	0.016555307
211	0xbbd098be	-0.0063658645
212	0x3d206d16	0.039166532
213	0x3d0a71e3	0.033800017
214	0x3b97b628	0.004629869
215	0xbdb787ec	-0.08961472
216	0x3d9c03ec	0.076179355
217	0xbd961fbe	-0.07330273
218	0x3c51024f	0.012756898
219	0xbdc0b05e	-0.09408639
220	0xbd8f89e9	-0.07008726
221	0xbd2e16d4	-0.04250224
222	0xbd3e6bca	-0.046489514
223	0xbd97350a	-0.07383163
224	0x3d56e985	0.052468795
225	0x3c3f5f4a	0.0116804335
226	0xbd820492	-0.06348528
227	0x3d34e8c8	0.04416731
228	0xbca223d6	-0.019792479
229	0x3bfda3d3	0.0077404766
230	0x3cc51122	0.024056021
231	0x3db25734	0.08708039
232	0x3d42abd6	0.047527157
233	0x3c19186a	0.0093442
234	0xbbe0b061	-0.0068569635
235	0x3da71834	0.08158913
236	0xbb683fef	-0.0035438498
237	0x3d97f156	0.07419078
238	0xbc47e79c	-0.012201216
239	0xbda7cb86	-0.08193116
240	0x3cbf67a7	0.023364855
241	0xbd43779a	-0.047721483
242	0x3d7b65dc	0.061376438
243	0xbb8034d3	-0.003912547
244	0xbdccbacf	-0.099965684
245	0x3ce492a9	0.027901964
246	0xbd3f86ed	-0.046759535
247	0xbd434e2a	-0.047681965
248	0xbc81fb8e	-0.015867021
249	0x3d67b91c	0.05657302
250	0xbcedd6ae	-0.029033031
251	0xbdc03bd0	-0.09386408
252	0x3cb181f0	0.021668404
253	0xbb820f50	-0.0039691105
254	0xbcf2f93d	-0.029659862
255	0xbc70e36c	-0.014702659
