results/models/FTSE100_LSTM_model.pth (torch, 905029 bytes, 19 tensors)

lstm1.weight_ih_l0 f4 [512, 6]
0	0xbd98c414	-0.07459274
1	0x3d5fd8c9	0.0546501
2	0x3d974e14	0.07387939
3	0xbdb911a0	-0.09036565
4	0xbd66fcba	-0.056393363
5	0x3c850424	0.016237326
6	0x3b85d52c	0.00408425
7	0x3c1f3f38	0.009719662
8	0x3c48299d	0.012216953
9	0xbcab59d1	-0.020916851
10	0xbd921d24	-0.071344644
11	0x3be59289	0.0070059937
12	0xbce4fcd0	-0.027952582
13	0xbda29511	-0.079385884
14	0x3d9a875f	0.07545351
15	0x3c7ad365	0.015309189
16	0x3a8813e7	0.0010381908
17	0x3c949bb9	0.01814066
18	0xbb542509	-0.0032370707
19	0xbbffeab1	-0.00780996
20	0x3d26ed0e	0.040753417
21	0xbc6e287a	-0.014536018
22	0x3c3c5c91	0.011496679
23	0xbc985ed3	-0.018599903
24	0xbc9d743f	-0.01922047
25	0x3bf4686c	0.007458737
26	0xbd5276f0	-0.05138296
27	0x3c5eff2f	0.013610645
28	0x3cb34eca	0.021888155
29	0x3da23489	0.079201765
30	0xbd8b466a	-0.0680054
31	0xbdd15331	-0.102209456
32	0xbdb771ca	-0.089572504
33	0xbdd02f7e	-0.101653084
34	0x3c857d4e	0.016295101
35	0xbcdadd3a	-0.026716817
36	0x3d5e28d9	0.054238174
37	0xbc893708	-0.016749874
38	0xbda45f1f	-0.080259554
39	0x3c88752d	0.016657436
40	0x3d902523	0.07038333
41	0xbd4f7425	-0.050647873
42	0xbc8871b3	-0.016655779
43	0xbd6ba1a7	-0.05752721
44	0xbd2b08b1	-0.041756336
45	0xbc96d49a	-0.018411923
46	0xbc9c7db1	-0.019102903
47	0xbd3b5a4c	-0.04574041
48	0x3d65ed90	0.05613476
49	0x3d9166dd	0.07099698
50	0xbd9112c4	-0.070836574
51	0x3d3d35e5	0.046193976
52	0xbdbb5058	-0.09146184
53	0x3d8263c9	0.06366689
54	0xbcb608d7	-0.022221012
55	0x3da6ae46	0.08138709
56	0xbd65bf49	-0.056090627
57	0xbda5f295	-0.081029095
58	0x3bdcec3f	0.00674203
59	0xbd57dd2b	-0.052701157
60	0x3d7274ce	0.059193425
61	0x3d2932a0	0.041308045
62	0xbc9a51ad	-0.018837774
63	0xbd0adb67	-0.033900645
64	0xbcd883da	-0.02643006
65	0x3c8f062a	0.017458994
66	0xbdaa3b23	-0.08312061
67	0x3cf62f02	0.030051712
68	0xbd86d096	-0.06582753
69	0x3c567151	0.01308854
70	0xbc0dd3db	-0.008656467
71	0xbd3b08b8	-0.04566261
72	0x3d802814	0.06257644
73	0x3da11a51	0.078663476
74	0x3d91c348	0.07117325
75	0xbcf14c16	-0.029455226
76	0xbd5c461f	-0.05377781
77	0xbda5a251	-0.080876
78	0xbd5529d6	-0.05204185
79	0x3d3165f1	0.04331011
80	0xbd924d82	-0.0714369
81	0x3d953a03	0.072864555
82	0x3d95bfb4	0.07311955
83	0x3d80d91d	0.06291411
84	0xbc47836a	-0.012177328
85	0xbd580cf5	-0.05274673
86	0xbcd0cd18	-0.025488421
87	0xbd5c9dbe	-0.053861372
88	0x3da0121b	0.07815953
89	0x3da87b34	0.08226624
90	0x3db3d48b	0.08780774
91	0xbd7ac43c	-0.0612223
92	0x3d805a23	0.06267192
93	0xbd01410c	-0.031556174
94	0xbca6ef62	-0.020377818
95	0x3c67fd3b	0.014159496
96	0xbc7d5385	-0.015461807
97	0xbda2ef40	-0.079557896
98	0xbd54f465	-0.051990885
99	0x3d3742ba	0.04474137
100	0x3cde63a4	0.027147122
101	0xbcda4cc8	-0.02664794
102	0xbc98536a	-0.018594462
103	0x3cbbd23c	0.022927396
104	0x3d3cf5e6	0.046132945
105	0xbcf06c9f	-0.02934867
106	0xbddb3ca1	-0.107049234
107	0xbc8f8f8d	-0.017524505
108	0xbd86d4cb	-0.06583556
109	0xbccc5928	-0.024944857
110	0xbb4e4185	-0.0031472158
111	0x3cde7544	0.027155526
112	0xbd87397f	-0.066027634
113	0x3db5770d	0.08860598
114	0xbd8dfb3c	-0.06932685
115	0x3ce61e6e	0.028090682
116	0xbd6a7bfc	-0.057247147
117	0xbd5ff22b	-0.05467431
118	0xbdce2e4c	-0.10067424
119	0x3da0a40e	0.07843791
120	0xbda21663	-0.07914426
121	0xbd03ca7a	-0.03217552
122	0xbd949b3c	-0.07256171
123	0x3d8c48ba	0.06849809
124	0x3d9fab1f	0.07796311
125	0x3b837f57	0.004012983
126	0x3c3b3dfd	0.011428353
127	0x3d7ec3f9	0.062198613
128	0x3d616bbc	0.055034384
129	0xbca1fe84	-0.019774683
130	0x3d074d42	0.033032663
131	0x3d7ced95	0.061750013
132	0xbcee44a6	-0.029085469
133	0xbd8f2a61	-0.06990505
134	0x3d7cb96f	0.06170028
135	0xbd9bb501	-0.07602883
136	0x3dbb566a	0.091473415
137	0x3d9f5b98	0.07781142
138	0xbabf180c	-0.001457931
139	0x3dabccd5	0.08388678
140	0xbd679cc4	-0.056545988
141	0xbd91cc61	-0.0711906
142	0xbdb7f35c	-0.08981964
143	0xbbcf3918	-0.006323945
144	0xbd9e3c04	-0.07726291
145	0x3cee49d6	0.029087942
146	0x3a92e0b6	0.0011205885
147	0x3b043f7c	0.0020179441
148	0x3ca3a5d2	0.01997653
149	0x3c9525a0	0.018206418
150	0xbcde29d9	-0.027119564
151	0xbd7db6b0	-0.061941803
152	0x3d4012a2	0.04689277
153	0x3d66d1b6	0.05635234
154	0x3d506a06	0.05088236
155	0x3d95acf3	0.07308378
156	0x3b974b2e	0.0046171164
157	0x3d9ff498	0.078103244
158	0x3d2089fd	0.039194096
159	0x3d8df1b8	0.0693087
160	0xbd01684f	-0.031593617
161	0x3c160b44	0.009157959
162	0xbd1e2d4f	-0.03861743
163	0x3d43746b	0.047718447
164	0x3b738432	0.0037157652
165	0xbd210380	-0.03930998
166	0xba8269a3	-0.0009949695
167	0x3dae6807	0.085159354
168	0x3c4c4bf6	0.012469282
169	0xbdaaaf70	-0.08334243
170	0x3d912657	0.07087391
171	0xbd8b1a3e	-0.06792115
172	0xbd56b61e	-0.052419774
173	0x3d57e9bf	0.052713152
174	0xbc087d03	-0.008330586
175	0xbd560472	-0.052250333
176	0x3cd81d4c	0.026381157
177	0xbda8d14d	-0.08243046
178	0xbd0b0689	-0.03394178
179	0xbd44f2ff	-0.0480833
180	0x3d753921	0.059868935
181	0x3d752079	0.05984542
182	0xbca9cce7	-0.020727588
183	0xbdb8936a	-0.09012492
184	0x3d93b41b	0.07212087
185	0xbd38b3da	-0.045093395
186	0xbd01c35a	-0.031680442
187	0xbd536aed	-0.051615644
188	0x3d6626de	0.05618941
189	0x3b6eed3a	0.0036457316
190	0x3d9f2a37	0.07771724
191	0x3d2ec85d	0.04267155
192	0x3d7bd1fc	0.061479554
193	0xbda36e41	-0.07980014
194	0x3da9d629	0.08292801
195	0x3d5503ef	0.052005704
196	0x3c36770b	0.0111367805
197	0x3d6526fa	0.055945374
198	0x3d2f49dc	0.042795047
199	0xbdc5cc10	-0.096580625
200	0xbd9de6bd	-0.077100255
201	0x3d5c5333	0.053790282
202	0x3d9de9af	0.07710587
203	0x3d70f069	0.058823023
204	0x3d75ebad	0.06003921
205	0x3d0ae4e0	0.03390968
206	0xbd957ff6	-0.07299797
207	0xbd1b4efa	-0.037917115
208	0x3d741896	0.05959376
209	0x3ccb532e	0.024819937
210	0x3d6a0aaf	0.057139095
211	0x3a4eccbe	0.00078887853
212	0x3c188f0f	0.009311452
213	0xbd76628b	-0.06015257
214	0x3d9b0aaa	0.075703934
215	0x3cc52fa5	0.02407057
216	0xbdab4ba6	-0.08364038
217	0x3ca7f831	0.02050409
218	0xbcd4851f	-0.025942383
219	0xbdba8a41	-0.09108401
220	0xbd3f4dcf	-0.046705063
221	0x3c1667c9	0.009180018
222	0xbd803422	-0.062599435
223	0x3b8986c3	0.004196973
224	0x3cae8754	0.021304764
225	0xbd11f3c0	-0.03563285
226	0x3da976ee	0.08274637
227	0x3c6fa751	0.014627294
228	0x3c0ca2ee	0.008583767
229	0x3cc89f4d	0.024490023
230	0x3d4ae855	0.049537975
231	0x3ca192d5	0.019723335
232	0xbcefee13	-0.029288327
233	0x3d83baf2	0.06432141
234	0x3d3c043c	0.045902476
235	0xbcb59445	-0.022165427
236	0xbcec74c2	-0.028864268
237	0xbd108a94	-0.03528841
238	0x3c08ad83	0.00834215
239	0xbd884caa	-0.066552475
240	0x3d60b416	0.054859243
241	0x3d843b67	0.064566426
242	0xbcbec22a	-0.023285944
243	0x3c911b04	0.017713077
244	0xbddbf05c	-0.10739204
245	0x3dbe58f1	0.09294308
246	0x3db3bfcd	0.087768175
247	0xbcd77a45	-0.02630342
248	0x3dbbb5ab	0.0916551
249	0x3c749633	0.014928388
250	0x3db8cb31	0.09023131
251	0x3d9a5e23	0.075374864
252	0x3d436fe2	0.04771412
253	0x3cb6409d	0.022247607
254	0xbb89d3f5	-0.0042061755
255	0x3d9a8b87	0.07546144

lstm1.weight_hh_l0 f4 [512, 128]
0	0xbd8f2411	-0.06989301
1	0xbd36b21b	-0.04460345
2	0x3ceff43a	0.029291261
3	0xbd59b8f5	-0.053154904
4	0xbbfc705f	-0.0077038254
5	0xbda2b4b0	-0.0794462
6	0x3d141013	0.036148142
7	0xbdb67394	-0.089087635
8	0xbd9be83e	-0.07612656
9	0x3d8e345c	0.069435805
10	0xbdd53622	-0.10410716
11	0x3d7d179e	0.0617901
12	0xbd615f84	-0.05502273
13	0xbd0247cc	-0.031806752
14	0x3d9a9736	0.075483724
15	0x3ca32e31	0.019919487
16	0xbd77311f	-0.06034958
17	0x3db492a3	0.08817031
18	0x3b9f8e6d	0.0048692734
19	0x3d886508	0.06659895
20	0x3c8e56e4	0.017375417
21	0x3cce08c1	0.025150659
22	0xbdb5126f	-0.088414066
23	0x3d8d85e0	0.069103
24	0xbdb4fce5	-0.08837298
25	0xbd924f03	-0.071439765
26	0x3daf70c5	0.08566431
27	0xbc9fd155	-0.019508997
28	0x3db33c06	0.08751683
29	0xbd99bf87	-0.07507234
30	0x3d88704c	0.06662044
31	0xbbdb075c	-0.006684227
32	0xbd4402f0	-0.047854364
33	0xbd2111d5	-0.039323647
34	0x3d9ac097	0.07556265
35	0xbdb534f7	-0.08847993
36	0xbd62b01b	-0.05534373
37	0xbd96cca5	-0.073632516
38	0xbdb45df8	-0.088069856
39	0xbca479bc	-0.020077579
40	0x3d587a7e	0.052851193
41	0xbdc469a7	-0.09590464
42	0xbd723d79	-0.059140656
43	0xbccd37a1	-0.02505094
44	0xbd9684f9	-0.07349581
45	0xbd8a00c5	-0.06738428
46	0xbd3f4267	-0.046694186
47	0x3d9e9583	0.07743361
48	0xbdb05dd5	-0.08611647
49	0xbd2d8587	-0.04236367
50	0xbca78094	-0.020447053
51	0xbdb12783	-0.086501144
52	0xbcc906cc	-0.024539374
53	0x3da90c7f	0.082543366
54	0x3da24f0c	0.07925233
55	0x3d90f937	0.07078784
56	0x3d161c90	0.036648333
57	0xbbbc9ffd	-0.005756377
58	0x3cfd0771	0.030887337
59	0x3ceac1d6	0.028656881
60	0x3d4434b2	0.047901817
61	0xbd814916	-0.06312768
62	0xbca26e46	-0.019827973
63	0xbd8e94fb	-0.069620095
64	0xbc956210	-0.018235236
65	0x3d15cf58	0.03657469
66	0xbdcfbc1c	-0.10143301
67	0x3c099de1	0.008399458
68	0xbd6c161a	-0.057638265
69	0x3c918cc7	0.017767323
70	0xbbc5c3dd	-0.0060353116
71	0x3c1015d3	0.008794266
72	0x3c1a0263	0.009399983
73	0x3bc0777c	0.0058736186
74	0xbc4ad1a5	-0.012379085
75	0xbda43859	-0.0801856
76	0xbdaad473	-0.08341303
77	0x3dd742ef	0.105108134
78	0x3d0b8fa8	0.03407255
79	0x3d845209	0.064609595
80	0xbd67693e	-0.05649685
81	0xbd3c294d	-0.045937825
82	0xb9cae8ee	-0.00038701989
83	0xbc325149	-0.010883638
84	0x3d3a0eba	0.0454242
85	0xbd92a1d7	-0.07159775
86	0x3dd78857	0.10524052
87	0x3d6f02b5	0.05835219
88	0xbda31960	-0.07963824
89	0x3d9b7b64	0.07591894
90	0x3d46bf7d	0.04852246
91	0x3c75306b	0.014965157
92	0xbd2be819	-0.041969392
93	0xbdb46ca1	-0.08809782
94	0x3c9c2489	0.01906039
95	0x3daae3d8	0.08344239
96	0x3d6b5923	0.057458054
97	0xbc836553	-0.016039526
98	0x3ab87fcb	0.0014076171
99	0x3d8b8001	0.06811524
100	0x3d26a56b	0.0406851
101	0x3c19f658	0.009397112
102	0xbd25dae3	-0.04049195
103	0x3d2f6bc4	0.042827383
104	0x3cda32e4	0.026635595
105	0xbd785202	-0.060625084
106	0xbd810aab	-0.06300863
107	0xbd610601	-0.054937366
108	0x3d6d357c	0.057912335
109	0xbd5e55b3	-0.054280948
110	0x3cdc30a4	0.026878662
111	0xbd14cef9	-0.036330197
112	0xbcb8cfe3	-0.022560066
113	0xbd248bc7	-0.040172365
114	0x3d23904a	0.039932527
115	0x3d1756df	0.03694808
116	0xbda0b7ee	-0.07847582
117	0xbb745f99	-0.0037288426
118	0x3cbbcd6c	0.022925101
119	0xbca6648b	-0.020311614
120	0x3cc08215	0.023499528
121	0xbd815380	-0.063147545
122	0x3d3b3adf	0.04571044
123	0x3da0a279	0.07843489
124	0x3d9ac160	0.075564146
125	0xbd1ea4a0	-0.038731217
126	0x3a248d4e	0.00062771596
127	0xbdb3d6f4	-0.087812334
128	0x3d0cae10	0.034345686
129	0x3d27c2df	0.040957328
130	0xbd0f1d2e	-0.034939937
131	0x3d3cf8ca	0.0461357
132	0xbd062544	-0.032750383
133	0x3c5f6453	0.013634759
134	0x3d04cf2b	0.032424133
135	0x3dbcc554	0.09217325
136	0x3c929899	0.01789503
137	0xbca3e618	-0.020007178
138	0xbb242f27	-0.002505252
139	0x3d58ca96	0.052927576
140	0xbda6314f	-0.081148736
141	0xbd8002a3	-0.06250503
142	0xbd892c48	-0.06697899
143	0xbd977273	-0.07394876
144	0xbd84f358	-0.06491727
145	0xbdb27c72	-0.08715142
146	0x3d150832	0.03638477
147	0xbcb74872	-0.022373412
148	0x3d044390	0.032290995
149	0xbbb4e630	-0.0055206046
150	0x3d9da644	0.07697728
151	0xbcc82e13	-0.024436032
152	0xbd473240	-0.048631907
153	0xbd082067	-0.033234026
154	0xbc8fba5b	-0.017544916
155	0xbd741084	-0.059586063
156	0x3d470f55	0.048598606
157	0xbd98d421	-0.074623354
158	0xbd7b5685	-0.06136181
159	0x3bb8ad6c	0.005635908
160	0x3d0408eb	0.032235067
161	0xbd46890a	-0.048470534
162	0xbc612f8c	-0.013744246
163	0xbc18ff69	-0.009338238
164	0x3d60ca6b	0.05488054
165	0x3dbcd98f	0.092211835
166	0x3c1ae35d	0.009453622
167	0x3d05dd82	0.03268195
168	0xbd16b5d7	-0.03679451
169	0xbd12192c	-0.035668537
170	0x3cc025a1	0.023455443
171	0x3cd62bfe	0.026144024
172	0x3da91956	0.082567856
173	0xbb24dea2	-0.0025157114
174	0x3b99d1b8	0.00469419
175	0x3ca2f085	0.01989008
176	0xbd8fcf96	-0.07022016
177	0xbc8bae7c	-0.017050974
178	0xbdb10380	-0.08643246
179	0xbd8155b5	-0.063151754
180	0x3d3cc8f5	0.046090085
181	0x3db31781	0.087447174
182	0xbd89f86b	-0.06736835
183	0xbc6decf2	-0.014521824
184	0x3d486dbd	0.04893278
185	0xbd6073ae	-0.05479782
186	0xbd82d797	-0.06388777
187	0x3d84d75b	0.06486388
188	0x3d8f391e	0.06993316
189	0x3daf0d85	0.085475005
190	0xbd6d5f68	-0.057952315
191	0xbcbeaa94	-0.023274697
192	0xbd3a1900	-0.045433998
193	0x3d41ab63	0.047282588
194	0x3c8e1f76	0.017348986
195	0xbd5f2f39	-0.054488394
196	0x3a9e7d52	0.0012091792
197	0xbd8b5bbb	-0.068046056
198	0xbd853493	-0.06504168
199	0x3d5a4725	0.053290505
200	0xba460381	-0.00075536227
201	0xbd64edb3	-0.05589075
202	0xbc26e5f3	-0.01018666
203	0x3d62baca	0.055353917
204	0xbb8e0196	-0.004333685
205	0xbc987b20	-0.018613398
206	0xbd8eefda	-0.06979342
207	0x3cdb24bf	0.02675092
208	0x3d8b8b1b	0.06813642
209	0xbc764c3e	-0.015032826
210	0x3b0b136f	0.00212213
211	0x3dc5f594	0.09665981
212	0x3ba98c10	0.0051741675
213	0xbd041933	-0.032250594
214	0x3d1c383d	0.03813957
215	0xbd64157f	-0.055684563
216	0x3d0a8740	0.03382039
217	0xbcdf5b72	-0.027265284
218	0xbd6ec7e3	-0.058296096
219	0xbce60405	-0.028078089
220	0xba327fae	-0.0006809187
221	0xbd8ed3f4	-0.069740206
222	0x3d301288	0.042986423
223	0xbd56ba62	-0.052423842
224	0xbd69ef58	-0.05711302
225	0x3da58a9e	0.0808308
226	0x3b1e477e	0.00241515
227	0x3d5d8d4c	0.05408983
228	0x3d682d19	0.056683633
229	0xbd95f9c9	-0.07323033
230	0x3c81a1cc	0.015824221
231	0xbd9aa6a1	-0.07551313
232	0x3d9714f9	0.07377047
233	0xbd0289f0	-0.03186983
234	0x3d7ecdbd	0.062207926
235	0xba681e1f	-0.0008854586
236	0xbd9ba85a	-0.0760047
237	0x3b61c9f1	0.0034452642
238	0x3cae5e64	0.021285243
239	0x3d82fae9	0.063955136
240	0x3d00515e	0.031327598
241	0xbda474ef	-0.08030116
242	0x3d26bf2a	0.040709652
243	0x3c6aff22	0.014343055
244	0xbc828e38	-0.015936956
245	0x3d549559	0.05190024
246	0xbd342013	-0.0439759
247	0xbd0e6652	-0.03476555
248	0xbd1a5761	-0.037680987
249	0xbb09ad59	-0.0021007864
250	0x3d005201	0.031328205
251	0x3d378024	0.04479994
252	0xbce7a2e3	-0.028275913
253	0xbda459be	-0.080249295
254	0x3c31bebe	0.010848699
255	0xbc167102	-0.009182217

lstm1.bias_ih_l0 f4 [512]
0	0xbdb430ed	-0.08798394
1	0x3d3cbe0b	0.046079677
2	0x3da64d32	0.081201926
3	0x3d332e81	0.04374552
4	0x3ce256cf	0.027629284
5	0x3dbfa0a2	0.0935681
6	0x3d2938ce	0.04131394
7	0x3cbc96eb	0.023021182
8	0xbca4a9ec	-0.020100556
9	0x3c892c8b	0.016744873
10	0xbd976efb	-0.07394215
11	0xbc777596	-0.015103718
12	0xbd28cca7	-0.041210797
13	0x3d37a39d	0.04483377
14	0xbdac142a	-0.084022835
15	0x3d90c403	0.07068636
16	0xbd1f184e	-0.038841538
17	0xbd4e2784	-0.050330654
18	0xbd494469	-0.049137507
19	0x3d31daa4	0.043421403
20	0x3da32061	0.0796516
21	0x3da09f1b	0.07842847
22	0x3c4f86fe	0.012666462
23	0xbdadc857	-0.084854774
24	0x3d96205b	0.0733039
25	0x3da4f2ab	0.08054098
26	0xbdb002ea	-0.08594306
27	0x3cb223dc	0.021745615
28	0x3c64e6cd	0.013971043
29	0xbd8889e5	-0.06666926
30	0xbcb6e0fd	-0.02232408
31	0xbd699b42	-0.05703283
32	0x3c9af827	0.018917156
33	0x3d8b7238	0.06808895
34	0xbd467e96	-0.048460566
35	0x3d8a2a9b	0.067464076
36	0xbc985c82	-0.018598799
37	0xbc9a2984	-0.018818624
38	0x3d45ac78	0.048260182
39	0xbcf1b31f	-0.029504357
40	0xbd85ba78	-0.06529707
41	0x3d852597	0.0650131
42	0xbb66f817	-0.0035243088
43	0x3d38dcff	0.045132633
44	0xbd330462	-0.04370535
45	0x3b3968d7	0.002829125
46	0xbd52c73c	-0.051459536
47	0x39dcf39e	0.0004214318
48	0xbdc1388c	-0.094346136
49	0x3cd35e48	0.025801793
50	0x3d6ca149	0.057771
51	0xbd370446	-0.04468181
52	0xbd11bc80	-0.03558016
53	0xbd88251b	-0.06647702
54	0x3da5d9f3	0.08098211
55	0x3d2cbbd2	0.042171307
56	0x3d69bac9	0.057062898
57	0xbbaad670	-0.005213551
58	0xbdafd369	-0.08585245
59	0x3da959fe	0.08269118
60	0x3c58afec	0.013225537
61	0x3da05950	0.07829535
62	0xbcdb62ec	-0.026780568
63	0xbd4033bf	-0.04692435
64	0xbb0673f9	-0.0020515902
65	0x3d770e8e	0.060316615
66	0xbd211515	-0.039326746
67	0xbd8d6ebe	-0.06905888
68	0x3c43641d	0.011925724
69	0x3d205449	0.03914288
70	0xbd084507	-0.033268955
71	0x3d15038b	0.036380332
72	0xbc0f2d10	-0.008738771
73	0xbc2eec55	-0.010676463
74	0x3bafd1dc	0.0053655934
75	0xbbfeeab0	-0.007779442
76	0xbc779668	-0.015111543
77	0x3d436e71	0.047712747
78	0xbd61927f	-0.05507135
79	0x3d680f7b	0.05665539
80	0xbd2b0c09	-0.041759524
81	0xbd20124b	-0.039079946
82	0xbd94f010	-0.07272351
83	0x3da4e58e	0.080515966
84	0x3c10acb6	0.00883024
85	0x3d8d9ba6	0.06914453
86	0x3ced90f1	0.028999778
87	0xbcd7cfd4	-0.026344217
88	0xbcc5c4e0	-0.024141729
89	0x3b85f817	0.0040884125
90	0xbd90bc93	-0.07067218
91	0x3ce0f666	0.027461242
92	0xbd395a47	-0.04525211
93	0xbd83c895	-0.06434742
94	0xbd4316dc	-0.047629222
95	0xbd669836	-0.056297503
96	0xbd834963	-0.06410482
97	0xbd42055a	-0.047368385
98	0x3ce1b16e	0.027550425
99	0x3d540082	0.051758297
100	0x3c44adb4	0.012004305
101	0xbda5eae4	-0.081014425
102	0x3d383be3	0.044978987
103	0xbcc8e6df	-0.02452415
104	0x3d87cd9d	0.066310145
105	0xbc39b8ce	-0.011335565
106	0xbd0c683b	-0.03427909
107	0xbd89bff4	-0.06726065
108	0xbc08f9c1	-0.008360327
109	0xbda98e1a	-0.08279057
110	0x3ccb4d57	0.024817152
111	0xba584bce	-0.0008251042
112	0xbc669eb0	-0.01407592
113	0x3d9fc33e	0.07800911
114	0xbd12fb18	-0.035883993
115	0xbd79c974	-0.060983136
116	0xbda4a67c	-0.08039567
117	0x3d14efba	0.036361434
118	0xbc65141d	-0.013981846
119	0xbd6939a6	-0.056939743
120	0xbd037001	-0.032089237
121	0xbd944140	-0.07239008
122	0xbd0363dc	-0.032077655
123	0xbda80db7	-0.08205741
124	0xbd91dc37	-0.07122081
125	0x3d87eaf6	0.06636612
126	0x3c806014	0.015670814
127	0xbc27b157	-0.010235152
128	0xbcbd0835	-0.023075202
129	0xbcc2b7ab	-0.02376922
130	0x3d9ac724	0.07557514
131	0x3d75f3ee	0.060047083
132	0xbd9487fe	-0.07252501
133	0x3d90d27c	0.07071397
134	0x3d3542ef	0.044253286
135	0xbd8a9b3b	-0.06767889
136	0x3cc1c391	0.023652824
137	0x3d1bf4ab	0.03807513
138	0x3d00bca0	0.031429887
139	0xbd090fe2	-0.033462413
140	0xbd08a891	-0.033363882
141	0xbd8b62f2	-0.06805982
142	0xbd6e7953	-0.058221173
143	0x3d58dc36	0.052944385
144	0x3d13c856	0.036079727
145	0x3d8003da	0.062507346
146	0xbd717560	-0.05894983
147	0x3c21fe31	0.009887264
148	0xbc037869	-0.0080243135
149	0xbc7f21b5	-0.015572001
150	0xbcf6554f	-0.030069975
151	0xbb5110b9	-0.0031900837
152	0x3bc933d5	0.006140212
153	0xbb6406dc	-0.0034794128
154	0xbc2407b9	-0.010011607
155	0x3d28d395	0.041217405
156	0x3da845f9	0.08216471
157	0xbb560b19	-0.0032660423
158	0xbcd2ed8f	-0.025748042
159	0xbd853f59	-0.06506223
160	0xbd345cb2	-0.044033714
161	0x3d900239	0.07031674
162	0x3bd8ff37	0.006622221
163	0xbd82b390	-0.06381905
164	0x3a093546	0.00052340736
165	0xbbd945d4	-0.0066306386
166	0x3d34a2b4	0.04410048
167	0x3ce550f3	0.027992701
168	0xbd565afc	-0.052332863
169	0xbd1cbffe	-0.038269036
170	0xbb8c97fe	-0.00429058
171	0x3d90270d	0.07038698
172	0xbd7b9493	-0.06142099
173	0xbdcb8e53	-0.099392556
174	0x3c65ce38	0.014026217
175	0xbc726550	-0.014794663
176	0x3d9a0a42	0.07521488
177	0x3d6eb8e1	0.058281783
178	0xbd572b2d	-0.05253141
179	0x3d405645	0.046957273
180	0xbd8d746d	-0.06906972
181	0x3adf0b8a	0.0017016989
182	0x3d9f7597	0.077861
183	0xbd69d2d6	-0.057085834
184	0x3d20e975	0.039285142
185	0x3c2e3496	0.010632655
186	0xbcb6fe9a	-0.0223382
187	0x3d33f54e	0.043935113
188	0xbdb572e0	-0.08859801
189	0xbb26ee61	-0.0025471675
190	0xbd265be2	-0.04061497
191	0xbd5a002e	-0.053222828
192	0x3d116fe3	0.035507094
193	0x3d7e01af	0.062013324
194	0xbd682bee	-0.05668252
195	0x3d350fd6	0.044204555
196	0x3cb3fd9f	0.021971522
197	0xbcc3a712	-0.023883376
198	0x3d0a8760	0.03382051
199	0x3db505ba	0.08838983
200	0xbbc5f704	-0.0060414094
201	0xbcecde33	-0.028914547
202	0xbda8ae97	-0.08236425
203	0xbd9b241b	-0.07575246
204	0xbca9272a	-0.020648558
205	0xbcbe3b67	-0.023221685
206	0xbda5e76c	-0.08100781
207	0x3d2446a5	0.040106434
208	0x3d10fbb8	0.035396308
209	0x3d44ea22	0.04807485
210	0x3da22216	0.079166576
211	0x3cb44102	0.022003654
212	0x3d350af0	0.044199884
213	0xbd1564f9	-0.03647325
214	0x3d64b23c	0.05583404
215	0x3d8b3501	0.06797219
216	0x3c1bda0a	0.009512434
217	0xbc221f8a	-0.009895215
218	0x3d2cecf1	0.042218152
219	0x3ce3feef	0.027831523
220	0xbd28de64	-0.041227713
221	0xbc5fe787	-0.01366604
222	0xbc449365	-0.011998032
223	0xbc471db1	-0.012153075
224	0x3b8bf83f	0.0042715366
225	0x3da5e66f	0.08100592
226	0x3d744249	0.059633527
227	0xbd2921ef	-0.041292127
228	0xbc5b826e	-0.013397796
229	0xbc8d7f16	-0.017272513
230	0x3ce06bc4	0.027395137
231	0x3cca26b3	0.024676656
232	0xbd85ceef	-0.0653361
233	0xbdb2ca25	-0.08729962
234	0xbbe0b155	-0.006857077
235	0xbc0f7795	-0.008756538
236	0xbda16c66	-0.078820035
237	0xbd39c65c	-0.045355186
238	0xbb9ce8a5	-0.0047884756
239	0xbda05d39	-0.07830281
240	0x3c4a0d1f	0.01233223
241	0xbca5d854	-0.020244755
242	0x3d942167	0.072329335
243	0x3d9af184	0.07565597
244	0xbd829eec	-0.06377968
245	0x3c968d59	0.018377947
246	0xbd85b54a	-0.06528719
247	0xbbe55273	-0.006998354
248	0x3d17eb5e	0.037089698
249	0x3baf01bf	0.0053407843
250	0x3bc4a709	0.0060013575
251	0xbda6a03a	-0.081360295
252	0x3d530c80	0.051525593
253	0xbbf78798	-0.007554006
254	0xbdad78d2	-0.0847031
255	0xbc4928cc	-0.012277793

lstm1.bias_hh_l0 f4 [512]
0	0x3d6992eb	0.057024878
1	0x3d28e857	0.0412372
2	0x3da61860	0.08110118
3	0xbd11d2f9	-0.03560159
4	0xbd05aee9	-0.03263751
5	0x3d47a2ce	0.048739247
6	0xbc4876b2	-0.01223533
7	0xbd637bdf	-0.055538055
8	0xbd9057af	-0.07047974
9	0xbccf1e11	-0.025282891
10	0xbd7da587	-0.061925437
11	0x3d789fe4	0.06069936
12	0xbd777536	-0.060414515
13	0xbd0176d8	-0.03160748
14	0xbd0c8a36	-0.034311496
15	0x3d824e09	0.0636254
16	0x3d362d53	0.04447682
17	0x3d5c035f	0.053714152
18	0xbc7a337d	-0.015271065
19	0x3c8e6746	0.017383229
20	0x3d8636c1	0.06553412
21	0xbb94b798	-0.0045384876
22	0x3d818924	0.063249856
23	0x3c68950d	0.014195693
24	0x3d83f960	0.06444049
25	0xbca56ae1	-0.020192565
26	0x3d910368	0.07080728
27	0x3d8bb8c4	0.068223506
28	0xbc836a8b	-0.016042015
29	0x3bdfd670	0.006830983
30	0xbd65c7ce	-0.05609875
31	0x3d0cf37b	0.03441189
32	0x3d552beb	0.052043837
33	0xbdd356ad	-0.103192665
34	0x3db8076e	0.08985792
35	0xbd44c556	-0.048039757
36	0xbd9d5fbf	-0.07684278
37	0xbda96113	-0.082704686
38	0x3d9f90eb	0.07791313
39	0xbda6398e	-0.081164464
40	0xbdbea427	-0.09308653
41	0x3d635abc	0.055506453
42	0x3c12b605	0.00895453
43	0xbca0e13e	-0.019638654
44	0xbc9b6b90	-0.018972188
45	0xbc8461dc	-0.016159944
46	0x3ceede45	0.02915872
47	0x3d63c42b	0.055607002
48	0xbd5c7361	-0.05382097
49	0xbd913700	-0.070905685
50	0x3cee2efe	0.029075142
51	0xbdabbe32	-0.08385886
52	0xbce2059f	-0.027590571
53	0xbdaa78e9	-0.08323843
54	0xbd3f0eb9	-0.0466449
55	0xbcf729d6	-0.030171316
56	0xbd2e7341	-0.042590383
57	0xbd1c06de	-0.038092487
58	0xbc6860be	-0.014183221
59	0x3d0e2ffd	0.034713734
60	0x3d632d23	0.055462968
61	0x3d830749	0.06397874
62	0x3d94456f	0.07239806
63	0xbd96e35e	-0.073675856
64	0xbd12feed	-0.035887647
65	0x3d94b2ac	0.072606415
66	0x3d89f941	0.067369945
67	0xbd9719ac	-0.073779434
68	0xbd1c2996	-0.038125597
69	0x3d06bbd1	0.03289396
70	0xbd925064	-0.071442395
71	0x3c44b06f	0.012004956
72	0x3d687032	0.056747623
73	0x3ba594bc	0.005053131
74	0xbd13c493	-0.03607614
75	0x3ab280ff	0.0013618766
76	0xbdb897d5	-0.09013335
77	0x3d38a45b	0.045078617
78	0xbd957823	-0.07298305
79	0xbdaf30b4	-0.08554211
80	0xbc54c01b	-0.012985255
81	0xbda7d7c5	-0.08195452
82	0x3bae2b5a	0.0053152265
83	0xbda37c69	-0.07982714
84	0xbc8ef123	-0.017448967
85	0x3d44a15c	0.048005447
86	0xbbf483dc	-0.007462008
87	0x3d80a4e0	0.062814474
88	0xbd5daaac	-0.054117844
89	0x3d380712	0.044928618
90	0xbd7071ef	-0.058702406
91	0x3d8f108c	0.06985578
92	0x38cb9888	9.7082055e-05
93	0xbd5b1e61	-0.05349577
94	0x3cf13fab	0.029449305
95	0x3d5d60d8	0.054047436
96	0x3c6e4104	0.014541868
97	0x3cfb886f	0.030704705
98	0x3bf7290d	0.0075427354
99	0x3dbf7d47	0.09350067
100	0x3dc17942	0.09446956
101	0x3d9967b5	0.07490484
102	0x3d6e98b4	0.058251098
103	0xbd573846	-0.0525439
104	0xbd92f900	-0.07176399
105	0x3d22b68c	0.03972487
106	0xbc8ec788	-0.017429128
107	0xbd7052d7	-0.058672752
108	0x3d6ef92f	0.05834311
109	0xbc36ffb9	-0.0111693675
110	0xbd512fb5	-0.051070888
111	0x3da12df6	0.078700945
112	0x3c8fe3c0	0.017564654
113	0xbd752542	-0.059849985
114	0xbda0975d	-0.0784137
115	0x3d9cd663	0.076580785
116	0x3b748c47	0.0037315057
117	0x3d355efa	0.04428003
118	0x3bad8571	0.0052954485
119	0xbc98bb94	-0.018644132
120	0x3ca5a5ce	0.020220663
121	0xbcce9d74	-0.025221564
122	0xbcc12439	-0.023576843
123	0x3d62cbe4	0.055370227
124	0x3d81adbd	0.06331966
125	0xbc1c6a5f	-0.009546845
126	0x3cbc85b9	0.023012983
127	0xbd80559e	-0.0626633
128	0xbda597ce	-0.08085595
129	0xba147321	-0.00056629075
130	0xbcbf7af2	-0.023374055
131	0x3cf064b2	0.02934489
132	0xbd04d26d	-0.03242724
133	0xbd1b155c	-0.037862167
134	0x3bd522ab	0.006504377
135	0xbd288c20	-0.04114926
136	0x3d985386	0.07437806
137	0xbd9f4af3	-0.07777967
138	0xbd9e582a	-0.0773166
139	0xbd284115	-0.041077692
140	0xbc7399ae	-0.014868183
141	0x3cb82d37	0.022482498
142	0xbd493a58	-0.049127907
143	0x3d27fd84	0.041013256
144	0xbcd804cb	-0.026369473
145	0x3cf0f900	0.029415607
146	0xbdab954f	-0.08378088
147	0xbda868f0	-0.0822314
148	0x3c28dc93	0.010306495
149	0xbd7dd96e	-0.061974935
150	0x3cc55e44	0.0240928
151	0xbdb42f53	-0.08798089
152	0xbd345ece	-0.044035725
153	0xbd678058	-0.056518883
154	0x3c9b8afb	0.01898717
155	0x3d718d43	0.05897261
156	0xbcedf2b6	-0.029046398
157	0x3cf54677	0.029940827
158	0xbcfb252f	-0.030657379
159	0x3d3f2737	0.046668258
160	0xbd83acf4	-0.064294726
161	0x3d0a596b	0.033776682
162	0xbd7f2091	-0.062286917
163	0xbc6b559e	-0.014363674
164	0x3d17ac24	0.0370294
165	0xbd825b61	-0.063650854
166	0xbda68b8f	-0.081320874
167	0xbd12cd78	-0.03584048
168	0xbcafdc9c	-0.0214675
169	0x3d61e030	0.055145442
170	0xbda0d3a0	-0.07852864
171	0xbd9d6099	-0.0768444
172	0xbd960298	-0.073247135
173	0x3cd1bd04	0.025602825
174	0xbca6667b	-0.020312538
175	0x3d7307ed	0.05933373
176	0xbd37f0b0	-0.04490727
177	0x3d4e3d8e	0.050351672
178	0xbd180864	-0.037117377
179	0x3d700df8	0.05860707
180	0x3d1db9f1	0.038507406
181	0xbdb1a19a	-0.08673401
182	0xbd95ffb5	-0.07324163
183	0x3da52ae8	0.08064824
184	0xbd5e90d3	-0.054337334
185	0xbc471578	-0.012151115
186	0xbdb9a2c6	-0.0906425
187	0xbc5c39ff	-0.013441562
188	0xbdb98143	-0.09057858
189	0x3d061e97	0.032744016
190	0xbd8f6bb2	-0.07002963
191	0x3d7130ff	0.058884617
192	0xbcb73692	-0.022364888
193	0xbce2311f	-0.027611313
194	0x3cfcbcb9	0.030851709
195	0xbd95ba4a	-0.073109224
196	0xbd97e054	-0.07415834
197	0xbd557dda	-0.052121975
198	0xbd9aed9e	-0.07564853
199	0x3d908029	0.070556946
200	0xbd6c3562	-0.057668097
201	0x3cd20fcf	0.025642304
202	0x3cad6710	0.021167308
203	0x3d9ad189	0.07559497
204	0xbd505df9	-0.05087087
205	0x3d4b3e9f	0.049620267
206	0xbd963297	-0.07333868
207	0xbd9eb836	-0.07749979
208	0x3d9c41c8	0.07629734
209	0x3dade6ae	0.08491264
210	0x3d9c1555	0.07621256
211	0x3d1b773f	0.03795552
212	0xbd8de20e	-0.06927882
213	0x3d162181	0.036653046
214	0x3d5998b8	0.05312416
215	0x3d1b18d5	0.03786548
216	0x3c9898c2	0.018627528
217	0xbd8b5d70	-0.06804931
218	0xbd41bae3	-0.04729737
219	0x3d98fd17	0.07470148
220	0x3ca2e52d	0.01988467
221	0xbd36a636	-0.044592105
222	0xbd0e548e	-0.034748606
223	0x3db59e3b	0.08868071
224	0xbc8aa983	-0.016926533
225	0x3da4f067	0.080536656
226	0xbd4d5ea4	-0.050139084
227	0xbcf61bb1	-0.030042501
228	0x3dc5e808	0.09663397
229	0xbd8fb864	-0.070175916
230	0xbd90e857	-0.07075565
231	0xbd2f32fc	-0.042773232
232	0xbd9d2674	-0.0767335
233	0xbc75c0b4	-0.014999557
234	0x3c989d27	0.018629624
235	0xbd48d514	-0.049031332
236	0x3d198f2b	0.03749005
237	0xbca741f1	-0.020417186
238	0xbd967846	-0.07347159
239	0xbda67315	-0.08127419
240	0xbd7ea3da	-0.06216798
241	0xbd9937c2	-0.07481338
242	0x3d67c235	0.056581695
243	0xbdc512ba	-0.096227124
244	0x3da3027d	0.07959459
245	0x3da7bdc1	0.081904896
246	0x3d79e90f	0.061013278
247	0xbced6e5a	-0.028983284
248	0x3da41b7e	0.08013056
249	0xbd02fde1	-0.0319804
250	0xbd021859	-0.0317615
251	0xbd3ba970	-0.045815885
252	0x3bf78b52	0.00755445
253	0x3d4af37e	0.04954862
254	0x3a840c7f	0.0010074525
255	0xbd9f1488	-0.07767588

lstm1.weight_ih_l0_reverse f4 [512, 6]
0	0x3cf44741	0.029819133
1	0x3c42a3fc	0.011879917
2	0xbd7c1442	-0.061542757
3	0x3d790561	0.060796145
4	0xbaceae45	-0.0015768489
5	0x3db28619	0.08716983
6	0xbd8d0f70	-0.0688771
7	0x3cf2d845	0.029644141
8	0x3c88c2ae	0.016694393
9	0xbd57ced8	-0.052687496
10	0xbb0edd5e	-0.0021799426
11	0xbd03f9aa	-0.03222052
12	0xbbe49f1c	-0.006976975
13	0x3ae5719a	0.0017505169
14	0x3cbc5e61	0.022994222
15	0x3d90054b	0.070322596
16	0xbc5cb13c	-0.01346999
17	0x3bf7ee08	0.0075662173
18	0xbcb14e6a	-0.021643836
19	0x3d733f7a	0.059386708
20	0xbd9cbc35	-0.07653085
21	0x3d93a045	0.07208303
22	0x3d13bd5d	0.036069263
23	0x3d354c36	0.044262134
24	0xbd9fcd44	-0.07802823
25	0xbc1f7218	-0.009731792
26	0xbdb4b9e9	-0.08824522
27	0x3d1a9e0d	0.037748385
28	0x3d0a220d	0.03372388
29	0x3d2d69de	0.04233729
30	0xbd23ebf2	-0.040019937
31	0x3c71e1d0	0.014763311
32	0x3d871ede	0.06597684
33	0x3d78626b	0.060640734
34	0x3ce9eb61	0.02855462
35	0x3d77b703	0.060477268
36	0xbc06dd5b	-0.008231486
37	0xbd9c96b8	-0.07645935
38	0xbc8dcb01	-0.017308714
39	0xbc9eb2d6	-0.019372385
40	0x3daada1e	0.08342384
41	0x3d4c5a38	0.049890727
42	0xbcd6ae2f	-0.026206104
43	0x3d859a27	0.06523543
44	0x3d4894b5	0.048969943
45	0x3d260578	0.04053256
46	0xbaa296bd	-0.0012404543
47	0x3da284f1	0.07935513
48	0xbd1569d4	-0.03647788
49	0x3d5fde40	0.054655313
50	0x3c5a8086	0.013336306
51	0x3d30a444	0.043125406
52	0xbdac330c	-0.08408174
53	0xbaf432fc	-0.0018630917
54	0xbd64ff3e	-0.05590748
55	0x3d9b92b6	0.07596342
56	0xbc56b0a3	-0.013103637
57	0xbd0ada46	-0.033899568
58	0x3d363b82	0.044490345
59	0xbd912a29	-0.070881195
60	0xbd27bfda	-0.04095445
61	0xbd98100a	-0.07424934
62	0x3d64966f	0.055807527
63	0xbcf1fe46	-0.029540192
64	0x3d38f131	0.045151893
65	0xbd7e0f62	-0.06202639
66	0x3d058b88	0.03260377
67	0x3d64342f	0.05571383
68	0x3b5be4a9	0.003355304
69	0x3c88749b	0.016657164
70	0xbc31658d	-0.010827434
71	0x3dbc369a	0.09190102
72	0xbc9342c5	-0.017976174
73	0x3d6dc1f5	0.0580463
74	0xbd87745f	-0.06613993
75	0x3b947016	0.0045299632
76	0x3b2367a4	0.00249336
77	0x3d09976b	0.03359167
78	0x3c3f89f8	0.011690609
79	0xbd361dd0	-0.044462025
80	0xbd19b55e	-0.03752648
81	0x3d894cfd	0.067041375
82	0xbc9a772b	-0.018855652
83	0x3ba2ad64	0.0049645174
84	0xbd61331d	-0.054980386
85	0xbd146fc8	-0.036239415
86	0xbb6a9f5a	-0.0035800547
87	0x3cd70221	0.026246132
88	0xbb2d4162	-0.0026436676
89	0x3cb2d1b4	0.02182851
90	0x3b88829d	0.004165961
91	0x3a187a86	0.0005816597
92	0x3d37047b	0.044682007
93	0xbca8b92e	-0.020596113
94	0x3d26aacf	0.04069024
95	0xbdc282be	-0.09497593
96	0x3db5b020	0.08871484
97	0x3c657eb6	0.014007261
98	0xbcc72e62	-0.02431411
99	0xbc137def	-0.009002193
100	0x3dbdc2af	0.092656486
101	0xbd98fb44	-0.074698
102	0xbd81f9e6	-0.063464925
103	0x3d1d2290	0.03836304
104	0xbd981cc6	-0.07427363
105	0xbdab6f8e	-0.08370887
106	0x3d2761c3	0.040864717
107	0xbdba911f	-0.09109711
108	0xb9d7badf	-0.00041147225
109	0xbd8c6f82	-0.06857206
110	0xbd9b9550	-0.075968385
111	0xbd0e629b	-0.034762006
112	0xbd95fe6e	-0.07323919
113	0x3ca39259	0.019967245
114	0xbd8e0c21	-0.06935907
115	0x3d315803	0.043296825
116	0xbd01505f	-0.03157079
117	0x3d5a33b1	0.053271953
118	0xbd5b49b0	-0.05353707
119	0xbdaf377a	-0.08555503
120	0x3c20b554	0.009808857
121	0x3d1c6006	0.038177513
122	0x3d4d2f17	0.050093736
123	0xbd0c67ff	-0.034278866
124	0xbd0f013d	-0.03491329
125	0x3db38ca1	0.08767057
126	0xbd2e8704	-0.04260923
127	0x3c8030db	0.015648296
128	0x3d7d8eb0	0.061903656
129	0x3c3624a5	0.011117135
130	0x3d3e8561	0.04651392
131	0x3db05a16	0.086109325
132	0xbc8f8266	-0.017518234
133	0x3dc8e49e	0.0980923
134	0x3dd0f206	0.10202412
135	0x3c6ab223	0.014324698
136	0x3d94dfc0	0.072692394
137	0x3dbb839d	0.091559626
138	0x3c673560	0.014111847
139	0x3d3bace3	0.045819174
140	0xbb3d0f7f	-0.0028848348
141	0x3d247e28	0.040159374
142	0x3da99236	0.08279841
143	0xbc535aea	-0.012900094
144	0x3d232aa2	0.03983558
145	0xbd1b31a7	-0.03788915
146	0x3d844a9c	0.06459543
147	0x3d855a10	0.06511319
148	0x37f9cdbc	2.9778916e-05
149	0xbd463ecd	-0.048399735
150	0x3d6a14c2	0.057148702
151	0x3d81dc63	0.063408636
152	0xbd9805af	-0.07422959
153	0xbd894ee0	-0.06704497
154	0x3dad1d6b	0.08452877
155	0xbce3a570	-0.027788848
156	0x3d844298	0.06458014
157	0x3da69ba4	0.08135155
158	0x3d23ae41	0.039961103
159	0xbd82dba1	-0.06389547
160	0xbd73ff8a	-0.059569873
161	0xbcc2026f	-0.023682801
162	0x3cfe1c14	0.031019248
163	0xbd15cd11	-0.03657252
164	0x3d6969b7	0.056985583
165	0x3cf25109	0.029579656
166	0xbc8e41b7	-0.01736532
167	0x3d6c40b1	0.057678882
168	0xbd733087	-0.05937245
169	0x3da8d1a7	0.08243113
170	0x3d881951	0.06645454
171	0x3d99a070	0.07501304
172	0xbd9b4a9a	-0.075825885
173	0x3b70c5a2	0.0036738892
174	0xbd987c98	-0.07445639
175	0x3d66e83b	0.056373816
176	0xbc80a8f8	-0.01570557
177	0xbd576d5e	-0.052594535
178	0x3d8c5701	0.06852532
179	0xbd37fd6d	-0.04491942
180	0xbd5356f7	-0.051596608
181	0x3d516720	0.05112374
182	0xbd20d32f	-0.0392639
183	0x3d3c1467	0.045917895
184	0xbd3f57a7	-0.04671445
185	0xbb10f85e	-0.0022120695
186	0xbc6f635b	-0.0146110905
187	0xbc47d961	-0.012197823
188	0x3d65cd59	0.056104038
189	0x3beb7be2	0.007186399
190	0xbd8a721d	-0.06760047
191	0x3d762904	0.06009771
192	0xbcd400b3	-0.02587924
193	0xbc7f8c01	-0.015597344
194	0xbd690319	-0.05688772
195	0xbc30f379	-0.010800236
196	0x3dd11603	0.102092765
197	0x3c97d8ad	0.018535936
198	0xbd2f7c0e	-0.042842917
199	0xbbeecc20	-0.007287517
200	0xbd67158e	-0.05641704
201	0x3c61e9cf	0.0137886545
202	0x3d9ca170	0.07647979
203	0x3cd33fe7	0.025787307
204	0x3ce3b9f1	0.027798625
205	0x3d842007	0.06451421
206	0xbc6609a4	-0.014040384
207	0x3d9813c8	0.07425648
208	0xbd8ee217	-0.06976717
209	0xbc1d31df	-0.00959441
210	0xbd0c06bd	-0.034186114
211	0x3d40ece1	0.047100905
212	0xbd9ee3da	-0.07758303
213	0x3cc9d1c7	0.024636162
214	0x3d381258	0.04493937
215	0xbcfe02c7	-0.031007184
216	0xbc43f760	-0.011960834
217	0xbb683037	-0.003542913
218	0x3d68267d	0.05667733
219	0x3d9ee8e3	0.07759263
220	0xbc493253	-0.012280065
221	0x3d11f550	0.03563434
222	0x3d0b01a1	0.0339371
223	0xbc14cf8f	-0.009082689
224	0x3ceee6e9	0.02916284
225	0x3d09e9c9	0.03367022
226	0x3c9288f8	0.017887577
227	0x3c8a67e1	0.016895236
228	0x3d9b3494	0.07578388
229	0xbd0333d8	-0.032031864
230	0xbc2d9d8e	-0.010596646
231	0xbd1a96e8	-0.03774157
232	0xbd76af8b	-0.060226005
233	0x3d10eae3	0.035380255
234	0xbc0205f7	-0.007935992
235	0xbda0da86	-0.0785418
236	0xbd8262af	-0.06366479
237	0x3d86950a	0.06571396
238	0x3d1fae77	0.038984742
239	0xbd79c9e3	-0.06098355
240	0x3dcb3a52	0.09923233
241	0xbc6bcaf8	-0.014391653
242	0xbd953e39	-0.07287259
243	0xbcb6e8d3	-0.022327816
244	0xbdb8e845	-0.09028677
245	0x3d07a8f5	0.033120114
246	0xbda7e0c9	-0.08197171
247	0xbdaa5fab	-0.083190285
248	0x3d29baca	0.0414379
249	0xbc6e2c2c	-0.014536899
250	0xbda4e8bb	-0.08052202
251	0xbd2198d5	-0.039452393
252	0x3cc03b81	0.023465874
253	0x3c90df14	0.017684497
254	0xbd0654ec	-0.03279583
255	0x3bbde200	0.0057947636

lstm1.weight_hh_l0_reverse f4 [512, 128]
0	0x3d52308d	0.051315833
1	0x3d090935	0.033456046
2	0xbd39e50c	-0.04538445
3	0x3b8a9c8a	0.0042300867
4	0x3d9978ba	0.0749373
5	0xbcdcede6	-0.026968908
6	0xbd22ce01	-0.039747242
7	0xbd6355b5	-0.05550166
8	0x3cda8476	0.02667449
9	0x3d5f5f09	0.054533992
10	0xbdadb885	-0.0848246
11	0xbc3103e3	-0.010804149
12	0x3d3133f6	0.043262444
13	0xbd89aadb	-0.06722041
14	0x3d7d4876	0.061836682
15	0xbd69ab22	-0.05704797
16	0xbcfd2017	-0.03089909
17	0xbd9095d0	-0.070598245
18	0xbcfd7b0f	-0.030942468
19	0xbdb4fa3a	-0.088367894
20	0xbd6afff2	-0.057372995
21	0x3c080d1b	0.008303906
22	0x3d806293	0.062688015
23	0x3cca841a	0.024721194
24	0xba7bcee8	-0.00096057216
25	0x3d4eaf2f	0.050460037
26	0xbdbd76fd	-0.09251211
27	0xbd9428cc	-0.07234344
28	0x3c35ce5d	0.011096564
29	0xbdda7ed1	-0.106687196
30	0xbd3fd802	-0.04683686
31	0x3bd45861	0.006480262
32	0xbd95c6ca	-0.07313307
33	0x3d8dfa64	0.06932524
34	0x3d17108b	0.03688101
35	0xbd95a1c3	-0.07306244
36	0xbda30cee	-0.079614505
37	0x3d43c7fd	0.047798146
38	0xbcd91a7e	-0.02650189
39	0x3d2e4b50	0.042552292
40	0xbbdac2ec	-0.0066760685
41	0xbd2a964e	-0.041647248
42	0x3c4de66d	0.012567145
43	0x3cf554be	0.029947635
44	0xbd9d3895	-0.07676808
45	0xbdaa6ac0	-0.08321142
46	0xbc80fd6a	-0.015745837
47	0xbd91a86d	-0.07112203
48	0xbd1e0009	-0.038574252
49	0x3d3b614f	0.045747098
50	0x3d15da98	0.03658542
51	0xbd21c47a	-0.039494015
52	0xbd28fbc7	-0.04125574
53	0xbd15d676	-0.03658148
54	0xbd239959	-0.039941166
55	0xbb4be669	-0.0031112677
56	0xbd212304	-0.039340034
57	0xbd8fa698	-0.07014197
58	0xbb8c494c	-0.0042811986
59	0x3d022a40	0.031778574
60	0x3d9fa6ae	0.077954635
61	0xbd17fe1a	-0.037107565
62	0x3c9483a3	0.018129176
63	0xbd5d8290	-0.054079592
64	0xbcb70708	-0.02234222
65	0xbd624d0a	-0.05524925
66	0x3ba65a50	0.005076684
67	0xbd7f6ac0	-0.062357664
68	0xbd855109	-0.06509597
69	0xbc9b5c82	-0.01896501
70	0x3d6b4dc4	0.05744721
71	0xbd1cfc0f	-0.03832632
72	0xbd5b4886	-0.05353596
73	0x3c94f716	0.018184226
74	0x3d136dcc	0.035993382
75	0x3d0805f0	0.033208787
76	0x3d7957ef	0.060874876
77	0x3b50968b	0.0031828012
78	0x3d406f1d	0.046980966
79	0xbcb4dce9	-0.022077994
80	0xbda26ff8	-0.079315126
81	0x3cb05e49	0.021529334
82	0x3c09ed05	0.008418326
83	0xbd759d2d	-0.059964348
84	0xbd8841b8	-0.0665316
85	0xbd4cf0bd	-0.050034273
86	0x3cf7146b	0.030161103
87	0xbda57cbf	-0.08080434
88	0xbd8f0a48	-0.06984383
89	0xbd1e8a9d	-0.03870641
90	0xbc949501	-0.018137457
91	0xbb373825	-0.0027957049
92	0xbd8ec88a	-0.069718435
93	0x3dc48d40	0.09597254
94	0x3cf683e1	0.030092182
95	0xbd6fe244	-0.058565393
96	0x3dade67a	0.084912255
97	0x3d53babd	0.05169176
98	0xbcd952ae	-0.026528683
99	0xbda5f4aa	-0.081033066
100	0xbdb40f85	-0.087920226
101	0x3cf71f95	0.030166427
102	0xbd06bb54	-0.032893494
103	0xbd7d2532	-0.06180305
104	0x3d8b93bd	0.06815288
105	0x3dd5c737	0.10438388
106	0x3d06439d	0.032779325
107	0x3d21393e	0.03936123
108	0x3d824df2	0.06362523
109	0x3cf50d81	0.029913666
110	0xbd91065d	-0.07081292
111	0xbd92ea41	-0.07173587
112	0x3bff9815	0.007800112
113	0x3c39cdf5	0.011340608
114	0xbcf3b66b	-0.02975007
115	0xbd0b5bb2	-0.034022994
116	0x3d8d1cd2	0.06890263
117	0xbd4be02b	-0.04977433
118	0x3d485e79	0.04891822
119	0xbda000b0	-0.07812631
120	0x3d7b281a	0.06131754
121	0x3d660967	0.05616131
122	0x3d961a06	0.07329182
123	0x3d4b13b5	0.04957934
124	0x3d2e0005	0.042480487
125	0x3b983921	0.004645482
126	0xbcdb6ac3	-0.026784306
127	0xbd619229	-0.05507103
128	0xbd1347e5	-0.035957236
129	0x3d0111b7	0.031511035
130	0xbd3848ec	-0.04499142
131	0x3d481b6d	0.04885428
132	0x3d056067	0.03256264
133	0xbd938bc9	-0.07204396
134	0x3d8e0a76	0.06935589
135	0x3cc60f9f	0.02417737
136	0x3da1e0f1	0.07904232
137	0x3c0f33d7	0.008740387
138	0x3d7a739d	0.061145414
139	0x3bc00e4e	0.0058610803
140	0xbd2d3c8f	-0.04229408
141	0x3cb420eb	0.021988353
142	0xbda52763	-0.08064153
143	0xbd8706e5	-0.06593112
144	0x3d771b20	0.060328603
145	0x3da53b7e	0.08067988
146	0x3bfc47e2	0.007698999
147	0xbaaf1840	-0.0013358667
148	0x3cdf4579	0.027254807
149	0x3be01234	0.0068381075
150	0x3c98960a	0.018626232
151	0x3d2c97a3	0.0421368
152	0x3d16cdaa	0.03681723
153	0x3d668114	0.056275442
154	0x3db0bd28	0.08629829
155	0xbcfda3ac	-0.030961834
156	0x3d4c4803	0.049873363
157	0xbb5415cd	-0.0032361627
158	0xbc122ea9	-0.008922257
159	0x3d3520fa	0.044220902
160	0xbdafeefa	-0.08590503
161	0x3b8f9892	0.0043822015
162	0x3cc2f1ae	0.023796882
163	0xbbdeddbf	-0.0068013365
164	0xbd0c87d2	-0.034309216
165	0x3c96f762	0.018428508
166	0xbd1487fc	-0.036262497
167	0x3c9c8e46	0.01911081
168	0x3c881d66	0.01661558
169	0xbcf381cd	-0.02972498
170	0xbcadbe74	-0.02120898
171	0xbccf5e5b	-0.025313547
172	0x3db988d6	0.090593025
173	0x3d2e17f2	0.042503305
174	0x3daeb94b	0.085314356
175	0x3cfad2b9	0.030618059
176	0x3dc55cf9	0.09636874
177	0xbd61e478	-0.055149525
178	0x3c9ed8a0	0.019390404
179	0xbd8b30eb	-0.0679644
180	0xbd1553b1	-0.036456767
181	0x3c4a53c2	0.012349071
182	0xbbff8dd9	-0.007798892
183	0xbc199c06	-0.009375578
184	0xbd6d1e29	-0.05789009
185	0xbdb409d5	-0.08790938
186	0xbd9c4eb0	-0.07632196
187	0x3db56fb0	0.08859193
188	0xbd965c58	-0.07341832
189	0x3d2a0bbb	0.041515093
190	0xbd54526b	-0.051836412
191	0x3d7519de	0.059839122
192	0x3c6c0730	0.0144060105
193	0x3bb204c1	0.0054326956
194	0x3ca73c47	0.020414485
195	0xbd3bab4a	-0.04581765
196	0x3da5fd96	0.08105008
197	0xbdad7ce3	-0.08471086
198	0xbd569b67	-0.052394297
199	0xbd805012	-0.06265272
200	0xbd91d7fd	-0.071212746
201	0xbca7fb34	-0.020505525
202	0x3d191d26	0.037381314
203	0xbd90453b	-0.07044455
204	0x3db6df25	0.0892928
205	0x3cb3ff3b	0.02197229
206	0x3d93c76b	0.0721577
207	0x3d8868d6	0.06660621
208	0x3d692352	0.05691845
209	0xbd7bcc0d	-0.061473895
210	0xbd02f49c	-0.03197156
211	0x3d82697f	0.06367778
212	0x3da0ec4c	0.0785757
213	0x3d0b12bf	0.033953425
214	0x390ed9bb	0.00013623286
215	0xbda82ebb	-0.08212038
216	0x3cc9050d	0.024538541
217	0x3b2c3480	0.002627641
218	0xbce6ddad	-0.028181875
219	0x3d1805de	0.03711497
220	0x3d627d46	0.05529525
221	0x3b7fc2f3	0.003902611
222	0x3c8887c5	0.016666302
223	0xbd9580a9	-0.072999306
224	0x3d7137e5	0.058891196
225	0x3cb8a654	0.022540249
226	0xbcaa70c5	-0.020805726
227	0xbcf7b094	-0.030235566
228	0xbda17ca5	-0.07885102
229	0x3b6de256	0.0036298237
230	0x3c4dbecf	0.012557699
231	0x3c5b583a	0.013387734
232	0x3c4b037a	0.012390966
233	0xbd39dac5	-0.04537465
234	0x3ba0f942	0.0049125263
235	0x3d77db06	0.06051161
236	0x3cfbb4e3	0.030725902
237	0x3c2f95c7	0.010716862
238	0xb99728da	-0.000288314
239	0x3d5124b9	0.051060412
240	0x3bf10332	0.0073551172
241	0xbd2914c6	-0.041279577
242	0x3ce37841	0.027767302
243	0x3dd43b8f	0.103629224
244	0x3d9cc603	0.07654955
245	0x3b842736	0.0040329946
246	0x3d1219e2	0.035669215
247	0xbd46b344	-0.048510805
248	0xbda50ce2	-0.08059098
249	0xbd77f06b	-0.060532015
250	0x3dc09a07	0.094043784
251	0x3c397ee3	0.011321756
252	0x3ca0280a	0.019550342
253	0x3da4d959	0.08049268
254	0xbb0d0cb1	-0.0021522457
255	0xbc2bf840	-0.010496199

lstm1.bias_ih_l0_reverse f4 [512]
0	0x3ccc028f	0.024903564
1	0x3d59644b	0.053074162
2	0xbd86c857	-0.065811805
3	0x3cfba623	0.030718869
4	0xbd8163ab	-0.06317838
5	0x3cf13aef	0.029447047
6	0xbd39d354	-0.045367554
7	0xbd9c5244	-0.076328784
8	0xbd338b73	-0.04383416
9	0xbaa394ec	-0.0012480295
10	0x3c40f04c	0.011776041
11	0xbcbb3a61	-0.022854986
12	0x3d2e7259	0.04258952
13	0xbca5cb3c	-0.020238511
14	0x3c552e2f	0.013011499
15	0x3c991c6b	0.018690309
16	0xbd43f285	-0.047838707
17	0xbcdcb320	-0.026940882
18	0xbcf91235	-0.03040419
19	0x3d865b41	0.06560374
20	0x3d80c97d	0.06288431
21	0x3bd1ea69	0.0064061177
22	0xbd8a3a74	-0.0674943
23	0x3d92085b	0.071305
24	0x3d8ea043	0.06964161
25	0x3d923dc3	0.07140686
26	0x3d0b16a4	0.03395714
27	0xbc0634d7	-0.008191309
28	0xbd483b11	-0.048884455
29	0x3da6f1b2	0.081515685
30	0xbd50a6ea	-0.05094043
31	0xbd11fcdb	-0.035641532
32	0x3d6d8e5b	0.05799709
33	0x3ce7be2f	0.028288929
34	0xbdac669d	-0.084180094
35	0xbcde3c7b	-0.027128449
36	0xbda01d8d	-0.07818136
37	0x3bc17b24	0.005904572
38	0x3ccad1e0	0.02475828
39	0x3bff9067	0.0077991965
40	0x3c05c376	0.008164277
41	0xbcf371f8	-0.02971743
42	0x3da44e9a	0.080228046
43	0x3cf24394	0.02957324
44	0x3d737d6b	0.05944578
45	0x3d25bd6a	0.040463842
46	0xbc5647c5	-0.013078635
47	0x3bd3843b	0.006454972
48	0x3d85d44a	0.065346316
49	0xbc09b081	-0.008403898
50	0xbc976623	-0.01848132
51	0xbd448281	-0.04797602
52	0xbd862dfe	-0.06551741
53	0x3d7ec9eb	0.062204283
54	0x3d639d16	0.05556973
55	0xbd6aff7d	-0.05737256
56	0xbcbbbf3b	-0.022918334
57	0x3d85b7ff	0.06529235
58	0x3cdbfd97	0.02685432
59	0x3d668006	0.056274436
60	0xbdb6a509	-0.08918197
61	0xbc9ffe8a	-0.019530553
62	0xbcbf6410	-0.023363143
63	0x3d9ced6b	0.076624714
64	0xbc793eb7	-0.015212706
65	0x3d474139	0.048646186
66	0xbc1430fc	-0.009044882
67	0xbda6c7bb	-0.08143564
68	0x3c079bdf	0.008276909
69	0x3d391e86	0.045195125
70	0x3c18030e	0.009278072
71	0x3db802f1	0.08984936
72	0x3d9567be	0.07295178
73	0xbdab83a9	-0.083747216
74	0x3c818813	0.015811956
75	0x3c937ac7	0.01800288
76	0xbd8d400e	-0.06896983
77	0x3c3ea68a	0.011636386
78	0x3d22db71	0.039760057
79	0x3bab70b3	0.0052319407
80	0x3abfb847	0.0014627062
81	0x3bc433af	0.0059876065
82	0xbceeee37	-0.029166324
83	0xbd400694	-0.046881273
84	0xbdccb280	-0.09994984
85	0xbd6b6a7f	-0.05747461
86	0x3d349215	0.044084627
87	0x3d5d770d	0.054068614
88	0x3c56a1a4	0.013100062
89	0xbcf69f99	-0.030105399
90	0xbc1ee153	-0.009697276
91	0xbd96a5a6	-0.07355814
92	0xbd1fa3d1	-0.038974587
93	0xbd6164d4	-0.055027798
94	0xbcde6117	-0.027145905
95	0xbd5ad347	-0.053424146
96	0x3d86def3	0.06585493
97	0xbd8e55d0	-0.06949961
98	0x3d542107	0.05178931
99	0xbc14ffa8	-0.009094156
100	0xbc4f58b7	-0.012655429
101	0x3d14259e	0.036168687
102	0xbd545232	-0.0518362
103	0x3db34f19	0.08755321
104	0x3d647f71	0.0557856
105	0xbd39b34d	-0.04533701
106	0xbcd14fef	-0.02555081
107	0x3c29014f	0.010315253
108	0xbc53a46f	-0.012917622
109	0xbd2655ca	-0.04060916
110	0x3d746643	0.059667837
111	0x3d65b243	0.056078207
112	0xbc9ddf74	-0.01927159
113	0xbd49e67b	-0.04929207
114	0xbcefa863	-0.029255098
115	0x3d9e7377	0.07736867
116	0x3af42882	0.0018627795
117	0x3d6c8db0	0.05775231
118	0x3d254cc8	0.040356427
119	0xbd29406d	-0.041321207
120	0xbd57223d	-0.052522887
121	0x3c2feb7c	0.010737296
122	0x3d0abb9c	0.033870324
123	0x3b8be8db	0.004269702
124	0xbd9d178a	-0.07670505
125	0xbd9f86bb	-0.0778937
126	0x3b91ab50	0.004445471
127	0x3c9825c4	0.018572696
128	0x3cb8a548	0.02253975
129	0xbd55404e	-0.05206328
130	0x3c4aa3f4	0.012368191
131	0xbc7d40da	-0.015457356
132	0x3d4c93e1	0.049945716
133	0xbdb975b3	-0.090556525
134	0xbd8a394f	-0.06749212
135	0x3d108db5	0.035291392
136	0xbcedb5fd	-0.029017443
137	0xbdb4f11c	-0.088350505
138	0x3d1311dd	0.035905708
139	0xbd9df8da	-0.0771348
140	0x3cd6a5ee	0.026202168
141	0x3d8e0b77	0.069357805
142	0xbd81594c	-0.0631586
143	0xbccc24ad	-0.024919832
144	0xbd77b288	-0.060472995
145	0xbd359db2	-0.044339843
146	0xbd8e6e34	-0.06954613
147	0x3d514f2c	0.051100895
148	0xbc153504	-0.009106878
149	0xbdcb460b	-0.09925469
150	0x3c47656c	0.012170177
151	0xbd6d3dd2	-0.057920285
152	0x3c90235f	0.017594991
153	0xbd935739	-0.07194371
154	0xbd63285a	-0.055458404
155	0x3da57d72	0.080805674
156	0xbdb57824	-0.08860806
157	0xbbcff1ba	-0.0063459547
158	0x3bd308ef	0.006440274
159	0xbd6b6caf	-0.057476696
160	0x3bcd0409	0.0062565845
161	0xbd597e4b	-0.053098958
162	0x3d8b775c	0.06809875
163	0xbd3702f5	-0.044680554
164	0xbd80eed5	-0.062955536
165	0xbd9597a2	-0.07304312
166	0x3daa8106	0.083253905
167	0x3d4e30d9	0.050339554
168	0x3d573e8d	0.052549887
169	0xbdb68b92	-0.0891334
170	0xbd7eb0c3	-0.06218029
171	0xbd919bb4	-0.07109776
172	0x3b9c320e	0.004766709
173	0xbd9b649d	-0.0758755
174	0xbbcaf735	-0.00619402
175	0xbd2d266a	-0.042272963
176	0xbd7334b8	-0.05937645
177	0x3c90a374	0.017656066
178	0x3d873824	0.06602505
179	0xbcb3059b	-0.021853259
180	0x3d264aa1	0.040598515
181	0x3da6f037	0.08151286
182	0x3d3f6644	0.046728387
183	0x3d8b6bb3	0.06807651
184	0x3d9542f4	0.07288161
185	0xbd995242	-0.074863926
186	0x3c4126a6	0.011789
187	0x3dafb12f	0.08578717
188	0xbdb7877b	-0.08961388
189	0xbcecb8e8	-0.028896764
190	0xbc976676	-0.018481474
191	0xbd75abeb	-0.059978407
192	0x3ca3f5e2	0.020014707
193	0xbdc2c4a0	-0.095101595
194	0xbdb47014	-0.0881044
195	0x3cbef48f	0.023309974
196	0xbdac6dd8	-0.084193885
197	0x3d1b4599	0.03790817
198	0x3bc61457	0.006044905
199	0x3d84612f	0.06463849
200	0xbd9351bb	-0.07193323
201	0xbd4c490c	-0.04987435
202	0x3ca1d474	0.019754626
203	0x3db379c1	0.08763457
204	0xbc82baa4	-0.015958138
205	0xbd5d9317	-0.054095354
206	0xbb416eb4	-0.0029515447
207	0xbda96319	-0.082708545
208	0x3d8a0296	0.067387745
209	0xbbdbe2ab	-0.0067103705
210	0xbd8b62aa	-0.06805928
211	0x3d238abc	0.03992723
212	0xbdbf7c56	-0.09349887
213	0xbcb9c3fb	-0.022676459
214	0x3b81d87d	0.003962575
215	0x3d401f0f	0.04690462
216	0xbcc2a333	-0.02375946
217	0xbd073275	-0.033007104
218	0xbd802722	-0.06257464
219	0x3d2c247b	0.042026978
220	0xbd9ecdda	-0.07754107
221	0xbc2e3925	-0.0106337415
222	0xbd346fa6	-0.04405179
223	0xbcb7f75a	-0.022456814
224	0xbd8439a4	-0.064563066
225	0xbd83ccd5	-0.06435553
226	0xbd3dc848	-0.04633358
227	0xbd3aaf58	-0.045577377
228	0xbd130690	-0.03589493
229	0xbdb19304	-0.08670619
230	0xbd04cd73	-0.032422494
231	0xbda6a930	-0.08137739
232	0x3d9fcc3f	0.07802629
233	0xbd86a86d	-0.065750934
234	0xbd10d57d	-0.03535985
235	0x3d5d719e	0.054063432
236	0xbd1dfc8a	-0.03857092
237	0xbd8ce36a	-0.06879313
238	0x3cc6530e	0.024209525
239	0xbdaf6971	-0.08565033
240	0x3cc759c8	0.024334803
241	0x3d579482	0.052631862
242	0xbd89ac2c	-0.06722292
243	0x3db9cdf9	0.09072489
244	0xbd5f0e72	-0.054457135
245	0xbcd4f96b	-0.025997838
246	0x3d0f00e2	0.03491295
247	0xbd222f25	-0.03959574
248	0x3daadd5a	0.08343001
249	0x3ca639c7	0.020291222
250	0xbd472500	-0.04861927
251	0x3b71cc43	0.003689543
252	0x3cec813e	0.028870221
253	0xbdb8cef4	-0.09023848
254	0x3d8055c5	0.06266359
255	0x3d21c208	0.039491683
