results/models/FTSE100_GRU_model.pth (torch, 683243 bytes, 19 tensors)

gru1.weight_ih_l0 f4 [384, 6]
000000 ac 22 a0 3d 9e ee 85 3d f1 6e cb 3c 81 0c 9c 3d
       0.07819113 0.06539653 0.024833174 0.076195724
000010 1f f8 85 3b bc 2e d0 ba 01 85 ea bc f3 15 05 bd
       0.004088416 -0.0015883069 -0.028627874 -0.032491636
000020 fe 0f 73 bb aa ff 22 3d d7 2a 98 bd ad 73 74 bc
       -0.003708839 0.0397946 -0.07430046 -0.014920157
000030 d6 36 5d 3c 11 27 bc 3d d3 39 6a 3d 3a 62 ae 3d
       0.013501843 0.09187139 0.05718405 0.08514829
000040 01 6e 92 3d f1 a9 ae bb e2 16 b9 bc 2d 03 77 3d
       0.07149888 -0.005330317 -0.02259392 0.060305763
000050 80 95 a0 3d 1c 4c e6 3c 6c 0b 78 bd 6e 62 dc 3c
       0.07841015 0.028112464 -0.060557768 0.026902404
000060 61 59 a7 3d b8 d6 6c 3c 3d 2a 70 bd f8 de 17 bd
       0.081713445 0.01445549 -0.05863403 -0.037077874
000070 73 2b bb bd 83 99 ab bd 3b 82 bf 3d 46 de 94 3c
       -0.09139147 -0.083788894 0.09351011 0.018172394
000080 00 0c 9b bd eb fc e5 bc 40 7b b2 3d 2b f5 0a 3c
       -0.07570648 -0.028074702 0.08714914 0.008481304
000090 11 a5 9f 3d f7 c9 86 3c 2b 0c ef 3c de 5b b9 3c
       0.07795156 0.016453726 0.029180607 0.022626814
0000a0 2b 6d db 3b 7e 97 50 3d 76 22 04 bd fa f8 0c bd
       0.0066963634 0.050925724 -0.032259427 -0.03441713
0000b0 af d6 b5 3b 89 40 21 bd f8 d6 3e bc dd c5 1d bc
       0.005549274 -0.039368186 -0.011647932 -0.009629694
0000c0 4d c3 8c bd be 0b 3f 3d 90 6f 51 bd ab a5 a2 bd
       -0.06873188 0.046642058 -0.051131785 -0.07941755
0000d0 86 bf a0 bd 29 5a 93 bd 83 4e b8 bd d4 a2 a9 bd
       -0.0784903 -0.07194931 -0.0899935 -0.0828301
0000e0 13 71 0d bd 04 ef 77 3d 07 71 d3 bc a7 2d b5 3d
       -0.034531664 0.060530677 -0.025810732 0.08846598
0000f0 95 63 a9 3d f6 4f c9 3c f2 f8 91 bd bd 15 39 3c
       0.08270947 0.024574261 -0.07127561 0.011296687
000100 32 c4 17 bd 6e 09 46 3c e1 29 a0 3d 22 71 46 bd
       -0.03705234 0.012087209 0.07820488 -0.048447736
000110 3f 50 ee 3b 83 4c 1e bd 19 83 24 bd 20 fe e1 bc
       0.0072727497 -0.038647186 -0.040164087 -0.027586997
000120 a2 96 25 bd d0 8e d8 b9 04 65 ef bc 1f 14 61 bd
       -0.040426858 -0.00041305134 -0.029222973 -0.05495083
000130 a9 51 76 3c f1 de f6 bb 9e 51 53 bd 94 24 9d bd
       0.015034118 -0.007533901 -0.051591508 -0.07672992
000140 33 ce 5b 3c 3f d3 94 3d 19 bb 03 3c ad 5c 68 3d
       0.013415861 0.072668545 0.008040213 0.056729008
000150 66 10 37 bd 79 20 fa bc dd 5d 5a 3d ee 6a 43 bd
       -0.044693373 -0.030533062 0.05331217 -0.047709398
000160 7e c1 41 3d 8c 72 9a 3d 90 0d 70 bd f6 de 57 3d
       0.04730367 0.07541379 -0.058606684 0.052702866
000170 07 55 44 3d f7 ff a1 bc f8 89 a5 3d 2e f9 00 bd
       0.04793265 -0.019775374 0.08082956 -0.031487636
000180 f3 84 4e bb 7e 50 ed 3c be 4d 59 bc ff 42 7a 3d
       -0.003151235 0.028969046 -0.013263164 0.06109905
000190 46 a6 bf 3c 97 0f a5 bd 71 ae 95 3d 1f 43 22 3d
       0.023394715 -0.08059614 0.07308663 0.039614793
0001a0 94 3e 75 bd 7c 8c 3a bd d1 84 92 bd 15 63 4e bc
       -0.059874132 -0.045544133 -0.07154239 -0.012596865
0001b0 fd b4 8e 3d b2 95 1f bc 48 97 80 3d f5 c3 52 bd
       0.069681145 -0.00974028 0.062788546 -0.05145641
0001c0 de 0c ac 3d 10 5f 9c 3c 4c 78 a0 3b 11 d0 89 3d
       0.08400892 0.019088298 0.004897153 0.06729139
0001d0 cd 7f 7d bd af 98 46 bd 72 47 98 bc ed 17 9b 3c
       -0.06188946 -0.048485454 -0.018588755 0.018932307
0001e0 25 52 a1 bd 09 d8 aa 3d bd eb 99 bc 58 55 b1 3d
       -0.07876996 0.08341987 -0.018789167 0.08658856
0001f0 bc d1 ae bc aa 6b ef 3c 8f d5 24 bd b9 f4 03 3c
       -0.021340244 0.029226143 -0.040242728 0.008053952
000200 b2 bd e7 bb e2 fc 5c bc b9 9e 2c 3d e4 2d 79 bd
       -0.007072174 -0.013488026 0.042143557 -0.06083478
000210 3a d8 3f 3d 09 ec f8 3c 60 3d 2b 3d 04 06 ad 3d
       0.04683707 0.030385988 0.04180658 0.08448413
000220 ae 80 a9 bd 93 38 5f 3d 40 75 b6 bd 8a fb 85 3d
       -0.08276497 0.054497313 -0.089090824 0.06542118
000230 df 1d 91 bd 03 7b 87 bd 66 4e ad bd 2e 65 fb 3c
       -0.070857756 -0.066152595 -0.08462219 0.030687895
000240 06 1d 65 bd f7 9a b6 3c 0f 7a b0 bd ef ee 44 bd
       -0.055935882 0.02229069 -0.08617031 -0.048079427
000250 13 0f 18 3c d8 f9 29 3b c2 65 df 3d 49 f8 2b bd
       0.009280938 0.0025936272 0.10908081 -0.04198483
000260 98 a0 ea 3b 5b 00 17 3d 3f 4f e6 3b 31 c3 eb 3c
       0.0071602575 0.036865573 0.00702849 0.028779598
000270 6d 5a 7e 3d 4a 95 9a 3d 93 04 d1 bc d3 24 b0 3d
       0.062097955 0.07548006 -0.025514876 0.08600774
000280 0c 56 a1 3d 94 c3 79 bd cf b5 5f 3d 45 f7 16 3d
       0.0787774 -0.060977533 0.054616746 0.03685691
000290 a7 4f 40 bd 0c 29 99 bd 15 72 df 3c 6c 95 b9 3c
       -0.046950962 -0.07478532 0.027276078 0.022654258
0002a0 1b e6 c3 bd 5d 0a 4a 3d 28 74 58 3d fd d3 a0 bd
       -0.095653735 0.04932629 0.05284515 -0.078529336
0002b0 ec 89 d2 3b 93 ba 99 ba 92 99 b8 bc e0 73 f8 bc
       0.006425133 -0.0011728577 -0.022534166 -0.030328691
0002c0 9e aa 1a bd b9 f8 96 bd 7d 3f 82 3d 9a 02 21 3d
       -0.03776037 -0.07371659 0.06359766 0.03930912
0002d0 66 23 0d bd 21 c9 cf 3b 54 18 8f 3d 39 a4 53 3d
       -0.034457587 0.006341115 0.06987062 0.051670287
0002e0 77 a6 3b bd 44 d7 6a 3d 0a 26 8e 3d 67 eb c6 3c
       -0.04581305 0.0573342 0.06940849 0.02428217
0002f0 00 db 92 bd 6f ea 35 bb f8 91 60 3c 46 6e 09 bd
       -0.07170677 -0.0027758142 0.013706677 -0.03355243
000300 80 65 98 bc 4e 4a 01 bd 2a a9 b7 bc c9 6a 5e bd
       -0.018603086 -0.031565003 -0.02241953 -0.054301057
000310 b4 e5 88 3c c6 e0 9c bc c2 65 b7 3d a0 5d ad bb
       0.016711093 -0.01915015 0.08954956 -0.005290702
000320 97 7b 8a 3b bb c9 a2 3c c5 30 9b 3d a9 ed 05 bd
       0.004226159 0.019871583 0.075776614 -0.032697354
000330 02 14 5c bd 01 d4 ce 3d fe 30 b1 bc b9 f2 07 bd
       -0.05373002 0.1009903 -0.021629807 -0.033190463
000340 4b da 1f 3d 99 ef 73 3d 30 13 85 3c 4e d1 15 bd
       0.03902654 0.05955467 0.0162445 -0.03657656
000350 b0 07 9a bd a1 e0 59 bd cd 74 86 3c 32 7e 90 3d
       -0.075209975 -0.05319274 0.016413117 0.0705532
000360 55 26 85 bd de ee b9 3d 3c 61 9f 3c 6c be 9b bd
       -0.06501452 0.090787634 0.019455545 -0.076046795
000370 69 fe bc bc 81 ef 9a 3d 27 f2 3e bc e4 f4 18 3d
       -0.023070531 0.07565213 -0.011654413 0.03734292
000380 a8 66 ac bc 16 b1 a6 b9 58 15 82 3c 6c a5 42 3d
       -0.021045044 -0.00031793927 0.015879318 0.04752104
000390 a2 85 72 3d 04 13 ca 3c bb af 56 3d e2 fa 87 3d
       0.059209473 0.02466727 0.052413683 0.06639649
0003a0 20 0f 9a bd 3d 78 53 3c d3 34 c3 3d 45 03 a4 3d
       -0.07522416 0.012907085 0.0953156 0.08008436
0003b0 4b d2 b0 3d 48 97 51 bd cf 25 44 bd fe 11 1a 3d
       0.0863386 -0.051169664 -0.04788762 0.037614815
0003c0 22 1f 78 bd 8c f5 55 3d c1 68 6e bc 13 53 ea bc
       -0.060576566 0.052236125 -0.014551342 -0.028604066
0003d0 d9 21 8f bd c2 28 ad bd 9e 6c 11 3d c1 9c 8a bd
       -0.06988878 -0.084550396 0.035503976 -0.0676818
0003e0 9f df 82 3d 35 51 3e 3d 52 32 9d 3d 66 fc 7e 3d
       0.063903086 0.046464164 0.076756135 0.062252425
0003f0 13 c6 9c 3c 1c 30 51 bd 32 80 e3 bc ed a2 88 3d
       0.019137418 -0.05107127 -0.02777109 0.066717006

gru1.weight_hh_l0 f4 [384, 128]
000000 a3 0b a4 bc 33 7a 85 3d db 48 25 3c 9f 3e 37 3d
       -0.02002508 0.06517448 0.010088171 0.044737455
000010 48 27 90 3d 17 73 30 3d ad 3c 0d 3d 90 dc 51 3c
       0.07038742 0.04307851 0.034481693 0.012808934
000020 79 52 94 3d 49 44 3b 3d 3c d8 a2 bd 88 cd 36 bd
       0.07242293 0.04571942 -0.079514 -0.044629604
000030 bc 83 56 3d b9 55 75 bd 3b d4 91 3d d3 26 b9 3d
       0.052371725 -0.059896205 0.07120558 0.09040608
000040 fb ff 85 3d 97 97 35 bd 85 ac 2d 3d c0 3c 3c 3d
       0.06542965 -0.04433402 0.042400856 0.045956373
000050 f9 61 c6 bc 69 7e 93 bd 19 0e fb 3a a3 8d a4 bd
       -0.024216639 -0.07201845 0.0019153982 -0.080348276
000060 8d 7c 5b bd b8 af 6d 3d 1b b3 6e bd d0 72 a6 bd
       -0.053585578 0.058028907 -0.058276277 -0.081273675
000070 45 33 60 3c 53 b5 8d bc 12 96 48 bd fc 6d bd bc
       0.013684099 -0.017298376 -0.048971243 -0.023123734
000080 01 79 c7 bb 73 25 ac 3d 62 92 23 3c aa d4 88 bd
       -0.006087423 0.0840558 0.009983631 -0.066811875
000090 2f c1 20 bd d6 65 5e bc 96 fd 96 3c f7 13 8c bc
       -0.039246734 -0.013574084 0.018431466 -0.017099364
0000a0 af 98 f6 bc d1 0e c2 bd e0 ff 4c 3d c9 b1 1c 3c
       -0.030102102 -0.09475482 0.05004871 0.009563872
0000b0 18 a5 15 bc 53 db 83 bd ae 67 73 3d fd ca aa bd
       -0.0091336 -0.06438317 0.05942505 -0.08339498
0000c0 47 fa 0b 3d 3f de 7d 3d 15 73 5a 3d 55 1a 48 3d
       0.03417423 0.06197953 0.053332407 0.048853237
0000d0 46 32 e1 bc 6b 40 76 bc 53 42 5a bd 0b 73 c2 3c
       -0.027489793 -0.015030007 -0.053285908 0.023736497
0000e0 3c ce 9e 3d 24 c0 91 3d f0 5f 38 bd b3 aa 68 3d
       0.0775418 0.07116726 -0.045013368 0.056803416
0000f0 5d 7e 5d 3d 7d d0 9a bd ef d7 6d 3d 2e db 7b 3c
       0.054075588 -0.07559297 0.05806726 0.015372081
000100 e1 0a df bc dc 29 8d bd 0e 42 a0 3d 8d ac 80 3d
       -0.027226867 -0.0689275 0.07825099 0.062829114
000110 6f eb 66 bd 0b 32 b3 bb c8 43 74 bc 08 cf b2 bd
       -0.05637687 -0.005468612 -0.014908738 -0.08730894
000120 02 6a 41 bd f3 0f 48 bd 07 1d a6 bb 08 66 86 bd
       -0.047220238 -0.048843335 -0.0050693783 -0.0656243
000130 ad 98 45 3c 57 3e 99 3d 48 cd 30 bd 5d 23 77 3d
       0.0120603265 0.074825935 -0.04316452 0.06033646
000140 80 38 9e bd ec 84 2d 3d a4 0e aa bd c9 07 b3 3d
       -0.0772562 0.042363092 -0.08303574 0.08741719
000150 3a 1e 69 bd de 86 06 bc 91 63 55 3d 01 96 f6 bb
       -0.056913592 -0.008210866 0.052096907 -0.007525206
000160 ca 9d 1b 3d e2 4a 27 3d ee 69 a5 3d 14 d1 a6 3d
       0.037992276 0.0408429 0.08076845 0.08145347
000170 1b 04 72 bd 40 29 e2 3c 33 86 9d bd 3f f5 6c 3b
       -0.059085947 0.02760756 -0.07691612 0.003615692
000180 7b 2b 19 bd 4f a9 33 bd 25 91 51 bd f9 5c 07 3c
       -0.03739498 -0.043862637 -0.05116381 0.0082619125
000190 f8 78 68 3d 08 b8 5c 3d 67 2d 49 bd a5 23 70 bd
       0.05675599 0.053886443 -0.049115565 -0.058627743
0001a0 5b c4 0f bd 97 15 84 bc 7e 20 7c 3d 68 e7 33 bd
       -0.03509937 -0.016123576 0.061554424 -0.043921858
0001b0 09 9a a9 3d a6 d3 8e bd d6 75 18 3d a7 48 8c bd
       0.08281333 -0.069739625 0.037221752 -0.06849795
0001c0 2e 66 56 3c 9d 73 78 bd 5b 09 bd bc 42 b8 a2 3d
       0.013085885 -0.060657132 -0.02307575 0.07945301
0001d0 8a b9 82 bc 87 b6 27 3d ba bd 00 bd 92 3d 4e bd
       -0.015957613 0.040945556 -0.031430937 -0.050351687
0001e0 1c e2 01 39 c5 24 84 3c be 95 43 3d a5 bb 33 3c
       0.00012386631 0.016130814 0.047750227 0.010970031
0001f0 63 7a 85 3c 06 88 d7 bb 07 42 70 bc 05 59 2f 3d
       0.01629371 -0.0065774946 -0.01466418 0.042809505
000200 d7 fa 20 3d bf d7 61 bd ff 75 05 bd 42 48 8f 3d
       0.03930172 -0.055137392 -0.032583233 0.06996204
000210 3e 7d 2f bd b7 02 b1 3d 4f 47 d2 bc 0a 90 9d bc
       -0.04284405 0.08643096 -0.025668768 -0.019233722
000220 d0 5a 23 3d 76 b3 9a 3d bf 21 98 bd fb 65 42 3b
       0.039881527 0.07553761 -0.074283116 0.0029662836
000230 b7 fa 97 bc cd bc db 3c fe e0 37 bc 4f 80 3e bd
       -0.018552167 0.026823426 -0.011223076 -0.046509083
000240 59 b6 5f bd ea 57 b1 3c 46 26 5c 3d 2e c1 02 bd
       -0.05461726 0.021648366 0.053747438 -0.03192251
000250 2d c8 f8 bc 81 01 f8 bc 72 7e 50 3d 9b dc 8e bc
       -0.030368889 -0.030274155 0.050901838 -0.017439177
000260 8d 8d 82 3d 0a 8d c7 bb 1a 66 94 bd 2d 65 a3 bd
       0.06374655 -0.006089811 -0.07246037 -0.07978282
000270 00 75 6e bd 30 c5 a2 3d 16 58 52 3d 12 ad 59 bd
       -0.05821705 0.07947767 0.051353537 -0.05314357
000280 53 06 80 bc 20 49 60 bd 6f b5 91 3d f1 a4 2b bd
       -0.015628016 -0.054757237 0.07114684 -0.041905347
000290 5b 0a 5b 3b ab a3 e4 3c c5 79 b2 bc a3 0d 9e 3d
       0.003342292 0.027910074 -0.02178658 0.07717445
0002a0 bf 6e 8d bd a4 45 2c bc f0 a1 96 bd 56 a6 58 bd
       -0.06905889 -0.0105146505 -0.07355106 -0.052893005
0002b0 b6 ad 80 bd 29 69 72 bd 14 56 94 bd 26 e1 8f bb
       -0.06283133 -0.05918232 -0.072429806 -0.0043908535
0002c0 7b 70 cd bc 07 97 b9 3d 37 a5 67 bc 3c 05 bd 3c
       -0.025078049 0.09062009 -0.014138511 0.023073785
0002d0 00 c1 ec 3c 6b 65 7c 3d c8 e8 11 3d 94 9b 5d bd
       0.028900623 0.061620157 0.035622388 -0.05410345
0002e0 de 3d 0f 3d d4 25 f1 bb 5f ca 46 3d 91 c3 0a 3d
       0.03497111 -0.007359246 0.04853284 0.033877913
0002f0 bd 6e 8c bd 2b dd d1 bb 88 a9 91 bd d1 84 88 bc
       -0.06857059 -0.006404539 -0.07112414 -0.016664894
000300 c3 b1 7f bd 9d ea f2 bb 0c 50 21 bd 7c bb 98 bd
       -0.062425386 -0.007413222 -0.03938298 -0.07457635
000310 dc 7b b3 bd 24 be 5c bd a1 ee d0 3c 40 20 31 bc
       -0.08763859 -0.05389227 0.025504412 -0.010810912
000320 73 10 d7 3c 22 e1 86 bd 31 7c 9a bc 02 d8 c0 bd
       0.02625296 -0.065859094 -0.018858047 -0.094162
000330 4e c8 8b bc c7 91 46 bc 41 9d 75 bd cb ad a5 bd
       -0.017063286 -0.012119717 -0.059964422 -0.08089789
000340 6d c3 8e 3d f2 55 8f 3d c0 9c dc 3a d5 f1 2d bc
       0.06970868 0.06998815 0.0016831383 -0.010616739
000350 a8 1a 0c bd 19 c8 47 3b 37 8d c7 bc 4b 98 94 bd
       -0.03420511 0.0030484258 -0.024359329 -0.0725561
000360 02 ff 35 bd b3 f1 87 bb 03 0b 8b 3c 10 7d 83 3d
       -0.044432648 -0.004148686 0.016973024 0.06420338
000370 c1 ab 66 3c 25 2e b0 3d 4e 33 03 3d b7 28 8a 3d
       0.014079035 0.08602551 0.03203135 0.06746047
000380 9c 14 8b 3d 36 6d ad 3d 24 c2 9b bb 9d 4d 67 bc
       0.0679104 0.08468096 -0.004753368 -0.014117626
000390 48 c8 48 ba 7f 7c 87 bd 09 ec f0 3a 9f 66 ae 3d
       -0.0007659239 -0.066155426 0.0018380891 0.08515667
0003a0 e4 f5 f0 3c 99 80 24 bd e5 dc d9 bb 7a 4a a0 3d
       0.029414125 -0.040161703 -0.006648647 0.07826705
0003b0 d6 31 25 3c 1f 10 a2 bd 3c 9f 77 3b a5 51 09 3d
       0.010082683 -0.07913231 0.003778412 0.033525128
0003c0 70 64 94 bd ea f3 83 3d 8c 94 80 3d fa a1 f1 bb
       -0.072457194 0.06443007 0.06278333 -0.0073740454
0003d0 cb 23 39 3d 35 f2 e7 bc ff a8 18 3c 87 91 ca bc
       0.04520015 -0.028313735 0.009317636 -0.024727596
0003e0 a3 7f 71 3d 86 e7 80 bc 6b df 85 3d 23 31 a5 bd
       0.058959614 -0.015735399 0.06536754 -0.08066013
0003f0 7a 35 c6 bc 3e 87 ad bd 4e af 4b 3d b6 de 5f bc
       -0.024195421 -0.08473061 0.04972773 -0.013663938

gru1.bias_ih_l0 f4 [384]
000000 b1 b1 b4 3d 7b 28 15 3b 2a 07 ab bc 1a 70 f1 3c
       0.088229544 0.0022759724 -0.02087744 0.0294724
000010 a5 43 95 bc e7 65 cb bc eb 0f 72 bc 5c f0 4f bd
       -0.018220732 -0.024828864 -0.014774303 -0.050766334
000020 8c 57 b8 bd 15 71 c4 bb c1 4a 8b 3d a8 14 1a 3d
       -0.09001073 -0.0059949257 0.068013676 0.037617356
000030 6a eb 06 bd c6 e1 03 3d 41 67 a0 bc ea 84 89 3c
       -0.032939352 0.032197736 -0.019580485 0.016787011
000040 6c 42 8d ba d3 9c 3f bc 93 10 3a 3d 49 0c 43 3d
       -0.0010777242 -0.011695105 0.045425963 0.047619138
000050 e5 5a e1 3c 6e ce 88 bc a1 cb a4 3d 53 70 7d bc
       0.027509162 -0.016699996 0.08046652 -0.015468675
000060 e7 1c 1f 3c 5a 79 96 bd ca 52 40 bc 97 47 f8 3a
       0.009711481 -0.07347365 -0.011738488 0.0018942234
000070 6d eb 5e 3c dd df 22 bc 12 12 3e 3c 4e b2 fa bc
       0.013605935 -0.0099410685 0.011600988 -0.0306026
000080 3b 77 27 bd 24 6b 46 bb d2 1d ff bc 71 51 54 3d
       -0.04088519 -0.0030276263 -0.03114215 0.05183548
000090 6e 1c 00 3d 37 0f bf 3d 5d 00 b2 bc 5f ac 8a 3a
       0.031277113 0.09329074 -0.021728689 0.0010579935
0000a0 c0 45 01 3d 50 ed 15 3d 28 ae 4c 3c 26 26 17 bd
       0.03156066 0.036603272 0.012492694 -0.036901616
0000b0 50 fa 02 3d 3d 6f a0 bd 13 74 9b 3b 83 5c cd 3c
       0.031976998 -0.07833717 0.0047440617 0.025068527
0000c0 23 b0 99 3c f8 89 14 3d 3b 4d 4d 3d b4 69 bc bc
       0.018760746 0.03626439 0.05012248 -0.022999622
0000d0 a5 f7 a1 3d 54 14 02 bd ca 0d 90 bc 59 b0 dc bc
       0.079085626 -0.031757668 -0.0175847 -0.026939558
0000e0 0c f1 67 3d 5a d2 7a bd de ca 4a 3d b9 05 39 3c
       0.056626365 -0.061235763 0.049509875 0.011292868
0000f0 58 d6 4e 3d f2 75 a8 bd 95 c4 2b bd 4b f8 33 3d
       0.050497383 -0.08225621 -0.041935522 0.043937963
000100 a0 51 a0 3c 6a 03 e3 3c 05 1f 04 bd 63 6d a9 bd
       0.019570172 0.027711589 -0.032256145 -0.08272817
000110 19 ca 90 3c 9a ea d6 bc ae a1 4f 3c 8d 1a 20 3c
       0.017674493 -0.026234914 0.012672825 0.009771955
000120 27 55 36 3d 1f c1 29 3d 55 8b 5a 3d 23 19 95 3d
       0.0445148 0.04144394 0.053355534 0.07280185
000130 5b 9c 03 bd d5 36 54 3d a0 a6 7f bc 6b 22 61 3d
       -0.032131534 0.051810104 -0.015603691 0.054964464
000140 d1 3c 6c bd df 32 15 bd f2 b9 9a 3b dd 0c 59 bd
       -0.057675187 -0.036425468 0.0047218734 -0.052990783
000150 44 37 d2 3c 16 0f a5 bd 69 a7 ca 3c 37 c4 39 bd
       0.025661118 -0.08059518 0.02473803 -0.04535314
000160 94 40 6e bd 2c 4a 1f 3d 6e 6d 73 bb 38 19 84 bd
       -0.058167055 0.038889095 -0.0037144083 -0.064501226
000170 f0 31 19 bd 48 fe 8b bc 46 c9 74 3d f6 33 a8 3d
       -0.03740114 -0.017089024 0.05976226 0.08213036
000180 a4 42 fb bc b0 20 85 bd 71 35 71 bd bb d1 c4 bc
       -0.030671425 -0.06500375 -0.058888856 -0.024025789
000190 eb 09 80 bd fb c5 0d bd 51 86 53 bd 58 62 cf 3c
       -0.06251892 -0.034612637 -0.051641766 0.025315449
0001a0 60 d1 30 3d 91 15 2a bd 12 12 9d 3d ab 66 65 3d
       0.043168426 -0.041524474 0.07669462 0.056006115
0001b0 0f 14 cf 3b b3 a6 7d bd b9 25 7b bd ff c1 28 bd
       0.00631953 -0.061926555 -0.061315272 -0.041200634
0001c0 ef b3 31 bc 9c 46 a0 3b 66 59 41 3d eb 8d 66 3a
       -0.010846122 0.00489123 0.047204398 0.0008794951
0001d0 7e e3 41 bd 4d a2 16 bd 5e e3 b1 3c d8 5b 4e 3d
       -0.047336094 -0.036775876 0.021714862 0.050380558
0001e0 6d 46 03 3d e1 71 5f 3d af 35 7a 3d 79 c5 13 bd
       0.032049585 0.054551963 0.061086353 -0.036076996
0001f0 9e f5 92 bd 67 da ab bd 04 f1 29 bc 2c a7 b1 bd
       -0.07175754 -0.08391266 -0.010372404 -0.08674464
000200 9a 59 a3 3d 4a 8d 3c 3c 9d 58 b3 bb 9e ca b8 3c
       0.079760745 0.011508295 -0.00547321 0.022557553
000210 ca 98 f6 3c 57 bc 1f bc 5a 3c a1 3d da 89 af bc
       0.030102152 -0.009749494 0.07872839 -0.021428037
000220 70 da 4d 3d af 11 8a 3d aa ac 3e 3d f4 4c 8b bd
       0.050257146 0.06741654 0.046551384 -0.06801787
000230 f3 ad 77 bd db a2 5e bc fd 3e 22 bd 8b 1d 1b 3d
       -0.060468625 -0.013588632 -0.03961085 0.03786997
000240 af 59 5a 3c db be b0 3d 5d 5f dd 3b b2 98 5a 3d
       0.013327046 0.08630153 0.006755753 0.053368278
000250 f2 b4 1a bd a5 c3 b7 bd 0a 4d 78 3d 97 4a d2 bc
       -0.03777022 -0.08972863 0.060620345 -0.025670333
000260 55 92 3b bd b2 ff 0a 3d 4a a5 60 3d 74 65 35 3d
       -0.04579385 0.033935256 0.054845132 0.044286206
000270 4e c1 96 bd 5b da 6f bd 5c ba 50 3c 09 78 24 3d
       -0.07361089 -0.05855785 0.012739744 0.040153537
000280 05 0f ea bc 0b ca 62 3d d0 16 99 bd 58 85 07 bc
       -0.028571615 0.055368464 -0.07475054 -0.008271538
000290 1a ab ba 3c 67 95 94 bd cf 19 0d 3c 14 04 50 bd
       0.022786666 -0.07255059 0.00861211 -0.05078514
0002a0 77 43 08 bd de 48 34 bc e6 6e 78 bc 31 3c 6e bc
       -0.033267464 -0.011003701 -0.015163159 -0.014540718
0002b0 93 72 69 bc a4 b8 6a 3c 24 ff 89 3d fe 3f c6 3c
       -0.014248508 0.014326248 0.06738117 0.024200436
0002c0 08 fe 51 3d b1 9f 16 3d 66 c7 c0 bc c0 d7 18 3d
       0.051267654 0.036773387 -0.02353258 0.03731513
0002d0 6f 78 25 bc bd a8 ec bc cc d6 89 3d c4 e9 1b 3c
       -0.010099514 -0.028889054 0.067304224 0.009516183
0002e0 74 fe 6d 3d 96 aa d4 3c b6 64 b8 3c d6 72 9a bd
       0.058103994 0.025960248 0.02250896 -0.075414345
0002f0 aa 8d ea bc 6f f1 c0 bc dc 39 5e 3c 76 8c 8e 3b
       -0.028632004 -0.023552625 0.013563599 0.0043502403
000300 0d dc 78 3d 05 9e ca 3b 82 92 42 bd 38 e5 9c 3d
       0.06075673 0.006183388 -0.047503002 0.076609075
000310 c1 b8 3b 3d a3 62 96 3d 80 c0 59 3d 1b af 43 bc
       0.045830492 0.07343032 0.053162098 -0.011943604
000320 0a 8c 21 bd 15 51 6f bd c3 26 17 bb 98 81 22 bd
       -0.039440192 -0.058426935 -0.0023063875 -0.03967437
000330 2e b8 0d bd 4f 1f 92 bd 17 ac 45 bd 9b 9b 5c 39
       -0.034599476 -0.07134878 -0.04825982 0.00021038803
000340 d6 d8 74 bb 59 46 2a 3d 14 c5 41 3d cb 75 2e 3d
       -0.003736069 0.041570995 0.04730709 0.042592805
000350 7b 43 fa bc 2a 33 d6 ba 06 ea c7 3d 0e 47 bc 3d
       -0.030549755 -0.0016342152 0.09761433 0.0919324
000360 b2 b0 95 bd fd d8 04 bd ae 80 07 3d f4 45 7c 3d
       -0.073090926 -0.0324335 0.033081703 0.06159015
000370 d4 39 c2 3c a6 4b 92 bd b1 6a 89 3d ec 50 1f bd
       0.023709215 -0.07143335 0.06709803 -0.038895532
000380 19 99 20 3d 3c eb f7 bc aa 82 4e 3d b7 a2 88 3d
       0.039208505 -0.030263536 0.05041758 0.066716604
000390 88 b2 96 bc 20 d4 a0 bd 5f 12 d7 bc f7 7b 02 3d
       -0.018395677 -0.0785296 -0.026253877 0.031856503
0003a0 7a 1f 87 3d 44 4a ab 3d ad fa e8 3b 5d 26 c7 3d
       0.065978006 0.083637744 0.007109961 0.09724114
0003b0 c2 bf 79 bc f9 23 17 3d f2 a9 f2 bc 97 f3 d5 bc
       -0.0152434725 0.03689954 -0.029622052 -0.02611713
0003c0 fb 40 12 bd da f7 08 bd 21 ac 04 bd 15 74 02 3c
       -0.0357065 -0.033439495 -0.032390717 0.007962246
0003d0 36 9a c7 bb dc 7c b6 bd b6 41 87 3c 0b ed c0 bd
       -0.0060913814 -0.08910534 0.016510826 -0.09420212
0003e0 69 15 ab bd 74 69 2b bb 6c ca 1a 3d 08 33 10 3b
       -0.08353693 -0.0026155384 0.0377907 0.0022003073
0003f0 22 65 f2 bd 61 fc dc bc 00 61 ab bc 3e b7 72 bd
       -0.11835696 -0.026975812 -0.020920277 -0.059256785

gru1.bias_hh_l0 f4 [384]
000000 6c 5f 89 3d 69 92 27 3d 85 31 6f bc 1b c5 02 3d
       0.067076534 0.040911112 -0.014599209 0.031926256
000010 2b 33 b8 bd 4a 21 9a 3c e6 02 63 bd a9 f1 1b bd
       -0.089941345 0.018814702 -0.055422686 -0.038072262
000020 60 ab 26 3d 6c 42 85 3d b8 ad aa bd 5d 61 b4 bc
       0.04069078 0.065068096 -0.083339155 -0.022019083
000030 74 66 81 3d 28 3b a6 bd c2 45 b8 3c 6c 7f 9d bd
       0.063183695 -0.08116752 0.0224942 -0.076903194
000040 7c 0b 54 bd ad 24 f7 bc 0f cd b4 bd 65 c4 98 bd
       -0.051768765 -0.030168856 -0.08828174 -0.07459334
000050 36 0d 09 bc 1f 9b a6 3d d1 82 98 3d 15 d0 45 3c
       -0.008364966 0.08135056 0.07446826 0.012073536
000060 87 6f 2b bc 37 0c 02 3d de b5 7f bd c9 28 85 bd
       -0.010463602 0.03174993 -0.0624293 -0.0650192
000070 57 a3 39 bd a8 d0 17 bd 52 7b c2 bc 77 ed 85 bd
       -0.04532179 -0.037064224 -0.023740444 -0.065394334
000080 6f 4e f0 3c 44 85 70 3d 1a 59 a1 bd 7c 14 8a bd
       0.029334275 0.058720842 -0.07878323 -0.06742188
000090 93 53 7a 3d 9b 7c d4 3c 2c f0 83 3d 3b ac a4 bd
       0.06111486 0.025938323 0.064422935 -0.08040663
0000a0 e6 47 2f 3b c0 dd a1 bd c5 ec 1e 3d a3 9f 7e bc
       0.0026745736 -0.079036236 0.03880002 -0.01554099
0000b0 a6 d6 a9 bd a2 4c b2 bc 68 d9 26 bc 51 ef 16 3b
       -0.08292894 -0.021765057 -0.01018367 0.0023030827
0000c0 17 1a 59 bc ea e4 94 bd 8c 15 92 bd b5 54 5a bd
       -0.013250849 -0.072702244 -0.07133016 -0.05330344
0000d0 db 32 ae bd 11 ed 99 bc 6c ce ad bd 82 5c 6e 3c
       -0.08505794 -0.0187898 -0.084866375 0.014548423
0000e0 ac 92 a7 3d 5b 39 7f 3d 9d b7 af 3c 05 44 0c bd
       0.08182272 0.062310558 0.021449858 -0.034244556
0000f0 ae b6 b5 3d ff d5 42 3d a9 8d 23 3d ad 4d 3f bd
       0.08872734 0.047567364 0.03993002 -0.046704937
000100 ad f8 35 bd 7a cb 8b 3c 46 67 bc bd 9d 2f 94 3d
       -0.04442661 0.017064799 -0.09199385 0.07235644
000110 3d 32 ac bc 14 bc 96 bb ba 59 aa 3d b1 40 a4 bd
       -0.02102005 -0.0046000574 0.08317895 -0.080201514
000120 a4 14 ad 3d 48 15 86 3d 99 7b bc bd a0 11 ab bc
       0.084512025 0.06547028 -0.09203262 -0.020882428
000130 0b 05 67 3c 2d de aa bd c6 3c 69 3c 87 4e 9d ba
       0.014100323 -0.08343158 0.014235681 -0.0012001552
000140 1d 18 96 bd 46 1e 80 3d 62 0b 94 3d 57 25 8e bd
       -0.07328818 0.06255774 0.072287336 -0.06940716
000150 06 94 87 3c 2e ec f1 3c 60 90 a4 3c 28 c5 69 bd
       0.016550075 0.029531565 0.020088375 -0.05707279
000160 36 be 93 bd e7 61 73 3d a0 42 7a 3d c5 7a e1 3c
       -0.07214014 0.05941954 0.061098695 0.027524361
000170 2a 73 66 3d ef 1f f7 3c a8 61 9b 3d 76 3c af bd
       0.056262173 0.030166594 0.07586986 -0.08556454
000180 b5 5a a2 3d 11 b4 96 3d cd eb 77 3d ee da b6 bc
       0.07927457 0.07358564 0.06052761 -0.02232119
000190 16 e8 74 bd 4f bc 95 bd b8 c6 0a bd 5b bd 86 3d
       -0.059791647 -0.07311308 -0.03388092 0.065790854
0001a0 ba a5 72 3d d6 9b a5 bc 44 7d 7c 3d 31 b3 87 bd
       0.05924008 -0.02021591 0.0616429 -0.06625975
0001b0 92 dc 8b 3d 80 02 a1 bd 51 50 64 3d 0b 6f 6a bd
       0.0682918 -0.07861805 0.05574066 -0.057234805
0001c0 48 e7 82 bd 5f b4 88 3d 6b 09 94 3d 01 2a 4c 3d
       -0.0639177 0.06675028 0.07228359 0.049844746
0001d0 7f e9 16 3c f6 9b b2 3c 42 fe e8 bc 51 50 dd 3b
       0.009210943 0.021802884 -0.028441552 0.006753959
0001e0 9c 24 26 3c 3f 84 8c 3d 19 4d 66 bd 07 79 93 bd
       0.010140564 0.068611614 -0.05622587 -0.072008185
0001f0 da 41 a7 bd bb 9b 8c 3d ef c5 a6 3d 61 37 a0 3d
       -0.08166857 0.06865641 0.081432216 0.07823063
000200 32 d0 91 bd 36 9a 3e bc 60 25 b7 3d fd 3d b0 3d
       -0.07119788 -0.011633446 0.089426756 0.08605573
000210 51 77 9a 3d d7 74 c5 bc 7e 4e 8f bd 3a 40 68 bd
       0.07542289 -0.024103565 -0.06997393 -0.056701876
000220 63 be d4 bc a1 81 60 bd 90 1d aa 3d ee 82 9c bd
       -0.02596969 -0.054811124 0.0830642 -0.0764216
000230 b0 69 20 bd 7f 32 65 bc 47 b3 85 3c 7e 10 97 bd
       -0.03916329 -0.01398909 0.016320838 -0.073761925
000240 bb f5 15 bd fe 80 a6 bc c6 c4 29 bd f1 8b b2 3b
       -0.0366113 -0.02032518 -0.041447423 0.005448811
000250 42 f5 89 bd f8 69 18 3d 12 fb 54 3a 42 b7 82 3d
       -0.06736232 0.037210435 0.00081245706 0.0638261
000260 64 ac c7 3d e6 f5 b9 3d 7a 50 49 bd 62 54 52 bc
       0.09749678 0.090801045 -0.049149014 -0.012837501
000270 c2 07 08 3b 5b 5e 6c 3c 0b 99 fc bc f3 74 92 bd
       0.0020756577 0.014426793 -0.030834695 -0.071512125
000280 bb 78 0b bd a5 ac 40 3d bc 41 8d 3a 9f 1e be 3c
       -0.034050684 0.047039647 0.0010777037 0.02320796
000290 00 f5 ba 3d 64 0d 81 bd d0 f5 52 3c fe 1c 9b 3d
       0.09128761 -0.06301382 0.012875989 0.07573889
0002a0 a1 f9 84 bb 81 82 1b bd 8c 44 b8 ba 9f 4d 75 bd
       -0.0040580784 -0.037966255 -0.0014058514 -0.05988848
0002b0 4f 61 e6 3b 84 1e ba 3d 82 22 17 bd c4 4d 65 bd
       0.007030643 0.09087852 -0.036898144 -0.055982366
0002c0 f0 af 06 bd d0 2e 14 3c ee 6a a2 bd 5c ae ca 3c
       -0.03288263 0.009044364 -0.079305515 0.024741344
0002d0 7d 78 95 bb 07 89 c4 3c ca b5 af 3d 29 99 39 3d
       -0.0045614825 0.023991121 0.085795954 0.04531208
0002e0 33 e5 75 bd 1f 82 9f bd 28 b3 93 3c 56 4b c4 3c
       -0.060033035 -0.077884905 0.018029764 0.023961704
0002f0 64 4e a1 3d 6f ec bc bd 52 dc bb bc ad 16 71 bd
       0.0787628 -0.09224784 -0.022932205 -0.058859516
000300 06 02 93 3d 99 b6 8f bc ca 8c 25 3d e6 08 b4 3d
       0.0717812 -0.017543124 0.04041747 0.0879076
000310 4f 2b 86 3c 6b 32 03 bb 8c 1d 1e bd dc 3a e3 bc
       0.016378073 -0.0020019065 -0.038602397 -0.027738027
000320 84 56 c1 bb 41 cb b4 bb f4 39 08 3c 8e 65 11 3d
       -0.005900206 -0.005517394 0.008314598 0.03549724
000330 80 89 a6 b6 35 50 ec 3c d6 4c a4 bd d7 a9 76 3d
       -4.9631926e-06 0.02884684 -0.08022468 0.060220566
000340 e3 b4 4b 3c 95 8e bf 3c a4 14 99 39 a7 9f a4 3c
       0.0124332635 0.023383418 0.00029197813 0.02009566
000350 8b 74 d6 3c c9 5a 0e 3d d2 8f 16 3d 5d b5 02 bc
       0.026178619 0.03475455 0.03675825 -0.007977811
000360 bd 84 72 bd 14 3c 6f 3d b0 31 cb 3c 60 b9 21 3d
       -0.05920862 0.058406904 0.024803966 0.039483428
000370 1b d0 4e bd 63 ab ba 3c 86 06 ff bc ba 77 67 3d
       -0.050491434 0.022786802 -0.03113104 0.056510665
000380 71 c4 8e 3d 97 77 73 3b b9 e2 5e 3c 3e cc 5f bd
       0.06971062 0.0037150139 0.01360386 -0.05463814
000390 89 77 4e bd c7 e9 93 bd 99 c7 b0 bd 7d 53 8d bc
       -0.050406966 -0.07222324 -0.0863182 -0.017251724
0003a0 ca 3f a8 3d f8 06 63 3d e5 5f 3b 3d 74 e3 ff 3c
       0.08215292 0.055426568 0.04574575 0.031236388
0003b0 06 db 97 3c 81 8a 8a 3d 2e 96 04 bd e9 b9 86 3d
       0.018537056 0.06764699 -0.032369785 0.06578428
0003c0 5b d7 f3 3c c9 67 93 3d 05 94 d7 3c d5 da cc bd
       0.029765775 0.0719753 0.026315698 -0.100026764
0003d0 ba a7 97 bc c5 2a 5d bd 8e 90 4f bd a2 95 93 3c
       -0.018512595 -0.053995866 -0.050674967 0.018015686
0003e0 03 f9 64 bc e1 65 b3 ba 8c 5c 16 bd e0 2f 86 3c
       -0.013975385 -0.0013686978 -0.036709353 0.01638025
0003f0 5c a9 8e bc b1 57 43 bb c4 dc 30 bb a7 6c 8a bd
       -0.017414741 -0.0029806907 -0.0026987055 -0.06759005

gru1.weight_ih_l0_reverse f4 [384, 6]
000000 87 3b 58 bd b3 11 e8 bc 4c c9 4e bd 40 e0 93 3d
       -0.052791145 -0.028328752 -0.05048494 0.07220507
000010 59 a7 3e bd 1a 69 17 3d ce 63 44 3c bb c4 db 3c
       -0.046546314 0.036965467 0.011986686 0.026827207
000020 31 1c 81 bd d9 3c a9 bc 5f 7b 84 bd 08 05 b2 bc
       -0.06304205 -0.020658897 -0.06468844 -0.021730915
000030 32 90 c0 3a 87 d1 9b bd 0e 4f b2 bd 7b 69 93 3d
       0.0014691411 -0.076083235 -0.08706485 0.07197853
000040 31 3e 75 bd 1b 05 9d bd f9 d6 47 bd f6 e4 64 bd
       -0.059873763 -0.076669894 -0.048789 -0.055882417
000050 aa 51 12 3d 5f de 07 bd 0a 69 ba bd f9 07 b5 3d
       0.035722412 -0.033171054 -0.09102066 0.08839411
000060 68 52 f0 3c 42 c3 81 bd 31 26 1b 3d 76 b5 a8 3d
       0.02933617 -0.063360706 0.03787822 0.08237736
000070 73 cd 03 bd 9b ab 31 bc aa 41 a5 3d a1 71 38 bd
       -0.032178354 -0.010844137 0.08069165 -0.04503024
000080 45 d5 c6 bb 08 2e 41 bd 9f 57 57 3d a4 f7 2a bd
       -0.006067904 -0.04716304 0.052573796 -0.041740075
000090 69 da 03 3c db f3 8c 3c 53 02 85 3d 95 f4 51 bd
       0.0080476785 0.017206123 0.06494584 -0.051258642
0000a0 cc 06 58 3d fa 82 95 3c 8c b6 51 bd 1d 44 58 bd
       0.052740857 0.018250931 -0.05119948 -0.052799333
0000b0 3e cf ba 3d d0 fb a5 3d e1 8f 4a bc d2 5a 21 3d
       0.091215596 0.0810467 -0.012363405 0.039393254
0000c0 c7 11 98 bc a8 b0 8f 3d d4 2c d4 bb 01 03 8d 3d
       -0.018563164 0.070161164 -0.0064750705 0.068853386
0000d0 85 59 aa bd 3b a6 c5 bd e5 cb bb ba 4e 0b 07 3d
       -0.08317856 -0.096508466 -0.0014327733 0.032969765
0000e0 5e c8 bb bb e9 46 88 bc 85 3f 4c bd 84 e1 f5 bc
       -0.0057306727 -0.016635375 -0.049865264 -0.03001476
0000f0 c5 90 4d bd bf 28 36 3d 0b f8 21 bc 88 8a 5a bd
       -0.05018689 0.044472452 -0.009885798 -0.05335477
000100 82 57 ab 3c 8e d9 7d 3c 84 6d 08 3d 70 6d 94 bd
       0.02091575 0.015493764 0.033307567 -0.07247436
000110 d7 a6 47 3c d8 ae 9f 3d 26 99 81 bc 56 65 cb 3c
       0.012185774 0.07797021 -0.015820097 0.024828594
000120 6d 4a 0c bd 87 9c 33 bd da b3 19 bd 18 df 85 bc
       -0.034250665 -0.043850448 -0.037525035 -0.016341731
000130 53 c4 18 3d 81 c5 bf 3b 03 40 b8 bd 8f 3f 35 3d
       0.037296604 0.0058524017 -0.08996584 0.044250067
000140 6f 90 8c 3d 98 fe 85 3d e2 44 83 3c 94 69 90 3d
       0.06863486 0.065427005 0.016024057 0.070513874
000150 8b 61 8e 3c 0b 32 5e 3c d7 fc 9c 3d 44 15 90 3d
       0.017380496 0.013561736 0.07665413 0.07035306
000160 bf 78 7b bd c0 10 f9 3b 96 d6 74 bc e3 fd 91 bc
       -0.06139445 0.0076008737 -0.014943739 -0.017821258
000170 5b b4 f1 3c e0 4e 26 bb 7c 99 69 bd 43 f3 77 3d
       0.029504946 -0.0025376603 -0.05703114 0.060534727
000180 14 39 8a 3c e5 17 b9 3d 7f 1c a1 bc 2b 7a 85 bc
       0.01687292 0.09037761 -0.019666908 -0.016293606
000190 b8 4c 8e 3c cc 73 20 3d fd 9c 81 bc 2f 31 1a bd
       0.017370567 0.039172933 -0.015821928 -0.03764456
0001a0 c1 c9 be 3b 8a a1 a9 3d d4 48 60 3d 15 58 66 3d
       0.005822391 0.08282764 0.054756954 0.056236345
0001b0 8b 21 71 3d e1 06 4a bd d5 d9 e9 3c 1b f4 d5 bc
       0.05886988 -0.049322966 0.028546253 -0.026117375
0001c0 63 76 98 bd 63 cc 90 bc 90 b2 92 bc ae 03 1d bd
       -0.074444555 -0.017675584 -0.01790741 -0.038333587
0001d0 8f a9 49 3c 4f 58 ff bc b8 e1 96 3d 89 34 e5 bc
       0.012308492 -0.031170039 0.07367271 -0.027979152
0001e0 c4 8f 35 bd 5e ca 24 bd 55 32 9e 3d 4a ae d6 bb
       -0.04432656 -0.040232055 0.07724444 -0.0065515386
0001f0 38 ae 92 bd 06 1e 39 3d a9 20 b0 bb 1f 98 bd bc
       -0.07162136 0.04519465 -0.005374987 -0.023143826
000200 22 72 80 bc e2 12 c2 3c 59 73 b2 3c 24 67 9f 3d
       -0.015679423 0.023690645 0.021783518 0.077833444
000210 a9 f6 4c bc 07 72 86 bc 08 d6 b4 bc 22 97 57 3d
       -0.01250998 -0.016411794 -0.022074714 0.052634366
000220 7b 94 a7 3d bc 26 9c 3d 30 14 b2 3d fe e3 8b 3d
       0.08182617 0.076245755 0.08695257 0.068305954
000230 96 ba 09 3d 57 72 31 3d 93 47 90 3d f1 82 c5 3c
       0.033625208 0.043321934 0.07044902 0.02411029
000240 7c 5f 7b bd ca 03 15 3d 3b ee 90 3d 36 06 7f 3d
       -0.061370358 0.036380567 0.07076689 0.062261783
000250 0d 93 84 3d 6f 49 27 3d 21 41 23 bb e8 f2 1c bd
       0.0647336 0.040841516 -0.0024910646 -0.03831759
000260 5a 1b b7 3d b0 4b 92 3d e7 9d 7d 3b 9e 1b 15 bd
       0.08940764 0.071433425 0.0038698853 -0.03640329
000270 f3 95 11 bd 66 d4 25 bd df 22 c3 3a 15 98 0d 3d
       -0.035543393 -0.040485762 0.0014887712 0.034568865
000280 aa c6 1c bd e6 8e e8 bc 29 d0 f4 bc c9 44 1d 3c
       -0.0382754 -0.028388452 -0.029884415 0.009598919
000290 31 90 3f bc d9 01 02 3d 24 77 9a 3d 4c 2e 73 3d
       -0.011692093 0.031740043 0.075422555 0.059370324
0002a0 d2 64 b0 3d 90 42 2f bd 3d ab 8c bd a8 78 0b bd
       0.0861298 -0.04278809 -0.068685986 -0.034050614
0002b0 c6 f3 b6 bd ba 9b 9b 3d 66 3b ad bd 81 ef b2 3d
       -0.08933215 0.07598062 -0.08458595 0.08737088
0002c0 27 33 66 3c af 46 a3 bd 8e 02 9d bd 1e f2 9c bd
       0.014050282 -0.07972466 -0.07666503 -0.07663368
0002d0 fc 98 a3 bd 4f b6 f3 bc 3e b1 52 bd 3a c7 4c bd
       -0.07988164 -0.029750017 -0.051438563 -0.049994685
0002e0 6f 7d 7b 3d fe c2 9c bd a6 73 c3 3d 66 7b 87 bd
       0.06139892 -0.07654379 0.095435426 -0.06615333
0002f0 3c 86 33 bd 54 5b fb bc 94 9e c5 ba 3a bd 33 3d
       -0.043829188 -0.030683197 -0.0015077167 0.043881632
000300 44 03 65 3d c6 de f9 3b 06 01 83 3d 3b 22 27 3d
       0.055911317 0.0076254336 0.063966796 0.04080413
000310 ad 2e 49 3d e4 fc a8 3b 3d 42 99 bd a2 8d 98 3d
       0.04911678 0.0051571 -0.07483337 0.07448889
000320 7c 14 a5 39 d1 75 0d bd e1 2b cf bc 26 42 05 bd
       0.00031486514 -0.034536187 -0.025289478 -0.032533787
000330 0d 7e 03 bd 9a 61 66 3c 41 0f 0a bd 2f 5c 84 bd
       -0.032102633 0.014061356 -0.033705954 -0.06462895
000340 78 42 9e 3d f1 53 32 bc 44 23 6e bd ed 7c c4 bc
       0.07727522 -0.010884271 -0.0581391 -0.02398535
000350 f5 0c 2d 3d 26 f4 90 3d ae d6 a4 bd 59 c3 03 bd
       0.042248685 0.070778176 -0.080487594 -0.03216872
000360 f7 46 93 bc 42 b7 9c 3c 97 52 9c bc e4 07 9e b9
       -0.017978175 0.019130353 -0.01908235 -0.00030141987
000370 9e 04 05 3d cf f1 36 bd fa 7b 30 bd a3 69 10 3c
       0.032475106 -0.0446642 -0.043086983 0.008814248
000380 e1 1a ad 3c 5e 22 af 3d 5e 27 98 3c 61 af 99 bd
       0.02113098 0.08551477 0.01857346 -0.07504154
000390 c6 77 d0 bc 3a b9 82 3d 3d bd 5d 3d 24 d1 71 3d
       -0.025447737 0.063829854 0.05413555 0.059037343
0003a0 2e c5 96 bd cb 06 6a 3d 61 2c 0f bd c5 6e b5 bd
       -0.07361828 0.057135385 -0.034954432 -0.08859018
0003b0 8e cf 9c 3d 45 de 4b 3b 7a 48 0c 3d 55 15 64 bd
       0.076567754 0.0031107825 0.034248807 -0.055684406
0003c0 80 b6 86 bd 4d 00 aa 3d 7c de a1 b7 bd 1b 9e 3d
       -0.06577778 0.083008386 -1.9296298e-05 0.077201344
0003d0 87 be ad bd 62 3d e1 bb f4 02 7f bc 25 19 24 bd
       -0.08483606 -0.0068737725 -0.015564669 -0.040063042
0003e0 d2 29 8d 3d 03 4f ba 3d 3a b1 55 3d e3 25 35 3d
       0.06892742 0.090971015 0.05217097 0.044225585
0003f0 48 d1 d0 3c af 83 de bc 93 4e a4 3d 63 57 cc 3d
       0.025490418 -0.027162401 0.08022799 0.09977605

gru1.weight_hh_l0_reverse f4 [384, 128]
000000 03 20 96 bc 3f 55 d0 bc dc 01 07 bd 51 5b e6 bc
       -0.018325811 -0.025431274 -0.032960758 -0.028119715
000010 4f 62 8c 3d 24 31 0d 3c a6 85 98 bd 1b 13 4a 3d
       0.068546884 0.008617673 -0.074473664 0.049334627
000020 1a 57 86 3d 78 76 09 3c f4 6b 23 3c 46 7c 90 3d
       0.06559582 0.008390062 0.0099744685 0.07054953
000030 08 15 6d 3c ea 48 39 bd cb b6 1b 3d 3b cc 81 bb
       0.014470346 -0.045235552 0.03801612 -0.0039611137
000040 f8 17 3c bb 69 f8 fe 3c ad b1 9e bc a5 30 d7 3d
       -0.002870081 0.03112431 -0.019371832 0.10507325
000050 d3 33 d6 bc 68 68 6c 3d 63 0b f6 3c 66 f0 8f 3d
       -0.026147759 0.057716757 0.030034726 0.07028274
000060 e0 38 13 bc cd 7a 7f 3b e4 af d5 bc a3 fb 37 bd
       -0.008985728 0.0038983107 -0.026084848 -0.044917714
000070 b3 00 4d bd d8 f0 f3 bc 15 49 c7 3b db ff a9 bd
       -0.050049495 -0.02977793 0.00608171 -0.08300754
000080 8e 1b ce 3d 0d da 1e 3d b4 3c 5c bd e4 c0 4d 3d
       0.100638494 0.03878217 -0.05376883 0.050232783
000090 30 7b 80 bd 92 7e 33 bd 77 f7 b4 3d 86 62 a1 bc
       -0.06273496 -0.04382188 0.08836263 -0.0197003
0000a0 11 bb fc bc f5 f0 38 3c 91 e1 11 3d 52 5b a6 bd
       -0.030850919 0.011287917 0.035615508 -0.08122887
0000b0 88 4c e4 bb bd a7 a7 bb 56 40 2d bd bb 2f 30 3b
       -0.006967131 -0.0051164315 -0.042297684 0.0026883918
0000c0 79 05 b7 3d de e5 1f 3d 0a d6 09 bd 9a 04 83 bc
       0.08936591 0.039037578 -0.03365139 -0.015993405
0000d0 57 b7 8c bc bb 8c 16 3b 57 c1 24 3d 6c 84 1d 3c
       -0.017177267 0.0022972065 0.040223446 0.009614091
0000e0 ec dc 96 3d 53 c0 ba bd b9 4e 55 3c e3 4d 84 bd
       0.07366356 -0.09118714 0.013019257 -0.06460168
0000f0 15 bd a9 3d 13 e9 89 3d 34 f8 94 3d 07 f1 92 3d
       0.08288018 0.067339085 0.072739035 0.071748786
000100 a4 3f 1e bd 8e ea a4 3d 12 a9 f8 bc b0 01 9a bd
       -0.03863491 0.0805255 -0.030354057 -0.07519853
000110 2f aa 4e bd a7 14 af 3d a3 f9 95 3c 06 53 65 3d
       -0.05045527 0.08548861 0.018307513 0.05598738
000120 7d 27 b1 bc 59 71 17 3c 54 b7 36 bd f4 9d 84 bc
       -0.021625275 0.009243333 -0.04460843 -0.0161886
000130 d1 f1 25 3d 4b 4a 4e bd 19 b7 b5 bd 2d 8f 93 bc
       0.040513817 -0.05036382 -0.08872814 -0.018012607
000140 a1 3b ec bc fa ba 2f 3d 5e 26 8a 3a 5b db 4c bd
       -0.028837027 0.042902924 0.0010539999 -0.05001388
000150 63 af 22 bd c3 f7 51 bc 4a 6d 52 3d d8 0f 1f 3d
       -0.039718043 -0.012815419 0.051373757 0.03883347
000160 cc b7 5c 3d 82 11 b0 3c 44 18 98 3c ee a6 15 bd
       0.05388622 0.021492723 0.018566258 -0.03653615
000170 d4 d1 b7 3c c6 66 6e bc a7 a5 4f bd 7b b1 d6 3c
       0.022438921 -0.01455087 -0.050695088 0.026207676
000180 c5 f2 a1 bd d9 c9 15 bd ce 97 2e bd bb ef 64 bd
       -0.07907633 -0.03656945 -0.04262524 -0.055892687
000190 70 0c b5 bd 12 6c 61 bd 83 d7 58 3d b2 a4 6c bd
       -0.08840263 -0.055034705 0.052939903 -0.057774253
0001a0 bb a1 a5 bd 85 20 27 bc 27 d2 40 3d aa ca 12 3c
       -0.08087488 -0.010200624 0.047075417 0.008959452
0001b0 32 c3 49 3d 58 66 3d 3d 2b cc bd bc ef 7c 78 3d
       0.04925842 0.04624018 -0.023168644 0.06066602
0001c0 c3 8d b2 bd b1 85 83 3c 22 e0 47 3d 6b 04 8e 3c
       -0.08718445 0.01605496 0.048797734 0.017336091
0001d0 49 fb 91 3c 04 f6 83 3c 15 a8 4a bc 26 e0 02 bd
       0.017820017 0.01610852 -0.012369175 -0.031952046
0001e0 ee 67 58 bd 5e f1 53 3d e9 dc 94 3c 9a ba dc 3c
       -0.05283349 0.051743858 0.018171744 0.026944447
0001f0 e6 69 8e bc 40 74 a0 bb 09 b7 94 bc d3 13 06 3d
       -0.01738448 -0.0048966706 -0.018153684 0.03273375
000200 7d 81 25 bd 7c 8a 0c bd 78 04 5b bd c4 01 95 3d
       -0.040406693 -0.034311756 -0.05347106 0.072757274
000210 74 1c 1c bd 1b 44 57 3d e9 cb 88 bd ae e3 92 3d
       -0.038113073 0.052555185 -0.06679518 0.07172333
000220 45 2f be bd ee 40 23 3d 08 98 aa bd cb dc 7a 3d
       -0.0928636 0.039856844 -0.08329779 0.06124572
000230 35 e8 78 bc 50 61 5c 3d 51 45 56 3d 6c 94 a4 3d
       -0.015192081 0.053803742 0.0523122 0.08036122
000240 3b c6 04 3d 76 df 18 bd de 06 49 bd 99 8c a6 3d
       0.03241561 -0.037322484 -0.049078815 0.081322856
000250 65 70 a1 bd 7c 3a 1e 3c af 13 85 3d c7 df 30 3d
       -0.07882766 0.009657498 0.06497895 0.04318216
000260 92 54 3e bd fe 7b ac bd b4 98 cd 3c c0 e2 58 3d
       -0.04646737 -0.08422087 0.025097229 0.05295062
000270 a4 68 ee 3c a3 e9 ed bb c6 9f 31 3d b8 3f 9d 3d
       0.02910263 -0.0072605177 0.043365262 0.07678169
000280 07 50 8d bd fc 50 77 bd 23 9a 96 3d 1d 92 97 bd
       -0.0690003 -0.060379967 0.07353618 -0.07400916
000290 ad c0 96 3d 72 7f 67 bc 06 4e d3 3c 94 6d 03 3d
       0.07360969 -0.014129506 0.02579404 0.032086924
0002a0 30 cf 82 3c 81 34 43 3d 6f ac 00 bd 88 d7 1c 3b
       0.015967935 0.047657494 -0.031414445 0.0023932178
0002b0 52 7e 62 bd 29 8b 07 3d b8 05 2a 3d 16 44 9a 3d
       -0.05529625 0.033091698 0.04150936 0.075325176
0002c0 5d 7e 2b 3d b3 d4 10 bd 50 0e 60 3d 5d f1 71 39
       0.041868556 -0.035359096 0.05470115 0.00023073466
0002d0 a5 52 f5 3c d7 f9 5f bd 15 ed ad 3d e3 f2 cd bb
       0.029946635 -0.054681625 0.084924854 -0.006285058
0002e0 8f 3b 8f 3d ab 55 ad 3c 42 69 23 3d cf ac a1 bd
       0.06993782 0.021159014 0.039895304 -0.07894289
0002f0 f4 b1 1e bd 5c d8 95 3d 01 a2 8a 3d 4e 85 aa bd
       -0.038743928 0.07316658 0.06769181 -0.08326207
000300 99 9c 90 bd be 6a 8f bd 00 47 a9 bd 8e 64 43 bd
       -0.07061119 -0.07002781 -0.08265495 -0.04770332
000310 73 02 c3 3c c4 1f 28 bd 35 8d 98 3d ee 65 35 bc
       0.023804879 -0.04104592 0.07448808 -0.011071665
000320 5a 47 1f bc 38 6e 00 bd e7 56 55 3d 4f c3 0f bc
       -0.009721601 -0.031355113 0.05208483 -0.008774593
000330 d7 6a 48 bd 53 f7 46 bd 97 34 96 3c 19 22 a7 3d
       -0.048930015 -0.04857571 0.018335624 0.081608005
000340 dc 8e 86 3d 14 3c 52 bb da e5 09 bd 2c 90 b2 bb
       0.06570217 -0.0032079266 -0.03366647 -0.0054493155
000350 ba 1b 4c 3d 66 3e a4 bd 83 3c 60 3d f5 00 23 bb
       0.04983113 -0.08019714 0.05474521 -0.0024872397
000360 fa 48 35 bd d9 5e 1f 3d 12 a8 75 3c e2 74 8a 3d
       -0.04425905 0.038908813 0.014993684 0.06760575
000370 38 e4 11 bc d7 08 95 3d 57 5c 86 3c f6 09 cf ba
       -0.008904509 0.07277077 0.016401453 -0.0015795815
000380 f5 a5 ba bc b7 a6 0b 3d 9e 3d 17 bd d3 c6 4a 3d
       -0.022784213 0.03409454 -0.036923997 0.04950602
000390 a5 11 7f bc a6 96 52 bd 4e 6f 65 bd 60 a3 ab bd
       -0.015568172 -0.0514132 -0.05601435 -0.08380771
0003a0 bc 19 a5 bd 55 1a ab 3b e9 65 56 bd 62 4c a7 bb
       -0.08061549 0.005221645 -0.052343283 -0.005105541
0003b0 87 f6 07 bd 34 a3 6b bd 76 82 a1 3d 0f 98 5b 3d
       -0.03319409 -0.05752869 0.078862116 0.05361181
0003c0 31 58 93 3d 4a b1 9c bd c7 f3 a7 bc 0b ea c9 bc
       0.071945556 -0.07651003 -0.020501984 -0.024647733
0003d0 d1 c3 2d bd ac 9c 0a 3d d1 a9 22 3d ad 77 c5 bc
       -0.042423073 0.03384082 0.03971273 -0.024104917
0003e0 b5 e0 3a bd 3d 9f ba 3d ab 04 83 3d 9f 0f 8f bd
       -0.045624454 0.091124035 0.06397375 -0.06985401
0003f0 47 79 a4 bd 1f 24 01 3c e0 2e 8f bd 63 c4 ac ba
       -0.08030944 0.007882147 -0.069913626 -0.0013181086

gru1.bias_ih_l0_reverse f4 [384]
000000 d9 ca a9 39 f4 28 b8 3d b4 e9 4c 3d 7b a3 1d 3d
       0.00032385325 0.08992186 0.050027564 0.038485985
000010 a9 55 41 bd 3b 54 9e bd e0 65 34 bd 77 97 6b bc
       -0.047200833 -0.077309094 -0.044042468 -0.014379374
000020 21 b5 65 3a ed 4e 0c bd 90 2e b5 bd 07 0c f1 bc
       0.0008762647 -0.034254957 -0.08846772 -0.02942468
000030 71 e1 22 3d 99 bc f7 3c 13 66 6e bd f2 f4 82 bc
       0.03976578 0.030241298 -0.058202814 -0.01598594
000040 c5 b4 af bd 41 3a 9f bd 50 84 88 bd eb 00 41 bd
       -0.08579401 -0.07774783 -0.066658616 -0.047120016
000050 00 d7 b6 bd ec 49 b3 3d 03 09 5d bd 91 7b 81 bc
       -0.08927727 0.08754334 -0.053963672 -0.015805991
000060 0c 5f 6d bb 4f a3 17 bd 8e 6e 0c bd ef b2 87 bd
       -0.0036219982 -0.037020978 -0.03428512 -0.06625926
000070 7d fe a4 bd 3e 18 30 bc a5 ea fa bc fc cc d3 3c
       -0.08056352 -0.010747967 -0.030629465 0.02585458
000080 5c 3d 61 bc 9e 2b 5c bc 99 fd 7c bc b3 41 96 3d
       -0.013747539 -0.0134381335 -0.015441322 0.0733675
000090 ac c8 10 bd e1 d1 eb ba 5d 8e ce ba 55 c1 bb 38
       -0.035347626 -0.0017991626 -0.001575898 8.952866e-05
0000a0 67 f4 80 bc d1 85 b6 3c 3b fc b2 bd c8 28 1b bc
       -0.01574154 0.022280606 -0.087395154 -0.009470172
0000b0 02 49 98 3d 8a 84 15 3d f7 8f 89 3c 85 9b bf bc
       0.074358 0.036503352 0.01679228 -0.023389587
0000c0 1a a7 97 bd 01 b2 fd 3c 35 6a b3 3c f9 94 e6 bc
       -0.07404919 0.030968668 0.02190123 -0.028147208
0000d0 29 df 59 bc a7 1e 37 3d 1a 55 75 3d f1 0a 62 3d
       -0.013297834 0.044706967 0.059895612 0.055186216
0000e0 c2 e2 01 3d ce 4a 88 bc 87 a3 c1 3b 64 32 98 bd
       0.031710394 -0.016637232 0.0059093866 -0.07431486
0000f0 fc 96 83 3d fb 5f 10 3c f9 9d 86 bd c1 de 0e bd
       0.06425282 0.008811946 -0.065731 -0.034880403
000100 8c fb e0 3c 28 10 95 bd 12 80 30 3c 34 87 77 b8
       0.027463697 -0.07278472 0.010772722 -5.9015307e-05
000110 ec 54 5b bd ea 96 ae 3c cd 3a 54 3d 5f b6 6f bb
       -0.053547785 0.021312196 0.05181389 -0.0036577208
000120 30 ac 2f bd 53 8c 9b 3d df 51 e8 bc ef c0 b6 bd
       -0.04288882 0.07595124 -0.028359352 -0.08923518
000130 f1 b9 b9 bd 7d 65 f2 3c 00 fc 91 3d c4 8f 89 bc
       -0.09068669 0.029589409 0.07128143 -0.016792186
000140 61 a1 77 bd a3 f2 6d bd 5b 0d 76 bd 3c ae 96 bd
       -0.060456637 -0.058092725 -0.06007133 -0.07357451
000150 38 d2 e2 3c 5f db f2 bb 26 1c ab 3d 77 28 ad 3d
       0.02768813 -0.007411405 0.08354978 0.08454984
000160 4b 3b 26 bd d4 01 34 bd 63 70 48 bd aa 28 16 bc
       -0.04058389 -0.043947056 -0.048935305 -0.0091649685
000170 6f 0a a0 3d 66 d7 fc 3c 48 bb 9e bd 17 8f d5 bc
       0.0781449 0.030864429 -0.07750565 -0.026069207
000180 21 6e 59 3d 00 0b 9b 3d 51 5e 0f 3d ca 73 7d 3c
       0.053083543 0.075704575 0.035002057 0.015469501
000190 3b c8 98 bd 71 44 df 3c 9a 60 4d bd bd f3 d8 3b
       -0.07460066 0.027254315 -0.050140955 0.0066208527
0001a0 1a 9c 06 bd 02 43 21 3d d2 98 38 bd b2 f2 04 3c
       -0.032863714 0.039370544 -0.045067616 0.008114504
0001b0 e4 7e a7 3d 15 63 07 3d e4 b0 46 bd d8 93 15 3d
       0.08178499 0.033053476 -0.04850854 0.036517948
0001c0 9f 08 48 bd d2 a2 70 3d 3a 35 ad 3c 5f a6 eb 3c
       -0.048836347 0.058749028 0.021143544 0.028765855
0001d0 57 23 3e 3c c8 71 34 bb 20 e5 65 3d c8 7f 5d 3b
       0.011605105 -0.002753364 0.056126714 0.0033798087
0001e0 81 3f 9b bd 02 13 f6 3b 4c c8 41 3d 8f e7 6b 3d
       -0.07580472 0.00750959 0.04731016 0.05759388
0001f0 49 cb 29 bb bc c5 2f 3d 59 66 f5 3c c0 28 b4 bd
       -0.002590852 0.042913184 0.02995603 -0.08796835
000200 36 35 87 3d 1d 64 e6 bc 1b 9e 84 bd 10 cb a3 3d
       0.06601946 -0.02812391 -0.06475469 0.079977155
000210 2e 00 a5 bd e3 65 88 3d f1 0d 21 3d a1 36 64 bd
       -0.08056675 0.06660058 0.039319936 -0.05571616
000220 95 c2 99 3b 19 14 bf 3d 41 41 d9 3c 5f 7f 3e bd
       0.0046923854 0.09330005 0.026520373 -0.04650819
000230 a4 03 48 bb b0 ac 4d bd 09 fa 32 bd 14 58 4c bd
       -0.0030519748 -0.050213516 -0.043695483 -0.049888685
000240 77 cb 7e bd 17 23 1a bd 61 46 34 bd af 23 b5 bd
       -0.062205758 -0.03763112 -0.04401243 -0.08844697
000250 04 a7 4c bd 0a 68 e7 3b 2f 44 4b bd 8f c8 3b 3c
       -0.049963966 0.007061963 -0.04962557 0.011461391
000260 e6 5d d1 3c 28 ba 99 bd 53 b3 8d 3d 52 dc 7f 3d
       0.02555747 -0.075062096 0.06918969 0.062465973
000270 f9 0f 68 3c c8 b5 a4 bd b7 4e 14 bd b6 c4 7a bd
       0.014163964 -0.080424845 -0.03620788 -0.061222754
000280 d3 3f a6 3c 5b 75 69 3d fc 00 5e 3d 8c 73 bd 3c
       0.020294106 0.056996685 0.054200158 0.023126386
000290 ca e5 72 bd bb 43 ce bc 9f 26 6d bd ff 52 15 bd
       -0.059301175 -0.02517878 -0.05789816 -0.036456104
0002a0 5b 0d ab bb 61 70 58 3c 98 6b a1 bd 69 64 90 bd
       -0.005220098 0.013210387 -0.0788185 -0.07050402
0002b0 c6 e3 ca bc b6 1a cb 3c f4 7a 24 bd b7 d0 2a 3c
       -0.024766814 0.02479301 -0.04015632 0.010425738
0002c0 c8 0e c3 3b 44 5c ae 3a 9e 01 63 3d 3b 14 15 b8
       0.00595269 0.0013302644 0.055421464 -3.554321e-05
0002d0 ce 94 86 bd 10 0c 51 3c 50 e3 12 3d 0c c9 d1 bc
       -0.06571351 0.012759224 0.035861313 -0.025608562
0002e0 8c ea fe 3c 42 8c bf 3d 42 b7 b4 3c 8f 5c 77 3c
       0.0311177 0.09352924 0.02206004 0.015097751
0002f0 b5 76 a1 3c 59 71 57 3c a3 9d 09 3d 6e 0e 99 bd
       0.019709924 0.013149583 0.0335976 -0.07473455
000300 b1 af a6 3d 23 4a aa 3d 39 ef 6f bd 0e 7b 9b 38
       0.08138979 0.08314922 -0.05857775 7.413897e-05
000310 0b 98 8a 3d 87 07 a3 bd 1f 8b fe 3c 39 05 9c bd
       0.06767281 -0.0796042 0.031072197 -0.07618184
000320 e9 61 ac 3d 3b a7 c1 bd 8c 60 6c bc f3 e1 ea bb
       0.084171124 -0.09455725 -0.014427315 -0.0071680485
000330 1c 3b bc ba 26 ba 15 bd 4d a2 67 3d fa 93 b2 3d
       -0.0014360878 -0.036554478 0.056551266 0.087196305
000340 ca 92 29 3c ff 49 fb bc 94 54 27 bd 26 99 1e bd
       0.010349939 -0.030674933 -0.040852144 -0.038720272
000350 49 d7 d6 3c a3 67 61 bd f6 4c 6a bd f4 9e bb bc
       0.026225703 -0.055030476 -0.057202302 -0.022902943
000360 38 54 96 bc 8f 1f 5e 3c 1f 5a b8 bc e9 10 32 bd
       -0.018350706 0.013557329 -0.02250391 -0.043473158
000370 a3 31 13 bd 55 12 b5 bd 7c 5e 70 bd 40 8d a4 bd
       -0.03593601 -0.08841387 -0.058683857 -0.08034754
000380 da aa f3 bb bf 5c 68 bd ff 4f 7a bd cf 2a 95 3d
       -0.0074361386 -0.056729075 -0.061111446 0.07283556
000390 56 43 a0 bc a1 72 ab 3d 28 2c 3a bd 0c 44 14 3d
       -0.019563358 0.08371473 -0.045452267 0.036197707
0003a0 22 c9 1e 3d f9 60 d8 3c 04 1a 32 bd 82 89 74 39
       0.038766034 0.026413428 -0.04348184 0.00023320879
0003b0 e0 51 fc bc 14 b5 a3 bd 67 c0 2d bb fc d4 81 3d
       -0.03080076 -0.07993522 -0.0026512386 0.06339452
0003c0 49 49 8f 3d 70 3e aa bd 26 17 a7 bc bb fa 0f bd
       0.069964 -0.0831269 -0.02039678 -0.035151225
0003d0 56 12 5b 3d 8b f6 1e bc 43 00 0a bc 20 47 26 bd
       0.053484283 -0.009702335 -0.008422914 -0.040595174
0003e0 be 91 05 3d e9 3d 3a 3c 6a 7f c3 bd 70 fe a3 3d
       0.032609694 0.0113673 -0.09545787 0.080075145
0003f0 9a db 9a bd 53 21 3a 3d 9a 4a 46 bd bd 7e 25 bd
       -0.07561417 0.045441937 -0.04841099 -0.04040407
