results/models/Nikkei225_GRU_model.pth (torch, 683295 bytes, 19 tensors)

gru1.weight_ih_l0 f4 [384, 6]
-0.051262032 0.060635548 -0.004890154 0.04432465 -0.0010004243 -0.0039867084 -0.024417413 -0.057108823
-0.047653377 0.07704641 -0.060645837 0.0091364 0.041843932 0.0805869 0.07944966 0.011896327
-0.02379314 0.0738829 0.025523791 -0.044392444 0.044667695 -0.012205013 0.046044897 0.03832832
0.002157636 0.024112659 -0.061894562 -0.08607422 0.049775895 -0.0049582315 -0.020043619 -0.030442705
-0.084151484 0.049030557 -0.045440495 -0.0887275 0.029153274 -0.008852798 -0.08008287 -0.04682034
-0.054088414 -0.0003823146 -0.021505928 0.052936956 -0.024976725 -0.0010655839 -0.0451986 0.07443396
-0.019004252 -0.050565545 0.022753999 -0.028511131 0.043900408 0.050902344 0.060698908 -0.028607734
0.007415614 0.03598403 0.06198039 -0.076625384 0.059156157 -0.025009084 0.011099657 0.017068963
0.04802995 0.051459204 -0.06383115 0.014098687 -0.060200293 0.06252167 0.08078178 0.031410404
0.0038639216 0.024847709 0.00033623492 -0.03560851 0.03681093 -0.07324545 0.07014679 -0.06583862
-0.0859151 0.04457012 0.03341274 0.040098734 0.06771384 -0.03891409 0.02241019 -2.291309e-05
0.036882184 0.041373137 -0.059303902 0.050755676 0.046801932 -0.07799256 0.06568506 -0.0121605825
0.06665756 0.023897285 -0.017408334 -0.052178852 -0.023068614 0.03049459 0.082519084 -0.0850872
0.0029848334 -0.038110998 0.08983534 -0.00094190985 0.06292754 0.07283173 0.002554841 0.061593756
0.017872361 -0.00745583 -0.009325858 -0.07912867 0.06611095 0.02242491 0.0289043 0.06634126
-0.05918301 0.070157774 0.047046047 -0.053694934 0.0716318 -0.07490888 0.016839817 0.083846554
0.08076278 0.044869896 -0.012590929 0.06369124 -0.06934924 -0.012279192 -0.04696332 -0.07409446
0.042785645 -0.05255011 0.050543077 -0.08143943 0.07315308 0.08323193 -0.08427473 -0.013294137
-0.059838507 -0.06126152 -0.03784381 0.057150878 -0.045403056 0.082855165 0.08025696 0.061373048
0.08687669 -0.03689721 0.026803618 0.019931799 -0.08517573 0.030241532 -0.028688392 0.029812152
0.034413464 0.084682755 0.037807133 0.04108291 -0.005140914 0.061750256 -0.07956427 0.025403047
0.054610044 -0.039430607 0.016786069 0.056006175 -0.07724841 -0.06992535 -0.042387247 -0.0023245912
0.02934247 0.009335096 0.03751371 -0.05744728 0.07221521 0.051853318 0.063127525 -0.08206739
-0.067997865 0.009690691 -0.0399011 0.014331389 -0.025213908 0.07676742 0.02935091 -0.01083748
-0.018317487 -0.07096428 0.049393144 0.02262377 0.07626883 0.024164038 -0.009476692 -0.07491581
0.046486884 -0.025204046 -0.054009333 0.06963917 0.0801023 -0.008739475 0.026476273 -0.0042913766
-0.051695075 0.025941426 0.06381617 0.040032238 0.07987463 0.013285844 0.046238948 -0.00021037216
0.00079299475 -0.024706185 0.036061626 0.03534264 0.0002793786 0.06514045 -0.00710122 -0.0061345263
-0.04339948 -0.010233187 0.023360401 0.069238506 0.08558685 -0.07988011 -0.05697504 -0.026657829
-0.006681728 0.07350385 0.076232 -0.04666112 0.079832055 -0.02126442 0.047670472 -0.056791767
-0.07684321 -0.015573423 0.0025600423 -0.060503528 -0.05253797 0.04842852 -0.04037786 0.061406158
0.06704071 0.03257428 -0.03706255 -0.053149626 0.09607123 0.09070937 -0.0022149782 0.040497992
00000000: 23f8 51bd fb5c 783d 963d a0bb c48d 353d
00000010: ab20 83ba efa2 82bb 0707 c8bc f1ea 69bd
00000020: 3030 43bd 82ca 9d3d c567 78bd d7b0 153c
00000030: 8b64 2b3d bf0a a53d 81b6 a23d d0e8 423c
00000040: d5e9 c2bc eb4f 973d 4517 d13c dad4 35bd
00000050: 79f5 363d 89f7 47bc 9399 3c3d 28fe 1c3d
00000060: 2067 0d3b e987 c53c 2785 7dbd ae47 b0bd
00000070: cfe1 4b3d a978 a2bb 8432 a4bc fb62 f9bc
00000080: 9d57 acbd 44d4 483d d01f 3abd c3b6 b5bd
00000090: d9d2 ee3c 530b 11bc 7d02 a4bd afc6 3fbd
000000a0: d08b 5dbd 6671 c8b9 332d b0bc 6cd4 583d
000000b0: fd9b ccbc 10ab 8bba 2b22 39bd d570 983d
000000c0: ceae 9bbc d11d 4fbd 9866 ba3c 2d90 e9bc
000000d0: ead0 333d fa7e 503d 6b9f 783d c45a eabc
000000e0: aefe f23b fe63 133d 26df 7d3d c5ed 9cbd
000000f0: ba4d 723d dadf ccbc 56db 353c 36d4 8b3c
00000100: 0ebb 443d e3c6 523d e8b9 82bd 2efe 663c
00000110: 9594 76bd 5c0b 803d eb70 a53d 32a8 003d
00000120: d939 7d3b 6c8d cb3c b048 b039 3bda 11bd
00000130: 0fc7 163d b601 96bd 1fa9 8f3d 66d6 86bd
00000140: 42f4 afbd 288f 363d ccdb 083d 923e 243d
00000150: 8ead 8a3d 6164 1fbd 9395 b73c 7c35 c0b7
00000160: c611 173d e176 293d a6e8 72bd 2fe5 4f3d
00000170: 62b3 3f3d 90ba 9fbd e485 863d 2e3d 47bc
00000180: c283 883d 3dc4 c33c ec9b 8ebc 7eb9 55bd
00000190: 64fa bcbc cacf f93c c4ff a83d 3342 aebd
000001a0: 329d 433b 471a 1cbd 97fb b73d 80ea 76ba
000001b0: 27e0 803d cd28 953d 1f6f 273b bc49 7c3d
000001c0: 0f69 923c 0950 f4bb 7ccb 18bc 360e a2bd
000001d0: 2e65 873d 72b4 b73c b6c8 ec3c eddd 873d
000001e0: e269 72bd e1ae 8f3d 5bb3 403d 38ef 5bbd
000001f0: b1b3 923d d469 99bd a8f3 893c beb7 ab3d
00000200: f566 a53d 7fc9 373d 2f4a 4ebc 8e70 823d
00000210: f906 8ebd aa2e 49bc 9c5c 40bd d6be 97bd
00000220: 0040 2f3d c93e 57bd 4206 4f3d b7c9 a6bd
00000230: 48d1 953d 8175 aa3d 3b98 acbd a7cf 59bc
00000240: 3919 75bd 5ced 7abd 1c02 1bbd 0a17 6a3d
00000250: 8ef8 39bd f8af a93d c35d a43d 4e62 7b3d
00000260: 68ec b13d 8721 17bd 4393 db3c 0348 a33c
00000270: 9d70 aebd 17bd f73c eb03 ebbc 9d38 f43c
00000280: 22f5 0c3d 276e ad3d a7db 1a3d 8e46 283d
00000290: 1d75 a8bb d6ed 7c3d 98f2 a2bd 0d1a d03c
000002a0: c8ae 5f3d fd81 21bd f082 893c bb66 653d
000002b0: 6a34 9ebd 0635 8fbd 409e 2dbd 2b58 18bb
000002c0: 9f5f f03c 3bf2 183c faa7 193d d74d 6bbd
000002d0: 91e5 933d 2564 543d 0149 813d f312 a8bd
000002e0: 7742 8bbd b4c5 1e3c 566f 23bd 34ce 6a3c
000002f0: 668d cebc 3d38 9d3d 5271 f03c b08f 31bc
00000300: 8e0e 96bc b855 91bd 7750 4a3d 7c55 b93c
00000310: d532 9c3d a9f3 c53c 2144 1bbc 766d 99bd
00000320: 0869 3e3d b778 cebc e438 5dbd fb9e 8e3d
00000330: ad0c a43d 0430 0fbc c5e4 d83c ad9e 8cbb
00000340: 37be 53bd 1d83 d43c 0db2 823d d8f8 233d
00000350: 4f95 a33d deac 593c 0d65 3d3d 5997 5cb9
00000360: fae0 4f3a a064 cabc 5bb5 133d 72c3 103d
00000370: 9079 9239 5b68 853d 5ab1 e8bb 2304 c9bb
00000380: a7c3 31bd 19a9 27bc 505e bf3c ebcc 8d3d
00000390: 2948 af3d 2f98 a3bd a95e 69bd 8561 dabc
000003a0: 66f2 dabb 3089 963d 861f 9c3d bb1f 3fbd
000003b0: fd7e a33d b932 aebc 1d42 433d 7c9e 68bd
000003c0: f95f 9dbd ac27 7fbc 62c6 273b 8cd2 77bd
000003d0: 0e32 57bd fc5c 463d 4163 25bd 0685 7b3d
000003e0: a44c 893d 9c6c 053d e7ce 17bd 6cb3 59bd
000003f0: fec0 c43d d6c5 b93d 2b29 11bb 39e1 253d

gru1.weight_hh_l0 f4 [384, 128]
-0.08093587 0.06582754 -0.033481073 0.03659484 -0.052101728 -0.07767657 -0.04427668 0.036236376
0.055196267 -0.0466216 0.011149072 0.037179098 -0.030621279 -0.041285764 0.07603891 -0.037175275
0.077321455 0.008723473 0.029226957 -0.06917682 -0.07527586 -0.038885742 0.015516381 -0.08148017
-0.0007064414 0.023374442 -0.017621746 -0.049757153 0.0394504 0.031891353 -0.0011710512 0.013896307
0.026402917 -0.045019045 -0.048589636 -0.08604648 -0.058203995 -0.048843555 -0.047539506 -0.048012845
0.015280153 -0.014062283 -0.07172137 -0.04385673 -0.002950996 -0.0148581555 0.022150964 0.005842352
-0.079456076 0.040923756 -0.06868563 0.06700109 0.0060468945 -0.08054857 0.034309875 -0.0227609
0.009111552 -0.048565738 -0.085030094 -0.021424448 -0.048212733 0.05512841 -0.0155824125 -0.04242705
0.06770039 -0.086612135 0.0057665138 0.046566688 0.010959239 0.014086102 -0.028580755 -0.018776383
-0.039726384 -0.02443237 -0.036886476 -0.004971117 -0.062254034 0.09153715 0.042192668 -0.012302968
-0.036688067 0.024061508 -0.07694442 -0.040810052 0.041054618 -0.043786723 3.080403e-05 0.04052176
0.068916485 -0.037976157 0.027197922 -0.031111933 -0.02360404 0.06495184 -0.038593173 -0.020520179
0.056100897 -0.03745026 0.0019695305 0.08184727 0.015843056 0.02175701 0.018507348 0.07064026
0.08616185 -0.06003212 0.028107973 -0.05231042 -0.051563233 0.011886651 0.015496777 -0.04860806
0.06859012 0.013014275 -0.08062326 -0.01609528 0.08161398 -0.045428865 0.06499241 -0.04392465
0.041267235 0.031368338 0.03805355 0.03983836 0.012362147 0.062280107 -0.023333808 0.005395794
0.010563053 -0.079772465 0.0053589963 -0.038434494 0.04308871 -0.020562382 0.0855824 0.06055865
-0.048018243 -0.057544347 -0.0047327573 0.061353896 -0.012864654 0.05259242 -0.06935075 -0.066188335
0.05269444 0.03694414 -0.07069015 0.07118097 0.07841494 0.07604062 0.0035602953 -0.080270074
-0.03424042 0.059959147 -0.08392593 0.035373937 0.012408449 -0.034810234 0.02510806 0.023411537
0.057107404 0.08003615 -0.032985877 -0.031304874 0.023244686 -0.08255005 -0.05012491 0.053212777
0.045609947 -0.070257455 -0.04302603 0.052359186 0.08459454 -0.0542609 -0.037117325 0.0839639
0.021264056 0.04376649 0.014668417 0.011416942 -0.06602423 0.013408228 0.04299947 0.040293295
0.071876846 0.08572383 -0.03176681 -0.006765795 -0.033499967 0.05131756 -0.018285885 0.05518181
-0.04000448 -0.0068196235 -0.0027336548 0.09333598 -0.021084707 -0.049055383 0.016432973 0.010920098
-0.009777365 -0.007545334 0.07870889 0.07565815 -0.07197378 0.025539942 -0.022873634 0.07793594
-0.029577177 0.05525859 0.058832202 0.07222497 0.07389914 -0.018208738 -0.033379193 0.034175266
0.09056752 -0.030594487 -0.053731106 -0.061292782 0.047404774 -0.021846032 0.06703184 -0.03463524
-0.01142981 0.0015317108 0.0693644 -0.08177354 -0.0803163 -0.043639474 -0.016690157 0.010438761
-0.01081002 -0.004603408 -0.0011536337 0.032046378 0.018458536 0.05752014 0.018245237 0.031338148
0.007101598 -0.07591868 -0.07034969 0.014642157 -0.08079652 -0.06030071 -0.088168174 -0.083569504
0.031977486 -0.024883337 -0.06336644 0.08054376 -0.0030224079 0.022502242 -0.06076946 0.07612923
00000000: b5c1 a5bd 97d0 863d 7323 09bd 79e4 153d
00000010: 9f68 55bd e514 9fbd 775b 35bd 986c 143d
00000020: 7b15 623d 4af6 3ebd 99aa 363c 1c49 183d
00000030: 7ad9 fabc 431b 29bd 4aba 9b3d 1a45 18bd
00000040: b65a 9e3d e6ec 0e3c 5f6d ef3c 94ac 8dbd
00000050: 3b2a 9abd a846 1fbd 6b38 7e3c 13df a6bd
00000060: 7b30 39ba c27b bf3c 7b5b 90bc 28ce 4bbd
00000070: be96 213d 82a0 023d f57d 99ba 56ad 633c
00000080: ee4a d83c e465 38bd ed05 47bd 2339 b0bd
00000090: 5067 6ebd 2e10 48bd c9b8 42bd 1ea9 44bd
000000a0: 9b59 7a3c 7d65 66bc a7e2 92bd 1da3 33bd
000000b0: 7f65 41bb 9f6f 73bc f075 b53c 3371 bf3b
000000c0: deb9 a2bd ab9f 273d 0dab 8cbd de37 893d
000000d0: 0725 c63b a6f6 a4bd 8388 0c3d 1175 babc
000000e0: 9e48 153c deec 46bd 4224 aebd 5382 afbc
000000f0: b77a 45bd 54ce 613d 604d 7fbc fdc7 2dbd
00000100: 81a6 8a3d b461 b1bd 06f5 bc3b b6bc 3e3d
00000110: 618e 333c 65c9 663c 3022 eabc eed0 99bc
00000120: 22b8 22bd 6526 c8bc 4616 17bd c0e4 a2bb
00000130: 16fe 7ebd d477 bb3d 38d2 2c3d 6392 49bc
00000140: 3a46 16bd a41c c53c 0995 9dbd 7128 27bd
00000150: e328 283d b559 33bd 9333 0138 25fa 253d
00000160: 1624 8d3d e38c 1bbd 2dce de3c 74de febc
00000170: 425d c1bc 7805 853d e013 1ebd ef19 a8bc
00000180: 0eca 653d 7265 19bd 3d13 013b 8b9f a73d
00000190: 4cc9 813c c23b b23c b99c 973c d7ab 903d
000001a0: a075 b03d 3ee4 75bd b142 e63c 7343 56bd
000001b0: f833 53bd 3ac0 423c 32e6 7d3c 3f19 47bd
000001c0: fa78 8c3d d339 553c cf1d a5bd 40da 83bc
000001d0: 3b25 a73d 9e13 3abd be1a 853d 55ea 33bd
000001e0: d507 293d 167c 003d 0ade 1b3d 8c2d 233d
000001f0: 9a8a 4a3c 6d19 7f3d 8b26 bfbc 33cf b03b
00000200: a810 2d3c bf5f a3bd 859a af3b 7d6d 1dbd
00000210: ca7d 303d 7172 a8bc d345 af3d 590c 783d
00000220: c7ae 44bd 9fb3 6bbd 3f15 9bbb 394e 7b3d
00000230: 45c6 52bc 266b 573d c407 8ebd c08d 87bd
00000240: 20d6 573d bd52 173d ffc5 90bd 54c7 913d
00000250: 0398 a03d 2fbb 9b3d d853 693b a364 a4bd
00000260: af3f 0cbd b997 753d 5ce1 abbd 43e4 103d
00000270: cf4c 4b3c 2d95 0ebd 6baf cd3c 8dc9 bf3c
00000280: 74e9 693d fee9 a33d 331c 07bd 8a39 00bd
00000290: a46b be3c 0010 a9bd c74f 4dbd a4f5 593d
000002a0: 7fd1 3a3d 24e3 8fbd 103c 30bd 9676 563d
000002b0: e73f ad3d ad40 5ebd 5608 18bd 44f5 ab3d
000002c0: f531 ae3c 7e44 333d cd53 703c 200e 3b3c
000002d0: b637 87bd 2fae 5b3c 3620 303d 950a 253d
000002e0: 2b34 933d fa8f af3d ea1d 02bd 9ab3 ddbb
000002f0: 4337 09bd 5d32 523d 48cc 95bc 5206 623d
00000300: bddb 23bd 2677 dfbb 1e27 33bb ef26 bf3d
00000310: d6b9 acbc 4cee 48bd 719e 863c 36ea 323c
00000320: 3e31 20bc d93e f7bb 2032 a13d a9f2 9a3d
00000330: fd66 93bd 2439 d13c 7d61 bbbc e19c 9f3d
00000340: d64b f2bc d556 623d 09fa 703d afea 933d
00000350: 6f58 973d 7e2a 95bc 9fb8 08bd 5dfb 0b3d
00000360: 777b b93d 4aa1 fabc 2615 5cbd 240e 7bbd
00000370: 822b 423d 73f6 b2bc fd47 893d aedd 0dbd
00000380: 1944 3bbc b0c3 c83a ec0e 8e3d e378 a7bd
00000390: df7c a4bd 4ebf 32bd ccb9 88bc 5607 2b3c
000003a0: 831c 31bc 2fd8 96bb 8635 97ba 1043 033d
000003b0: 5b36 973c 3d9a 6b3d 0977 953c 6e5c 003d
000003c0: 86b4 e83b 417b 9bbd 8013 90bd a8e5 6f3c
000003d0: a578 a5bd e1fd 76bd 8491 b4bd 7d26 abbd
000003e0: d3fa 023d 24d8 cbbc 44c6 81bd 20f4 a43d
000003f0: 9713 46bb 9f56 b83c 66e9 78bd a4e9 9b3d

gru1.bias_ih_l0 f4 [384]
0.03682266 -0.06431525 -0.043955702 0.04585007 -0.010915848 -0.009023185 0.047263414 0.04145877
0.06414065 -0.0072397 -0.06441715 0.016860893 -0.06934267 -0.065770395 -0.059559587 -0.06713565
0.007524227 -0.06645079 -0.073631436 0.028313408 0.003771949 0.045539066 0.061144575 -0.053756237
0.092024855 0.016147092 0.020021498 0.048462756 -0.022388939 0.005665075 -0.029154228 0.030411053
-0.06816683 0.07337911 0.0062983367 0.08751105 0.06906063 0.05498884 0.0079681305 0.044551656
-0.0522973 0.0135581065 0.059113454 -0.073191166 -0.021226907 0.036914367 -0.0032855556 -0.066722184
-0.017262472 0.016821414 0.0038563688 0.07512739 -0.049044997 -0.065307565 -0.038693015 0.04241651
0.067321576 -0.05923848 -0.029630702 -0.04716703 -0.053482328 -0.06109678 0.010324224 -0.058515936
0.08542832 -0.07797729 0.06109802 -0.030843357 0.0070071365 0.07559872 0.06582079 0.074815325
-0.044160053 0.05792453 0.029780492 0.051547322 -0.014097446 -0.07592177 0.076967195 -0.07415182
-0.016206454 -0.01917407 0.054989938 0.035695393 0.07295837 0.0071468493 0.019447573 0.05372204
0.011725304 0.031463422 -0.031281486 -0.019532703 0.08671931 -0.03228388 0.07281535 0.054131433
-0.07177794 -0.07916639 0.07871774 0.077568136 -0.02464678 -0.026062591 -0.02355734 -5.2591233e-05
-0.023883423 -0.07032418 0.03284237 -0.056493662 -0.036692813 -0.05450666 -0.03677137 0.052206386
0.053128477 0.06388157 0.08709523 0.08376667 -0.0014323567 -0.0059799366 0.085057184 -0.02302345
0.06207048 -0.09684033 0.0089129135 0.0010878546 0.034385256 0.024562 -0.067389034 -0.020198325
-0.042067587 -0.04757377 0.076703675 0.084486544 0.07634019 -0.06124038 0.034718655 0.03392249
-0.059524257 -0.061776735 0.0046855765 -0.09445906 -0.06279891 0.07086295 0.07068964 -0.05020314
0.08348018 -0.040833283 0.06929147 0.05395282 0.03068768 -0.026812496 0.022994172 0.07572316
-0.048702125 0.09463657 0.02203433 0.03653 0.039016634 0.030182218 0.006208272 0.0935904
-0.026387248 -0.037600312 -0.017164307 -0.07103935 -0.080059275 -0.06544444 -0.08181358 0.018049944
-0.021304926 -0.0032670507 0.027804047 0.0113421595 -0.04756403 0.019294553 0.040704135 -0.0044178916
-0.009695557 0.051874828 0.062127646 0.07844339 0.07794657 -0.015514604 -0.032496065 -0.044416893
-0.039060343 -0.06132198 0.0042471606 -0.0035703515 -0.031466767 0.0072303 0.003670328 0.002231063
0.08031052 0.047443468 -0.07370292 -0.0029524732 0.017830558 0.01880883 0.00482694 0.062373575
0.06542272 0.03807994 0.074812844 -0.07131799 -0.045063123 -0.019301783 0.07633432 0.06833093
0.02900853 0.05631584 0.06018692 0.009397088 -0.0048333188 0.05673979 0.01945747 -0.08461807
0.074587524 0.074839644 -0.045706067 0.033640485 -0.04233889 0.07995084 0.02757928 -0.019789176
0.04208671 -0.03529968 -0.04844809 0.07389499 -0.033049636 0.036420893 -0.057330336 0.05080553
-0.020088388 0.05007071 0.021185169 0.08579654 -0.012569526 0.057692282 0.08387135 -0.059459236
0.08045937 -0.007756821 -0.019147266 0.07246892 0.07230669 -0.0010551543 0.02286697 -0.005441319
0.04107455 -0.04962455 -0.06717205 -0.03158275 -0.059005387 -0.016458202 0.029147092 0.025335625
00000000: 5cd3 163d b7b7 83bd e50a 34bd 48cd 3b3d
00000010: 63d8 32bc fbd5 13bc 4897 413d acd0 293d
00000020: 2c5c 833d 013b edbb 24ed 83bd db1f 8a3c
00000030: 8803 8ebd a1b2 86bd c1f4 73bd 6a7e 89bd
00000040: ca8d f63b 5a17 88bd 14cc 96bd 85f1 e73c
00000050: ce32 773b 2c87 3a3d bc72 7a3d 802f 5cbd
00000060: 8777 bc3d e846 843c 2004 a43c e280 463d
00000070: 0269 b7bc 18a2 b93b d9d4 eebc 9a20 f93c
00000080: 0d9b 8bbd c947 963d 4762 ce3b fe38 b33d
00000090: a96f 8d3d fa3b 613d c38c 023c cc7b 363d
000000a0: b235 56bd d222 5e3c f320 723d 40e5 95bd
000000b0: 0de4 adbc 8533 173d 7a52 57bb a4a5 88bd
000000c0: 076a 8dbc 10cd 893c 22bb 7c3b 64dc 993d
000000d0: 68e3 48bd f9bf 85bd 917c 1ebd efbc 2d3d
000000e0: e5df 893d 0ca4 72bd 16bc f2bc 3732 41bd
000000f0: 4910 5bbd 9e40 7abd ef26 293c 68ae 6fbd
00000100: 0bf5 ae3d 8fb2 9fbd eb41 7a3d 35ab fcbc
00000110: 1f9c e53b 80d3 9a3d 0dcd 863d c738 993d
00000120: 2ce1 34bd 4642 6d3d 38f6 f33c 4923 533d
00000130: f9f8 66bc df7c 9bbd faa0 9d3d e9dc 97bd
00000140: 66c3 84bc f012 9dbc 213d 613d 5535 123d
00000150: 336b 953d 1e30 ea3b 8450 9f3c a40b 5c3d
00000160: 7d1b 403c cadf 003d 0421 00bd 0c03 a0bc
00000170: e599 b13d 1a3c 04bd 3720 953d ecb8 5d3d
00000180: 5000 93bd fd21 a2bd c436 a13d 0bdc 9e3d
00000190: 0be8 c9bc 3781 d5bc 53fb c0bc 6895 5cb8
000001a0: 2ba7 c3bc 2006 90bd b985 063d e665 67bd
000001b0: 344b 16bd 6042 5fbd 939d 16bd 5dd6 553d
000001c0: 3f9d 593d 57d4 823d fc5e b23d dc8d ab3d
000001d0: eabd bbba 58f3 c3bb 7632 ae3d ad9b bcbc
000001e0: 9e3d 7e3d 3954 c6bd 7807 123c 5896 8e3a
000001f0: 8ed7 0c3d 3f36 c93c 4303 8abd f576 a5bc
00000200: 104f 2cbd b7dc 42bd d116 9d3d 4807 ad3d
00000210: 3f58 9c3d 31d7 7abd 2635 0e3d 4ff2 0a3d
00000220: b5cf 73bd 9a09 7dbd 7789 993b c073 c1bd
00000230: b79c 80bd 9820 913d bbc5 903d cfa1 4dbd
00000240: a8f7 aa3d cd40 27bd b0e8 8d3d a2fd 5c3d
00000250: bb64 fb3c e1a5 dbbc 465e bc3c be14 9b3d
00000260: e17b 47bd d1d0 c13d 5781 b43c 7ba0 153d
00000270: e8cf 1f3d b340 f73c c36e cb3b 53ac bf3d
00000280: 122a d8bc c902 1abd 299c 8cbc 147d 91bd
00000290: 1ef6 a3bd bc07 86bd e18d a7bd 7add 933c
000002a0: ab87 aebc 041c 56bb 50c5 e33c 77d4 393c
000002b0: 80d2 42bd 9c0f 9e3c 61b9 263d f6c3 90bb
000002c0: 1dda 1ebc b37a 543d 8f79 7e3d eea6 a03d
000002d0: 74a2 9f3d f730 7ebc 981a 05bd 7dee 35bd
000002e0: bdfd 1fbd c22c 7bbd c42b 8b3b 8ffc 69bb
000002f0: 4ce3 00bd 27ec ec3b e389 703b 0737 123b
00000300: d879 a43d 1554 423d 8ef1 96bd 487e 41bb
00000310: 6411 923c fa14 9a3c 4f2b 9e3b 6f7b 7f3d
00000320: 59fc 853d b6f9 1b3d 7a37 993d 2b0f 92bd
00000330: 1c94 38bd c61e 9ebc 2b55 9c3d 16f1 8b3d
00000340: 4ca3 ed3c 70ab 663d 8f86 763d 3ef6 193c
00000350: d160 9ebb fb67 683d 4665 9f3c 3d4c adbd
00000360: 58c1 983d 8745 993d 4936 3bbd 9bca 093d
00000370: 8b6b 2dbd 44bd a33d f1ed e13c e91c a2bc
00000380: 1d63 2c3d 6696 10bd 8171 46bd 4256 973d
00000390: 0e5f 07bd 132e 153d 37d3 6abd 7619 503d
000003a0: 6790 a4bc f216 4d3d 858c ad3c 19b6 af3d
000003b0: 6af0 4dbc be4e 6c3d bec4 ab3d 878b 73bd
000003c0: e2c7 a43d ee2c febb bada 9cbc 966a 943d
000003d0: 8815 943d 1a4d 8aba 8353 bb3c 184d b2bb
000003e0: ca3d 283d 1d43 4bbd 8091 89bd ea5c 01bd
000003f0: a2af 71bd 5ad3 86bc e2c5 ee3c a88c cf3c

gru1.bias_hh_l0 f4 [384]
-0.06779173 -0.071202904 0.0012507222 -0.011477668 -0.009503129 -0.04771237 -0.012054888 -0.030821908
0.014838032 -0.074096024 0.017156258 0.08493005 -0.03658974 0.05983913 -0.07179693 0.022392884
-0.07925158 0.00048943795 0.052225184 -0.058913313 -0.023911601 -0.085572205 -0.075304426 0.017069293
0.056719057 -0.02639282 -0.028494623 -0.002444209 -0.072466195 -0.022852616 0.057425275 -0.0789667
-0.04744243 -0.033527546 0.019359196 0.059894044 -0.0029130178 0.004589596 -0.05887085 -0.035562456
0.00080426753 0.027182072 -0.05253427 -0.06469674 -0.06843504 -0.0065212464 -0.013075259 0.018052584
-0.08390289 -0.09164558 0.06266597 -0.0038891672 -0.012725387 -0.020688744 0.05587371 0.056777924
-0.08872967 -0.056808144 -0.016961781 -0.08745667 0.018721594 -0.02364168 0.066427484 0.058057606
0.017649261 -0.032103613 -0.011339289 0.061438624 -0.07355459 0.08038569 0.0016156486 0.07111374
-0.02407091 -0.047140565 0.001608552 -0.010281684 -0.06795013 -0.06015394 0.024054736 -0.08350182
-0.051622957 -0.06592042 0.05512998 -0.05825827 -0.011898812 -0.059689205 0.030479893 -0.04044385
5.145481e-05 0.028938407 -0.007453894 -0.047700018 0.04449366 0.043844104 0.06033471 -0.023846984
-0.0683834 0.00026502777 0.04561867 -0.08671545 0.06951182 0.0082624955 -0.081508406 0.012323033
0.03548944 -0.050800446 0.023507139 0.03735821 -0.056870237 -0.09383909 -0.032138493 0.0017172082
-0.0026707142 0.059880972 0.02757614 -0.0020403212 0.015619318 -0.06859113 0.03731239 0.0045679193
-0.07853194 0.008823778 -0.041410986 0.023424242 0.049066775 0.06656204 -0.04835935 0.08617578
0.05079101 -0.058519803 -0.016019793 0.079731256 0.02335266 -0.0025817566 -0.03330623 -0.08439897
-0.061663892 -0.041769482 -0.02478025 -0.00069812307 -0.008445698 0.05996247 0.05263439 -0.0072947675
-0.030282345 0.01140444 -0.004255169 -0.06188424 -0.09807219 0.046163402 0.00823147 7.631806e-05
-0.070148565 0.06532683 0.07577867 0.0643403 -0.020697873 0.0493534 -0.07247842 -0.05745411
-0.0555467 0.060810618 0.007345569 -0.04817731 0.09107621 0.032876402 -0.033048466 -0.007477743
0.06646578 -0.027266083 0.058374118 -0.053933796 0.07989071 0.013175827 0.06553055 0.013218789
0.066708766 0.100557685 -0.025844574 -0.019118017 -0.022275088 0.018816287 -0.0634389 -0.091193624
-0.014954906 0.07214295 0.031924624 0.050711706 0.010813391 -0.062061097 0.028768921 0.008407459
0.06934808 -0.044782665 -0.030381477 -0.08792179 -0.048724238 0.0867361 -0.013450009 0.053046614
0.043827288 0.037568603 -0.06350838 -0.015504806 0.042884704 -0.0061083282 -0.06642236 0.05181381
-0.07403827 0.07191672 -0.060477503 -0.004982373 -0.061858833 -0.060482975 -0.08478871 -0.0021450997
0.06436188 -0.039295755 -0.07505157 -0.05061687 -0.030927895 0.07197835 0.09067153 -0.07566725
0.05386357 -0.01564019 -0.060535576 -0.05907981 0.009971758 -0.0009591065 0.019059548 0.056122474
-0.03517324 -0.05620543 0.08973037 -0.08582699 0.05208351 -0.045516692 0.029908251 -0.01060173
-0.00550917 0.08239081 -0.0062746955 -0.07773161 -0.07441948 0.0033354545 0.06800459 -0.0047331788
0.0013794124 0.03537781 -0.010742849 0.0009234037 -0.01754878 -0.08628587 0.03424964 -0.07206993
00000000: 64d6 8abd d4d2 91bd 46ef a33a d40c 3cbc
00000010: 03b3 1bbc 0c6e 43bd dd81 45bc 3a7e fcbc
00000020: 381b 733c a8bf 97bd 488b 8c3c ceef ad3d
00000030: 20df 15bd e019 753d 450a 93bd 4871 b73c
00000040: a74e a2bd a04d 003a 13ea 553d 164f 71bd
00000050: 43e2 c3bc 7b40 afbd 3539 9abd e7d4 8b3c
00000060: 3e52 683d c135 d8bc 8e6d e9bc 062f 20bb
00000070: 2869 94bd 6935 bbbc c436 6b3d 4bb9 a1bd
00000080: fe52 42bd 2e54 09bd 2d97 9e3c 7553 753d
00000090: 54e8 3ebb 5264 963b 8f22 71bd f0a9 11bd
000000a0: 7bd5 523a f0ac de3c 2d2e 57bd b97f 84bd
000000b0: ac27 8cbd 2eb0 d5bb 9c39 56bc 03e3 933c
000000c0: 47d5 abbd aeb0 bbbd 0457 803d 66e1 7ebb
000000d0: 247e 50bc 717b a9bc d5db 643d f88f 683d
000000e0: e7b7 b5bd a8af 68bd 6ff3 8abc 7c1c b3bd
000000f0: 075e 993c 32ac c1bc 220b 883d d0cd 6d3d
00000100: 2f95 903c 147f 03bd 6dc8 39bc 11a7 7b3d
00000110: caa3 96bd 41a1 a43d 2cc4 d33a 15a4 913d
00000120: 5b30 c5bc 7716 41bd 0cd6 d23a 8274 28bc
00000130: 7029 8bbd fa63 76bd 700e c53c 0103 abbd
00000140: 9872 53bd 4901 87bd f9cf 613d 39a0 6ebd
00000150: 3cf3 42bc ab7c 74bd f8b0 f93c 73a8 25bd
00000160: 2ed1 5738 3d10 ed3c cb3f f4bb 1861 43bd
00000170: fc3e 363d e095 333d 8721 773d c05a c3bc
00000180: 990c 8cbd 6df3 8a39 a4da 3a3d df97 b1bd
00000190: 375c 8e3d 6b5f 073c e1ed a6bd 8ce6 493c
000001a0: 605d 113d 2114 50bd 0b92 c03c ec04 193d
000001b0: c4f0 68bd b52e c0bd a7a3 03bd f213 e13a
000001c0: 2607 2fbb c045 753d 5be7 e13c e9b6 05bb
000001d0: 2be8 7f3c 8279 8cbd e0d4 183d 7cae 953b
000001e0: 5bd5 a0bd 9b91 103c 919e 29bd 32e4 bf3c
000001f0: 3efa 483d ae51 883d 7414 46bd ed7c b03d
00000200: 3c0a 503d 76b2 6fbd f13b 83bc 244a a33d
00000210: 144e bf3c b032 29bb 1d6c 08bd 5ed9 acbd
00000220: 4793 7cbd 7a16 2bbd f3ff cabc 3f02 37ba
00000230: d35f 0abc 359b 753d 2897 573d f208 efbb
00000240: ae12 f8bc b0d9 3a3c f26e 8bbb 547a 7dbd
00000250: 13da c8bd d615 3d3d 4add 063c f20c a038
00000260: 0daa 8fbd 13ca 853d d931 9b3d d9c4 833d
00000270: 968e a9bc ca26 4a3d 916f 94bd 0055 6bbd
00000280: f084 63bd 8e14 793d 19b3 f03b 9255 45bd
00000290: 2a86 ba3d 68a9 063d d45d 07bd db07 f5bb
000002a0: 361f 883d 1f5d dfbc b319 6f3d afe9 5cbd
000002b0: be9d a33d 6ddf 573c e234 863d 9f93 583c
000002c0: 9b9e 883d 30f1 cd3d 00b8 d3bc 639d 9cbc
000002d0: 3f7a b6bc 9d24 9a3c 41ec 81bd b9c3 babd
000002e0: 6c05 75bc afbf 933d 65c3 023d 14b7 4f3d
000002f0: a62a 313c c733 7ebd cdac eb3c 70bf 093c
00000300: 5e06 8e3d 076e 37bd 93e2 f8bc 5710 b4bd
00000310: 1193 47bd b2a2 b13d 6d5d 5cbc 6847 593d
00000320: 3e84 333d 89e1 193d ae10 82bd df07 7ebc
00000330: dfa7 2f3d 5f28 c8bb 7208 88bd b83a 543d
00000340: 60a1 97bd 1349 933d 42b7 77bd 2d43 a3bb
00000350: b05f 7dbd ffbc 77bd b4a5 adbd cd94 0cbb
00000360: 29d0 833d 96f4 20bd a3b4 99bd a353 4fbd
00000370: 7f5c fdbc 6369 933d ffb1 b93d 6ef7 9abd
00000380: 0ca0 5c3d db1f 80bc 27f4 77bd acfd 71bd
00000390: 9660 233c 8c6c 7bba c522 9c3c aee0 653d
000003a0: d111 10bd aa37 66bd 8ec4 b73d 10c6 afbd
000003b0: 8555 553d b66f 3abd 2602 f53c e1b2 2dbc
000003c0: 4486 b4bb 83bc a83d f69b cdbb c031 9fbd
000003d0: 3e69 98bd a497 5a3b fe45 8b3d c818 9bbb
000003e0: 66cd b43a 53e8 103d c602 30bc 9310 723a
000003f0: 76c2 8fbc a5b6 b0bd 5a49 0c3d 6699 93bd

gru1.weight_ih_l0_reverse f4 [384, 6]
-0.025046393 -0.051006 0.037487596 -0.040288426 -0.0005041089 0.029983003 -0.06711315 -0.022581425
0.06077757 0.0012900524 -0.017314613 0.056278348 -0.08694053 0.020372177 0.051023073 0.08369251
0.06969494 -0.016022509 -0.07414448 0.08127491 -0.026844686 -0.037915688 0.030784912 -0.07442997
-0.011317243 -0.07377233 -0.010919061 0.035954375 -0.028231943 0.052753534 0.032539565 -0.040200803
-0.027870145 0.017423742 -0.066402465 -0.0640847 -0.09699341 0.05827724 -0.088086225 -0.008900148
-0.028536195 -0.083983034 0.04490497 -0.059515443 -0.07045015 0.033261538 0.05544096 -0.03898087
-0.078251086 0.010089477 -0.036536474 -0.08409294 0.017647222 0.0507284 -0.044212777 0.08994197
0.012446885 0.0420656 -0.03940856 -0.0044250377 0.0481405 -0.020851102 0.08675893 0.04678838
-0.06946787 -0.06449174 0.012526274 -0.006103507 -0.0151398145 0.017933376 0.03414138 0.009948419
-0.02798674 -0.07665068 0.0046345987 0.012084555 0.061002437 -0.05009285 0.014877261 -0.0783094
0.042323817 -0.044290405 0.049926765 -0.053536348 0.031247135 -0.052342627 -0.0127289975 0.04189117
-0.039700795 0.05290205 0.0146746095 0.022862414 0.07209936 -0.034081027 0.029627169 -0.0054282597
-0.008711596 -0.067151986 0.08404678 0.005576154 0.018733382 0.06519022 -0.0038038373 0.058963083
0.0038756556 0.039366122 -0.084869534 -0.0051117223 0.07957989 0.066983014 0.06172165 -0.0022351665
-0.023368225 0.08278581 -0.080904104 -0.043151096 0.09221231 0.013064965 -0.081157 0.036553662
-0.073341556 -0.0778112 -0.036517568 0.04071763 0.07484927 -0.06423756 -0.042297937 0.024643643
-0.0466866 -0.073386185 -0.07153593 -0.08098873 0.06862865 0.023992768 0.06279164 0.049369074
0.022061085 0.006517685 0.06617986 0.0070495587 0.08015135 0.029977519 -0.057996087 0.032603834
0.032112855 0.053587463 -0.03766998 -0.07298476 0.028905958 -0.00971656 -0.0056127007 -0.02546353
-0.01746993 0.08900007 -0.033352 -0.048339974 0.008403662 0.039083254 0.08057263 -0.0014716228
-0.052880183 0.0032355834 -0.021962352 -0.018625904 0.04508688 -0.006818506 0.021538934 -0.07978133
-0.037664697 -0.024862714 0.028709486 -0.049890447 0.06881948 -0.03831826 0.07639813 0.05874074
0.036185265 -0.0128110675 -0.08133583 -0.026990073 0.08153874 0.061457198 -0.05128659 -0.06189221
0.03893816 0.017877175 -0.078592286 -0.042997304 0.077133 0.00960729 0.0580088 0.06886474
-0.04883007 -0.08064427 0.086231016 0.08641981 -0.027152069 -0.011683557 0.0016890224 0.064473175
-0.02046817 -0.0049199513 -0.00826368 0.043732014 -0.050968785 -0.030588798 -0.07732824 -0.0432969
0.055500086 0.0856648 0.07672387 -0.03304645 -0.03555898 -0.0569981 -0.0054984153 0.07061538
0.03478868 -0.008934243 0.08249292 0.0052680043 0.03917497 0.044172376 -0.08654239 -0.07803195
0.026057595 0.019194065 0.06601976 -0.02759883 0.054539368 -0.028608918 0.007447447 0.015163217
-0.049288947 -0.041107308 -0.014267421 0.0679988 0.062349394 -0.03543845 -0.040280856 -0.01486996
0.08550185 -0.08150119 -0.0031736982 0.07708395 0.07196342 0.038867168 -0.071823105 -0.0745506
0.013911988 0.079495296 -0.018832624 0.09608873 -0.09115955 0.025537066 0.032630503 -0.07235409
00000000: 182e cdbc abeb 50bd 988c 193d 7a05 25bd
00000010: 2d26 04ba ea9e f53c 9f72 89bd aefc b8bc
00000020: e7f1 783d fa16 a93a 60d7 8dbc 2084 663d
00000030: e00d b2bd 8de3 a63c 92fd 503d fb66 ab3d
00000040: 38bc 8e3d a341 83bc 10d9 97bd 7673 a63d
00000050: 63e9 dbbc 7b4d 1bbd a430 fc3c bd6e 98bd
00000060: f56b 39bc f315 97bd dce5 32bc e544 133d
00000070: ad46 e7bc 1714 583d 3548 053d 99a9 24bd
00000080: ee4f e4bc 3cbc 8e3c 04fe 87bd d73e 83bd
00000090: 7ba4 c6bd 1db4 6e3d 8d66 b4bd edd1 11bc
000000a0: bdc4 e9bc 4cff abbd 46ee 373d 77c6 73bd
000000b0: 2b48 90bd 403d 083d 0f16 633d 68aa 1fbd
000000c0: 1b42 a0bd 554e 253c 45a7 15bd eb38 acbd
000000d0: e890 903c 95c8 4f3d 7518 35bd 7f33 b83d
000000e0: 05ee 4b3c fb4c 2c3d df6a 21bd e8ff 90bb
000000f0: f92e 453d eecf aabc aaae b13d 2ca5 3f3d
00000100: 2c45 8ebd 3f14 84bd 003b 4d3c edff c7bb
00000110: fc0c 78bc 04e9 923c d5d7 0b3d b2fe 223c
00000120: 7344 e5bc 08fb 9cbd d5dd 973b 4cfe 453c
00000130: b1dd 793d 292e 4dbd c1bf 733c ae60 a0bd
00000140: bd5b 2d3d db69 35bd 0280 4c3d ee48 5bbd
00000150: fef9 ff3c 3965 56bd 498d 50bc 1396 2b3d
00000160: 4d9d 22bd d2af 583d c66d 703c f549 bb3c
00000170: d4a8 933d 8c98 0bbd adb4 f23c 8bdf b1bb
00000180: 15bb 0ebc fb86 89bd b820 ac3d 2cb8 b63b
00000190: c076 993c 7382 853d cd49 79bb 4683 713d
000001a0: b6fe 7d3b 5f3e 213d 14d0 adbd 3c80 a7bb
000001b0: c8fa a23d 642e 893d d7cf 7c3d df7b 12bb
000001c0: b86e bfbc 9b8b a93d 0db1 a5bd 34bf 30bd
000001d0: cfd9 bc3d 6f0e 563c a435 a6bd 4bb9 153d
000001e0: 1934 96bd 7a5b 9fbd 7293 15bd 88c7 263d
000001f0: 934a 993d fb8e 83bd 9a40 2dbd 77e1 c93c
00000200: 733a 3fbd 7f4b 96bd 6e81 92bd 6bdd a5bd
00000210: 2d8d 8c3d 7b8c c43c e798 803d 3a37 4a3d
00000220: 73b9 b43c 4e92 d53b 4e89 873d fcff e63b
00000230: 6426 a43d 6a93 f53c 4e8d 6dbd 998b 053d
00000240: c588 033d 877e 5b3d d64b 1abd 0979 95bd
00000250: 30cc ec3c 3532 1fbc bfea b7bb e598 d0bc
00000260: 191d 8fbc ab45 b63d 1b9c 08bd 2300 46bd
00000270: 83af 093c c315 203d 4303 a53d 78e3 c0ba
00000280: e498 58bd 150c 543b 64ea b3bc 5a95 98bc
00000290: 05ad 383d c66d dfbb 6b72 b03c 6564 a3bd
000002a0: 4c46 1abd e4ac cbbc 2830 eb3c ed59 4cbd
000002b0: 3af1 8c3d 9cf3 1cbd 9f76 9c3d 219a 703d
000002c0: 0037 143d 83e5 51bc 6693 a6bd 491a ddbc
000002d0: c8fd a63d 8bba 7b3d e311 52bd b082 7dbd
000002e0: 9f7d 1f3d 2773 923c fef4 a0bd f11d 30bd
000002f0: e8f7 9d3d e567 1d3c a39a 6d3d f508 8d3d
00000300: 0a02 48bd d328 a5bd e399 b03d dffc b03d
00000310: 046e debc 646c 3fbc 3062 dd3a 830a 843d
00000320: ddac a7bc 8b37 a1bb 6364 07bc 5720 333d
00000330: a5c4 50bd 5c95 fabc 455e 9ebd 1758 31bd
00000340: 0f54 633d 0771 af3d 6821 9d3d b75b 07bd
00000350: 4ba6 11bd d776 69bd 0d2c b4bb cc9e 903d
00000360: 937e 0e3d ee60 12bc 0cf2 a83d 399f ac3b
00000370: ef75 203d 18ee 343d 233d b1bd 37cf 9fbd
00000380: bd76 d53c df3c 9d3c 5e35 873d f116 e2bc
00000390: ac64 5f3d 405d eabc b709 f43b 246f 783c
000003a0: 35e3 49bd 2360 28bd e7c1 69bc f442 8b3d
000003b0: 1462 7f3d e827 11bd 8afd 24bd 22a1 73bc
000003c0: 981b af3d 19ea a6bd d2fd 4fbb 31de 9d3d
000003d0: 8f61 933d 2e33 1f3d fe17 93bd fcad 98bd
000003e0: 1bef 633c 6ece a23d e046 9abc 2bca c43d
000003f0: dcb1 babd 1c33 d13c 90a7 053d 622e 94bd

gru1.weight_hh_l0_reverse f4 [384, 128]
-0.057018023 -0.012260403 -0.0362028 0.02219076 0.06250355 -0.059239235 0.011876244 -0.051893868
-0.058419243 0.035210386 -0.03318067 0.07579422 -0.09207018 -0.021495944 -0.0334802 0.06940685
0.020892525 0.080981486 -0.039478946 0.044544954 0.0635935 -0.02737768 -0.02126581 -0.041964374
0.0054778266 -0.09251536 0.013076203 -0.062465977 0.021903755 -0.02136923 -0.07740965 0.07511735
0.00487799 -0.081954695 0.021695916 0.031180793 -0.022222415 0.062135138 0.0046044816 -0.050486367
0.007164924 0.08476247 -0.01600673 0.03070147 0.046488278 -0.026976146 -0.03480183 -0.012339966
0.059592385 -0.004748931 0.028576434 0.06363013 0.069521464 -0.08314646 -0.044260245 -0.0075691915
0.07189516 -0.02667856 -0.00019372226 -0.054273397 0.024474569 -0.0023367219 -0.0697238 0.07722759
0.0695316 0.0066451794 0.026045348 0.040679794 0.07690752 0.007161891 -0.050257683 0.063068934
-0.07925149 0.052778915 -0.0017700997 0.0060459897 0.0007655989 -0.018269528 -0.009445786 -0.03607438
0.0362166 -0.07235581 -0.008152443 -0.061153173 0.03489257 0.029148351 -0.033807043 -0.035066977
0.00040771934 0.04743106 0.035372995 -0.00012555205 0.06161584 0.013901928 -0.010362152 0.061542716
0.075688705 0.02803656 -0.022487225 -0.08101849 0.03521342 0.0622834 -0.05751638 0.010088123
-0.025063712 0.017493673 -0.074152544 0.050090976 0.08661115 0.086852424 -0.05041469 0.07744769
-0.039344285 0.081119195 0.076835334 -0.028738113 -0.05729946 0.02683045 -0.06742383 0.08889491
-0.06488837 -0.07067631 -0.0039079385 0.07709645 -0.008588246 0.032325935 -0.06988929 0.00930976
-0.09447427 -0.078548804 -0.008453147 0.0020054644 0.009408755 -0.036985327 0.08152745 0.0579185
-0.0073158476 -0.06818351 0.039294932 0.040301748 0.020049313 -0.08684985 0.06558236 -0.016820202
0.018156238 0.0110388575 0.05728098 -0.009942632 -0.025194513 0.0254349 0.04068281 -0.0028647692
-0.05340978 0.021978505 -0.023438206 -0.01875823 -0.05443987 0.038862165 0.061710857 0.045907028
-0.035640415 0.04651315 -0.071982145 0.024770107 -0.026937665 -0.012595902 -0.07645967 -0.015753442
-0.059877455 0.062183183 0.030306155 -0.034058437 0.08803302 0.008820271 -0.04687033 -0.10093915
0.0835316 -0.0035665962 0.029322723 0.07871777 -0.02291992 -0.08285605 -0.051744662 0.03578708
-0.03199311 0.056292593 0.022435991 -0.071530156 -0.04797153 -0.03898199 -0.026564224 -0.05798652
0.025928576 0.03592376 0.061890576 -0.05871253 -0.06347477 0.07013392 -0.07379091 -0.099285975
-0.00027043244 0.04108338 -0.040191162 -0.0051131537 0.055829808 -0.0076107136 0.02839718 0.073535345
-0.004795239 -0.021624468 -0.010033016 -0.031871334 0.062036205 -0.004495001 -0.030230923 -0.025852345
-0.06442168 -0.04462688 0.03843908 0.041148238 0.01601166 0.047661837 0.07320248 0.053239495
-0.039036162 0.04509997 -0.0540447 0.08128808 -0.02757467 -0.01749301 -0.010885998 0.016335161
0.04975045 0.013003841 0.069000736 -0.04199791 0.090197526 3.8808168e-05 0.0068659605 -0.033686504
0.008982427 0.008835414 -0.03258244 -0.08175937 -0.04363158 -0.0724105 -0.039737675 0.043076966
0.05817924 -0.078811936 -0.07646623 -0.06900091 0.050488014 0.015584361 0.078772075 0.051438283
00000000: bb8b 69bd dbdf 48bc 6349 14bd 66c9 b53c
00000010: dc01 803d d7a4 72bd 9494 423c aa8e 54bd
00000020: 0449 6fbd c438 103d 74e8 07bd 003a 9b3d
00000030: 4a8f bcbd 4318 b0bc 8922 09bd 2e25 8e3d
00000040: cd26 ab3c 9fd9 a53d adb4 21bd c574 363d
00000050: 4f3d 823d 2847 e0bc a335 aebc d6e2 2bbd
00000060: 577f b33b b178 bdbd 923d 563c 53dc 7fbd
00000070: 816f b33c 860e afbc f388 9ebd 20d7 993d
00000080: 8cd7 9f3b ddd7 a7bd a2bb b13c dd6e ff3c
00000090: c80b b6bc 6a81 7e3d 31e1 963b cbca 4ebd
000000a0: bdc7 ea3b f297 ad3d 8c20 83bc a681 fb3c
000000b0: 7e6a 3e3d 14fd dcbc 5d8c 0ebd 922d 4abc
000000c0: 2517 743d ec9c 9bbb 2019 ea3c 8350 823d
000000d0: 4561 8e3d b148 aabd 3b4a 35bd fb06 f8bb
000000e0: c53d 933d ff8c dabc ec21 4bb9 c84d 5ebd
000000f0: e47e c83c b023 19bb 5acb 8ebd 8029 9e3d
00000100: 9566 8e3d cebf d93b 0e5d d53c db9f 263d
00000110: b181 9d3d 4cae ea3b 00db 4dbd 492a 813d
00000120: 9b4e a2bd b42e 583d b102 e8ba 701d c63b
00000130: 79b2 483a faa9 95bc 7fc2 1abc bbc2 13bd
00000140: dc57 143d 482f 94bd d391 05bc c07b 7abd
00000150: 83eb 0e3d 86c8 ee3c 4179 0abd 64a2 0fbd
00000160: 2ac3 d539 1247 423d 46e3 103d 9fa6 03b9
00000170: e460 7c3d eac4 633c 04c6 29bc 3714 7c3d
00000180: ae02 9b3d eeac e53c 2137 b8bc 06ed a5bd
00000190: f23b 103d e11c 7f3d 4c96 6bbd a848 253c
000001a0: 6a52 cdbc e44e 8f3c 4add 97bd 322c 4d3d
000001b0: 3061 b13d afdf b13d a27f 4ebd e59c 9e3d
000001c0: 7927 21bd d221 a63d d85b 9d3d 316c ebbc
000001d0: d7b2 6abd 88cb db3c 8115 8abd 890e b63d
000001e0: 32e4 84bd bebe 90bd 2a0e 80bb bee4 9d3d
000001f0: b7b5 0cbc 3368 043d 1e22 8fbd f787 183c
00000200: ba7b c1bd 32de a0bd 117f 0abc 1c6e 033b
00000210: 2e27 1a3c ed7d 17bd ddf7 a63d f33b 6d3d
00000220: c7b9 efbb cca3 8bbd b9f3 203d 7213 253d
00000230: 753e a43c 56de b1bd 0b50 863d 85ca 89bc
00000240: 64bc 943c 53dc 343c 769f 6a3d 6ce6 22bc
00000250: b964 cebc da5c d03c 05a3 263d dabe 3bbb
00000260: 37c4 5abd 440c b43c 7b01 c0bc dcaa 99bc
00000270: 57fc 5ebd ef2d 1f3d 86c4 7c3d 0209 3c3d
00000280: affb 11bd 9384 3e3d 606b 93bd aeea ca3c
00000290: 61ac dcbc 0b5f 4ebc e396 9cbd 5d0d 81bc
000002a0: 1042 75bd cbb3 7e3d 9d44 f83c dc80 0bbd
000002b0: a84a b43d e682 103c 1afb 3fbd 2fb9 cebd
000002c0: 9e12 ab3d 8ebd 69bb 3536 f03c c836 a13d
000002d0: 8ec2 bbbc 6fb0 a9bd 36f2 53bd 7995 123d
000002e0: 350b 03bd 1093 663d afcb b73c 677e 92bd
000002f0: cc7d 44bd 94ab 1fbd 379d d9bc 4683 6dbd
00000300: 2a68 d43c cb24 133d f980 7d3d 8d7c 70bd
00000310: 0fff 81bd 5fa2 8f3d b01f 97bd 7256 cbbd
00000320: d4c8 8db9 0c47 283d 7d9f 24bd 3e8c a7bb
00000330: ccad 643d 4b63 f9bb 34a1 e83c b399 963d
00000340: 6121 9dbb cc25 b1bc 8561 24bc 848b 02bd
00000350: ad19 7e3d cd4a 93bb d7a6 f7bc 4cc8 d3bc
00000360: 84ef 83bd adca 36bd 4c72 1d3d 0e8b 283d
00000370: e32a 833c 0f39 433d 2feb 953d a811 5a3d
00000380: 62e4 1fbd bfba 383d fa5d 5dbd 5d7a a63d
00000390: 46e4 e1bc 804d 8fbc 2f5b 32bc 51d1 853c
000003a0: 21c7 4b3d 100e 553c 4250 8d3d 0006 2cbd
000003b0: 7bb9 b83d f4c5 2238 dafb e03b dcfa 09bd
000003c0: 082b 133c 6ac2 103c 2a75 05bd 7571 a7bd
000003d0: 07b7 32bd f54b 94bd f9c3 22bd 7971 303d
000003e0: 5b4d 6e3d 2768 a1bd 549a 9cbd 5950 8dbd
000003f0: 85cc 4e3d 8c55 7f3c 4153 a13d f3b0 523d

gru1.bias_ih_l0_reverse f4 [384]
0.056411233 -0.0071504926 0.01593187 0.0068450174 0.085309386 0.035489287 -0.005636471 -0.020290196
0.08411284 -0.022512833 -0.008362867 -0.012279751 -0.04534779 0.08129823 -0.048767667 0.044806264
0.08527395 0.08561776 0.018499652 -0.05363492 0.024487106 -0.0009841959 0.052470874 0.07131685
0.048066694 0.060317848 -0.027748516 -0.019906526 -0.024729159 -0.061627556 0.053782873 -0.034870397
-0.06533311 0.03140096 -0.043058865 0.07133183 -0.010528866 0.059457738 -0.01763567 -0.042495318
0.016219273 0.06936971 0.014469482 0.03260259 0.00041072522 0.044504933 -0.07629985 0.0572869
0.035966475 -0.054117784 0.055169255 -0.072814606 -0.039600696 0.06311535 -0.021495868 -0.034125008
0.016685875 0.027941812 -0.044705197 -0.07666141 -0.04853947 -0.08905413 0.02991491 0.08230531
0.056700557 0.06596104 -0.024160268 -0.045687135 0.070677176 0.07791555 0.05408381 0.07252502
0.025654327 0.070430934 -0.03956707 0.013707019 -0.05823173 0.04327045 0.03756817 -0.044037636
0.036712475 -0.015120837 0.08101574 -0.06979158 -0.07008526 -0.01145474 0.050435107 0.065998934
-0.049046673 0.04465877 0.011139715 -0.006789862 0.06958841 0.004657253 -0.02779627 -0.05339659
-0.049262177 -0.03359483 0.05047749 -0.033569742 0.031371612 -0.0059698983 -0.07773977 0.04015076
0.04142361 0.0062037865 0.047031 -0.0060350373 -0.059044324 -0.027627556 -0.08465827 -0.075267084
0.051977556 0.0081885485 -0.022908043 0.0675882 -0.0029319972 -0.027109401 -0.08380917 -0.048498187
0.013233498 -0.08603541 -0.06550982 -0.02645514 0.04107509 0.0054125693 0.06614965 -0.022899998
-0.02532762 0.05740568 0.083542824 0.02542249 -0.059792656 -0.002647408 0.0071232864 -0.023472764
-0.019547516 0.08373286 0.01059631 -0.05152798 -0.06998066 0.0004971538 -0.023066338 0.07575184
0.032562308 -0.074672736 -0.017463673 -0.011933126 -0.03814279 0.028946765 -0.026528867 0.044255156
0.030371964 -0.018234087 -0.060170367 -0.051058114 -0.042210635 -0.049694985 -0.08290371 -0.021859989
-0.03979389 0.035610754 0.009426317 0.047043208 -0.066988766 -0.037235893 0.054850973 -0.06957658
0.039311573 -0.04692095 -0.068897 0.044699155 0.008287674 -0.021537011 0.01648315 0.052541446
0.08378702 0.024407752 -0.06155097 -0.037210427 0.06291793 0.08938638 -0.025337197 0.08803804
-0.056048557 -0.07309195 -0.0787761 0.04138071 -0.0639088 -0.015895547 -0.039442606 -0.08698896
0.0003316653 -0.021486528 0.051289827 0.0065057627 0.03952338 -0.017433593 0.06769021 0.045074586
0.04603022 -0.03849393 -0.060355462 0.050750054 -0.020698173 0.05631864 0.04947113 -0.05577685
-0.024567155 0.02483727 0.051062543 0.021784147 -0.06009183 -0.08416651 -0.049291495 -0.08676287
0.0033309278 -0.07114363 0.050727427 0.008676375 0.04084819 0.035946682 0.06422338 -0.025866184
-0.0852818 0.09014361 0.029258056 -0.048091583 0.020954914 0.036751844 0.026405657 0.017969212
0.07657321 0.03192332 -0.021600991 0.076508 -0.036855813 -0.014450912 0.03660135 -0.08214774
-0.0079692425 0.043272626 0.052890107 -0.08645142 -0.07510971 0.045106057 -0.02138974 0.008936198
0.072275795 -0.02441353 0.021136058 -0.046447944 -0.06285013 0.08608498 0.01646948 -0.07137549
00000000: 770f 673d ae4e eabb 8e83 823c 2b4c e03b
00000010: b0b6 ae3d 375d 113d 25b2 b8bb a037 a6bc
00000020: 5a43 ac3d d56c b8bc 6804 09bc 0231 49bc
00000030: 9bbe 39bd b07f a63d 9bc0 47bd c686 373d
00000040: 1ca4 ae3d 5d58 af3d 958c 973c 4ab0 5bbd
00000050: 2f99 c83c 2200 81ba b3eb 563d 920e 923d
00000060: 95e1 443d d90f 773d db50 e3bc 0313 a3bc
00000070: ce94 cabc 2d6d 7cbd 6e4b 5c3d 43d4 0ebd
00000080: 5ecd 85bd 4b9e 003d 7e5e 30bd 6c16 923d
00000090: 4481 2cbc f589 733d ae78 90bc 920f 2ebd
000000a0: 48de 843c b511 8e3d 6811 6d3c 4b8a 053d
000000b0: 9b56 d739 ce4a 363d 1943 9cbd aba5 6a3d
000000c0: 9551 133d 9caa 5dbd 28f9 613d d31f 95bd
000000d0: 5734 22bd 9f42 813d 1a18 b0bc aac6 0bbd
000000e0: d1b0 883c 3ae6 e43c cc1c 37bd a800 9dbd
000000f0: 53d1 46bd 0362 b6bd 1d10 f53c b08f a83d
00000100: d83e 683d 9516 873d c1eb c5bc 6f22 3bbd
00000110: 32bf 903d 3092 9f3d fc86 5d3d ff87 943d
00000120: 0629 d23c 183e 903d 1411 22bd 6893 603c
00000130: 6584 6ebd 5b3c 313d 15e1 193d cf60 34bd
00000140: d25f 163d 63bd 77bc 95eb a53d e3ee 8ebd
00000150: dc88 8fbd a9ac 3bbc 0b95 4e3d 732a 873d
00000160: 2ae5 48bd 1dec 363d 5a83 363c 7e7d debb
00000170: 5e84 8e3d df9b 983b 01b5 e3bc 62b6 5abd
00000180: 23c7 49bd bc9a 09bd 7cc1 4e3d 6d80 09bd
00000190: 857f 003d 239f c3bb 0736 9fbd 2075 243d
000001a0: ceab 293d 2249 cb3b 94a3 403d 90c1 c5bb
000001b0: 76d8 71bd 2f53 e2bc 5161 adbd a125 9abd
000001c0: 6be6 543d 4329 063c a6a9 bbbc af6b 8a3d
000001d0: c026 40bb 8914 debc 24a4 abbd 09a6 46bd
000001e0: 50d1 583c 5533 b0bd 032a 86bd 73b8 d8bc
000001f0: 5b3e 283d ec5b b13b 7879 873d c798 bbbc
00000200: de7b cfbc 3822 6b3d 8018 ab3d d342 d03c
00000210: 25e9 74bd 2380 2dbb 756a e93b f449 c0bc
00000220: 1d22 a0bc 227c ab3d 259c 2d3c 010f 53bd
00000230: 0552 8fbd 6d53 023a 9ef5 bcbc c823 9b3d
00000240: 0e60 053d 05ee 98bd fa0f 8fbc 2883 43bc
00000250: 9d3b 1cbd c421 ed3c 1153 d9bc e544 353d
00000260: a0ce f83c a75f 95bc 3475 76bd 5022 51bd
00000270: 0fe5 2cbd f88c 4bbd 6cc9 a9bd b813 b3bc
00000280: ebfe 22bd 95dc 113d d770 1a3c 61b0 403d
00000290: 6831 89bd aa84 18bd 6aab 603d 2a7e 8ebd
000002a0: 2c05 213d 2f30 40bd df19 8dbd 7616 373d
000002b0: 06c9 073c 636e b0bc ac07 873c b335 573d
000002c0: 8798 ab3d c4f2 c73c df1c 7cbd f669 18bd
000002d0: 1edb 803d 3510 b73d f48f cfbc 4a4d b43d
000002e0: 2c93 65bd 3bb1 95bd 5d55 a1bd d27e 293d
000002f0: 9ee2 82bd 6137 82bc 928e 21bd 4527 b2bd
00000300: 5de3 ad39 8404 b0bc 4815 523d 4b2e d53b
00000310: 45e3 213d e5d0 8ebc 2aa1 8a3d 21a0 383d
00000320: 2f8a 3c3d d0ab 1dbd 4a37 77bd 4adf 4f3d
00000330: 378f a9bc 60ae 663d 3da2 4a3d 4476 64bd
00000340: 0f41 c9bc 8877 cb3c f526 513d ab74 b23c
00000350: da22 76bd 7e5f acbd e1e5 49bd bbb0 b1bd
00000360: b24b 5a3b c0b3 91bd 90c7 4f3d 5b27 0e3c
00000370: 6f50 273d d43c 133d 8c87 833d 52e5 d3bc
00000380: 39a8 aebd 379d b83d 97ae ef3c aefb 44bd
00000390: a4a9 ab3c 1a89 163d ad50 d83c 2b34 933c
000003a0: 6ad2 9c3d 07c2 023d 90f4 b0bc 3ab0 9c3d
000003b0: 1ff6 16bd 85c3 6cbc 4ceb 153d 133d a8bd
000003c0: 6d91 02bc a33e 313d 4ca3 583d 710d b1bd
000003d0: 1fd3 99bd 21c1 383d 8939 afbc 2269 123c
000003e0: 5505 943d e2fe c7bc 8725 ad3c 3340 3ebd
000003f0: 92b7 80bd 524d b03d 01eb 863c 502d 92bd
