results/models/Nikkei225_LSTM_model.pth (torch, 905081 bytes, 19 tensors)

lstm1.weight_ih_l0 f4 [512, 6]
00000000: c7f3 1cbd 986e 963c d0f7 a8bc 4759 a8bc
00000010: 0b2f 8abd 6b65 a73d 34d2 5cbd 5c76 04bc
00000020: 0c2c 2e3d 1f9a 253c e88e 723d 599c 65bd
00000030: 4659 3d3c 20a1 5d3c ae30 21bd e924 c2bc
00000040: a4db 223d e6eb 733a ab70 8abd 6a66 443d
00000050: 21f8 b63d 086d 05bd 841f 0c3b ff54 6dbd
00000060: 21cc 72bd e42a d03c 7296 673d 3fc6 bf3c
00000070: 6c45 63bd 2873 06bd 6e3d 80bd 9137 f73c
00000080: fa72 643c ccb2 883d dc74 cebc aa23 a4bd
00000090: 7c8b 12bd 0c4a 8f3d 357e bc3d 46aa 143d
000000a0: 1a5d 993d 3e50 1a3d 54f1 993d 9e13 8a3d
000000b0: 11fb 383d e575 62bd f38e 6e3d 71ee 9d3d
000000c0: b711 02bd 59d2 56bd 42ba 223b c874 8abd
000000d0: 068f 61bd 2be2 713c 70e6 0d3c 21fe 35bb
000000e0: c56e 89bd 2b60 a73d c7cc 4d3d bb7d 0e3c
000000f0: 50fe a6bc ac40 3b3d ec27 c93c 0c78 ed3c
00000100: 0634 523c 92c1 8c3d e37c 42bd 5218 8f3d
00000110: 8eb4 a83d bde2 85bd 127b 773d edc0 c8bb
00000120: 62f9 63bb 2a6b 0f3d 35ef b4bd c0c8 bcbd
00000130: 33c0 c9bb a8bc 6fbd a393 cabc e4b3 44bd
00000140: adfc a43b 546e a73d 98c6 1d3d 1151 a2bd
00000150: 6d89 9e3d aaef a13c fcdd b2bd d4e3 27bd
00000160: 60d6 63bc 74f5 b6bb a71c b63d 448c 0dbc
00000170: 4994 7e3d 36b8 b43d 8170 723b 7d1b 4d3d
00000180: d49c 22bd 547a f9bc f949 4a3d 49cf 813c
00000190: b7cb 55bc 867d c33c 888b 053c d62c 07bd
000001a0: cdb4 e3bb e52a c93d f304 2f3c a80a c83d
000001b0: 4e6e 963d 7b1c 9bbc f3e7 ad3c 0fdc 5bbd
000001c0: 662a 8abd 320a dbbc f034 563d 854a 8a3c
000001d0: db86 d7bc 8132 6bbd e4a2 b9bd 8209 95bc
000001e0: 87bb 34bd 14b9 c5bc 7244 c4bb 3c10 98bc
000001f0: b78f 4abd 0ce7 89bd 1ff2 a5bd 46fa a5bd
00000200: 7c92 fd3c a570 0ebd c008 b33d c2bf 4f3d
00000210: 0c12 adbd da4e 6c3d 6e12 aa3d b9ce 603b
00000220: 54de 1abd f9bc 9dbd 1142 3f3d b1a1 603d
00000230: 8623 16bd 16f1 1d3c d177 a13d 9a49 743d
00000240: 1951 8e3b 3773 65bd e0f9 86bc c6d5 6d3c
00000250: 4a52 103a df08 42bd ebca 1cbd 857f 25bd
00000260: 8f7d fdbb 9ece 8f3d 5e54 8c3d ff61 a43d
00000270: f7db 4ebd cda6 9f3c e111 993d b152 5bbd
00000280: a8c3 bf3d 9304 f9bc 4abf c73c 12f0 2e3d
00000290: 75d9 86bd 286f 5b3d 31c0 8c3d 40f1 8f3d
000002a0: 8868 a43c 680b 993d 4f30 3fbb 9dd6 86bd
000002b0: dd8d d4bb cfcb 06bd f9da d83c 814c 233d
000002c0: 0e57 083d b02d 37bd 255b 7b3d 1f0b 9e3d
000002d0: 8220 1dbd 20ad 2fbb 3563 36bc ccac 923c
000002e0: 5c81 393d 251c 99bc 1ab3 bbbd 60dc 80bd
000002f0: d190 823c 6668 c63b 9bb9 4f3c 740f 033d
00000300: 2eaa 1c3c 751a 0d3d 65c3 4fbb 4cb3 c6bd
00000310: 807f de3c a11e 5f3d 91e1 9d3c 74f9 04b9
00000320: 03ea 81bd 9736 ae3a 0ec5 633d e72d 45bd
00000330: e8b8 debc ce14 84bd 0b34 a8bc 0b94 84bd
00000340: 5261 093c 75d7 ed3b 52e4 56bd 54e2 eabc
00000350: 506d 84bd 2ff6 3a3c bff4 bd3d 7e1d 643d
00000360: c23b 85bd b789 db3c 8971 84bc c649 443d
00000370: 24c0 c3bb 1c45 113c 25ef 2dbc e547 4f3c
00000380: c2d7 7b3d 8b45 69bd 3935 d7bc 06fa 85bd
00000390: 3115 51bd 446e b7bd 4221 c1bd 2d85 2bbc
000003a0: 9a7f 40bd 0e9c fc3b cf95 65bc f719 cabc
000003b0: f3ef c63d 8f74 d4bc 7fda 943b 91d0 8b3d
000003c0: 1e63 983d a5ed f63c be16 8dbd 9334 b2bc
000003d0: 6d36 353d 5fbc 0f3d 6878 c6bc 8cf1 61bd
000003e0: f2c5 dc3c 44e8 6e3c d321 ff3c bdb9 1bbd
000003f0: d52f ae3d 903f 443d 81e4 883d 30b4 903d
-0.03831842 0.018363282 -0.020625979 -0.020550383 -0.06747254 0.08173641 -0.053911403 -0.00808486
0.042522475 0.010107546 0.059218317 -0.056057308 0.011556929 0.013527185 -0.039353065 -0.02369924
0.039760247 0.0009304866 -0.06759771 0.047949232 0.089340456 -0.032574683 0.002138109 -0.057942387
-0.059276704 0.025411077 0.05653996 0.02340996 -0.055486128 -0.032824665 -0.06261717 0.030177863
0.013943428 0.06674728 -0.025202207 -0.08014615 -0.035777554 0.06996545 0.092037596 0.036295198
0.07488461 0.03767418 0.07516733 0.06742023 0.04516131 -0.055288214 0.058241796 0.07711495
-0.031755175 -0.052446697 0.0024830257 -0.067605555 -0.05506804 0.014763395 0.008660898 -0.002776988
-0.06710581 0.081726395 0.05024412 0.008696969 -0.020384938 0.045715973 0.024555169 0.028987907
0.012829786 0.06872858 -0.047482383 0.069870606 0.08237563 -0.065373875 0.060420103 -0.006126514
-0.0034786095 0.03501431 -0.088346876 -0.092179775 -0.006156945 -0.058529526 -0.024728602 -0.04802312
0.005035004 0.0817534 0.038519472 -0.079256184 0.07741056 0.019767601 -0.087337464 -0.04098876
-0.013906091 -0.0055834595 0.08892184 -0.008639399 0.062153134 0.08824198 0.0036993327 0.050075043
-0.039700344 -0.030453838 0.049386952 0.015845912 -0.013049058 0.023863565 0.008150943 -0.033001743
-0.0069490434 0.098226346 0.010682332 0.097676575 0.07345258 -0.018934479 0.021228766 -0.05367666
-0.06746368 -0.02673826 0.05229658 0.016881237 -0.026309421 -0.05742121 -0.09064272 -0.01819301
-0.044124153 -0.024136104 -0.0059896046 -0.018562429 -0.049453463 -0.06733522 -0.081028216 -0.081043765
0.030953638 -0.034775395 0.08741903 0.050719984 -0.08450708 0.057692386 0.083042964 0.0034302904
-0.037809685 -0.07702059 0.046693865 0.0548417 -0.03665497 0.009639999 0.07884181 0.059640504
0.0043431637 -0.05601808 -0.016476572 0.0145163 0.0005505426 -0.04737174 -0.038279455 -0.040404815
-0.007735915 0.07021831 0.06852029 0.08026504 -0.050502744 0.019488716 0.07474113 -0.053545658
0.0936349 -0.030397689 0.024383206 0.042709418 -0.065844454 0.053572804 0.06872595 0.07028437
0.020069376 0.07472879 -0.0029173081 -0.06583903 -0.006486638 -0.03290921 0.026471602 0.03986788
0.033286147 -0.044721305 0.06136622 0.07716965 -0.03836108 -0.0026806071 -0.011132051 0.017904662
0.045289382 -0.018690178 -0.0916502 -0.06292033 0.015938194 0.0060549257 0.012678529 0.03199716
0.009562058 0.03444906 -0.0031702158 -0.09702167 0.027160406 0.05447257 0.019272598 -0.0001268143
-0.06343462 0.0013291416 0.055607848 -0.04813948 -0.02718778 -0.06449281 -0.020532629 -0.064735495
0.008385019 0.0072583505 -0.052463837 -0.028672375 -0.06466162 0.011411234 0.09275197 0.05569219
-0.065055385 0.026799066 -0.016167419 0.04792192 -0.0059738327 0.008866575 -0.0106160985 0.012651418
0.06148506 -0.056951087 -0.026270496 -0.06541829 -0.0510456 -0.089565784 -0.094301715 -0.010468763
-0.04699669 0.007709033 -0.014012768 -0.024670584 0.097137354 -0.025934486 0.0045426483 0.0682689
0.0744078 0.030142615 -0.06889103 -0.021753585 0.044241358 0.035091754 -0.024227336 -0.055161998
0.026949856 0.014581744 0.031144058 -0.03801893 0.08505217 0.04791218 0.06684209 0.07065618

lstm1.weight_hh_l0 f4 [512, 128]
00000000: dde2 4dbb 47d6 ea3c 9d9c 96bd f6c9 3fbd
00000010: b9ca 273d 2ca6 ee3c 6619 76bd 4389 94bd
00000020: 45b3 07bd dc93 87bd 5097 4d3d 07b9 8a3d
00000030: 7eb5 833d 9ea4 a23c c167 8dbd af6d 13bc
00000040: 11e7 0c3d ece0 393d 0a82 a6bb fdce 01bd
00000050: d506 ab3d a098 aa3d 35bc e23c 97c8 843d
00000060: 5b0c 48bd 0899 c13c f214 523d 2dc6 29bd
00000070: 6b3e 08bd 1f60 ae3d 68ab a13d 03ad 473d
00000080: e13d b6bd c506 573d 39de a3bd 6a1a 02bd
00000090: 2f88 39bd d1a5 a03d 003a bd3d 4ba7 683d
000000a0: 700f afbd 5fd9 883d 4d71 cd3b 4e5c 473b
000000b0: 71ad 0ebd 7e4b e7bb 5ea9 b53c 97bd c93d
000000c0: 11f4 a13d e77e a13d d0e8 a6bd 4703 653d
000000d0: 4473 8f3d 1146 33bc 4068 6abd 58cf 583c
000000e0: f3a7 20bc d957 a23d 8972 64bd dc1a 73bd
000000f0: a872 9b3d 1708 9b3d 07cc ffbc 519c edbb
00000100: e82f 98bc 0b6e c1bb 3cb4 633d f031 43bd
00000110: ce13 95bd a331 8f3c bd70 7fba 085c 81bd
00000120: c5a4 04ba 1876 5fbc 3559 d93c a7a1 8ebd
00000130: 8ee4 81bd e54a a43d c9d3 963d fbe0 a43c
00000140: 6ac9 5bbb 39a9 82bd f247 a6bd ff77 a9bd
00000150: 4925 59bc 64e4 a13b 68cf 3fbd 1cb8 3a3d
00000160: 721d 41bd ec92 80bd ee37 95bd f477 85bd
00000170: 275a ac3d 5ee0 58bd 2367 a63b 3d99 f0bb
00000180: e6fa 73bd aaf3 a3bd acb6 3e3d 78fd a4bd
00000190: 3d85 04bd 7905 a13d f383 1bbc 71a9 dd3c
000001a0: 1808 a93c 72c8 24bd 17fb 06bd 76f0 0d3d
000001b0: 3892 943d da3c 5d3d 2a3d 913d 13c0 983c
000001c0: d2de af3d 803a 40bd 4c37 b73c 6c8c adbc
000001d0: 5f8b 28bd 030f 863d 07c1 063a 1c3f 0cbd
000001e0: 0d58 1fbd c4c0 9a3c e3b2 99bd c547 013d
000001f0: 05a6 aabb 9275 2fbd ef7e 243c 8afa 29bd
00000200: 06ec 5c3c 6e69 6cbd bb69 0fbc a27b 04bd
00000210: d79b b1bd 707e 993c d271 73bd e4cc 813d
00000220: fadd cabc 694b 943d 4b89 1dbd 729e 3c3c
00000230: 495e c83c 5df4 6abc bb3d 8e3d 4af4 e63c
00000240: 8156 afbc 23fd 2fbd 733f 81bc 2b11 28bd
00000250: 2c5f 633c 0dd8 50bd e80c 3cbc cf6d 1abd
00000260: 85e4 8fbd f6f5 913c adf3 00bd 0728 853d
00000270: 737f 9bbd 1dfb b03d d722 c83c 7ae6 033d
00000280: 7284 773d 2fe2 30bd 6d65 9d3d 23c2 1bbc
00000290: 7a0b 72bd 3e34 7bbd 3fbc b33b 9482 a8bc
000002a0: b75e c53c dd25 3bbd 96aa 393d b04d 91bc
000002b0: 453e 7c3b 1b06 273d ac2c 41bd 208b e83c
000002c0: d7ec 26bd 93a7 96bc fa84 24bd a6ce 7b3d
000002d0: 2160 b73b c0f8 113b 692f ab3c 8ce8 7fbd
000002e0: 18b8 84bd 1cb2 9f3c f56c a6bd d408 e7bc
000002f0: 5c8b bfbd d402 b9bb 4782 48bd c266 923d
00000300: 7367 92bd 1131 f63b 84b0 25bb 8f2a 86bd
00000310: 905c 643d 0584 03bd b181 76bd 87bc fcbc
00000320: a6eb 84bd b0f1 c73c f80d c3bc fb99 7b3d
00000330: 6e9b e7bc 3679 90bd c04d 613d afdd fabb
00000340: 64e7 7ebd d699 8dbc f69a 1dbd 9720 9fbd
00000350: b47c dbbb 7f1c 98bd ee08 403d 20b7 23bd
00000360: 2ee9 d9bc de81 9c3d 9b0a 253c 2300 c93d
00000370: 24f3 6fbd 8485 0d3d 2e29 5abd abb7 7ebd
00000380: a97e b1bd 6860 85bd 43d9 283d b322 b03d
00000390: c5be a43d 80d6 aa3c 0652 20bd e607 30bd
000003a0: d327 3b3d 74b9 84bb e8d1 6abd a8c9 b4bd
000003b0: 8847 2b3d 3ca8 c63c b55c a13c 9a6a 5dbd
000003c0: 04c4 e63c 564b 173a 842f 05bd 505a 3bbd
000003d0: 5fa2 babc 2850 c93c f499 debc 7d33 59bd
000003e0: a0ac 4ebd dcce 8c3d 9e3d c53d f0d7 053d
000003f0: e87a 4c3c a240 febc bb1e 79bd b92e 0fbd
-0.0031415739 0.028666629 -0.0735409 -0.046823464 0.040964816 0.029131971 -0.060082816 -0.07252743
-0.03312995 -0.06619999 0.05019313 0.067735724 0.06431101 0.019853886 -0.06904555 -0.008998319
0.03440005 0.045380518 -0.00508142 -0.03169154 0.083509125 0.08329892 0.027677635 0.06483572
-0.048839908 0.023632541 0.051289506 -0.04144876 -0.03326265 0.085144274 0.07894021 0.04874898
-0.08898521 0.05249669 -0.0800137 -0.03176347 -0.04529589 0.07844127 0.09239578 0.056800168
-0.08547866 0.06682085 0.00626961 0.0030420008 -0.034833375 -0.00705856 0.022175487 0.098506145
0.0790788 0.07885533 -0.08149874 0.05591133 0.07004407 -0.010941998 -0.057228327 0.013233028
-0.009805667 0.07926912 -0.05577329 -0.059351787 0.07590228 0.075699024 -0.031225218 -0.0072513004
-0.018577531 -0.0059030107 0.055591807 -0.047655046 -0.07279168 0.017479723 -0.00097442773 -0.06316382
-0.0005059953 -0.013638996 0.026531795 -0.069644265 -0.063424215 0.080220975 0.073646136 0.02012681
-0.00335368 -0.06379933 -0.08119191 -0.082748406 -0.013253518 0.0049405564 -0.046828657 0.045585737
-0.047147222 -0.06278023 -0.07286058 -0.0651702 0.08415633 -0.05294835 0.005078213 -0.007342486
-0.059565447 -0.080054596 0.04656093 -0.08056158 -0.03235363 0.07862372 -0.009491908 0.027058335
0.020633742 -0.040230222 -0.0329543 0.03465315 0.072544515 0.05401311 0.07091744 0.018646276
0.085874215 -0.04693079 0.022365235 -0.021185122 -0.04114854 0.06545832 0.00051404577 -0.034239873
-0.03890233 0.018890746 -0.07504823 0.031562585 -0.0052077794 -0.042836733 0.010040029 -0.0414987
0.013484007 -0.057717733 -0.008753235 -0.032344468 -0.08672302 0.018737048 -0.05943472 0.06337908
-0.02476405 0.07240946 -0.03846101 0.011512386 0.024459021 -0.014340487 0.06945368 0.028192658
-0.021403553 -0.04296602 -0.015777325 -0.041031998 0.013877671 -0.050987292 -0.011477686 -0.037702378
-0.070260085 0.017817479 -0.031482387 0.06501775 -0.075926684 0.08641646 0.024430675 0.03220222
0.060429044 -0.043184455 0.07685361 -0.009506735 -0.059092976 -0.06132912 0.005485087 -0.020570077
0.024093015 -0.045690406 0.0453287 -0.01773724 0.0038489264 0.040777307 -0.047161743 0.028386652
-0.04075321 -0.018390452 -0.04016588 0.061476372 0.0055961763 0.002227351 0.02089663 -0.062477633
-0.064804256 0.019494109 -0.08126251 -0.028202452 -0.093527526 -0.005646089 -0.048952367 0.07148506
-0.071486376 0.0075131734 -0.0025282213 -0.06551086 0.055752337 -0.032108326 -0.060182277 -0.030851616
-0.06490259 0.024407238 -0.023810372 0.061426144 -0.028272357 -0.07054369 0.05500579 -0.0076558213
-0.06223239 -0.017285269 -0.03847786 -0.07769888 -0.0066982154 -0.0742731 0.046883516 -0.039969563
-0.026600447 0.07641958 0.010073329 0.09814479 -0.058581486 0.03455116 -0.05326193 -0.06218688
-0.08666737 -0.06512529 0.041222822 0.08600368 0.08044199 0.020854235 -0.039140724 -0.042976283
0.045692276 -0.004050428 -0.05732909 -0.088275254 0.041816264 0.024250142 0.019697526 -0.05405674
0.02816964 0.0005771419 -0.032516018 -0.045740426 -0.022782503 0.024574354 -0.02717302 -0.05302762
-0.050457597 0.06875393 0.09630893 0.032676637 0.012480475 -0.031036679 -0.060820322 -0.034956668

lstm1.bias_ih_l0 f4 [512]
00000000: aa01 9c3d 99af acbc 7511 413d df7d 48bd
00000010: 6dbf 46bd f4d3 63bd 8f24 393d da99 933d
00000020: b7fc 18bb a4d8 803d 222f b7bc 79ce 553d
00000030: c17e b739 24bd 36bd 6289 97bd 8c59 b33d
00000040: 1961 0dbd 63a4 71bd 9752 203b 8aa2 9b3d
00000050: a551 f73c 5b79 a3bd b8a8 2cbc 1a86 61bd
00000060: b74f 50bd 1b0c bfbc 8065 3c3d 7618 053d
00000070: abd2 0bbd daa1 c13c aa78 50bc ba5d 83bd
00000080: e6ac 553d 0495 ed39 1463 40bd 8a3e 993d
00000090: 2f7b 373d 13d0 92bc 4338 c93c 008d a53b
000000a0: 51f3 2c3c 6ac6 9abd 4784 8f3c 7287 313d
000000b0: f58a d53c 0a61 c9bd d06f 0ebc 2d60 8ebc
000000c0: 4c17 273d 2f78 30bd b1d2 50bd 35a6 bdbd
000000d0: 0580 aa3d 47f4 06bd 3b31 a73d cff9 8e3d
000000e0: 086f 103d 3032 b33c 2f20 4b3c b238 863d
000000f0: c6eb a8bd 07ea 373d 9d25 2f3d af70 233d
00000100: 846f 393d 2cdf 903c 6054 b1bc 7532 5abd
00000110: a1f1 08bd 1566 743d f23b 91bc fe63 55bd
00000120: 056b a5bd 0874 88bb 0fca 8ebc ab1d 213d
00000130: 3fa6 963d c96b 04bd 599d c1bc 71eb 083d
00000140: 0f8d ce3c e19a a8bd a4c0 07b8 114f 74bd
00000150: 4928 513d 2aef b1bd 3690 95bd 3393 313d
00000160: 799f 123c 2ba0 bbbd 3b5e 88bd d6f5 e73c
00000170: 7759 b5bc a6e0 f33c 2f4c 973d f9e5 cdbc
00000180: 15bb 9e3c 0b9a 97bd 5a90 1abd 3254 403d
00000190: 27be f2bb b8b9 05bd 0124 a43c a7d7 ac3d
000001a0: 5c43 993c 0a44 0e3d 08a3 563d fe8a 68bd
000001b0: c16a c63c b0e4 79ba 5e17 ba3c 4535 d63b
000001c0: 48f3 df3c c270 b7bd 6872 8ebd 97d1 80bd
000001d0: c682 bb3d 03be 40bd 5a59 8e3c 26ae 70bd
000001e0: fcad 143d e20e 083d 9a22 8b3d 4e23 903d
000001f0: b064 0abd 81a0 6b3c a5cd 54bd 48e7 583d
00000200: 8af9 923d a336 b2bc b8e9 98bd caf4 a83d
00000210: a4cc 8e3d ef55 b3bd 1637 1bbd aa1e 83bd
00000220: 7950 8139 4114 4bbb f0dd b4bd e390 573d
00000230: 1d58 093d 9a9c 943d 5180 643d a70e 77bd
00000240: fa0f 91bd 49d8 943c 08f2 23bd 21bc 9fbd
00000250: cb0c 0e3c 764c 4dbc 7f07 cb3d f730 103d
00000260: 81b6 263c b2d4 10bd 500f 3abd d20f e73b
00000270: 3769 b63d 5a1c 04bb 22f4 4d3d 1922 8e3d
00000280: dda8 a03c 40fb 423d 096b e3bc 1f9f e63c
00000290: 4039 023d 25f9 85bd 582d 6fbd 6efd 48bc
000002a0: 6d87 88bd 98b0 a73d 0798 0c3d ed69 503c
000002b0: b5f1 303c 895f aabd 68bd 453c b299 9a3b
000002c0: 76c7 c6bd 7152 c33c c5d5 03bd 9bb9 0fbd
000002d0: dc89 5a3d e9cb 92ba 30ef 52bd 7d5f 8d3d
000002e0: c159 e03d d747 d13c 6f2f 8a3d 9780 3a3d
000002f0: cd13 923d a3e5 7dbd 07d7 823d 461d 983d
00000300: 70b8 753d 3487 593d 1622 b83c 5710 3e3d
00000310: 2156 a23d 3198 a7bc d91e d23c 4de2 a0bd
00000320: c495 71bb 6b62 d93c d813 8a3d f120 6abd
00000330: a289 a3bd fae9 8c3d 53c7 19bc 5815 6fbc
00000340: 68a6 7fbc 6363 32bd ca3c 883d a79b 3f3d
00000350: 975a 903d 42e1 7ebd ca71 b33b cf29 6ebd
00000360: ff05 423d c0a6 25bb 9290 8b3d 207f 303d
00000370: f6a6 443d 1db0 31bd 0ff0 48bb bd39 eebb
00000380: 0de3 a03d 52c2 75bd 86ea 2f3d 3fa3 80bd
00000390: 3b26 7f3d 3164 bf3c 442c 2f3d bae2 773d
000003a0: c535 953d d3c5 bdbd c027 22bc 2bdf 293c
000003b0: 97e8 5bbd b24d 96bd 5224 a4bc ee2e 32bd
000003c0: 1b46 34bc c94f 90bd 3023 6fbc 5b15 923d
000003d0: f272 5fbd 63a0 3d3d 840a e93b 22ef 3d3d
000003e0: 67ba fdbc 708c 9ebd c77b 07bc a331 ac3d
000003f0: a1d6 303d d490 443d 7d82 afbc ab44 53bc
0.07617505 -0.021079825 0.04713579 -0.048948165 -0.0485224 -0.055622056 0.04520088 0.07207079
-0.002334399 0.06291321 -0.022361342 0.05219886 0.0003499892 -0.044613972 -0.073992506 0.08757314
-0.034516428 -0.058994662 0.002446329 0.07599361 0.030190298 -0.07982131 -0.010538273 -0.05505953
-0.050857272 -0.023321202 0.045995235 0.03249403 -0.034136456 0.023636747 -0.012724081 -0.06414361
0.052166842 0.00045315188 -0.04696949 0.074826315 0.04479521 -0.017921483 0.02456296 0.005052209
0.010556058 -0.07557376 0.01751913 0.04334206 0.026067236 -0.09832962 -0.00869365 -0.017379845
0.040793702 -0.043083366 -0.05098218 -0.09260217 0.08325199 -0.032947805 0.08163687 0.06981241
0.035262138 0.021874517 0.01239781 0.065537825 -0.08248095 0.04490092 0.04276048 0.039902385
0.045272365 0.017684542 -0.021646678 -0.053270776 -0.03343356 0.059667666 -0.01772878 -0.052097313
-0.08077053 -0.0041642226 -0.017430333 0.039334934 0.07355928 -0.032329354 -0.0236346 0.03342766
0.025213746 -0.08232666 -3.236592e-05 -0.059645716 0.05106381 -0.08688195 -0.07302897 0.04335327
0.008949154 -0.09161409 -0.06658598 0.028315466 -0.022137387 0.029770207 0.07387578 -0.025134074
0.019376317 -0.07402428 -0.03773532 0.046955295 -0.007407922 -0.03264782 0.0200367 0.0843957
0.018708877 0.034732856 0.052401572 -0.05677318 0.024220826 -0.0009532673 0.02271622 0.006537112
0.027337685 -0.08957054 -0.06955415 -0.06289976 0.091558024 -0.04705621 0.01737659 -0.05875983
0.036298737 0.03321732 0.06793709 0.07037984 -0.03378743 0.014381529 -0.05195393 0.052954942
0.07176502 -0.021754568 -0.07466453 0.08249815 0.06972626 -0.08756625 -0.03789433 -0.06402333
0.00024664754 -0.0030987414 -0.08831394 0.05262841 0.033531297 0.07256432 0.055786435 -0.060316708
-0.070831254 0.018169539 -0.04002574 -0.077995546 0.008670042 -0.012530437 0.09913539 0.035202947
0.010175348 -0.035359092 -0.04542476 0.0070514465 0.08906787 -0.00201585 0.05028165 0.06940097
0.01961177 0.047602892 -0.027761 0.028152047 0.03179288 -0.06541661 -0.058392853 -0.012267454
-0.066664554 0.081879795 0.034324672 0.012720567 0.010799815 -0.08319003 0.012069084 0.004718029
-0.09706013 0.023843022 -0.03218629 -0.035089117 0.05335413 -0.0011199686 -0.05149764 0.069029786
0.10954619 0.025546951 0.067473285 0.04553279 0.07132683 -0.061986577 0.063886695 0.074274585
0.059990346 0.053107455 0.022477191 0.0464023 0.07926584 -0.020458313 0.025649475 -0.078556634
-0.003686295 0.026536187 0.06742066 -0.05716032 -0.07985236 0.06880565 -0.0093859015 -0.014592491
-0.015603639 -0.043551814 0.066522196 0.0467793 0.07048529 -0.06222654 0.005476211 -0.05814534
0.047369 -0.0025276393 0.06814684 0.043089986 0.04801079 -0.043380845 -0.0030660664 -0.0072700665
0.078558065 -0.05999977 0.04294827 -0.06281137 0.06229232 0.023363205 0.042766824 0.060518958
0.07285646 -0.092662476 -0.009897172 0.010368149 -0.05368861 -0.07339038 -0.02003685 -0.043501787
-0.011003043 -0.07046468 -0.014595792 0.071329795 -0.05455298 0.046295535 0.0071118493 0.046370633
-0.030972673 -0.0774163 -0.008269257 0.08407905 0.043173436 0.04798968 -0.021424526 -0.01289479

lstm1.bias_hh_l0 f4 [512]
00000000: 92ad 8b3d 9526 29bd 2fa1 be3c ed99 17bd
00000010: 3d21 3a3d 1c8d 683d a3b6 693d 0345 47bd
00000020: 5ef0 bbbd c526 c5bd 6b98 9cbd 63b8 8cbd
00000030: 5ac3 c13c 7f2e 023d e1e8 d7bc 73b3 483d
00000040: 161a 593c cbe3 96bd 62bc 323d e16a c6bc
00000050: c37d 01bd 435c 24bd ce37 963d 9869 1ebd
00000060: c42f 6f3b dfe1 6d3d 4988 d8bc a5a1 1a3d
00000070: 9278 813d c250 cbbb 66fa 163d e4f3 b33d
00000080: 8350 babc 2cf0 95bd dd3e 95bd fb36 6b3d
00000090: 51ad af3d 77c1 09bd e05c fc3c 9bd9 78bd
000000a0: 9132 90bd 4686 983d 5508 623d 9af8 8bbd
000000b0: 4be7 cebc f34d 90bb cbef 9c3b a0c0 193c
000000c0: 69ac 813d 0705 c33b d7f2 b8bc a99e 843d
000000d0: ced3 5439 6e06 82bb 5e57 8bbd ecb3 9d3d
000000e0: 67b7 2fbc 3c9f 90bd 4e1b 9b3d ab2e 07bd
000000f0: 31e1 8abd 28cf 83bc d467 febb 8954 813d
00000100: 97f6 e5bc bb52 4a3d 08d9 743b 117a ef3c
00000110: fdb8 99bd 5a70 9abd b649 1e3c e3f7 b5bc
00000120: be62 6fbd 9c50 d63c 402a 703d 0cb9 3fbd
00000130: b920 b5bc 21ba 88bd 2c17 a73d a90b 38bd
00000140: 7282 b6bd ab3d d6ba 57a6 5c3c b20a 793d
00000150: a5d2 20bd 8516 023d a57f a6bd 085e 8d3d
00000160: a077 b3bd 9302 bc3c 0dc1 b8bd 6654 01bd
00000170: e07d 3dbd bf1d 75bd 1550 6bbc 1f43 c0bd
00000180: 131a 973c 5c90 4f3d 5217 9abd ba14 ccbd
00000190: c663 b03d d31e 853c 6f30 4a3c 1ca4 cf3c
000001a0: d606 823d 213a 383c b5a5 603d 57bf 76bd
000001b0: 080d 34bc f228 49bd 3652 b93d 085f 94bd
000001c0: da85 7c3d 4ada 7d3d 7a68 51bd 60e6 e73a
000001d0: 664f 32bd 3e9c 7f3c cbdc cebc a89e 953d
000001e0: b41d 9abd 22d7 0dbc 4c68 c2bb d0b8 f7bb
000001f0: f8df 393d 9ad3 fc3b 4cf8 a43d cf78 a03c
00000200: a9d7 f03c 9abf 0cbd 5ba8 a3bd 37f8 babc
00000210: c504 6c3d 1850 2b3d 6b92 753d ec60 56bd
00000220: 9824 b9bd 821e 7b3c 9c4b b7bd 1bce 1d3d
00000230: 6a65 993d b938 733d d68f 2fbd 5d79 323d
00000240: bba0 d1bc 8b14 46bd 5f70 ad3d 097d a83d
00000250: 21b2 693b 880a a93a 5d7e 3f3d 8c0c 46bd
00000260: 28a2 e0bc 6686 3abc 76ea 133d 56f1 983c
00000270: 49cb c03c 72f1 e8bc d2c3 62bd 87a1 12bc
00000280: 0960 7ebb 0875 bc3d 016a 1dbd 92c0 d33c
00000290: 1897 a23d edd0 6fbd 1d27 8abd 5d3b bd3c
000002a0: 5773 9c3b 42c5 48bd 44ff 82bd 07ef b13d
000002b0: 3bba 993c a818 bebc 5407 043d 00c5 79bd
000002c0: 3f9e 0abd 5637 4dbc 40fb 8ebd 81e6 22bb
000002d0: f2c7 273d eb5f 97bd 5ab7 36bc 9804 97bb
000002e0: f07f 8c3d 11fc 2abd e57d 913d 8164 aabd
000002f0: 9f81 153d ba91 b4bc 8611 2e3b 5958 5b3c
00000300: 47e9 183d caab 90bd cbf4 853d 8645 9c3d
00000310: 158f 9b3d ab74 923d 0b59 72bd caca 3c3d
00000320: 5e4e d0bc 26f9 36bd 38f8 cdbc 57bb 87bd
00000330: 58ec 3f3c be67 34bd ae1a 84bc e747 3d3d
00000340: 46cf 7f3d 7b95 6abc f9c9 a43d 208d 5a3d
00000350: e659 1a3d 76d5 acbc e2cd a3bd 03c1 96ba
00000360: 0bad 8dbd 9064 85bd 6a64 8bbd eb1a 883d
00000370: b33d 78bc a90a 0b3d 132b a13d 8d4b b8bd
00000380: 7716 91bd 8c14 eebc bcf4 25bd dfbe f7bc
00000390: 9a57 a63c cfb3 593d 37aa 6f3d 2b53 03bd
000003a0: 7639 863c 93aa 77bc 8649 6cbd baad ae3d
000003b0: 882c 8fbd 17a4 33bd d604 9f3c 9f9c 883d
000003c0: 580d 20bd 7d37 64bd ea01 96bd 1345 933b
000003d0: c519 a03d 35b5 4d3d 2336 123d 5943 50bd
000003e0: 26bc 73bd 4a79 20bd a555 083c 3469 c83c
000003f0: 23bb 8cbb e223 06bd 8395 603c a7f2 b53c
0.06820215 -0.04129656 0.023270218 -0.03701203 0.045441855 0.056775197 0.05705894 -0.0486498
-0.09176706 -0.09626535 -0.07646259 -0.068711065 0.023652721 0.031782623 -0.026356163 0.04899926
0.013250848 -0.07367667 0.043636687 -0.024220886 -0.031614076 -0.04012705 0.07334863 -0.03867492
0.0036496976 0.058076736 -0.026432173 0.037751812 0.06321825 -0.0062046954 0.036859892 0.08786753
-0.02274347 -0.073212 -0.07287381 0.05742548 0.08577979 -0.033631768 0.030806005 -0.0607544
-0.07040895 0.074474856 0.055183727 -0.06834526 -0.025256773 -0.0044038235 0.0047893277 0.009384304
0.06331713 0.005951527 -0.022576733 0.064755745 0.00020296799 -0.0039680516 -0.06803773 0.07700333
-0.010724879 -0.070616215 0.07573567 -0.03300349 -0.06781233 -0.01608999 -0.007763842 0.06314952
-0.028071685 0.049395304 0.0037360806 0.02923301 -0.07505987 -0.075409606 0.009661129 -0.022212928
-0.058443777 0.026161484 0.058634043 -0.046807334 -0.02211033 -0.06676126 0.081587166 -0.044932995
-0.08911599 -0.0016345283 0.013467393 0.060801215 -0.039263386 0.031759758 -0.08129815 0.06902701
-0.08763051 0.022950446 -0.090211965 -0.03157463 -0.046262622 -0.05984282 -0.014362355 -0.09387802
0.01844505 0.05067478 -0.07523979 -0.09964891 0.0861278 0.01625005 0.012340649 0.025346808
0.0634896 0.011244328 0.05484553 -0.06024107 -0.010989435 -0.049111314 0.090488836 -0.07244688
0.06165109 0.061975755 -0.051125027 0.0017692558 -0.04353275 0.015601216 -0.025251767 0.07305652
-0.07525197 -0.008657249 -0.0059328433 -0.007559873 0.04537961 0.0077156546 0.08055171 0.019588856
0.02939971 -0.034362413 -0.07991096 -0.022823436 0.057621736 0.04182443 0.05995409 -0.052338526
-0.09040183 0.015327098 -0.08949968 0.038526636 0.07490046 0.059380267 -0.042861782 0.043572772
-0.025589338 -0.048359435 0.08468699 0.082269736 0.0035659152 0.0012896815 0.04675137 -0.04835181
-0.027421072 -0.011384582 0.03611227 0.018669765 0.023534434 -0.028435443 -0.05536253 -0.008949644
-0.0038814566 0.092020094 -0.03843117 0.02584866 0.07938975 -0.058548857 -0.067457415 0.023099596
0.004774492 -0.049016245 -0.06396344 0.08688169 0.01876556 -0.023205116 0.03223355 -0.06097889
-0.03384232 -0.0125254 -0.06981516 -0.002485663 0.040962167 -0.07391342 -0.011152113 -0.004608702
0.0686034 -0.041744296 0.071040906 -0.08319951 0.03650057 -0.022042144 0.0026560738 0.013387763
0.037331846 -0.07064016 0.06540831 0.07630448 0.0759565 0.07151159 -0.05916695 0.046091832
-0.025427993 -0.0446712 -0.025142774 -0.06627529 0.011714064 -0.04404425 -0.016126003 0.04621115
0.06245353 -0.0143178655 0.08046336 0.053357244 0.03768339 -0.02109788 -0.079982534 -0.0011501614
-0.06917771 -0.065133214 -0.06806262 0.06645759 -0.015151429 0.033945713 0.07869544 -0.08998785
-0.07084363 -0.029062532 -0.0405166 -0.030242382 0.020305444 0.053149994 0.05851194 -0.032061737
0.016384821 -0.015116352 -0.057687305 0.085292295 -0.069909155 -0.04385766 0.019411486 0.06670498
-0.039075226 -0.05571698 -0.07324584 0.0044943183 0.07817415 0.05022164 0.03569616 -0.050845478
-0.059505604 -0.03917817 0.0083212005 0.024464227 -0.0042947694 -0.032749064 0.013707521 0.022210432

lstm1.weight_ih_l0_reverse f4 [512, 6]
00000000: ff9e cd3c 9111 bfbc ecfd 343d fb59 15bd
00000010: e8f7 54bc ee29 5fbd 821e 6c3d 1653 a93d
00000020: 0a68 0bbd 0933 64bc 9086 173b cad6 2c3c
00000030: c2c3 143c 6495 28bc a4dc 00bc 2527 273d
00000040: 818e 7abd 9636 14bd 825b 7d3d d701 08bc
00000050: 1bd1 98bd 3a3c 273d 64a2 cfbc 5587 81bd
00000060: 8f6e bebd cf2f b93c abb4 78bd 54d6 0e3c
00000070: 24b0 ba3c 1de4 4dbd 4a30 bdbc 4811 79bc
00000080: 88f4 6c3d dd23 b7bd 1011 1b3c fa1d a73d
00000090: 157c 11bd dee0 3a3b 7df6 a7bd 6e4a 6fbd
000000a0: 4962 a23d 9969 a9bd fc5d 16bd 7a74 13bd
000000b0: 1234 8dbd ffc3 493d cf3a 48bd 94bd 81bc
000000c0: c99b 983d d924 4c3d 0103 01bd 40f8 703d
000000d0: f167 8b3d 321f 05bc 77b2 30bd 0923 323d
000000e0: 3963 a9bc 729e 12bd e447 543d 77b1 153d
000000f0: 8788 833c 4081 09bd 1bb4 0f3d c508 abbc
00000100: e126 97bc 07d7 a43b cba3 bd3d 58e4 b4bc
00000110: da91 793d 15a4 7d3d e798 6bbd f64b c1bc
00000120: 8b9b 94bd 1cb2 06bd 2e56 84bd 5d91 69bc
00000130: aac8 0b3d 160c bebc d75c 233d de06 b5bd
00000140: 9549 acbd 43cf 91bd f05e 613c d52f b7bb
00000150: cd15 0bbc e71c 2cbc 330d 89bd 18c5 2e3d
00000160: f465 533d f6ac cf3a 77a7 f93c 3c2b 2a3c
00000170: f5a8 6b3d 98c4 c6bc 6143 a73d 8533 63bd
00000180: 2cea 2ebd 287f 7a3d e067 10bd 18ef 41bd
00000190: ffed 1ebd cb9d 373d 567e ac3b e409 59bd
000001a0: 74ec a6bd 5876 e6bc 5f6d 09bd 299e 58bd
000001b0: 5392 843d 27d6 6e3d 7a49 2abd 6be9 233d
000001c0: aaa3 0d3d 23e7 623d 4a24 873c 6a89 86bd
000001d0: 6b1d e3bc 3087 61bd 2b42 c9bc 6fc4 813d
000001e0: 9c88 95bc 7177 ed3c f17c ae3d 3a2a b43d
000001f0: db44 463d dc76 b2bc bf07 113b 720f a8bd
00000200: a246 9abd d892 1ebd 3aa8 773d ccd1 0a3d
00000210: aae2 91bd 48e7 c43c 8708 763c 5607 2bbc
00000220: 7952 9d3d 2f64 b13b 119d 97bc e69a 21bc
00000230: 8140 8ebc 4489 babd d11e 38bc 4ca1 b7bb
00000240: e26d 913d a444 5cbd 7f3d 5fbd b880 4ebd
00000250: b4d4 bc3d 5412 10bd d5aa f4bc bf9c a3bd
00000260: b7e3 babd 3ede ccbd a5a1 76bd 4ee0 aabd
00000270: 69b4 843d b744 89bd 0613 7f3d 1121 2fbb
00000280: 3c9c 4fba 923d 4dbd 83b5 37bd e35e 773d
00000290: 137f 8abd 218f 833d c494 e4bc 454e 063d
000002a0: 6def 85bd 7b57 dbbb 9c86 303c ca65 37bd
000002b0: 6769 84bb 510c 9b3d ea70 853d 7a5e 7dbd
000002c0: 88ae 963c ef12 a2bd f6ee 85bd daa4 94bd
000002d0: 4222 773a 1d2a 92bd 540b a33d 6fe5 b3bd
000002e0: 5173 99bd 649c 5b3d 3882 76bd e08d c5bd
000002f0: 5ae0 0a3d a300 8bbc 8ca1 77bc 7fbc 7b3d
00000300: 507f 2dbd 061e b23d f8b0 6d3d 9f87 49bd
00000310: 18aa aa3c 7a8d 87bd 33b2 413d c569 04bd
00000320: 44e7 87bd 5044 edbc 91e3 9b3d 6772 b3bd
00000330: 7be8 59bd c0f3 393d 02ac cebd e553 1abd
00000340: 55b5 2d3d 7e5b df3c 1a01 8bbd 2c26 56ba
00000350: 36d3 afbd 3a3a b23c ee44 143d 99a0 37bd
00000360: 17a2 2ebd 56b5 2b3d ebaa abbc 0683 dbbc
00000370: 6072 9a3c 091d c73d 31b5 68bd 3075 3f3d
00000380: c5e5 a2bd ebfc f4bc 0f4c 813d 4deb 923d
00000390: 091b 80bd 31a3 e9bc f377 28bd c89f 13bd
000003a0: 051d e5bc d3af eabc 9192 6bbb 8f1a 943d
000003b0: 2f0f 0fbd 18ce adbd 94c4 4dbd f86e b33c
000003c0: 10c5 403d 96f4 64bd f839 78bc a9b8 0bbd
000003d0: c0de 96bd cc59 21bc 1eb6 a73d 7892 8a3d
000003e0: b2ba 523d 2cea 11bd cda2 423d ef6e 313d
000003f0: 51e8 283d c46e 8b3d cd52 453d 641f e2bc
0.02510023 -0.023323806 0.04418747 -0.036462765 -0.012998559 -0.054483347 0.057646282 0.082678005
-0.034034766 -0.013928183 0.0023120977 0.010549257 0.009079875 -0.010289524 -0.007865105 0.040808816
-0.06117106 -0.03618487 0.061854847 -0.00830122 -0.07461759 0.04082892 -0.025345989 -0.06324641
-0.09298431 0.022605805 -0.060719173 0.008718092 0.022789069 -0.050266374 -0.023094315 -0.015201874
0.05785039 -0.08942387 0.009464517 0.081600145 -0.035518724 0.002851538 -0.08201311 -0.05842059
0.07928903 -0.08272094 -0.036710724 -0.035999753 -0.06894697 0.049259182 -0.04888421 -0.015837468
0.07451589 0.04983983 -0.031497005 0.0588305 0.068069346 -0.008125113 -0.043138947 0.043490443
-0.020677196 -0.035795636 0.051826373 0.036546197 0.016056312 -0.033570528 0.03508387 -0.020878205
-0.018451156 0.005030516 0.09259757 -0.022081539 0.06093011 0.06192406 -0.057518866 -0.023595791
-0.0725623 -0.032884702 -0.0646175 -0.014255849 0.034126915 -0.023199122 0.03988346 -0.088392004
-0.08412472 -0.0711961 0.013755545 -0.005590419 -0.008489084 -0.010504938 -0.06691971 0.042668432
0.051610902 0.0015844393 0.030475361 0.010386284 0.057534177 -0.024263665 0.081671484 -0.055469055
-0.042703792 0.061156422 -0.035255313 -0.04734716 -0.03880119 0.044828217 0.005264084 -0.052987948
-0.081505686 -0.028132603 -0.03355157 -0.05288521 0.06473222 0.0583097 -0.04157398 0.040017527
0.03457991 0.05539621 0.016496796 -0.065691784 -0.027723989 -0.055060565 -0.024567684 0.06336295
-0.018253617 0.028987618 0.085199244 0.087971166 0.04840551 -0.021785192 0.0022129861 -0.08206071
-0.075330034 -0.03871426 0.060463168 0.033891484 -0.07123311 0.024036065 0.0150166815 -0.010438761
0.07681746 0.005413554 -0.018507512 -0.009863591 -0.017364742 -0.091082126 -0.011237816 -0.005603945
0.071010366 -0.0537764 -0.054502007 -0.050415725 0.092202574 -0.03517373 -0.029866615 -0.07988881
-0.091254644 -0.10003327 -0.06021275 -0.08343564 0.06479723 -0.067025594 0.062274 -0.002672259
-0.0007919704 -0.050107546 -0.044850837 0.060393225 -0.06762519 0.06423784 -0.027902968 0.032789487
-0.065398075 -0.006693778 0.010774281 -0.044774808 -0.0040408853 0.075707085 0.06515677 -0.061857678
0.01839377 -0.079137675 -0.06539719 -0.072580054 0.0009427407 -0.07136939 0.07961145 -0.08783995
-0.07492698 0.053615943 -0.06018278 -0.09646201 0.033905365 -0.016968077 -0.015114199 0.06145906
-0.042357743 0.08697133 0.0580301 -0.049201604 0.02083306 -0.066187814 0.047289085 -0.032327432
-0.06635907 -0.028963238 0.07611764 -0.08762055 -0.053200226 0.045398474 -0.10091402 -0.037677664
0.04240926 0.027265307 -0.067873195 -0.000816914 -0.08585207 0.02175628 0.03619855 -0.044830892
-0.04263505 0.041920982 -0.020955523 -0.026795875 0.018853366 0.09722335 -0.056813423 0.046742618
-0.07953981 -0.029905757 0.06313335 0.07173786 -0.062551565 -0.028520199 -0.041130017 -0.03604105
-0.02796794 -0.028648293 -0.0035945515 0.07231628 -0.03492659 -0.08486575 -0.0502363 0.0219035
0.047062933 -0.055897318 -0.01515054 -0.034111653 -0.07366705 -0.009848069 0.08189033 0.06766218
0.051447578 -0.035623714 0.04751854 0.043318685 0.04123718 0.06808236 0.048174668 -0.027602859

lstm1.weight_hh_l0_reverse f4 [512, 128]
00000000: 7698 33bb a415 3cbc bddc 94bd e2c3 a13d
00000010: 2279 89bd b28d 96bc fd15 973c 7f05 2abd
00000020: 6de6 f03b ebc4 8d3d 4749 373d 9459 843d
00000030: 294d b7bc 4925 bb3a 5c11 0fbc b583 fcbc
00000040: 3d44 cabc fbcf 8abd 27bd 913d 2340 90bc
00000050: 1fed be3c 43ae 8fbd 7100 bf3d 0656 8fbd
00000060: 3096 e6bc 91a9 9cbc a1dc e33c efe2 7b3d
00000070: 42fb 73bd c942 0f3d 2a2f 893d a2d6 763c
00000080: ad0f 9dbd 1470 2b3d e45e 323d c023 893d
00000090: bddf 473d d880 baba b3e8 503d b2b0 8b3c
000000a0: ebf8 04bd 220a c7bb e3e6 f3bc 38e8 9f3d
000000b0: 3584 afbd a293 b33c 4a9d fe3c 625d 173d
000000c0: f235 aa3d c2c2 85bc 20ca 7dbc 983b 57bc
000000d0: 3ed0 923c b1fb 803c c0db 333d eb27 0bbd
000000e0: 86d6 193d 63b0 a4bc 923e 43bd a515 103d
000000f0: d2a2 25bc 4692 1abd cc02 4f3d 9f6e 5dbc
00000100: fa10 3ebc 7bc9 03bd d52d 923d c0dd 3c3d
00000110: 00c5 543d 701d 6cbd f4fc 993d d124 c1bc
00000120: f5de 203d bbb8 52bd 9fbe 923d e143 193d
00000130: 82c9 243d 36bc 27bd 520d 303c f15a aabd
00000140: 7b49 4e3d 7d13 103d fc9e 9dbd f2a6 2ebd
00000150: bce1 0abc bdb8 ac3d c771 913d d687 413d
00000160: 7c62 333d c886 913d db29 503d 27bc b5bd
00000170: e04a 80bd db52 9cbd 5c28 a83d 2a49 463d
00000180: bdd9 233c 1251 903d 091b 25bd 0d50 a83c
00000190: 7869 353d 9a3e 7e3d 1ea6 a5bd f764 bd3d
000001a0: ab20 2f3d c06d 6cbc 1df6 bc3b 7403 813d
000001b0: 64ec b0bd c41f e1bb fa3b a0bc a148 9e3c
000001c0: 0e4e 173d 2ef5 98bb 8a41 263d d104 cebc
000001d0: 0796 9b3d 6be3 3abd 459d fabb 1f54 893d
000001e0: 0fe6 cabc 486b a83d 032b 5bbc 4b7a fa3b
000001f0: 707b 4dbd 0a4b 41bd 7947 97bb a102 013d
00000200: 6a4c 2b3d cc34 0f3d 99a2 a93d 8d0a 0e3d
00000210: adb5 9b3d 1988 563d f9d4 dc3c 0e1e 85bd
00000220: d8e3 0e3c 74d5 66bc db14 9bbd acf9 0db9
00000230: cc70 28bd 1833 5ebd 0967 22bd bde8 aebd
00000240: fec3 b4bb 0b7a 8e3c 9461 dd3c bb1d 083d
00000250: 7f49 af3d 3744 653d a265 a6bd fd35 14bd
00000260: 2c20 ab3c 47f7 bcbc 42f4 22bd c2aa 95bd
00000270: 77da b8bd 002b a53d d692 fd3c 9943 36bd
00000280: a52d 59bd 58de 083d c6d0 a9bd 6468 443d
00000290: 35d4 3cbd b46d 88bd 274a 74bd 3045 e73c
000002a0: 9030 1dbc f796 9ebd 3a13 a9bb 562b 2fbd
000002b0: 568e 6f3d 892d d93c 01c6 aebd 0849 0b3d
000002c0: b319 073d 3f2f 01bd 0e13 50bc 19ae 823d
000002d0: d5cc 873c 3629 243c 921d b83b feb2 f6bb
000002e0: 946f b03a 31e1 acbb 8613 203d 6bf3 d0bc
000002f0: d437 05bd b1cb 0c3d b2ff 6d3c d08c 1ebd
00000300: 7576 84bd 67e0 aebc 56ad a1bd fe4c 9e3d
00000310: 4c69 b0bd 7233 903c 977d 8abd dda2 ae3d
00000320: 67b4 ebbc 3055 dbbc 367c 203d 48bd 523c
00000330: 119a c43c cccf 17bd bd45 893d 4d12 703d
00000340: 6b2c 16bd ecdd aa3d 8424 8cbc 4661 9e3d
00000350: 6e81 dabc a85d 1a3d 1765 b1bc 1b89 07bc
00000360: dbcd 993c 426c 28bd 8746 663d 2182 053d
00000370: eaad de3c d826 973c 578d 95bd 4c9a 63bd
00000380: 46f3 37bd 8e74 d0bc f6cd 76bc 376f 793c
00000390: 54d1 6c3d e0b1 523c a24f 3f3d beb7 21bc
000003a0: cbcf aa3d f9ea f33c d2fa 6c3d 33f4 4cbd
000003b0: 1aed 9dbd cd2d 733c 6a6c 1ebc e64d be3b
000003c0: 61a7 cebc 8a67 d13c 6e0c a5bd aeb3 483c
000003d0: 4b82 7bbc ad4a 48bd 5f54 463d 7df6 b23d
000003e0: 9bbe 453d 5a7b 173d fbf6 853d daf9 5b3d
000003f0: 0505 56bb a124 8c3d 1bcf 3d3d 2629 bd3d
-0.0027404106 -0.011479769 -0.07268665 0.0789869 -0.067125574 -0.018378112 0.018443102 -0.041509148
0.0073516876 0.06922325 0.044747617 0.06462398 -0.02237566 0.001427808 -0.008732166 -0.030824522
-0.024690742 -0.067779504 0.07116156 -0.017608708 0.023306428 -0.0701566 0.09326256 -0.069988295
-0.028147787 -0.019123824 0.027815165 0.061495718 -0.05956579 0.0349758 0.06698449 0.015065821
-0.076690055 0.041854933 0.043547526 0.06696272 0.048797358 -0.0014229072 0.05100317 0.017052028
-0.03246395 -0.006074206 -0.029773181 0.07807964 -0.08570138 0.021920983 0.03108086 0.03695429
0.083110705 -0.01632822 -0.015490085 -0.013136767 0.017921563 0.015745016 0.04391074 -0.033973616
0.0375581 -0.020103639 -0.047667094 0.03517689 -0.01010962 -0.037737153 0.050539777 -0.013515144
-0.011600727 -0.03217457 0.07137648 0.046109915 0.051945686 -0.05764526 0.0751895 -0.023577126
0.03927513 -0.051445704 0.07165264 0.03741825 0.040231235 -0.040950976 0.010745363 -0.08318127
0.050363045 0.035174835 -0.076963395 -0.04263968 -0.008476671 0.084336735 0.071017794 0.047248684
0.043795094 0.071057856 0.050821166 -0.08873778 -0.06264281 -0.07632991 0.08210823 0.04840962
0.010000643 0.07046713 -0.040308986 0.020545984 0.044290036 0.06207142 -0.08088325 0.09247773
0.042755764 -0.014430463 0.0057666437 0.06299487 -0.08638838 -0.006870242 -0.019559849 0.019321742
0.036939673 -0.0046678996 0.040589847 -0.025148781 0.07596975 -0.04562704 -0.0076481425 0.06705498
-0.024767904 0.08223587 -0.013376954 0.007643973 -0.050166547 -0.047190703 -0.0046166745 0.031496648
0.04182092 0.03496246 0.08282966 0.03467803 0.07603011 0.052375887 0.026957022 -0.06499873
0.008721314 -0.014088977 -0.07572337 -0.00013539818 -0.041123196 -0.054247946 -0.039649043 -0.08540485
-0.005516528 0.017392179 0.027024068 0.03323148 0.0855894 0.055973258 -0.08124854 -0.0361843
0.020889364 -0.02306713 -0.039783724 -0.0730796 -0.09026044 0.08064842 0.030953806 -0.04449806
-0.053022046 0.03341517 -0.082917735 0.047951117 -0.046100814 -0.06661549 -0.05964103 0.028231233
-0.009594098 -0.07743638 -0.0051597627 -0.042765938 0.05848535 0.02651097 -0.0853386 0.034005195
0.032983493 -0.031539198 -0.0126998555 0.06380863 0.016577164 0.010019591 0.0056187594 -0.0075286618
0.0013460987 -0.0052758683 0.03908112 -0.025506696 -0.032523945 0.034373943 0.014526295 -0.038708508
-0.064679064 -0.021347238 -0.07894389 0.07729529 -0.08613834 0.017602656 -0.067622356 0.085271575
-0.028772546 -0.026774019 0.039180957 0.012862511 0.023999246 -0.037063405 0.06702755 0.058611203
-0.036663454 0.083431095 -0.017107256 0.07733397 -0.026673045 0.037686974 -0.021654649 -0.008272435
0.018774917 -0.041118868 0.056219604 0.032594804 0.027182538 0.01845114 -0.07302349 -0.05556707
-0.044909738 -0.025446203 -0.015063753 0.01522427 0.05781682 0.0128597915 0.046706803 -0.009870468
0.083404146 0.02977513 0.05785639 -0.050037574 -0.07711239 0.014842463 -0.009669403 0.005807626
-0.025226297 0.025562067 -0.080590114 0.01224987 -0.0153508885 -0.04889934 0.048420306 0.0873842
0.04827748 0.03698287 0.065412484 0.053705074 -0.00326568 0.06842924 0.04634009 0.09236364

lstm1.bias_ih_l0_reverse f4 [512]
00000000: 77cb 05bd bdcb aebd b046 8f3c eabb 21bd
00000010: d629 333d 907e e03c ed07 3e3c 9ef4 55bd
00000020: 3627 283d ae8c 823c 7222 6abd 6a73 903c
00000030: 2043 93bd 1570 9bbd d886 703d c741 6f3d
00000040: 3bac 95bd e9e9 ef3c ffd1 c53c f5a2 48bc
00000050: 8336 51bd cb2c 84bd 2002 80bc c4c2 91bd
00000060: 0885 0a3d 0b38 b73d 3221 17bc 9328 3d3d
00000070: 1773 90bd 34f4 99bd 402d 8b3d f0b6 6b3d
00000080: 155c 243d 5373 f1bc f437 6dbd d239 b63d
00000090: 2d8f 2aba 7aa3 883d 2f43 9dbd 6fd1 2bbc
000000a0: ba14 373d ecb0 98ba 71ab f23c c9d3 a1bd
000000b0: f7fa e9bc ff0e 83bd bdbb b13d d421 223d
000000c0: 45dd 083d debe 9f3d e754 96bd a746 a5bd
000000d0: df90 253c 2161 b5bd da98 b33d f61b b23d
000000e0: 9910 3ebd 2690 aabd d8d3 3fbd ddee 3fbc
000000f0: 8862 ab3c 0cf0 97bc af43 433d 0370 14bd
00000100: fa85 0abc 23d1 8ebd f8d4 b1bd 383a 94bd
00000110: 3bd6 8abd 1ee9 393d 98bb 923d 8341 723c
00000120: fb56 1a3d 8a77 edbc 7df3 123d 0f4c 9ebc
00000130: d60f 1e3b bf5a 9d3c a394 a8bd 4708 8b3d
00000140: 0212 0c3d 4508 2dbd 6b99 a0bd bc68 abbc
00000150: 67dd 63bd d8e1 68bd fc83 cfbc 5a48 9e3d
00000160: 3cd4 4cb9 04b0 6e3d 6541 7c3c 39ce 8cbb
00000170: 5297 0cbd 1c01 e2bc 8390 d7bc 2770 8bbd
00000180: 2413 4bbd f0e2 2b3d df2e 99bd 651e 8f3d
00000190: 8212 1ebd e14a 9bbc d97d f03c ea33 0dbc
000001a0: 3934 cabb ae4b a4bd 254c b3bc 4122 5b3d
000001b0: 26c9 65bc 24a5 57bc 9f8a 693c b032 113d
000001c0: d24f 9b3c 49c8 6c3c 82d0 80bd 0224 66bd
000001d0: 0253 5cbd e95f 22bd 53f9 97bd 707a f03c
000001e0: 2360 363d 1653 4abd 9b4e b33c e170 45bd
000001f0: efd2 5d3d 82ce 383d 4f91 ab3b 4531 363d
00000200: 2933 423d e8ed 84bd b36b b53c e0d5 65bd
00000210: 679f 353d cf79 4d3d 1db7 ac3d c6da ec3c
00000220: 23ca 793d 6a62 b03c 039f e0bc b600 243d
00000230: 8b0d 263d f566 c1bc f12b 843d 71c2 74bd
00000240: 916d babc c102 b83c 37a0 5fbc 28c1 32bd
00000250: 026a 7a3d d4c4 87bd 0bf5 4fbd eee3 99bd
00000260: 625b b23d 07db 5b3c 9435 0cbd 635b 85bd
00000270: f3fe 1bbd 21c5 99bd 58ed a4bd a1f7 87bc
00000280: 53b9 c3bc b3c0 41bd 24d8 de3d 5f14 c43d
00000290: a5f7 463d c653 9abc e7f6 5abc 61eb 8e3d
000002a0: 21d9 9d3d b498 563c ec80 ed3c 422b 013c
000002b0: c3ed 093d 3fb0 9c3d a6c9 d63c 2865 843d
000002c0: 48fe 1abd 5196 5d3c a7df 90bd e3dc a1bc
000002d0: cfec 3ebd 1cde b7bd 60e9 af3d 491c a23d
000002e0: 3d34 86bd 7208 9bbd 29af 9f3c f7ae 583d
000002f0: 9f33 293d 195c 0bbd c042 ff3c 6a08 5a3d
00000300: 9801 2cbd 24cd 96bd 601e d9bc 2407 293d
00000310: 2a22 583d 808f f3bc 735e a33d 8698 13bd
00000320: 125e 7ebd 6e5b 8dbd dc14 013d bcc5 a6bd
00000330: d322 dabc 3871 4e3b 3db6 6dbc a049 f43c
00000340: 6c82 b03c 5f36 9db9 aeda eb3c 9b15 883d
00000350: a26b 18bd abd8 923d 894b 333d 868e 383d
00000360: 3e82 2abc 8476 b23c a531 6f3d 7be9 613c
00000370: 61a3 a23c c2f9 8d3d e918 5a3d 34c5 29bd
00000380: 454c 82bd 91c6 96bd 770d 973d 9cf0 b93c
00000390: 01fd a5bd dacb c23c 700d a0bd a1fd a33d
000003a0: 266d 653a 2ac3 ac3c 957f a3bd 18cc 81bd
000003b0: 006d 8bbd cdce a83d a504 b8bc c830 323d
000003c0: cbea 72bc 7cae ba3c 1d8b 0a3d 7beb a5bc
000003d0: 95e2 2dbd 8948 aebd efdb 49bd 7da5 2cbb
000003e0: 5133 f53c b9cd 03bc 7afb 0e3d 23ee 013d
000003f0: bbcb 4ebc 15ab 5dbd 941b acbc 55f7 043d
-0.032664742 -0.08534954 0.017489761 -0.03948585 0.04374107 0.0274041 0.011598569 -0.05223524
0.04105302 0.015936222 -0.057161756 0.017633159 -0.071905375 -0.07589737 0.058722347 0.05841234
-0.07308241 0.029286342 0.024147986 -0.012245883 -0.051077377 -0.06453856 -0.015626013 -0.07117227
0.033818275 0.08946236 -0.009224223 0.046181273 -0.07053202 -0.07517281 0.0679574 0.05754751
0.04012688 -0.029473936 -0.05791469 0.08897747 -0.000650632 0.06671806 -0.0767883 -0.010486945
0.0446975 -0.0011649407 0.029622765 -0.07901723 -0.028562052 -0.06399345 0.08678386 0.039583042
0.033414144 0.07800077 -0.073404126 -0.080701165 0.010105341 -0.088564165 0.087693885 0.086967394
-0.046402548 -0.083282754 -0.04683289 -0.011714664 0.020921007 -0.01854708 0.04767197 -0.036239635
-0.008454794 -0.069734834 -0.08683199 -0.07237667 -0.067791425 0.045388333 0.07164687 0.014786127
0.037680607 -0.028987665 0.03587674 -0.019323377 0.0024118326 0.01920831 -0.08231475 0.06788688
0.03419686 -0.042244215 -0.07841762 -0.020923965 -0.055631068 -0.056856006 -0.02533149 0.07728644
-0.0001953402 0.05827333 0.015396451 -0.0042970446 -0.034323998 -0.02758842 -0.026314026 -0.06808501
-0.0495788 0.04196447 -0.07479643 0.06988219 -0.03859187 -0.018956603 0.029356884 -0.008618334
-0.006170776 -0.08022247 -0.021886894 0.053499464 -0.014025008 -0.013161931 0.014254241 0.03544873
0.01895896 0.014452049 -0.0628977 -0.056186683 -0.0537901 -0.03964225 -0.07420602 0.029355258
0.044525277 -0.049395643 0.021888068 -0.048203353 0.05415624 0.045118816 0.005235828 0.04448058
0.04741207 -0.064906895 0.022146082 -0.05611217 0.04434147 0.050164994 0.084333636 0.028912913
0.06098379 0.021531302 -0.027419573 0.04003974 0.04054026 -0.023608664 0.06453694 -0.059755746
-0.022757323 0.02246225 -0.013649038 -0.04364124 0.061136253 -0.06629339 -0.0507708 -0.07514177
0.08708836 0.013418919 -0.034230784 -0.06511571 -0.038084935 -0.075083025 -0.08053082 -0.01659757
-0.02389208 -0.047302913 0.10881069 0.09574198 0.048576016 -0.018838774 -0.01336453 0.06978489
0.0770743 0.013097931 0.028992139 0.007883849 0.033674013 0.07650804 0.0262192 0.064646065
-0.037840158 0.013524608 -0.07073908 -0.019758647 -0.046612557 -0.08977911 0.085894346 0.07915551
-0.065529324 -0.0756997 0.019492703 0.052901234 0.041308995 -0.034023378 0.031159759 0.05323068
-0.041993707 -0.07363346 -0.026503742 0.041266575 0.052766956 -0.029731512 0.07976999 -0.03603413
-0.06210143 -0.069022045 0.031514034 -0.081431836 -0.026627934 0.003150059 -0.014508781 0.029820263
0.021546565 -0.00029985883 0.028790798 0.06644746 -0.03721202 0.071702324 0.043773208 0.045057796
-0.010407029 0.021785028 0.058396954 0.013788576 0.019853296 0.06932403 0.053246412 -0.041447833
-0.063622035 -0.07362092 0.07375615 0.02269774 -0.08104897 0.023778845 -0.07815063 0.0800736
0.0008751921 0.021089155 -0.07983319 -0.06337756 -0.068078995 0.08242569 -0.022463152 0.043503553
-0.014826487 0.022788279 0.033824075 -0.020253887 -0.042452414 -0.08509929 -0.04928201 -0.0026343756
0.029931696 -0.008044654 0.034907795 0.031721245 -0.012621815 -0.054118235 -0.021009244 0.032462437
