results/models/SENSEX_GRU_model.pth (torch, 683217 bytes, 19 tensors)

gru1.weight_ih_l0 f4 [384, 6]
0.0287384 -0.0010536924 -0.018708909 0.04670502 0.026444081 -0.034719657 -0.084532775 0.038335063
-0.054515984 -0.051125914 -0.053662166 -0.032778732 0.008111975 -0.059282638 0.0013640072 -0.041246887
-0.01586756 -0.083717346 -0.013081922 -0.008440771 0.019398361 0.069525965 0.0016610699 0.031594664
-0.01457339 0.057553716 -0.08023731 0.020458728 0.012925076 0.1007674 0.0072481455 0.013610272
-0.016532725 -0.039131265 -0.023099625 0.052474406 -0.029759306 -0.031672504 -0.054335162 0.044976134
-0.04169236 -0.08343268 0.08234769 -0.03512204 -0.021926172 -0.044095382 -0.031559333 0.080171935
-0.083410576 -0.030876365 -0.014257945 0.09243284 0.08292127 -0.06518563 -0.009223043 0.03700162
-0.08101934 0.038969014 -0.07652981 0.050196435 -0.078518406 -0.051405307 -0.0102065075 -0.01084999
-0.06543703 0.07973227 0.075427994 -0.06426944 0.044864263 -0.046112873 -0.05744166 0.0694364
-0.02985378 -0.03640826 -0.041593872 0.04150706 -0.023727065 -0.050903305 -0.03375947 -0.023019841
-0.045685206 -0.08676269 0.056302644 -0.029663248 0.020021567 -0.0837716 0.016843092 0.020133132
-0.06574271 -0.034722313 0.052266974 -0.037122402 0.027055709 -0.057999525 -0.07299586 -0.045994632
0.0771212 0.04928633 0.062462978 -0.069384016 0.003943538 -0.0073018516 -0.067315854 -0.05592659
0.009581361 0.0011168105 -0.011810198 0.051312845 -0.014429408 -0.07694334 -0.0381119 -0.06830988
0.08394071 0.05265615 0.08363988 -0.059124343 0.08722992 -0.051678948 0.042960882 0.0048126024
-0.03862398 -0.056433935 -0.035089042 0.08339187 0.020604651 0.043652233 0.000775731 -0.041493945
-0.04505837 -0.020163057 0.018483507 0.042355627 -0.07754165 -0.026637822 0.06857382 0.015102857
-0.03849881 0.00026107425 0.022588408 -0.05177976 0.05301078 0.033335883 -0.001361891 -0.056499906
-0.055083048 0.064756274 -0.0028806794 -0.0782226 -0.04294937 -0.062372778 -0.07210799 0.027172498
-0.05901361 0.008737348 -0.037791703 -0.017556498 0.009304602 0.063630246 -0.060933527 -0.04383995
0.06324527 -0.042365044 0.077352054 0.08307727 -0.018618172 0.09075358 0.071944274 0.011934441
-0.05523045 -0.08709235 0.05704444 -0.061333608 0.04388499 -0.012362789 0.048811305 0.012383556
0.02709579 -0.056717582 0.0647141 0.016400248 -0.08146248 0.07188858 -0.0011550141 -0.055893168
-0.011376403 0.027616827 0.031776305 -0.017769596 -0.081700355 0.0035367606 -0.044282492 0.01844513
0.013064469 -0.012831266 0.0129574435 0.053354293 -0.03650324 -0.0012641525 0.05957791 -0.08264937
0.01496528 0.046554267 0.05661418 -0.047163628 -0.013436143 -0.0665954 -0.047895856 0.013063717
0.07260405 0.04154538 0.022518078 -0.04638071 0.02572499 -0.0399304 0.078930706 -0.025019342
-0.052880064 0.059214547 0.0725729 -0.05738991 0.04311367 -0.03254903 0.05715889 0.0776458
-0.0041148197 -0.028725088 -0.014822511 -0.05918188 -0.075573266 -0.044372927 0.061883327 -0.028664209
-0.01679908 -0.08997109 -0.029616598 -0.036263626 -0.05093546 -0.017967185 0.045566104 0.07804336
0.061185323 -0.0879463 -0.034030557 0.021656282 0.0037355653 0.042607997 0.081066035 0.071950525
0.07154849 -0.05850423 -0.05717286 0.0011370905 0.04000137 0.068346724 0.05946702 0.048078038
00000000: cb6c eb3c 0d1c 8aba 6d43 99bc c34d 3f3d
00000010: 42a1 d83c 3336 0ebd 851f adbd 3a05 1d3d
00000020: 274c 5fbd 6869 51bd dccc 5bbd fe42 06bd
00000030: 17e8 043c 5ad2 72bd 7dc8 b23a 7ff2 28bd
00000040: affc 81bc 0074 abbd 8f55 56bc 294b 0abc
00000050: 50e9 9e3c a163 8e3d 42b8 d93a 6869 013d
00000060: 3ac5 6ebc 72bd 6b3d 7553 a4bd 1099 a73c
00000070: b3c3 533c 235f ce3d da81 ed3b 9efd 5e3c
00000080: a36f 87bc 1b48 20bd 6d3b bdbc 67ef 563d
00000090: cac9 f3bc 07bb 01bd 8c8e 5ebd e538 383d
000000a0: 9cc5 2abd c1de aabd e8a5 a83d 21dc 0fbd
000000b0: 849e b3bc 5c9d 34bd 5c44 01bd 2f31 a43d
000000c0: 2ad3 aabd 6ef0 fcbc 289a 69bc 6e4d bd3d
000000d0: a0d2 a93d 0b80 85bd 3f1c 17bc 038f 173d
000000e0: 78ed a5bd f99d 1f3d a9bb 9cbd c79a 4d3d
000000f0: 42ce a0bd 5f8e 52bd 3239 27bc 28c4 31bc
00000100: d903 86bd ac4a a33d fe79 9a3d b29f 83bd
00000110: 97c3 373d dae0 3cbd f247 6bbd ac34 8e3d
00000120: ea8f f4bc d420 15bd 565e 2abd 4f03 2a3d
00000130: 435f c2bc fc7f 50bd 5f47 0abd 1b94 bcbc
00000140: 6920 3bbd a3b0 b1bd 9a9d 663d 5700 f3bc
00000150: 4504 a43c 7290 abbd 86fa 893c 3dee a43c
00000160: 1da4 86bd fc38 0ebd e515 563d a90d 18bd
00000170: efa3 dd3c e990 6dbd da7e 95bd de64 3cbd
00000180: b8f1 9d3d 76e0 493d 2ed9 7f3d 3519 8ebd
00000190: cb38 813b 5f44 efbb e5dc 89bd 4813 65bd
000001a0: 24fb 1c3c f161 923a 907f 41bc 6b2d 523d
000001b0: 5369 6cbc 7894 9dbd 391b 1cbd 0de6 8bbd
000001c0: 1be9 ab3d faad 573d 634b ab3d 5e2c 72bd
000001d0: 9aa5 b23d 4ead 53bd c0f7 2f3d 09b3 9d3b
000001e0: 2e34 1ebd 4527 67bd 87b9 0fbd 5bc9 aa3d
000001f0: 16cb a83c afcc 323d 6d5a 4b3a 8ef5 29bd
00000200: 208f 38bd ff2c a5bc b96a 973c 187d 2d3d
00000210: 28ce 9ebd 9037 dabc 6e70 8c3d f971 773c
00000220: eeb0 1dbd cbe0 8839 530b b93c 0317 54bd
00000230: d521 593d 358b 083d 7b81 b2ba 726c 67bd
00000240: c39e 61bd f09e 843d c8c9 3cbb 2c33 a0bd
00000250: aeeb 2fbd 997a 7fbd 5bad 93bd dc98 de3c
00000260: 41b8 71bd 1827 0f3c 79cb 1abd a5d2 8fbc
00000270: 5472 183c 9350 823d 6f95 79bd 8591 33bd
00000280: bc86 813d f886 2dbd c16a 9e3d 6a24 aa3d
00000290: 2385 98bc 03dd b93d 8557 933d ac88 433c
000002a0: 5339 62bd 795d b2bd 6ea7 693d f338 7bbd
000002b0: bfc0 333d 4c8d 4abc 5dee 473d 66e4 4a3c
000002c0: fdf7 dd3c b250 68bd d388 843d d059 863c
000002d0: cdd5 a6bd 523a 933d d863 97ba 3cf0 64bd
000002e0: 1864 3abc af3c e23c df27 023d 8b91 91bc
000002f0: 8452 a7bd ffc8 673b 8f61 35bd 3e1a 973c
00000300: 5b0c 563c 3b3a 52bc 754b 543c 088a 5a3d
00000310: 6c84 15bd ebb1 a5ba f707 743d 1344 a9bd
00000320: ef30 753c b0af 3e3d 45e4 673d a62e 41bd
00000330: 4523 5cbc 2b63 88bd 722e 44bd 3309 563c
00000340: 6fb1 943d 7d2b 2a3d d577 b83c b3f9 3dbd
00000350: 37bd d23c 0f8e 23bd 6ca6 a13d 5df5 ccbc
00000360: c498 58bd f48a 723d 1aa1 943d af11 6bbd
00000370: f697 303d 2252 05bd 711f 6a3d c304 9f3d
00000380: 9cd5 86bb e050 ebbc 1eda 72bc b368 72bd
00000390: 28c6 9abd 63c0 35bd 5f79 7d3d 34d1 eabc
000003a0: 399e 89bc c342 b8bd 829e f2bc 2b89 14bd
000003b0: b3a1 50bd eb2f 93bc 86a3 3a3d 32d5 9f3d
000003c0: 769d 7a3d 311d b4bd a063 0bbd 8468 b13c
000003d0: 63d0 743b b985 2e3d f305 a63d cc5a 933d
000003e0: 0488 923d 22a2 6fbd 172e 6abd 6d0a 953a
000003f0: 7ad8 233d 5ef9 8b3d b193 733d 7aed 443d

gru1.weight_hh_l0 f4 [384, 128]
0.04185031 0.02403046 0.031008363 -0.013056189 -0.023092918 -0.08479828 -0.0734629 0.07791052
-0.09201364 -0.05581177 -0.029490685 -0.090533115 0.08013728 -0.017848771 0.08159782 -0.05442547
0.006873362 -0.07943084 -0.009741282 -0.04514103 -0.074442916 0.07538177 -0.045340206 0.04110786
-0.06809689 -0.0850962 0.08327569 -0.022646908 0.052382182 -0.05496462 0.07787488 -0.008968532
-0.0156035945 0.01175645 0.052009474 -0.00019068319 0.032475553 0.082626246 0.067783326 0.06645699
0.07877078 -0.010476007 -0.06046927 -0.01756819 0.069487296 -0.038151156 -0.016152347 -0.017937219
-0.078661755 0.019300424 0.05132653 0.02650181 0.053787507 -0.045306902 -0.078633904 -0.04076465
0.0140954945 -0.0023512777 -0.072182626 -0.047495607 -0.03079601 -0.042171832 -0.06223064 0.0946641
-0.06252373 -0.0066565666 0.0065081115 0.050195046 -0.08177478 -0.045368273 -0.019789357 -0.04387615
-0.06680322 -0.040381595 0.014181472 0.042216774 0.047973394 -0.033086546 0.057620402 -0.08387252
-0.050812293 -0.08107944 -0.0520054 0.03307008 -0.09276977 0.05840375 0.05916842 -0.0040719635
-0.080489725 -0.08507787 -0.0022837585 -0.014957402 -0.03318211 0.070187375 -0.02026598 -0.015374186
-0.023993019 -0.021436844 0.05622334 -0.07989763 -0.025184464 0.07850854 -0.028564492 0.04774241
-0.008680155 0.027568504 0.05511066 -0.06545604 0.03839024 -0.078731254 0.010562224 0.06318714
0.010732082 -0.016344108 -0.043670528 0.006504329 -0.019148478 0.04874456 0.07476888 -0.06746095
0.05022534 0.006314388 -0.08646236 0.0566524 -0.016379016 0.029648779 0.08961788 -0.0085670585
0.059196405 0.011935221 0.010361965 0.011085342 0.070264384 -0.0196403 0.077080995 0.08091842
0.050643303 0.02076125 -0.046089422 -0.08552302 0.022163073 0.07203246 0.06163153 0.035932336
0.042661235 0.082006395 0.030017365 0.037762802 -0.0041715307 -0.057886627 0.026638512 0.059218336
-0.034197055 0.013961542 0.012421101 -0.042814817 0.05348838 0.026264478 -0.013336379 -0.05326237
-0.07175414 -0.07379169 0.010180647 0.032866225 -0.07735391 -0.041183148 0.068089955 0.03924744
0.017095583 0.07688731 0.02396168 0.0032634041 -0.045905028 0.004989763 -0.069259696 0.009208353
0.004976978 0.08262876 0.0884451 0.06384778 -0.024749944 -0.06311833 -0.05702715 0.0026092792
-0.015833432 0.03662601 0.011567492 0.0014634348 0.0015215875 -0.019133536 -0.057566695 0.029044265
0.06615512 0.06387367 -0.06419348 0.011113437 -0.054322287 -0.032927293 0.058472622 0.060511805
0.068815865 0.022190725 0.046018608 -0.056199465 -0.027989974 -0.03463692 -0.030805817 0.011979448
0.089572914 0.08048741 -0.020510558 0.05280526 -0.06355686 -0.065319404 0.018737625 -0.073849484
0.016966863 0.018343817 0.004738545 0.07649521 0.009784106 0.014823661 0.04587155 -0.026145434
0.07608254 -0.069896035 0.04789054 -0.030421242 0.0027096516 -0.066159 -0.010052124 0.06904805
0.073690675 -0.06128155 0.06701558 0.0518335 -0.04747617 -0.037071083 0.047291625 0.06574943
-0.081830956 0.0021290532 0.017845843 -0.07167035 0.059868157 0.07192821 -0.08533224 0.016902788
-0.030998785 0.052797128 -0.02265166 0.039478533 -0.034067787 0.0015264287 -0.008367266 -0.061651953
00000000: 3b6b 2b3d 87db c43c 4005 fe3c a0e9 55bc
00000010: 5c2d bdbc b8aa adbd b873 96bd 8d8f 9f3d
00000020: a671 bcbd e29a 64bd 7396 f1bc 6d69 b9bd
00000030: 041f a43d 9637 92bc c21c a73d 3eed 5ebd
00000040: f139 e13b a3ac a2bd e699 1fbc cde5 38bd
00000050: 8775 98bd c261 9a3d a7b6 39bd b760 283d
00000060: 6276 8bbd eb46 aebd 728c aa3d 0286 b9bc
00000070: b38e 563d 9522 61bd dd7c 9f3d c0f0 12bc
00000080: 38a6 7fbc 209e 403c e307 553d 21f2 47b9
00000090: 1605 053d f337 a93d fcd1 8a3d 9a1a 883d
000000a0: 9352 a13d 8fa3 2bbc a0ae 77bd 2aeb 8fbc
000000b0: 5b4f 8e3d 6344 1cbd ed51 84bc 13f1 92bc
000000c0: 6a19 a1bd ec1b 9e3c c43b 523d 531a d93c
000000d0: 4a50 5c3d bb93 39bd d00a a1bd d5f8 26bd
000000e0: caf0 663c e517 1abb 7cd4 93bd c18a 42bd
000000f0: ea47 fcbc 5fbc 2cbd 8ee5 7ebd 40df c13d
00000100: 710c 80bd 541f dabb ff41 d53b 5299 4d3d
00000110: 8979 a7bd 15d4 39bd 4a1d a2bc 7ab7 33bd
00000120: 20d0 88bd 2c67 25bd 6859 683c 7feb 2c3d
00000130: c07f 443d c285 07bd 5f03 6c3d 5bc5 abbd
00000140: 8d20 50bd fa0c a6bd 9d03 55bd 7e74 073d
00000150: 14fe bdbd c538 6f3d 965a 723d 1b6e 85bb
00000160: ccd7 a4bd 4e3d aebd 1cab 15bb e40f 75bc
00000170: f7e9 07bd 66be 8f3d d704 a6bc 03e4 7bbc
00000180: 028d c4bc 529c afbc 724a 663d 5ea1 a3bd
00000190: a64f cebc 16c9 a03d 1500 eabc 8c8d 433d
000001a0: 3537 0ebc 58d7 e13c b7bb 613d d10d 86bd
000001b0: 163f 1d3d da3d a1bd 2e0d 2d3c 4268 813d
000001c0: 9dd5 2f3c 14e4 85bc dedf 32bd 4422 d53b
000001d0: 45dd 9cbc 60a8 473d 6d20 993d f728 8abd
000001e0: 16b9 4d3d ede8 ce3b 2e13 b1bd 590c 683d
000001f0: 492d 86bc ffe1 f23c 9489 b73d d95c 0cbc
00000200: ee77 723d f28b 433c 3bc5 293c 4b9f 353c
00000210: c6e6 8f3d b2e4 a0bc a4dc 9d3d 8eb8 a53d
00000220: 5a6f 4f3d 7f13 aa3c 43c8 3cbd b126 afbd
00000230: 558f b53c c185 933d 5871 7c3d c92d 133d
00000240: 8cbd 2e3d f8f2 a73d fae6 f53c 2bad 1a3d
00000250: 56b1 88bb 871a 6dbd 0239 da3c ed8e 723d
00000260: 3612 0cbd f4be 643c e081 4b3c 975e 2fbd
00000270: a216 5b3d 9a28 d73c d480 5abc a529 5abd
00000280: d6f3 92bd 1920 97bd bacc 263c bc9e 063d
00000290: ba6b 9ebd a9af 28bd bf72 8b3d ecc1 203d
000002a0: 090c 8c3c 1877 9d3d 494b c43c d6de 553b
000002b0: e906 3cbd 2a81 a33b 07d8 8dbd a2de 163c
000002c0: eb15 a33b 4439 a93d b422 b53d a0c2 823d
000002d0: 65c0 cabc 2f44 81bd 4d95 69bd 7100 2b3b
000002e0: 1db5 81bc 2805 163d 9485 3d3c b9d0 bf3a
000002f0: 0170 c73a efbd 9cbc 0ecb 6bbd 3dee ed3c
00000300: 567c 873d 33d0 823d df77 83bd 2215 363c
00000310: 0c81 5ebd c5de 06bd fd80 6f3d 3adb 773d
00000320: 55ef 8c3d 53c9 b53c 027e 3c3d 6931 66bd
00000330: 3b4b e5bc 71df 0dbd 7b5c fcbc 7245 443c
00000340: 0172 b73d 95d6 a43d c205 a8bc 544a 583d
00000350: 192a 82bd 2ec6 85bd a67f 993c 663e 97bd
00000360: 17fe 8a3c c645 963c cc45 9b3b 85a9 9c3d
00000370: 844d 203c f1de 723c cee3 3b3d f32e d6bc
00000380: 2ad1 9b3d a725 8fbd df28 443d f835 f9bc
00000390: 6994 313b 5f7e 87bd aab1 24bc 1069 8d3d
000003a0: 23eb 963d 5d02 7bbd 773f 893d 5d4f 543d
000003b0: 5f76 42bd d9d7 17bd ddb4 413d a3a7 863d
000003c0: fd96 a7bd 9687 0b3b 7231 923c e8c7 92bd
000003d0: 5038 753d 194f 933d abc2 aebd b777 8a3c
000003e0: 2af1 fdbc cd41 583d f98f b9bc 3eb4 213d
000003f0: aa8a 0bbd 7312 c83a db16 09bc c286 7cbd

gru1.bias_ih_l0 f4 [384]
-0.06551583 -0.049239494 -0.058108207 -0.058172263 0.0357566 0.05234638 -0.05218529 0.0005558072
-0.08859202 0.013891414 -0.022620276 -0.08270898 -0.079827435 -0.026981276 0.016204312 0.0352045
-0.05441332 -0.043241978 -0.08619615 0.08286373 -0.03888449 0.035841472 -0.038656756 -0.0651405
0.04901113 -0.07784502 0.0815731 -0.026917297 0.015661454 -0.07623371 -0.014507894 -0.033215407
-0.09424664 0.07949133 0.012421151 0.011275031 0.007236297 -0.08096859 0.08146512 -0.039574847
-0.018289005 -0.05312247 0.0061677825 -0.0069692903 -0.0105926 0.08186724 0.032244366 -0.0031125182
0.03860683 0.07132546 -0.04645573 0.07289516 0.01675964 -0.06001012 -0.062933184 0.026569342
-0.055510413 -0.07348264 -0.035765197 -0.008067527 0.019271106 -0.08825319 -0.052424055 -0.05685009
0.047603384 -0.057190526 0.07420271 -0.07237046 -0.04887075 -0.04211328 0.071028806 -0.015687125
0.083918415 -0.056308698 0.054553684 0.01567581 0.0033372848 0.07683193 0.08074419 -0.067954466
0.019924445 -0.07794585 -0.059907947 0.010432071 -0.026027434 -0.05417792 0.06703435 -0.007553409
0.009919755 -0.05884639 -0.042998686 0.0059930044 -0.026924768 -0.06936727 0.02443759 0.051102754
-0.03678112 -0.053970017 -0.061520502 -0.041923657 0.010682386 -0.062115237 0.027597511 0.014955812
-0.025679577 0.005891969 0.019139113 -0.007683697 0.027517714 -0.0732097 -0.08769103 -0.068916366
-0.082136564 -0.029105002 -0.060756497 -0.009768932 -0.023351036 -0.064738736 0.029987995 -0.010258036
-0.08262021 0.085182734 0.040764324 0.07568933 -0.031506695 -0.004483216 -0.06396258 0.006740963
-0.035044957 -0.038270943 0.0530948 0.057207827 0.003726953 -0.07409182 0.030048689 -0.056409426
0.08244438 0.053618036 -0.030128138 -0.0016656842 -0.06323758 0.075048 0.013760191 0.06811943
0.0046431506 0.08234387 -0.08330329 0.079805635 0.006923868 0.06706466 -0.010268555 0.023761336
0.0064743147 -0.08574196 0.04029865 0.05434882 0.057798065 0.016744914 -0.08049592 -0.06876198
0.043181077 0.055993672 0.0044089 -0.01823406 0.052140027 -0.068497054 0.024978867 -0.052500594
-0.030514142 -0.064644665 0.08004446 0.0787636 0.022490334 0.039369356 0.029201057 0.07823374
-0.022019373 0.057597607 -0.083205186 0.0031286622 0.08224463 0.019038508 -0.08394771 -0.0013032798
-0.000262021 0.023375897 -0.03893197 0.039436586 0.059072983 -0.027757151 -0.021054279 -0.00019392539
0.087500505 -0.04665367 -0.03089183 0.0233985 -0.034237493 -0.002596947 0.0042812396 0.079735965
0.041932225 0.07610033 -0.05043545 0.013903408 -0.017335014 0.010241553 0.004122396 -0.082542926
-0.012143886 -0.019016264 0.051192336 0.044091165 -0.063322574 0.077958435 0.025649903 0.0063352524
0.076312825 -0.08500435 0.002693498 0.0066002687 -0.060813773 0.07765402 -0.06277148 -0.07818915
0.06881755 -0.069014736 0.01857759 0.04799142 0.03685512 -0.036906198 -0.056953657 -0.043191522
0.04059655 0.072602004 0.014027608 -0.023832146 -0.030520536 -0.071197286 -0.08652155 -0.09159542
0.027792165 0.014003668 0.050265566 -0.05220791 0.011422789 0.09223636 -0.05207144 0.03676909
-0.01447368 0.049832582 0.009023932 0.038688246 -0.024339803 -0.06991961 -0.076165855 -0.060993932
00000000: 2a2d 86bd 5aaf 49bd df02 6ebd 0a46 6ebd
00000010: 8375 123d 2869 563d 3ec0 55bd 97b3 113a
00000020: bc6f b5bd d098 633c 284e b9bc 5363 a9bd
00000030: 917c a3bd d607 ddbc e8be 843c 9832 103d
00000040: 80e0 5ebd 801e 31bd 9b87 b0bd 76b4 a93d
00000050: 5845 1fbd 82ce 123d 8c56 1ebd 6268 85bd
00000060: e5bf 483d 366d 9fbd cc0f a73d aa81 dcbc
00000070: 734c 803c 6b20 9cbd 85b2 6dbc e10c 08bd
00000080: 6204 c1bd 5acc a23d 1582 4b3c e8ba 383c
00000090: 751e ed3b dcd2 a5bd 2fd7 a63d 3c19 22bd
000000a0: d3d2 95bc f296 59bd 1c1b ca3b a55e e4bb
000000b0: 968c 2dbc 03aa a73d ab12 043d 64fb 4bbb
000000c0: 3222 1e3d 1513 923d 5d48 3ebd 0f4a 953d
000000d0: 834b 893c 2ccd 75bd 1de3 80bd f3a7 d93c
000000e0: e35e 63bd 117e 96bd 877e 12bd a92d 04bc
000000f0: 70de 9d3c 17be b4bd 9bba 56bd a4db 68bd
00000100: c4fb 423d 9d40 6abd 97f7 973d f736 94bd
00000110: b22c 48bd fa7e 2cbd 8d77 913d 4982 80bc
00000120: 6bdd ab3d f3a3 66bd af73 5f3d 8e6a 803c
00000130: 59b6 5a3b 0f5a 9d3d 365d a53d b62b 8bbd
00000140: 9738 a33c 13a2 9fbd 0962 75bd 47eb 2a3c
00000150: 7c37 d5bc abe9 5dbd 4e49 893d 9682 f7bb
00000160: 7886 223c ea08 71bd 641f 30bd f760 c43b
00000170: 5591 dcbc 6d10 8ebd 5731 c83c 1f51 513d
00000180: cda7 16bd aa0f 5dbd ecfc 7bbd 24b8 2bbd
00000190: 2d05 2f3c 8c6c 7ebd 2d14 e23c 3909 753c
000001a0: fa5d d2bc 6b11 c13b a1c9 9c3c 86c7 fbbb
000001b0: d46c e13c f8ee 95bd 5b97 b3bd 0624 8dbd
000001c0: 3737 a8bd 9d6d eebc cedb 78bd df0d 20bc
000001d0: ac4a bfbc be95 84bd 62a9 f53c 5211 28bc
000001e0: c934 a9bd 4974 ae3d 7ef8 263d 0203 9b3d
000001f0: 2a0d 01bd f1e7 92bb d0fe 82bd 4ce3 dc3b
00000200: 4d8b 0fbd fec1 1cbd ef79 593d c152 6a3d
00000210: e53f 743b 74bd 97bd ab28 f63c 920d 67bd
00000220: 99d8 a83d 969e 5b3d 49cf f6bc 1653 daba
00000230: b482 81bd c4b2 993d 6d72 613c 3382 8b3d
00000240: 9225 983b e7a3 a83d ea9a aabd 2371 a33d
00000250: 9de1 e23b 3259 893d 713d 28bc 22a7 c23c
00000260: 7d26 d43b 7b99 afbd 3210 253d de9c 5e3d
00000270: aabd 6c3d a12c 893c 0bdb a4bd 15d3 8cbd
00000280: a4de 303d 9f59 653d 8978 903b 985f 95bc
00000290: c890 553d 2f48 8cbd 7ba0 cc3c dd0a 57bd
000002a0: cbf8 f9bc 6c64 84bd 5aee a33d cf4e a13d
000002b0: a63d b83c c341 213d 0e37 ef3c 0339 a03d
000002c0: f961 b4bc 78eb 6b3d 7b67 aabd 3e0a 4d3b
000002d0: df6f a83d a5f6 9b3c c7ec abbd d0d2 aaba
000002e0: dd5f 89b9 cf7e bf3c 2177 1fbd 4288 213d
000002f0: 83f6 713d f762 e3bc 067a acbc 7358 4bb9
00000300: 7733 b33d eb17 3fbd dd10 fdbc 36ae bf3c
00000310: 9d3c 0cbd 8a31 2abb a449 8c3b 9c4c a33d
00000320: 20c1 2b3d 7dda 9b3d 6795 4ebd 1fcb 633c
00000330: 2902 8ebc 30cc 273c 2a15 873b 440c a9bd
00000340: 26f7 46bc ffc7 9bbc 0eaf 513d f098 343d
00000350: 44af 81bd aca8 9f3d bf1f d23c f397 cf3b
00000360: e649 9c3d c316 aebd 6685 303b 1147 d83b
00000370: dd17 79bd 1209 9f3d 558e 80bd a221 a0bd
00000380: 37f0 8c3d 9957 8dbd 0830 983c a792 443d
00000390: 65f5 163d f42a 17bd 3d48 69bd 98e9 30bd
000003a0: 9148 263d 5cb0 943d 0dd4 653c a23b c3bc
000003b0: 3406 fabc e2cf 91bd 3632 b1bd 6196 bbbd
000003c0: 65ac e33c a46f 653c 44e3 4d3d f6d7 55bd
000003d0: a626 3b3c 6be6 bc3d dd48 55bd 2f9b 163d
000003e0: 0423 6dbc 401d 4c3d 1dd9 133c 9177 1e3d
000003f0: 4464 c7bc 0332 8fbd d8fc 9bbd c6d4 79bd

gru1.bias_hh_l0 f4 [384]
0.07791065 -0.06922919 0.002737607 -0.057637304 -0.026537843 -0.01876198 0.07937758 -0.023894204
-0.0017695283 -0.033356424 -0.03338684 -0.07703701 0.0043741777 -0.07254148 -0.028076923 -0.06099063
-0.028730616 -0.033336747 -0.026748527 0.043610055 -0.06547782 -0.07269705 -0.021656869 -0.02071477
0.02722293 0.030210737 -0.063524194 -0.07273039 -0.039660547 0.04717632 -0.03631885 0.08182781
0.06670885 -0.010120488 0.071880035 -0.07711116 -0.022675227 0.009825123 0.06429244 0.005090583
-0.08407187 -0.04585594 0.08119341 0.06593598 -0.026875751 0.0053522196 0.06384812 0.075040616
-0.05390081 0.06743932 -0.03294708 0.07952107 0.018088425 0.0517729 -0.01809888 -0.02677898
-0.06757111 -0.05828021 0.04841256 -0.07061437 -0.0662792 -0.06148553 -0.023197029 -0.006514187
0.0384497 -0.07862199 0.011337536 -0.003035014 0.051694393 -0.019272918 0.017175503 -0.052503124
-0.030577514 0.02125873 0.028446406 0.060163043 -0.000595564 -0.049292643 0.041202866 -0.0016233814
5.4458636e-05 -0.089974135 0.027370509 -0.057213165 0.07921885 0.072642505 0.04928498 -0.046931
-0.06055327 0.0351211 0.010355254 -0.0713311 0.03362647 -0.060172882 0.011412391 -0.077188805
0.06813187 -0.06015426 -0.08053537 -0.088828325 0.038420472 0.05655603 -0.01992917 -0.053940512
0.057861045 0.03020224 0.022083165 -0.030211862 -0.052020665 0.036526266 0.04111254 0.06661011
-0.025134096 0.03921287 -0.05284607 -0.04232141 0.0022560891 0.056046836 0.07935864 0.0727681
-0.04690389 0.016437922 -0.008314379 0.029635692 -0.016753133 -0.015766682 0.04300995 -0.037385236
-0.044614207 0.008274587 -0.04427584 0.017333575 0.017108276 0.0020604236 -0.0034621512 0.047336947
-0.030160787 0.029657548 0.064668864 -0.08281736 -0.025393263 0.07338627 0.04385837 -0.08206905
-0.03854761 0.03418884 0.06882735 -0.016462069 0.05839169 -0.03728111 -0.06817884 -0.02273789
-0.086611204 -0.059301354 -0.046375923 -0.037965268 -0.074717954 0.06242826 0.069069855 0.070999674
-0.047009572 -0.059588764 -0.047665816 0.08252089 0.07512536 -0.095299594 -0.04161768 -0.042699736
0.044552576 0.008902402 -0.06720341 -0.0029409335 0.05129809 0.013056085 0.012392224 -0.07330323
0.010235295 -0.031805575 0.012245969 0.017459357 0.030037213 0.038584422 -0.044787552 0.045172583
-0.080656104 0.082367554 0.033609882 0.07030817 -0.059781924 0.025893575 -0.05666699 0.0900992
-0.06561187 -0.07318391 0.0094170645 0.09842976 -0.022719348 -0.0678172 0.0037792502 0.0027129413
0.086693585 0.023150956 0.070247106 -0.040288806 0.041200906 0.04746245 -0.027576076 0.0067874007
0.003352161 0.0042537237 -0.07180425 -0.033586957 0.044756036 -0.06622288 -0.074718244 0.07379526
0.090946734 0.05125565 -0.030302977 0.07261588 0.011376223 -0.050394524 0.0648897 -0.076967545
0.085692756 0.05189111 0.012142092 -0.053895477 -0.032004014 -0.03793867 -0.08707514 -0.061716106
-0.050813865 0.059194334 -0.07537498 0.021551767 -0.0051929024 0.064204276 0.01927757 -0.09492562
0.09544562 0.07790733 -0.06155648 -0.0010058167 -0.03447755 -0.07029726 -0.047166 -0.0072673038
-0.062465828 0.08388537 0.010194694 0.010202166 -0.077531464 -0.044677433 0.07602092 -0.07359564
00000000: 9e8f 9f3d 09c8 8dbd 6d69 333b 1815 6cbd
00000010: e465 d9bc b9b2 99bc b690 a23d c7bd c3bc
00000020: 84ef e7ba bfa0 08bd a4c0 08bd 94c5 9dbd
00000030: 4355 8f3b a190 94bd 9301 e6bc 50d1 79bd
00000040: 785c ebbc 1d8c 08bd ba1f dbbc 75a0 323d
00000050: 3c19 86bd 31e2 94bd bf69 b1bc 05b2 a9bc
00000060: 9f02 df3c 827c f73c f918 82bd acf3 94bd
00000070: 1973 22bd f53b 413d 13c3 14bd 5795 a73d
00000080: a69e 883d 67d0 25bc d735 933d 75ec 9dbd
00000090: 66c1 b9bc 8df9 203c c1ab 833d e8ce a63b
000000a0: df2d acbd 70d3 3bbd bb48 a63d 7109 873d
000000b0: 892a dcbc ac61 af3b cec2 823d e5ae 993d
000000c0: 19c7 5cbd a01d 8a3d 84f3 06bd f1db a23d
000000d0: 2d2e 943c d20f 543d 1a44 94bc 975f dbbc
000000e0: b962 8abd 3bb7 6ebd 404c 463d 449e 90bd
000000f0: 64bd 87bd 40d8 7bbd b207 bebc f674 d5bb
00000100: 6f7d 1d3d 9104 a1bd 13c1 393c 16e7 46bb
00000110: 80bd 533d 3de2 9dbc a4b3 8c3c 840d 57bd
00000120: b27d fabc ca26 ae3c 7008 e93c 866d 763d
00000130: a01f 1cba 15e7 49bd 56c4 283d a4c7 d4ba
00000140: 846a 6438 5c44 b8bd 1e38 e03c 5a58 6abd
00000150: 7e3d a23d 98c5 943d 0cdf 493d b83a 40bd
00000160: b506 78bd 24db 0f3d 15a9 293c 0a16 92bd
00000170: e9bb 093d d777 76bd 0afb 3a3c 2a15 9ebd
00000180: b988 8b3d 5064 76bd baef a4bd a0eb b5bd
00000190: c95e 1d3d 4ca7 673d 8042 a3bc baf0 5cbd
000001a0: b4ff 6c3d b06a f73c c1e7 b43c de7e f7bc
000001b0: 9f13 55bd 919c 153d 9f65 283d e26a 883d
000001c0: 05e6 cdbc ad9d 203d 1f75 58bd 3759 2dbd
000001d0: e5da 133b 5e91 653d c886 a23d 7107 953d
000001e0: 4b1e 40bd d2a8 863c 0839 08bc 8dc6 f23c
000001f0: de3d 89bc 2129 81bc 342b 303d 4321 19bd
00000200: 63bd 36bd 2292 073c 955a 35bd 24ff 8d3c
00000210: a826 8c3c 2c08 073b 42e5 62bb 63e4 413d
00000220: c113 f7bc 63f4 f23c 1c71 843d 269c a9bd
00000230: 8805 d0bc 8a4b 963d d6a4 333d d113 a8bd
00000240: 19e4 1dbd 9909 0c3d 5bf5 8c3d 76db 86bc
00000250: 202c 6f3d 14b4 18bd 59a1 8bbd d044 babc
00000260: 3761 b1bd fae5 72bd aef4 3dbd 7881 1bbd
00000270: ba05 99bd c6b4 7f3d 7f74 8d3d 4768 913d
00000280: 1c8d 40bd 5913 74bd 3b3d 43bd b600 a93d
00000290: 53db 993d 6f2c c3bd 4d77 2abd ebe5 2ebd
000002a0: c37c 363d 61db 113c f1a1 89bd adbc 40bb
000002b0: f21d 523d 31e9 553c c108 4b3c 0120 96bd
000002c0: f0b1 273c 9046 02bd 51a3 483c ed06 8f3c
000002d0: 9a10 f63c b30a 1e3d 2773 37bd e306 393d
000002e0: 072f a5bd 52b0 a83d 84aa 093d bbfd 8f3d
000002f0: e4dd 74bd c31e d43c a51b 68bd ee85 b83d
00000300: 845f 86bd 72e1 95bd 084a 1a3c 8b95 c93d
00000310: ed1d babc bfe3 8abd 4cad 773b 9acb 313b
00000320: 688c b13d 13a7 bd3c b7dd 8f3d e005 25bd
00000330: 48c2 283d fc67 423d 39e7 e1bc d868 de3b
00000340: eeaf 5b3b d262 8b3b 1b0e 93bd 7a92 09bd
00000350: 1b52 373d dc9f 87bd e105 99bd f821 973d
00000360: 4842 ba3d 72f1 513d f33d f8bc a2b7 943d
00000370: 5663 3a3c 7d6a 4ebd e4e4 843d 29a1 9dbd
00000380: af7f af3d c68b 543d a0ef 463c 81c1 5cbd
00000390: a416 03bd 9465 1bbd 7354 b2bd 07ca 7cbd
000003a0: 3322 50bd c275 723d 335e 9abd 558d b03c
000003b0: 3929 aabb 887d 833d ffeb 9d3c 5d68 c2bd
000003c0: fe78 c33d e18d 9f3d a622 7cbd 9cd5 83ba
000003d0: 5538 0dbd 03f8 8fbd 2331 41bd 9022 eebb
000003e0: 2bdc 7fbd 18cc ab3d a507 273c fc26 273c
000003f0: d1c8 9ebd afff 36bd dbb0 9b3d 50b9 96bd

gru1.weight_ih_l0_reverse f4 [384, 6]
-0.012825374 -0.06286573 -0.037586022 -0.024324082 -0.049866106 -0.009118794 0.044665303 0.010545292
-0.021430029 0.02397726 0.017038696 -0.03415322 -0.010855785 -0.07351667 0.05867324 0.04031049
0.060907878 0.008373772 0.0731132 0.08607352 -0.04081153 0.0509093 0.08550254 -0.08913564
0.072804466 0.07363462 0.06420665 -0.049031086 0.06255381 -0.021046095 -0.007428305 -0.06978718
-0.011777595 0.0624073 0.030622585 -0.06441623 -0.0074843494 -0.043044537 -0.06275225 -0.042417068
0.029437395 -0.06976574 0.04070363 0.049819544 0.047413897 -0.088073075 -0.08005858 0.033957418
0.09278722 0.048562862 -0.06488779 -0.07945022 -0.060719572 0.08034445 -0.019207662 -0.08742174
0.048570547 0.058216922 -0.08391812 0.02565709 -0.039980307 -0.040457986 0.07074888 0.04318987
0.069928244 0.09473433 0.071189635 -0.056153167 -0.048187166 0.056882545 0.08427164 -0.0665541
-0.051339768 -0.043541692 0.043849386 -0.032812454 0.03341121 0.006163449 0.020464534 0.06724649
-0.0212691 0.07039821 0.059296694 -0.055256203 0.075144015 -0.016152509 0.08279346 0.047439802
-0.032982744 0.07351551 0.027025871 0.013351859 0.068723 0.049180526 0.05904784 -0.024731196
-0.010841418 -0.020291617 -0.04482131 0.014049415 0.012552416 -0.025412377 0.06234872 -0.057804808
-0.064456746 0.09016431 0.018049087 -0.085981585 0.062275562 -0.049864262 0.003820716 0.016048893
-0.09117635 0.06249878 0.019805757 0.0073410897 -0.0063129137 -0.011427498 -0.024682067 -0.03467673
-0.07793017 -0.08703736 0.030215817 0.032344602 -0.005646746 0.046947077 0.016004048 0.046703476
0.06855178 -0.069344044 0.051623978 0.011090875 0.051340185 0.033647243 -0.0751338 -0.033891015
0.029746585 -0.017567953 -0.08412968 0.07276629 -0.018756099 0.0141685 0.008729611 -0.042653225
0.041182965 0.039865613 -0.070481546 -0.048048314 -0.05018379 -0.074975915 -0.0040535843 -0.085211836
-0.02831712 -0.060228307 0.0113543095 0.011965355 -0.03293909 -0.09555425 -0.100644186 -0.06621348
-0.0037138714 -0.0010043138 0.0024469295 -0.018232567 -0.06196749 0.037254468 0.0047172913 0.08387675
0.027107147 -0.008315681 -0.043815672 0.06685269 -0.054929 -0.052107487 0.05581456 0.07735938
0.049817268 0.07581095 0.033660717 0.03054491 0.0910062 -0.06612829 -0.012033113 0.062058777
-0.06344081 0.00888499 -0.02679233 0.026962632 -0.04366645 -0.051283885 -0.010165899 -0.013473993
0.035157476 -0.07530044 -0.027797895 0.07963372 -0.040432367 -0.078705825 0.023770986 -0.019153917
-0.020617492 -0.038973495 0.032341484 0.032873046 0.023176145 0.05556433 -0.082181774 -0.06876205
0.063805476 0.06580924 -0.067897476 -0.038437195 -0.0717635 0.08843835 0.0025590758 -0.07848219
0.031231342 -0.06603197 0.042889383 -0.021992676 -0.071137466 0.025396489 -0.051123835 -0.06756955
0.00387759 0.054807212 -0.076321326 -0.025149515 -0.081279136 -0.06647066 -0.003395245 0.0009588845
0.05377027 -0.054614447 0.0423198 -0.05797215 -0.050546687 0.03193202 0.07199791 0.06354068
-0.059533883 -0.025780367 0.07829523 -0.07030256 -0.07017331 0.07837849 -0.0754713 -0.023204291
0.054694455 -0.08678765 0.046727266 -0.03959181 -0.08306995 -0.037983537 0.039975617 0.035279285
00000000: 8421 52bc bfbf 80bd cdf3 19bd 4c43 c7bc
00000010: 6740 4cbd ff66 15bc f7f2 363d 29c6 2c3c
00000020: 078e afbc f56b c43c bc94 8b3c 3fe4 0bbd
00000030: 76dc 31bc e88f 96bd 5a53 703d 9d1c 253d
00000040: 8a7a 793d 2532 093c 60bc 953d 5047 b03d
00000050: fe29 27bd 4586 503d f51b af3d bf8c b6bd
00000060: 821a 953d bfcd 963d c77e 833d d2d4 48bd
00000070: 361c 803d dc68 acbc 2469 f3bb 95ec 8ebd
00000080: d0f6 40bc cc9e 7f3d 37dc fa3c a8ec 83bd
00000090: 463f f5bb 784f 30bd 4084 80bd 85bd 2dbd
000000a0: b126 f13c 57e1 8ebd d9b8 263d 940f 4c3d
000000b0: 1335 423d a85f b4bd c1f5 a3bd ef16 0b3d
000000c0: 3a07 be3d dae9 463d e4e3 84bd ccb6 a2bd
000000d0: 16b5 78bd a28b a43d 6359 9dbc 2b0a b3bd
000000e0: e9f1 463d de74 6e3d 43dd abbd d12e d23c
000000f0: 64c2 23bd 46b7 25bd cae4 903d dce7 303d
00000100: 8a36 8f3d 1304 c23d dfcb 913d dd00 66bd
00000110: e85f 45bd acfd 683d 9c96 ac3d 844d 88bd
00000120: a649 52bd c658 32bd 6a9b 333d 5a66 06bd
00000130: 31da 083d c2f6 c93b 3da5 a73c 87b8 893d
00000140: 893c aebc f02c 903d 17e1 723d 5454 62bd
00000150: 1be5 993d 4452 84bc 9e8f a93d 3d50 423d
00000160: ea18 07bd 4d8f 963d 5c65 dd3c c1c1 5a3c
00000170: a5be 8c3d 8571 493d 26dc 713d 1499 cabc
00000180: 34a0 31bc 9b3a a6bc 8d96 37bd 842f 663c
00000190: a6a8 4d3c 9e2d d0bc 5f61 7f3d bcc4 6cbd
000001a0: e601 84bd 11a8 b83d aedb 933c 1d17 b0bd
000001b0: a914 7f3d 783e 4cbd fa64 7a3b f878 833c
000001c0: abba babd b9fe 7f3d af3f a23c 868d f03b
000001d0: 8fdc cebb 673a 3bbc 0c32 cabc 3009 0ebd
000001e0: da99 9fbd a540 b2bd 2987 f73c c67b 043d
000001f0: 5708 b9bb 944b 403d ec1a 833c 254c 3f3d
00000200: e064 8c3d 4004 8ebd aa73 533d 80b6 353c
00000210: 164a 523d b1d1 093d c0df 99bd 4ed1 0abd
00000220: 1caf f33c abea 8fbc 2f4c acbd 7e06 953d
00000230: 64a6 99bc ff22 683c a406 0f3c 26b5 2ebd
00000240: 78af 283d 204a 233d a158 90bd 4fce 44bd
00000250: 858d 4dbd f98c 99bd eed3 84bb 8b83 aebd
00000260: 4ef9 e7bc f5b1 76bd 6d07 3a3c 560a 443c
00000270: 24eb 06bd f2b1 c3bd 8a1e cebd ef9a 87bd
00000280: 6c64 73bb 2ea3 83ba aa5c 203b 775c 95bc
00000290: 9fd1 7dbd 2498 183d 8293 9a3b 93c7 ab3d
000002a0: cf0f de3c 7e3e 08bc 1078 33bd 10ea 883d
000002b0: 3bfd 60bd a96e 55bd cf9d 643d 986e 9e3d
000002c0: 310d 4c3d c542 9b3d d2df 093d 5239 fa3c
000002d0: 7561 ba3d 456e 87bd 8926 45bc 5831 7e3d
000002e0: 41ed 81bd 5992 113c 977b dbbc bde0 dc3c
000002f0: 97db 32bd 0d0f 52bd df8e 26bc 06c2 5cbc
00000300: 4901 103d 1e37 9abd 69b8 e3bc 0117 a33d
00000310: 699c 25bd 8530 a1bd 5fbb c23c ade8 9cbc
00000320: 04e6 a8bc aca2 1fbd 8178 043d e3a5 063d
00000330: e6db bd3c 6c97 633d eb4e a8bd 1ed3 8cbd
00000340: 72ac 823d ffc6 863d d50d 8bbd 5270 1dbd
00000350: bef8 92bd 2a1f b53d 2bb6 273b 45bb a0bd
00000360: dfd8 ff3c c53b 87bd c7ac 2f3d fc29 b4bc
00000370: 85b0 91bd 4c0c d03c 3a67 51bd e761 8abd
00000380: 2a1f 7e3b 877d 603d 5b4e 9cbd 5b06 cebc
00000390: ad75 a6bd c521 88bd c282 5ebb a65d 7b3a
000003a0: 373e 5c3d 66b3 5fbd 8757 2d3d 3574 6dbd
000003b0: 0b0a 4fbd 26cb 023d a473 933d 9e21 823d
000003c0: cdd9 73bd 5931 d3bc 4059 a03d cafa 8fbd
000003d0: 06b7 8fbd e784 a03d b290 9abd ed16 bebc
000003e0: 4b07 603d b9bd b1bd 1765 3f3d 062b 22bd
000003f0: 9420 aabd a094 1bbd 79bd 233d 0381 103d

gru1.weight_hh_l0_reverse f4 [384, 128]
-0.0024713066 -0.065359645 0.043098994 -0.0494561 0.03557006 -0.021512307 -0.019841785 -0.08500353
-0.024361383 0.05760018 -0.07429642 -0.076219946 -0.049824085 -0.008893318 -0.087715745 -0.054790348
-0.04994023 0.021295838 -0.09459538 -0.01873285 0.0536793 -0.016450603 -0.010041536 0.085481085
0.023342472 -0.06357145 -0.04202742 -0.050792444 0.010544307 -0.040877223 -0.055076268 -0.0515089
-0.014009871 -0.021743873 0.03835835 -0.013848249 -0.055554837 -0.077548854 -0.07761592 -0.041280065
-0.031095989 0.04366988 0.0804835 0.053693477 -0.071658365 0.07318564 0.07675371 -0.02846531
-0.0026472139 0.05542577 -0.053580884 -0.07707139 -0.026410855 0.044289727 0.027273815 0.02236261
0.05720862 -0.05170921 -0.09008853 -0.07202413 -0.0036410787 0.06779143 -0.004185008 -0.024303282
-0.034128908 0.030895544 -0.025872217 -0.031221336 0.0040037287 0.07595897 -0.061131325 0.03840881
-0.0028558122 -0.07984571 0.02487768 0.042402916 0.08015291 0.04605267 -0.03976867 0.018934786
0.07781074 0.023061538 -0.05066172 -0.055154525 0.03833744 0.06354811 -0.032666773 0.014053711
-0.018286213 -0.014514884 0.045731958 -0.0003157988 -0.09441529 -0.047427427 0.07491766 0.08377009
-0.047443945 -0.036208864 -0.05048517 0.05695169 -0.006471473 -0.040389545 -0.054097407 -0.020424161
-0.05496567 0.022397483 0.07121108 -0.07257811 0.06999668 -0.0828463 -0.016382316 -0.02882747
0.047608662 -0.021949604 0.05587455 0.0059400005 -0.06988958 0.02124469 -0.011318218 -0.063063
-0.05702834 -0.044104163 0.015815355 -0.054461565 -0.095690124 -0.0924306 0.084532306 -0.06821169
-0.02178265 -0.0031626849 -0.058187954 -0.025752747 0.039739907 -0.02002962 0.05860824 0.054171413
0.0028455309 -0.092376016 -0.06917742 0.0070875823 0.0007359674 0.020005604 -0.025081959 -0.004376246
-0.022658147 -0.021587932 -0.012114132 0.010438975 0.0073888805 0.08426509 -0.08932092 -0.033636533
-0.08286519 -0.09568326 0.029161965 0.09113698 -0.04366722 -0.059578456 0.006441901 -0.03331263
-0.039100867 -0.04023434 0.022647621 -0.08213915 0.036187626 0.014874433 0.0012268844 0.014913766
0.025659613 -0.015813515 0.0014955207 -0.06536158 0.0018458586 -0.06135428 0.017727774 -0.06973486
0.020205323 -0.010580294 0.08209511 -0.022769576 0.07164815 -0.083050035 -0.1015524 -0.02505284
-0.031735297 0.036570154 -0.0076498617 0.05172651 -0.026225183 -0.048655648 -0.057630412 -0.06636886
-0.030836025 -0.052877653 -0.027043827 0.009940117 -0.059208006 -0.057150703 0.045095976 -0.078864105
-0.08290945 -0.07941199 0.046817947 -0.052374862 0.020532396 0.01906386 -0.010693521 0.040771376
0.0100477515 -0.029996129 0.005488989 -0.034082327 0.07430727 -0.09505634 -0.029665222 0.06540443
-0.05510742 -0.0010735041 -0.040488254 -0.0068754447 0.027163422 0.05601545 -0.0024619622 -0.052582454
-0.09569371 -0.00799719 -0.08625617 0.07056667 -0.024328222 -0.03792436 0.04985761 0.041524984
-0.008509645 0.020963749 0.0018664775 0.04492021 -0.042174563 0.072573625 -0.039157856 -0.014675793
-0.09184931 -0.035488572 -0.062394716 0.061494153 -0.0153772505 0.01871044 0.034105144 -0.057504784
-0.056603786 -0.06589169 -0.005875534 -0.082282215 -0.060793024 0.039655056 0.0622236 -0.08858953
00000000: a5f5 21bb 47db 85bd 9288 303d 7b92 4abd
00000010: e9b1 113d 943a b0bc 3d8b a2bc 5516 aebd
00000020: 8691 c7bc 2bee 6b3d b928 98bd 3419 9cbd
00000030: 5714 4cbd 47b5 11bc 50a4 b3bd d86b 60bd
00000040: 208e 4cbd 9c74 ae3c 39bb c1bd a275 99bc
00000050: d3de 5b3d 6ac3 86bc 4185 24bc b510 af3d
00000060: b638 bf3c c031 82bd f224 2cbd bd0b 50bd
00000070: 07c2 2c3c e06e 27bd a797 61bd fffa 52bd
00000080: a889 65bc 3520 b2bc a51d 1d3d c4e3 62bc
00000090: 788d 63bd efd1 9ebd 18f5 9ebd 4915 29bd
000000a0: 04bd febc 30df 323d 89d4 a43d b1ed 5b3d
000000b0: 9fc1 92bd 5ae2 953d 0d31 9d3d 1530 e9bc
000000c0: e17c 2dbb 2206 633d a177 5bbd 9bd7 9dbd
000000d0: 945b d8bc 2569 353d 566d df3c cb31 b73c
000000e0: 9653 6a3d 09cd 53bd 5680 b8bd 6381 93bd
000000f0: 2a9f 6ebb 3cd6 8a3d 6422 89bb ad17 c7bc
00000100: c1ca 0bbd a718 fd3c f9f1 d3bc e3c3 ffbc
00000110: b631 833b 6090 9b3d d764 7abd 8e52 1d3d
00000120: 9428 3bbb 2686 a3bd 47cc cb3c aeae 2d3d
00000130: 3527 a43d b9a1 3c3d 79e4 22bd 201d 9b3c
00000140: 3d5b 9f3d 8deb bc3c aa82 4fbd b6e9 61bd
00000150: b807 1d3d 8325 823d 98cd 05bd 8941 663c
00000160: f8cc 95bc d6cf 6dbc 6f51 3b3d cc91 a5b9
00000170: ce5c c1bd 4343 42bd 6e6e 993d a78f ab3d
00000180: 9554 42bd bf4f 14bd 8ac9 4ebd 2d46 693d
00000190: a60e d4bb 826f 25bd 3e95 5dbd 9250 a7bc
000001a0: af23 61bd ed7a b73c 1dd7 913d d5a3 94bd
000001b0: 6b5a 8f3d 52ab a9bd 3534 86bc 9627 ecbc
000001c0: 4d01 433d a8cf b3bc b6dc 643d 56a4 c23b
000001d0: 4522 8fbd 5809 ae3c 0c70 39bc 2d27 81bd
000001e0: 8c96 69bd 91a6 34bd 348f 813c 1713 5fbd
000001f0: 2ff9 c3bd 414c bdbd 461f ad3d 92b2 8bbd
00000200: 8771 b2bc 0c45 4fbb 7e56 6ebd 6df7 d2bc
00000210: 50c6 223d 2815 a4bc 320f 703d d8e2 5d3d
00000220: 167c 3a3b a32f bdbd e4ac 8dbd f33e e83b
00000230: f0ed 403a cbe2 a33c ae78 cdbc 9d66 8fbb
00000240: 949d b9bc 2dd9 b0bc 5a7a 46bc 3c08 2b3c
00000250: 6c1e f23b 2d93 ac3d e3ed b6bd 76c6 09bd
00000260: 3ab5 a9bd 96f5 c3bd 13e5 ee3c 06a6 ba3d
00000270: 66dc 32bd 8a08 74bd 9516 d33b d372 08bd
00000280: 3b28 20bd c3cc 24bd 8187 b93c 9238 a8bd
00000290: 7a39 143d e5b3 733c 69cf a03a de58 743c
000002a0: 1c34 d23c 588b 81bc 5905 c43a 4bdc 85bd
000002b0: bdf0 f13a a04e 7bbd d639 913c 26d1 8ebd
000002c0: a285 a53c f858 2dbc 7b21 a83d 4387 babc
000002d0: 44bc 923d 2316 aabd b4fa cfbd 9d3b cdbc
000002e0: dffc 01bd 96ca 153d b1ab fabb 2ddf 533d
000002f0: 32d6 d6bc 254b 47bd de0d 6cbd 66ec 87bd
00000300: d59b fcbc 3d96 58bd 048b ddbc dfdb 223c
00000310: 1884 72bd db16 6abd 8fb6 383d 8183 a1bd
00000320: 6ecc a9bd c1a2 a2bd 2dc4 3f3d 0687 56bd
00000330: 8e33 a83c d02b 9c3c e133 2fbc e3ff 263d
00000340: 539f 243c 71ba f5bc fadc b33b e999 0bbd
00000350: 692e 983d e6ac c2bd 7b04 f3bc c2f2 853d
00000360: 51b8 61bd d2b4 8cba 03d7 25bd 694b e1bb
00000370: d385 de3c 7570 653d df58 21bb b360 57bd
00000380: 10fb c3bd a506 03bc 13a7 b0bd 4285 903d
00000390: fb4b c7bc 9356 1bbd 7e37 4c3d 1a16 2a3d
000003a0: 0a6c 0bbc 2bbc ab3c 98a4 f43a 41fe 373d
000003b0: 3cbf 2cbd 7ba1 943d fd63 20bd bd72 70bc
000003c0: 7e1b bcbd 775c 11bd 9a91 7fbd 4be1 7b3d
000003d0: ddf0 7bbc a346 993c d6b1 0b3d 238a 6bbd
000003e0: 5fd9 67bd 39f2 86bd 8d87 c0bb 9483 a8bd
000003f0: 1b02 79bd 576d 223d 2cde 7e3d 6d6e b5bd

gru1.bias_ih_l0_reverse f4 [384]
0.01102522 0.06767419 -0.07993649 0.04285111 0.07077623 -0.060647886 0.06874417 0.06897932
-0.04907962 0.06472697 -0.0009495416 -0.043735035 0.07022145 -0.09227769 0.09209422 -0.028170848
-0.07173253 -0.043586604 -0.06315324 0.04984879 0.0881968 -0.08648287 -0.002792748 0.03833706
0.033066884 0.055102807 0.004012679 -0.07349001 0.036815353 0.055053204 -0.071048856 -0.0816032
-0.0870748 -0.070207424 -0.07353297 -0.03938879 0.053563714 -0.009749234 -0.04035985 -0.01775289
-0.08854623 -0.0058309785 0.0023330362 -0.017511087 -0.06144732 0.043838542 0.014717531 0.0007093978
-0.08304923 0.058335178 -0.060983557 -0.042942613 0.04579407 -0.06302829 -0.06358049 0.001570749
0.06559335 0.0430328 0.0626674 0.06460719 0.012767932 -0.05726819 -0.023058904 0.027161822
0.021200547 -0.010051667 -0.086498804 0.039855752 -0.08678494 -0.035383433 0.07515001 -0.047314934
-0.08293372 0.043038435 0.029521912 0.088477105 -0.07157486 -0.04297536 0.00478497 -0.04567172
-0.027934982 0.08685043 0.02106101 0.0006729522 0.004720412 0.06539868 -0.097255945 -0.0659386
0.07183595 -0.050764617 -0.025870543 0.018393872 0.046212323 -0.084036745 -0.032495655 0.07874522
-0.07197685 -0.05882637 0.030009253 0.04863955 -0.044914074 0.0021650258 0.07492453 0.065121286
-0.0046241325 0.08856301 0.06591861 -0.09001028 0.079725705 0.0028009813 0.03167345 0.001372248
0.07793579 0.01469134 -0.011567086 -0.015809603 0.043725748 -0.08279151 -0.05587481 0.04766589
-0.016583692 -0.025060525 -0.05458934 0.065413505 0.06558745 -0.036584247 -0.047028508 -0.07138008
-0.022058941 -0.016254995 -0.05868015 0.06980643 -0.04209549 -0.0947322 0.06779121 -0.048075337
0.07179836 0.051348954 0.04290389 0.06004632 -0.012787556 -0.024099039 0.024448035 -0.067283206
0.07511587 -0.059822362 -0.05434255 0.08660932 -0.014538223 -0.03666069 0.049880452 -0.0034393375
-0.03817012 -0.0011932353 0.016377725 0.06642687 0.07522565 -0.08139456 -0.0640467 -0.08065504
0.07631807 0.03796851 0.087397605 -0.036456633 -0.04386916 -0.070113316 0.07861286 -0.053571057
-0.053917564 -0.022292897 0.010449855 -0.038776442 -0.079397894 -0.052172553 -0.023804309 0.020682445
-0.057305552 0.07875596 0.06557178 0.013022333 0.06456215 0.049000084 0.04753877 0.012211982
0.04150851 -0.0073092976 -0.054453246 -0.04989655 0.060100447 -0.069964476 0.042611834 -0.054811142
0.086148106 0.07177167 -0.0620843 -0.005083884 -0.097845815 -0.07765899 -0.040875286 0.06501112
0.050647475 -0.075486474 -0.05004905 -0.05346543 -0.02373185 -0.06799303 0.007114239 0.07956405
-0.05786109 0.062559195 -0.02952988 0.024033811 -0.021791918 -0.01118808 0.00052603823 -0.009209464
0.0054828017 0.009304717 0.0072568017 0.05145719 -0.07300841 -0.0060193976 0.08508419 0.06339342
-0.063393876 -0.017150868 -0.04087372 0.092750624 0.030319344 0.00551805 -0.073365286 -0.049244817
0.0024437655 0.07591168 -0.054817367 -0.013159683 -0.04787511 -0.056777563 -0.08252124 0.050929025
0.043172795 -0.070797004 -0.0052590463 0.050580382 0.04596323 -0.08577479 0.029545937 0.07508409
0.03326153 -0.023956649 0.044968214 -0.031679254 -0.0180941 -0.081848346 0.011111821 0.07081892
00000000: 20a3 343c c498 8a3d beb5 a3bd a584 2f3d
00000010: 21f3 903d eb69 78bd bec9 8c3d 0845 8d3d
00000020: b607 49bd 938f 843d a8ea 78ba 8223 33bd
00000030: 43d0 8f3d 16fc bcbd e59b bc3d 8dc6 e6bc
00000040: 81e8 92bd de87 32bd 7c56 81bd 3f2e 4c3d
00000050: 86a0 b43d ee1d b1bd 8906 37bb 5207 1d3d
00000060: 2471 073d 7bb3 613d cb7c 833b ee81 96bd
00000070: b2cb 163d 787f 613d 1082 91bd 941f a7bd
00000080: 4654 b2bd e9c8 8fbd 7498 96bd 2456 21bd
00000090: a065 5b3d 40bb 1fbc 5f50 25bd 826e 91bc
000000a0: ba57 b5bd cb11 bfbb dae5 183b 6973 8fbc
000000b0: 2fb0 7bbd 0b90 333d cd21 713c e1f6 393a
000000c0: b715 aabd def0 6e3d e5c9 79bd 98e4 2fbd
000000d0: 9092 3b3d fa14 81bd 7d36 82bd 97e1 cd3a
000000e0: ce55 863d 2943 303d c457 803d c650 843d
000000f0: 9730 513c 0d92 6abd 07e6 bcbc 7882 de3c
00000100: c5ac ad3c bfaf 24bc 4926 b1bd c93f 233d
00000110: 4dbc b1bd 38ee 10bd 40e8 993d 4ecd 41bd
00000120: 27d9 a9bd 1249 303d f0d7 f13c 7c33 b53d
00000130: d795 92bd ee06 30bd 3dcb 9c3b 4512 3bbd
00000140: e7d7 e4bc a3de b13d 2488 ac3c 0f69 303a
00000150: b0ad 9a3b beef 853d 202e c7bd d10a 87bd
00000160: ba1e 933d 8fee 4fbd 76ee d3bc bfae 963c
00000170: 2249 3d3d 751b acbd 2a1a 05bd 2d45 a13d
00000180: 9968 93bd ebf3 70bd f7d5 f53c 443a 473d
00000190: d2f7 37bd 1be3 0d3b 0872 993d 4f5e 853d
000001a0: 0986 97bb 8660 b53d 5600 873d 4f57 b8bd
000001b0: 3b47 a33d ab90 373b 05bc 013d 01dd b33a
000001c0: cd9c 9f3d f2b3 703c e083 3dbc 2483 81bc
000001d0: c519 333d 988e a9bd fcdc 64bd 4f3d 433d
000001e0: 86da 87bc bb4b cdbc 1299 5fbd 84f7 853d
000001f0: b752 863d 5dd9 15bd f7a0 40bd b82f 92bd
00000200: f4b4 b4bc 3229 85bc 995a 70bd acf6 8e3d
00000210: 526c 2cbd f502 c2bd 1ed6 8a3d a5ea 44bd
00000220: 050b 933d 4853 523d fdbb 2f3d 21f3 753d
00000230: e682 51bc 596b c5bc 3f47 c83c c7cb 89bd
00000240: 59d6 993d 4b08 75bd 4b96 5ebd 3a60 b13d
00000250: ba31 6ebc 8529 16bd 724f 4c3d 8266 61bb
00000260: 4658 1cbd 5566 9cba 942a 863c d00a 883d
00000270: e80f 9a3d 31b2 a6bd eb2a 83bd 782e a5bd
00000280: a64c 9c3d de84 1b3d 84fd b23d 8d53 15bd
00000290: 26b0 33bd 9297 8fbd c7ff a03d 536d 5bbd
000002a0: aad8 5cbd 989f b6bc de35 2b3c 0cd4 1ebd
000002b0: 5d9b a2bd e3b2 55bd 4101 c3bc 3b6e a93c
000002c0: 3ab9 6abd ce4a a13d 7f4a 863d a05b 553c
000002d0: 2939 843d 50b4 483d 03b8 423d c414 483c
000002e0: d404 2a3d d582 efbb 5e0a 5fbd 5360 4cbd
000002f0: e32b 763d 8949 8fbd bf89 2e3d a681 60bd
00000300: 6b6e b03d 06fd 923d 1b4c 7ebd b696 a6bb
00000310: 6363 c8bd ad0b 9fbd d86c 27bd 8d24 853d
00000320: ba73 4f3d a798 9abd 3c00 4dbd 91fe 5abd
00000330: 4c69 c2bc ee3f 8bbd 901e e93b 7af2 a23d
00000340: c0ff 6cbd 091f 803d a6e8 f1bc 8ee2 c43c
00000350: f784 b2bc 354e 37bc d4e5 093a 4be3 16bc
00000360: 13a9 b33b d072 183c 77ca ed3b c6c4 523d
00000370: 6f85 95bd 5e3e c5bb 9f40 ae3d 69d4 813d
00000380: a6d4 81bd fa7f 8cbc 346b 27bd 0af4 bd3d
00000390: 4660 f83c c2d0 b43b 8a40 96bd efb4 49bd
000003a0: 9527 203b 9577 9b3d 2d88 60bd b69b 57bc
000003b0: b118 44bd 978f 68bd e500 a9bd f49a 503d
000003c0: f5d5 303d 05fe 90bd 1454 acbb 602d 4f3d
000003d0: f143 3c3d b1aa afbd 520a f23c b0c5 993d
000003e0: 3e3d 083d bc40 c4bc 9730 383d 1bc2 01bd
000003f0: 143a 94bc 1ba0 a7bd 5b0e 363c 8309 913d
