results/models/SENSEX_LSTM_model.pth (torch, 905003 bytes, 19 tensors)

lstm1.weight_ih_l0 f4 [512, 6]
0.016135756 0.035065237 -0.06562599 0.082596086 0.04948462 -0.021377055 0.027676973 0.059189975
-0.06760297 0.037594613 0.038098257 0.024299953 0.04339751 0.023724604 0.016976014 0.0050171725
-0.08075254 -0.048264746 0.088205785 0.064223535 0.052137114 -0.07771526 0.027963689 0.00984954
0.004040143 -0.053477827 0.08367747 -0.0884942 0.056523185 0.032209862 0.0008818011 -0.016162746
0.04478953 -0.041374173 0.04469406 -0.012155881 0.045031406 -0.061807763 0.050763834 -0.06854755
0.021286665 -0.018673018 0.06806264 0.03457422 -0.031320706 -0.06399854 0.07658074 0.05155458
-0.019266639 0.043160353 0.011144442 -0.058461223 0.07620436 0.07607814 -0.089149505 0.042767342
-0.06695483 -0.011652099 -0.07721701 -0.090771765 -0.057121653 0.021240363 -0.051866435 0.023236139
-0.012563081 -0.108793415 0.047280315 -0.07754767 -0.019263018 -0.049860734 -0.03364115 0.025803704
0.0865603 -0.028010437 -0.013255282 0.03441359 -0.010767759 0.05421631 0.008514868 0.08555382
-0.07232384 -0.007046093 0.05313355 -0.025971422 0.062647335 0.032575544 0.08727044 -0.050449736
0.07109402 0.0017525876 -0.07025094 -0.046546467 -0.026697485 -0.0011536102 -0.017442785 -0.02215619
-0.020337889 0.06413758 0.06663847 -0.027129008 0.057496227 0.05505476 -0.05145612 -0.03917685
-0.04578887 -0.0015084137 -0.043522473 0.0013121853 0.089664474 -0.03863668 0.05998471 0.03998126
-0.041865136 0.07526598 -0.011124088 -0.09482478 -0.07899894 0.041465975 0.019816784 0.052022073
-0.046323854 -0.05504809 0.07651455 0.043108348 0.0074573285 -0.042149357 -0.0068755406 0.07882321
0.060857076 -0.028535416 0.011176936 0.011069485 0.065006815 0.06240231 -0.05289411 0.019097768
0.023303889 -0.007237363 0.04695134 -0.06945439 0.07613073 -0.0053794323 0.07016517 -0.054280356
0.055607975 -0.019191476 0.052028764 -0.053628113 0.047341306 -0.05196007 0.0010457705 0.029813793
-0.07513791 0.011053719 -0.01037579 0.017415551 -0.0707342 0.09231562 0.064859055 0.08196162
-0.05264682 0.043749627 -0.094717465 -0.049733654 0.036318906 -0.09004227 0.074004434 -0.0035025496
-0.05981572 -0.07458145 -0.06709686 0.05719886 0.06029572 0.07920988 0.040067296 -0.07333945
0.00012866971 0.055103354 0.09753002 0.07877274 0.008379828 -0.03967707 0.0379667 0.021108715
0.05179486 0.039132454 0.06798256 -0.030148087 0.027575366 -0.0011651557 0.03540861 0.0014856128
0.023794582 0.07617649 -0.049599923 -0.0008151452 0.018296078 0.054895706 -0.043261327 -0.033845052
-0.08367191 0.07165078 -0.09373844 0.029499851 -0.02110587 0.029669736 0.0021231633 -0.038535453
-0.090472646 0.038006652 -0.074993275 -0.06125408 0.017622897 -0.042349774 0.06992917 0.07522336
-0.029039301 -0.071152575 -0.03253049 0.08205641 0.08605182 -0.026092447 0.032914054 0.026331082
0.08579431 0.009236064 0.011399233 -0.05120474 -0.051166974 0.07252061 -0.01813992 0.014896544
0.029753972 -0.06903911 0.08137042 0.014149744 -0.05303905 -0.050580245 0.089379184 -0.0136022
-0.07659999 -0.016307902 -0.07079002 -0.052180927 -0.08448029 -0.0206405 0.0012884444 -0.067503504
0.040714696 0.067036316 -0.035046883 -0.041256238 0.05666287 -0.0020222007 -0.048471406 -0.074516445
00000000: 222f 843c 91a0 0f3d eb66 86bd 2328 a93d
00000010: 63b0 4a3d ef1e afbc d2ba e23c 3071 723d
00000020: 6d73 8abd cffc 193d eb0c 1c3d b210 c73c
00000030: 96c1 313d 1a5a c23c 4811 8b3c 1867 a43b
00000040: 9661 a5bd 41b1 45bd 3ca5 b43d a187 833d
00000050: ba8d 553d 2e29 9fbd 1b14 e53c f75f 213c
00000060: 2d63 843b 910b 5bbd 185f ab3d 723c b5bd
00000070: db84 673d 7dee 033d ac28 673a bc67 84bc
00000080: 3a75 373d f777 29bd 1e11 373d 7629 47bc
00000090: da72 383d 232a 7dbd bded 4f3d a862 8cbd
000000a0: 5f61 ae3c 28f8 98bc 6d64 8b3d b39d 0d3d
000000b0: 244a 00bd ab11 83bd 5dd6 9c3d e52a 533d
000000c0: 12d5 9dbc e9c8 303d 2d97 363c 0975 6fbd
000000d0: 0811 9c3d dbce 9b3d 0494 b6bd cf2c 2f3d
000000e0: 9d1f 89bd 72e8 3ebc f423 9ebd 8ce6 b9bd
000000f0: 65f8 69bd 4500 ae3c e671 54bd b759 be3c
00000100: 62d5 4dbc 15cf debd 01a9 413d 50d1 9ebd
00000110: 7acd 9dbc c53a 4cbd 4dcb 09bd 4a62 d33c
00000120: 8746 b13d 2576 e5bc af2c 59bc 44f5 0c3d
00000130: 416b 30bc ec11 5e3d f281 0b3c d736 af3d
00000140: 851e 94bd e9e2 e6bb 91a2 593d 05c2 d4bc
00000150: 3f4d 803d ef6d 053d d8ba b23d 62a4 4ebd
00000160: be99 913d 15b7 e53a badf 8fbd 82a7 3ebd
00000170: afb4 dabc bc34 97ba 2ce4 8ebc e680 b5bc
00000180: a59b a6bc 905a 833d c079 883d a73d debc
00000190: 2a81 6b3d 1a81 613d a7c3 52bd e877 20bd
000001a0: 1c8d 3bbd f7b5 c5ba 9f44 32bd a2fd ab3a
000001b0: 02a2 b73d 7f41 1ebd 87b2 753d 64c3 233d
000001c0: c77a 2bbd 0d25 9a3d cf41 36bc 7f33 c2bd
000001d0: 32ca a1bd 3ad8 293d cf56 a23c 1915 553d
000001e0: 15be 3dbd 1b7a 61bd a9b3 9c3d 6192 303d
000001f0: 9b5c f43b cea4 2cbd 374c e1bb 106e a13d
00000200: 4545 793d 1bc3 e9bc 781f 373c c95c 353c
00000210: 4b22 853d 9199 7f3d 7fa7 58bd ec72 9c3c
00000220: cce7 be3c 6727 edbb 0c50 403d 1a3e 8ebd
00000230: 6eea 9b3d f345 b0bb c2b2 8f3d 1455 5ebd
00000240: 30c5 633d 7137 9dbc 1d1c 553d 27a9 5bbd
00000250: f5e8 413d 15d4 54bd 3c12 893a 0e3c f43c
00000260: e8e1 99bd a81a 353c 38ff 29bc 0fab 8e3c
00000270: 18dd 90bd f90f bd3d d3d4 843d 7edb a73d
00000280: 31a4 57bd cf32 333d 3bfb c1bd 84b5 4bbd
00000290: 22c3 143d 1568 b8bd a38f 973d 088b 65bb
000002a0: 5401 75bd 29be 98bd 146a 89bd 5a49 6a3d
000002b0: a5f8 763d ca38 a23d 9b1d 243d fe32 96bd
000002c0: 83eb 0639 0eb4 613d d2bd c73d 9a53 a13d
000002d0: 8c4b 093c 6c84 22bd f882 1b3d 2fec ac3c
000002e0: d926 543d 5a49 203d 713a 8b3d 1ff9 f6bc
000002f0: bce5 e13c 23b8 98ba 9e08 113d e5b8 c23a
00000300: dbec c23c 6b02 9c3d 4a29 4bbd 78af 55ba
00000310: a8e1 953c 52da 603d ca32 31bd 1ca1 0abd
00000320: 2e5c abbd a5bd 923d f0f9 bfbd aca9 f13c
00000330: 38e6 acbc f20d f33c c524 0b3b 5ad7 1dbd
00000340: b949 b9bd ddac 1b3d 1396 99bd 8fe5 7abd
00000350: e55d 903c f576 2dbd 0637 8f3d b40e 9a3d
00000360: d4e3 edbc 71b8 91bd b13e 05bd 310d a83d
00000370: f03b b03d d4bf d5bc e3d0 063d 48b4 d73c
00000380: edb4 af3d dc52 173c d9c3 3a3c 10bc 51bd
00000390: 7694 51bd b085 943d 2b9a 94bc a210 743c
000003a0: 9abe f33c 6064 8dbd 89a5 a63d 54d4 673c
000003b0: 7a3f 59bd 3b2d 4fbd 6f0c b73d c3db 5ebc
000003c0: 75e0 9cbd 2698 85bc 5cfa 90bd abbb 55bd
000003d0: 0104 adbd 4416 a9bc 05e1 a83a 473f 8abd
000003e0: 74c4 263d 564a 893d 528d 0fbd 4dfc 28bd
000003f0: 5317 683d e686 04bb f489 46bd 149c 98bd

lstm1.weight_hh_l0 f4 [512, 128]
0.030758766 -0.02313279 -0.024448536 -0.050970796 0.037964456 -0.094369575 -0.04860524 -0.061004333
-0.058805645 0.059000958 0.050324515 -0.07492133 0.085409045 0.039924018 0.041345045 -0.036737286
0.01736237 0.058048107 0.011116886 -0.012656478 0.06619944 -0.027739296 0.010226233 -0.06145183
-0.015804768 0.07793225 0.047967207 0.05396118 -0.07661562 0.074177764 0.05929332 0.0068891062
0.0535645 -0.006646143 -0.08968942 0.047976308 -0.034517493 -0.03413748 0.025301676 -0.02826811
-0.010445373 -0.009014675 -0.07518941 -0.002178784 -0.042749383 0.010265745 0.05885965 0.08213061
0.07306156 0.041311912 -0.073461965 -0.047294777 0.08400901 0.011389154 0.06987552 0.058874838
-0.05232714 0.07176921 0.047939166 -0.07896131 0.017812816 0.052308615 0.04952149 -0.04444402
0.013788061 0.09017328 0.037453126 -0.09053812 0.0648418 0.02387184 -0.055296194 0.06230508
-0.012142892 -0.073516995 0.060899965 -0.08119184 -0.032156743 -0.0054994556 0.07590695 -0.08881452
-0.03128081 0.062010888 0.06343203 0.063678384 0.075712375 -0.008198681 0.08724136 -0.07686551
0.06085828 0.082057886 0.08166435 -0.039588578 0.06879585 0.07802198 -0.026656052 -0.016377337
0.039491545 0.006120678 -0.032077253 0.010353684 -0.004417172 0.06805132 0.091489464 -0.016085573
-0.021878302 -0.003517358 -0.021061903 0.05413283 -0.073194735 0.06978433 -0.071549535 0.022930853
-0.0057676304 0.09033042 0.01916599 -0.081235774 -0.05709299 0.013561365 0.016688515 -0.07818081
-0.032559577 0.0033229114 0.040967032 0.036331613 -0.010483367 -0.07227497 0.074286774 -0.047922764
-0.068616554 -0.04657845 0.047943477 0.072602406 0.0074770562 -0.016738053 -0.053238448 -0.04952006
-0.034491323 0.029698892 0.072791286 -0.06946511 -0.10294405 -0.08112241 0.053099696 -0.066473655
-0.08867715 0.077406615 -0.0071625244 -0.033264175 0.008632574 0.059755262 0.006571407 -0.06659202
-0.10004882 -0.06642112 0.010466352 -0.049736213 -0.01942563 0.040427163 0.022993132 -0.06770047
-0.011108863 -0.03136276 0.021504404 -0.07315153 0.008378841 0.029819703 0.005946791 0.08416954
-0.092356764 -0.03566662 0.08338344 0.021166662 0.016747883 0.025398565 -0.046649728 0.05100646
-0.06457021 0.0068202857 -0.015356064 0.059279136 0.10867872 0.04944562 -0.07357437 -0.06417914
-0.054836936 0.03408535 -0.100936376 -0.023380175 0.08578219 -0.050740194 -0.027237259 -0.028641602
-0.017217899 0.10211771 -0.042665567 0.052916408 -0.0022461046 -0.038739346 0.04135919 -0.063408494
0.09157604 -0.010840785 0.057321295 0.06099664 -0.06253494 -0.031335432 0.065292 0.011049446
-0.0499527 0.07850063 0.014917392 0.01728271 0.0044734897 -0.05031571 0.007061054 -0.028313411
-0.041214753 -0.06252323 0.033000633 0.06358489 0.043873154 0.018044712 -0.014982253 0.05956658
-0.005034635 0.023713619 0.041637328 0.015501299 0.046633467 0.022927025 0.099009626 -0.005148811
-0.030260954 -0.05471173 0.014644308 -0.018994031 -0.036613666 0.015932858 0.047685582 -0.012588398
-0.03733246 0.1009979 -0.01966167 -0.035505608 -0.041515905 0.011208066 0.04415942 -0.02079971
-0.03189943 -0.027189754 -0.06795213 -0.018010812 -0.08538733 -0.012657319 -0.037145395 -0.027366195
00000000: cff9 fb3c fa80 bdbc 4c48 c8bc c1c6 50bd
00000010: 9e80 1b3d d644 c1bd 4a16 47bd aedf 79bd
00000020: 30de 70bd fdaa 713d 1421 4e3d 5b70 99bd
00000030: f0ea ae3d 5e87 233d 6c59 293d d679 16bd
00000040: 873b 8e3c dac3 6d3d 9923 363c 1e5d 4fbc
00000050: 9293 873d 853d e3bc ee8b 273c eab4 7bbd
00000060: 0079 81bc f29a 9f3d 4379 443d 6606 5d3d
00000070: a6e8 9cbd 83ea 973d 8ddd 723d 03be e13b
00000080: 7366 5b3d e3c7 d9bb 16af b7bd ce82 443d
00000090: 3762 0dbd bed3 0bbd 7645 cf3c 8692 e7bc
000000a0: 1223 2bbc 4ab2 13bc e8fc 99bd eec9 0ebb
000000b0: fa19 2fbd a831 283c d116 713d 1834 a83d
000000c0: 4da1 953d ae36 293d 3a73 96bd 2bb8 41bd
000000d0: ea0c ac3d 9399 3a3c e61a 8f3d be26 713d
000000e0: fc54 56bd bcfb 923d dc5b 443d 78b6 a1bd
000000f0: 2fec 913c 8f41 563d 0cd7 4a3d ef0a 36bd
00000100: 52e7 613c c5ac b83d 7368 193d 0d6c b9bd
00000110: c7cb 843d e18e c33c 437e 62bd 9d33 7f3d
00000120: fbf2 46bc 1490 96bd 3e72 793d e847 a6bd
00000130: cab6 03bd c734 b4bb 1a75 9b3d 63e4 b5bd
00000140: 4e20 00bd 21ff 7d3d a7e8 813d d069 823d
00000150: 170f 9b3d c353 06bc 99ab b23d aa6b 9dbd
00000160: 8846 793d f70d a83d a43f a73d a227 22bd
00000170: d7e4 8c3d fdc9 9f3d cb5d dabc c429 86bc
00000180: e3c1 213d f88f c83b 7063 03bd 80a2 293c
00000190: edbd 90bb 7e5e 8b3d d45e bb3d e4c5 83bc
000001a0: 203a b3bc 7a83 66bb 038a acbc 63ba 5d3d
000001b0: 1fe7 95bd 16eb 8e3d 9088 92bd 7cd9 bb3c
000001c0: 64fe bcbb 28ff b83d ff01 9d3c f15e a6bd
000001d0: 57da 69bd 7d30 5e3c 5ab6 883c 431d a0bd
000001e0: 315d 05bd 34c5 593b 0ccd 273d 75d0 143d
000001f0: 6ec2 2bbc e604 94bd aa23 983d a94a 44bd
00000200: d686 8cbd 0bc9 3ebd 6160 443d 92b0 943d
00000210: 1802 f53b 3e1e 89bc 8f10 5abd 8cd5 4abd
00000220: c646 0dbd 174b f33c 9913 953d b943 8ebd
00000230: 55d4 d2bd 8223 a6bd 117f 593d 5723 88bd
00000240: 5e9c b5bd 5c87 9e3d 9cb3 eabb 0440 08bd
00000250: a46f 0d3c efc1 743d f554 d73b 6661 88bd
00000260: 65e6 ccbd cc07 88bd 107b 2b3c 33b8 4bbd
00000270: 8022 9fbc f496 253d 185c bc3c 8ba6 8abd
00000280: f301 36bc 3d76 00bd 012a b03c 78d0 95bd
00000290: 6847 093c 7348 f43c 4cdd c23b 1461 ac3d
000002a0: 8b25 bdbd 2917 12bd f0c4 aa3d b565 ad3c
000002b0: db32 893c a710 d03c c913 3fbd 26ec 503d
000002c0: 633d 84bd b47c df3b 0098 7bbc aece 723d
000002d0: f392 de3d 7e87 4a3d 29ae 96bd 5a70 83bd
000002e0: b29c 60bd 149d 0b3d bbb7 cebd c887 bfbc
000002f0: 93ae af3d f3d4 4fbd ac20 dfbc cba1 eabc
00000300: 8d0c 8dbc 1723 d13d 17c2 2ebd e0be 583d
00000310: 6233 13bb 26ad 1ebd 4168 293d 50dc 81bd
00000320: 388c bb3d 8c9d 31bc bcc9 6a3d 9dd7 793d
00000330: 5212 80bd 9559 00bd d0b7 853d bc08 353c
00000340: 349b 4cbd f0c4 a03d 1468 743c 7894 8d3c
00000350: 5a96 923b d917 4ebd 6a60 e73b 87f1 e7bc
00000360: cdd0 28bd 2e0c 80bd ac2b 073d cb38 823d
00000370: 56b4 333d 81d2 933c 2078 75bc 16fc 733d
00000380: 94f9 a4bb 1043 c23c e78b 2a3d 29f9 7d3c
00000390: bc02 3f3d 75d1 bb3c 8fc5 ca3d 5bb7 a8bb
000003a0: d2e5 f7bc 6819 60bd aeee 6f3c 5f99 9bbc
000003b0: 36f8 15bd a085 823c f551 433d 913f 4ebc
000003c0: ece9 18bd fdd7 ce3d 8311 a1bc 546e 11bd
000003d0: 950c 2abd 09a2 373c 82e0 343d 2764 aabc
000003e0: faa8 02bd 0cbd debc 7d2a 8bbd 698b 93bc
000003f0: 8ddf aebd a560 4fbc c525 18bd 122f e0bc

lstm1.bias_ih_l0 f4 [512]
0.029322706 -0.07201206 0.070862666 -0.07027954 0.03983566 0.014822091 -0.07553715 0.043030046
0.05081707 0.03259606 0.06796774 0.028913839 -0.058343522 -0.08492955 0.059296187 0.08229908
-0.045697056 0.058104396 -0.04559037 0.06915801 0.022171795 -0.0484372 0.06348119 -0.065527074
-0.0632973 -0.005434928 -0.0548729 -0.06280097 0.026651205 0.0062087034 -0.06157674 0.011500421
-0.068843216 -0.07466969 0.052558076 -0.054722223 0.06288496 -0.05834099 0.037899505 0.0019523092
0.009334305 0.0054933014 -0.08875563 -0.048888125 0.054123104 -0.07444506 -0.0018402536 0.022296492
0.041821048 -0.056067962 -0.044827964 -0.08921701 -0.040175565 0.07207784 -0.0036974896 0.017671242
0.03354779 -0.067783386 0.081429064 0.029089218 0.053435963 -0.049624424 0.08070864 0.019232742
-0.029510528 -0.043816175 -0.05987172 0.0444802 0.07018713 -0.07550656 -0.03753927 0.07343454
0.022237632 0.034769308 -0.0067149824 0.036034957 -0.014058887 -0.07512988 0.050273597 0.07461345
-0.020159334 -0.06226197 -0.032127365 0.079077475 0.08128858 -0.019961884 -0.032804854 -0.010055931
0.058432598 0.064762965 -0.02699668 -0.08028196 -0.056736894 0.0059872977 -0.017367546 -0.0052870032
0.021285707 -0.06384866 0.0019355918 0.06394648 -0.012186348 0.047789562 -0.05455787 -0.06366775
-0.06403156 0.0073070107 -0.0053956634 0.005885871 0.022329539 0.046523437 0.08398861 -0.051868476
-0.029660378 -0.03817934 -0.016972939 -0.077400215 -0.04157683 0.032600284 0.042953115 -0.07927218
0.02769899 -0.038208883 -0.07581286 -0.07412731 -0.0036933378 -0.07264762 0.0047187083 -0.06325761
-0.05905846 0.041669335 0.020170994 -0.08048483 -0.030046012 -0.008964434 0.061514385 -0.012207433
0.065783404 0.043842826 -0.05319036 -0.06017566 0.05086003 -0.026970066 0.015641859 0.07032683
-0.029110236 0.02533014 0.008342921 -0.06355658 -0.006795749 0.020569142 0.0199463 0.030451465
0.026559336 -0.061025295 0.040072955 0.106587656 0.008363676 -0.040325087 0.019527575 -0.070016734
-0.05683461 0.07849713 0.032674238 -0.021610009 0.0029688817 0.05631954 0.05410404 -0.068671115
0.08835076 -0.023153534 -0.06064401 0.006257986 0.06638293 -0.097608045 -0.0039972523 -0.015061188
-0.074205115 0.060340352 -0.08979152 -0.046007622 0.0326644 0.0646415 -0.055110395 0.06615013
-0.056224417 0.06807178 -0.06323552 0.08074179 0.08998877 -0.015012271 -0.022289569 0.06785534
-0.08733275 -0.017278405 0.08543227 0.0820119 -0.074145846 0.068087436 -0.05765522 0.02493972
0.015154151 -0.057065878 0.072406024 0.075031236 -0.036294367 0.042525265 -0.08274892 -0.0019897984
0.0039276644 -0.008759027 0.08201638 -0.010675096 -0.020297294 0.015051072 -0.057860326 -0.009945188
0.008946715 -0.047553916 0.044410843 0.03705167 -0.04354036 -0.007481511 0.06782671 -0.057595666
0.0702394 0.06382137 0.0014470547 -0.0038981647 -0.00088841625 0.034445573 -0.027871495 0.074730515
0.060223535 -0.054280374 -0.057814978 0.0628624 0.029095948 0.07013757 -0.0036981874 0.053328454
-0.003366364 -0.07832655 0.022542467 0.043866076 0.07191234 -0.00030743948 -0.079241514 -0.06905004
0.048368264 -0.05764858 -0.088622816 -0.09255843 0.00861246 0.03478824 0.08119273 -0.018772112
00000000: 2c36 f03c 0f7b 93bd 7220 913d b8ee 8fbd
00000010: b82a 233d 5bd8 723c 39b3 9abd 4640 303d
00000020: 8f25 503d 7283 053d ac32 8b3d b7dc ec3c
00000030: 9ef9 6ebd 8bef adbd 8fe0 723d 6c8c a83d
00000040: d62c 3bbd e0fe 6d3d f8bc 3abd b7a2 8d3d
00000050: a0a1 b53c 1666 46bd 6d02 823d 0f33 86bd
00000060: 04a2 81bd 7b17 b2bb 68c2 60bd cc9d 80bd
00000070: a153 da3c 6172 cb3b e437 7cbd 436c 3c3c
00000080: acfd 8cbd 6cec 98bd 2347 573d 6924 60bd
00000090: d4c9 803d f6f6 6ebd 833c 1b3d a0e4 ff3a
000000a0: eaee 183c 2701 b43b 83c5 b5bd ea3e 48bd
000000b0: 30b0 5d3d a776 98bd aa34 f1ba 22a7 b63c
000000c0: 8c4c 2b3d 85a7 65bd 879d 37bd 68b7 b6bd
000000d0: 228f 24bd 8c9d 933d 9551 72bb 48c3 903c
000000e0: 6869 093d 04d2 8abd 48c4 a63d 834c ee3c
000000f0: abdf 5a3d fb42 4bbd 924a a53d fc8d 9d3c
00000100: 10c0 f1bc 9778 33bd 0c3c 75bd df30 363d
00000110: 45be 8f3d 2fa3 9abd c7c2 19bd d964 963d
00000120: b22b b63c 436a 0e3d 5b09 dcbb 6499 133d
00000130: 3f57 66bc b2dd 99bd b0eb 4d3d f0ce 983d
00000140: 3025 a5bc 6806 7fbd fc97 03bd 5ff3 a13d
00000150: a17a a63d 1b87 a3bc 625e 06bd a2c1 24bc
00000160: 0557 6f3d 72a2 843d 2428 ddbc de6a a4bd
00000170: f264 68bd 1831 c43b 6246 8ebc 993e adbb
00000180: 5d5f ae3c 16c3 82bd afb3 fd3a 5ff6 823d
00000190: 40a9 47bc fdbe 433d 1378 5fbd 3d64 82bd
000001a0: fb22 83bd a66f ef3b 1bce b0bb 44de c03b
000001b0: 70ec b63c 5c8f 3e3d 3802 ac3d 0a74 54bd
000001c0: 52fa f2bc f161 1cbd d50a 8bbc 0184 9ebd
000001d0: 774c 2abd e087 053d 9bef 2f3d 7459 a2bd
000001e0: fee8 e23c eb80 1cbd c643 9bbd 0fd0 97bd
000001f0: ed0b 72bb 47c8 94bd 659f 9a3b 358d 81bd
00000200: 49e7 71bd 77ad 2a3d a43d a53c 3bd5 a4bd
00000210: 0e23 f6bc 90df 12bc 82f6 7b3d af01 48bc
00000220: 73b9 863d 8994 333d 23de 59bd c17a 76bd
00000230: 9b52 503d 54f0 dcbc 5b23 803c 8307 903d
00000240: 9778 eebc 2781 cf3c bfb0 083c f429 82bd
00000250: e0ae debb 9e80 a83c 6c66 a33c 5a75 f93c
00000260: f792 d93c a9f5 79bd 8a23 243d a14a da3d
00000270: cd07 093c eb2b 25bd 4bf8 9f3c ef64 8fbd
00000280: 68cb 68bd 1ac3 a03d 6cd5 053d 7907 b1bc
00000290: 9291 423b 51af 663d 339c 5d3d 71a3 8cbd
000002a0: 3ef1 b43d 7bac bdbc da65 78bd cb0f cd3b
000002b0: c6f3 873d bae6 c7bd 62fb 82bb 33c3 76bc
000002c0: daf8 97bd 7227 773d 9ee4 b7bd 7d72 3cbd
000002d0: 1bcb 053d c362 843d 70bb 61bd b879 873d
000002e0: 934b 66bd 3869 8b3d a081 81bd f45b a53d
000002f0: 084c b83d 07f6 75bc 9d98 b6bc bef7 8a3d
00000300: 83db b2bd 718b 8dbc 1df7 ae3d dbf5 a73d
00000310: c7d9 97bd 6d71 8b3d e127 6cbd 624e cc3c
00000320: 1e49 783c e9bd 69bd 9c49 943d faa9 993d
00000330: 67a9 14bd f92e 2e3d 4478 a9bd 4767 02bb
00000340: a3b3 803b 0682 0fbc 34f8 a73d 99e6 2ebc
00000350: 8346 a6bc c698 763c f3fe 6cbd 24f1 22bc
00000360: 3e95 123c e5c7 42bd 25e8 353d 7ec3 173d
00000370: 6057 32bd 7727 f5bb bbe8 8a3d 6fe9 6bbd
00000380: add9 8f3d c7b4 823d 19ab bd3a 5a78 7fbb
00000390: 9be4 68ba cd16 0d3d c352 e4bc 500c 993d
000003a0: f4ac 763d 1955 5ebd 66cf 6cbd 01be 803d
000003b0: a05a ee3c 49a4 8f3d 4a5d 72bb f06e 5a3d
000003c0: 379e 5cbb ac69 a0bd fbaa b83c eaac 333d
000003d0: c746 933d d42f a1b9 6049 a2bd 1b6a 8dbd
000003e0: cd1d 463d eb20 6cbd e17f b5bd 468f bdbd
000003f0: 471b 0d3c 1d7e 0e3d 6048 a63d f9c7 99bc

lstm1.bias_hh_l0 f4 [512]
-0.07288437 -0.08758893 -0.053931348 0.03551623 -0.0051436615 -0.018012606 -0.010858541 0.02191704
0.07830526 0.07097441 -0.052053984 0.088517144 -0.009738129 0.07937967 -0.08423838 -0.02515992
-0.0122627 0.08245117 -0.058846164 -0.00982975 0.06393615 0.068460144 0.025539838 0.029842654
-0.04752587 -0.06578889 0.084405914 0.023315381 -0.008295876 0.047543757 0.01956938 0.00020896814
-0.018042367 -0.047982667 0.054246806 -0.00035784463 -0.067329615 -0.063460395 -0.045539115 0.005462795
-0.05042424 -0.035107803 0.06783966 -0.060455967 -0.029773748 0.04303521 -0.059771076 -0.023958262
-0.0017144975 0.078870505 0.020583408 -0.08233976 -0.062312156 -0.052523892 -0.08025295 -0.06098166
0.08096151 0.08468046 0.04557939 -0.01741266 -0.034195635 -0.061437793 -0.05544071 -0.057342116
-0.05377582 -0.050500166 -0.05756328 -0.060019027 0.00520385 -0.016300585 -0.06292166 0.00068509276
-0.07683987 -0.055996437 0.032080177 0.050568752 -0.062802315 0.009681098 -0.023128994 -0.023415213
0.0106177 0.027383698 -0.08387821 -0.04888156 0.06109877 -0.020067979 0.04894275 -0.07541574
-0.030270245 0.038033456 -0.09042104 0.012229792 0.018875351 0.06664388 0.004113373 0.06539783
-0.024664914 -0.022242075 -0.036632266 0.035868626 0.028532987 0.010044557 0.021938866 0.037096113
0.06322 0.0058684438 -0.053926863 0.06588974 -0.09589807 -0.025693059 -0.052436773 -0.0627604
-0.06105345 -0.028139211 -0.04743573 0.033631433 0.03189562 0.061289527 -0.06151818 -0.04635157
-0.087885015 -0.032556545 -0.017642194 0.026945852 -0.03954882 -0.01979078 -0.025933594 -0.023140097
0.050627153 -0.01809041 -0.050949086 0.009960867 -0.017552875 -0.080360524 -0.09391173 -0.039287053
-0.043462846 0.022058325 0.046600673 -0.02300007 -0.0019688464 0.05591512 -0.03393024 0.0817381
-0.055513076 0.042592235 0.04534437 -0.051623564 -0.026679847 -0.07380113 0.01427021 -0.049827315
0.06755013 0.07586259 -0.02389669 0.06689214 0.07723389 -0.028770855 -0.054139353 -0.06994466
-0.022974633 -0.0108732 0.06467816 0.016259799 0.015086333 0.060390733 -0.037152484 -0.031766698
0.04375848 0.026063254 0.045463458 0.06861912 0.017809225 0.06977644 -0.07180986 -0.011648176
-0.08032111 -0.06195725 0.0123091955 -0.09541145 0.029444836 0.031821623 0.0555525 -0.04907357
-0.032447863 0.08365891 0.016437963 -0.046850808 0.013212089 0.038166173 0.08534707 -0.015119205
-0.013048896 0.050852083 0.07907591 -0.057706222 -0.05445932 0.051342685 0.033962764 0.029387422
0.06833147 -0.016652668 -0.07872869 0.03561094 -0.008517695 -0.05681744 0.059030477 -0.013745526
-0.03964065 0.029744172 -0.008758056 0.0330613 -0.048987363 -0.041047633 0.06133269 -0.031630784
0.10480313 -0.035050843 -0.037543256 0.007017265 -0.07786604 0.08064343 0.09148845 0.08154971
0.089154966 0.03371846 0.034595072 0.03818531 -0.061682146 -0.04876988 -0.07872334 0.02207203
-0.061291978 -0.026679955 0.046016425 0.069560885 0.0099213235 0.048791315 0.03383252 0.009073735
-0.064669035 0.043227553 0.0076770154 -0.03852 0.03242378 -0.056952637 -0.060644254 -0.022918677
-0.025760913 0.020550348 0.02502946 -0.022913255 0.06063187 0.074034385 0.013019386 -0.048171747
00000000: 6744 95bd d361 b3bd 1ee7 5cbd 7779 113d
00000010: 298c a8bb 2c8f 93bc 06e8 31bc 5d8b b33c
00000020: 825e a03d 085b 913d 8f36 55bd 7a48 b53d
00000030: ac8c 1fbc cf91 a23d 2c85 acbd 2d1c cebc
00000040: 7ee9 48bc 29dc a83d ad08 71bd f60c 21bc
00000050: f5f0 823d d534 8c3d ec38 d13c 9578 f43c
00000060: 7daa 42bd 53bc 86bd 02dd ac3d e6ff be3c
00000070: 6deb 07bc 3ebd 423d f74f a03c 751e 5b39
00000080: 96cd 93bc 7989 44bd e631 5e3d 189d bbb9
00000090: 1ce4 89bd 86f7 81bd 3987 3abd 3f01 b33b
000000a0: a689 4ebd 33cd 0fbd 85ef 8a3d ada0 77bd
000000b0: 13e8 f3bc b045 303d 84d2 74bd 1e44 c4bc
000000c0: fdb8 e0ba dc86 a13d 899e a83c c0a1 a8bd
000000d0: 083b 7fbd 4b23 57bd a95b a4bd e8c7 79bd
000000e0: 26cf a53d f36c ad3d 74b1 3a3d ffa4 8ebc
000000f0: b910 0cbd 32a6 7bbd cc15 63bd 91df 6abd
00000100: 0944 5cbd 43d9 4ebd 79c7 6bbd 83d6 75bd
00000110: 0f85 aa3b ce88 85bc 12dd 80bd cc97 333a
00000120: 395e 9dbd 855c 65bd 8166 033d 2e21 4f3d
00000130: 809e 80bd 789d 1e3c 0479 bdbc 43d1 bfbc
00000140: ddf5 2d3c c753 e03c 57c8 abbd 0838 48bd
00000150: b442 7a3d 9a65 a4bc 3178 483d 9173 9abd
00000160: 4ef9 f7bc f8c8 1b3d ab2e b9bd 775f 483c
00000170: 7ba0 9a3c 967c 883d 79c9 863b 4cef 853d
00000180: 130e cabc 0335 b6bc b70b 16bd fbea 123d
00000190: 03be e93c ed91 243c 23b9 b33c 18f2 173d
000001a0: 7d79 813d 134c c03b 6ae2 5cbd 33f1 863d
000001b0: 3566 c4bd 407a d2bc f1c7 56bd 8688 80bd
000001c0: 2f13 7abd 3484 e6bc f84b 42bd 1dc1 093d
000001d0: fba4 023d ba0a 7b3d 7dfa 7bbd 25db 3dbd
000001e0: 0ffd b3bd 035a 05bd 5d86 90bc 8cbd dc3c
000001f0: f2fd 21bd 4620 a2bc b072 d4bc 4d90 bdbc
00000200: 6b5e 4f3d 5732 94bc fdaf 50bd e832 233c
00000210: 0ccb 8fbc 0f94 a4bd cb54 c0bd 76eb 20bd
00000220: 1906 32bd a9b3 b43c 59e0 3e3d a56a bcbc
00000230: c307 01bb 4107 653d 6ffa 0abd 4e66 a73d
00000240: ae61 63bd 3275 2e3d 05bb 393d 3b73 53bd
00000250: b28f dabc 0c25 97bd 99cd 693c ba17 4cbd
00000260: b957 8a3d d85d 9b3d fec2 c3bc bffe 883d
00000270: cd2c 9e3d dbb0 ebbc 3ac1 5dbd 253f 8fbd
00000280: 4c35 bcbc 8225 32bc fc75 843d 4533 853c
00000290: ab2c 773c 465c 773d 342d 18bd cc1d 02bd
000002a0: 183c 333d 9b82 d53c e437 3a3d 2e88 8c3d
000002b0: a7e4 913c f3e6 8e3d 0c11 93bd fed7 3ebc
000002c0: 657f a4bd e3c6 7dbd 82ac 493c 1467 c3bd
000002d0: 4c36 f13c 6457 023d 058b 633d 5e01 49bd
000002e0: 0de8 04bd 5d55 ab3d e8a8 863c a2e6 3fbd
000002f0: 8577 583c 2254 1c3d 72ca ae3d 8bb6 77bc
00000300: 09cb 55bc 464a 503d 8df2 a13d 5c5d 6cbd
00000310: bc10 5fbd b54c 523d 8a1c 0b3d e4bd f03c
00000320: 5ff1 8b3d 2d6b 88bc 823c a1bd c7dc 113d
00000330: cd8d 0bbc 67b9 68bd f1c9 713d ea34 61bc
00000340: 3c5e 22bd 0daa f33c f37d 0fbc 496b 073d
00000350: f9a6 48bd 9021 28bd fd37 7b3d 488f 01bd
00000360: 06a3 d63d 7991 0fbd f5c6 19bd 16f1 e53b
00000370: 3b78 9fbd 6228 a53d 4c5e bb3d 8903 a73d
00000380: e196 b63d 5e1c 0a3d 90b3 0d3d 3368 1c3d
00000390: 6ba6 7cbd edc2 47bd b439 a1bd 67d0 b43c
000003a0: 4c0d 7bbd ec8f dabc b87b 3c3d f075 8e3d
000003b0: 0c8d 223c 67d9 473d f893 0a3d 01aa 143c
000003c0: 3371 84bd 600f 313d 798f fb3b 26c7 1dbd
000003d0: ccce 043d 2b47 69bd 1c66 78bd f3bf bbbc
000003e0: 8d08 d3bc 3459 a83c 950a cd3c 94b4 bbbc
000003f0: 2059 783d 579f 973d 434f 553c bd4f 45bd

lstm1.weight_ih_l0_reverse f4 [512, 6]
-0.09420476 0.029423028 0.03496311 -0.029368624 -0.027866019 0.039687388 0.07281634 0.09143538
-0.024992054 -0.046912566 -0.020778567 0.04352259 -0.06217965 0.03708172 -0.06017579 -0.051499225
-0.0049073985 0.032311942 0.061366394 -0.03395191 0.059434492 -0.0077222823 -0.03709597 -0.002239806
0.059145674 0.002464371 -0.08154604 -0.011230548 -0.04042967 -0.026856838 -0.031561673 -0.022780025
-0.039084762 -0.022622745 -0.017238429 -0.06804077 0.04288101 -0.0684695 -0.050612215 0.03832587
-0.03996249 0.04321917 -0.052555747 -0.07218783 0.03633616 -0.01125219 -0.046863116 -0.026850127
-0.034670345 0.016083108 -0.08520529 -0.045818396 0.05572092 0.07714959 -0.042073477 0.007867302
-0.02251712 0.002816931 -0.014630748 -0.0078018676 0.031577222 0.052841038 0.023721678 -0.038283452
-0.033485614 0.05968914 -0.05222879 -0.060858216 0.021656951 -0.03994571 0.027718559 -0.028050946
0.038266223 0.063974075 0.07373477 -0.039073963 -0.09474114 0.095033675 -0.016035404 0.080707096
-0.016901506 -0.08211332 -0.019995643 0.05585278 -0.007104303 0.048730273 0.099260814 -0.013627535
-0.035377763 0.008209979 0.037623927 -0.027758341 0.046043344 0.058426477 0.05375452 -0.031540465
0.027908541 0.023864735 -0.03157914 0.05336937 0.09406523 0.03449434 -0.084939845 -0.06688634
-0.03049484 0.06278272 0.021092895 0.004815815 -0.065979406 -0.07561425 -0.0063084126 0.08881939
0.005420125 -0.052207462 -0.056477327 0.073217526 -0.05323919 -0.075050905 0.06629271 0.0042993366
-0.035727236 0.03759734 -0.061104957 0.004936466 0.06822253 0.008092466 -0.05882386 -0.001983257
0.0063108234 -0.07245522 0.0140468115 -0.001496471 0.0286046 -0.083937705 0.047665473 0.07126824
0.034748174 -0.060095217 0.011415669 -0.006852071 -0.05566135 0.029899035 -0.012030512 -0.048699018
-0.04241782 0.012788478 0.056739092 0.040169902 0.03997879 -0.03685599 -0.06402014 0.056416284
-0.079274766 -0.07056953 -0.0431629 0.045239326 0.07287646 0.019086877 -0.063696004 0.05953602
0.053103257 -0.07432469 -0.06367805 -0.10132585 0.00044863645 -0.06840772 0.078741565 -0.0027848561
0.005364739 0.02744157 -0.069637574 0.05863097 0.08364066 -0.012010872 -0.03812492 -0.032132838
0.044016324 0.050385613 -0.08953521 0.04427967 0.016038777 -0.0842884 -0.012285931 0.07213423
-0.06456565 -0.0382165 0.08905321 0.03760673 -0.043543685 -0.03360934 0.051104017 0.045875378
-0.0040986976 -0.10185056 0.050678838 0.04565547 0.042933457 -0.06783365 -0.054234877 -0.033933226
-0.04226077 0.07103871 0.048822217 -0.06983311 0.008418045 -0.021833489 -0.06515242 0.036842443
-0.030687325 0.046015922 0.024932466 0.07039262 -0.052061923 -0.054731034 0.076299146 0.014853299
0.006442697 -0.07986608 -0.06566632 -0.040388916 0.07133532 0.07209 -0.0027957335 0.03155828
-0.0074207615 -0.06470461 -0.062272165 0.068252996 -0.067103446 0.02725731 -0.00046629627 -0.0427478
0.011446245 0.053138822 0.057095602 -0.07945137 0.0011691633 -0.038650814 0.035809882 -0.0708613
-0.057596065 0.044848103 -0.04177123 -0.08157221 -0.06336656 -0.011544339 -0.06109455 -0.0060595884
-0.017596297 0.03332276 0.059688743 0.01969694 0.0047846874 0.07384874 0.07859551 -0.022999244
00000000: 6dee c0bd 9008 f13c 7a35 0f3d 7896 f0bc
00000010: 4747 e4bc 3e8f 223d bc20 953d 7942 bb3d
00000020: 23bc ccbc 6427 40bd d037 aabc be44 323d
00000030: 17b0 7ebd 00e3 173d e47a 76bd daf0 52bd
00000040: 3ece a0bb 8759 043d 545b 7b3d 2811 0bbd
00000050: 9571 733d 330b fdbb f2f1 17bd b6c9 12bb
00000060: bc42 723d 4981 213b 9c01 a7bd 5500 38bc
00000070: 9599 25bd df02 dcbc d046 01bd 2d9d babc
00000080: 5817 20bd 5653 b9bc 9b37 8dbc f658 8bbd
00000090: ffa3 2f3d bd39 8cbd c14e 4fbd 96fb 1c3d
000000a0: b5af 23bd 9606 313d b244 57bd 37d7 93bd
000000b0: 3ad5 143d 1b5b 38bc 8af3 3fbd ccf4 dbbc
000000c0: 7e02 0ebd b9c0 833c 1c80 aebd 12ac 3bbd
000000d0: 9f3b 643d 9b00 9e3d 3d55 2cbd dbe5 003c
000000e0: d375 b8bc 439c 383b ceb5 6fbc cfa6 ffbb
000000f0: 1e57 013d d86f 583d f753 c23c 1ccf 1cbd
00000100: 3628 09bd 9a7c 743d dbed 55bd 7746 79bd
00000110: eb69 b13c 1d9e 23bd 0812 e33c 19cb e5bc
00000120: 0bbd 1c3d d704 833d 4102 973d 050c 20bd
00000130: a507 c2bd 04a1 c23d ae5c 83bc c349 a53d
00000140: 0775 8abc 072b a8bd e7cd a3bc e2c5 643d
00000150: 37cb e8bb 6599 473d 4149 cb3d 0646 5fbc
00000160: 46e8 10bd 2683 063c 8c1b 1a3d 7665 e3bc
00000170: f297 3c3d 9a50 6f3d b32d 5c3d 9330 01bd
00000180: 74a0 e43c fa7f c33c 2159 01bd d799 5a3d
00000190: 45a5 c03d f049 0d3d f1f4 adbd b5fb 88bd
000001a0: 51d0 f9bc 3a94 803d 02cb ac3c fccd 9d3b
000001b0: 3620 87bd a5db 9abd cdb6 cebb f1e6 b53d
000001c0: 4e9b b13b 7ed7 55bd c554 67bd 12f3 953d
000001d0: 5611 5abd 4ab4 99bd 79c4 873d 73e1 8c3b
000001e0: b956 12bd abff 193d 3149 7abd 14c2 a13b
000001f0: 41b8 8b3d 4396 043c 4af1 70bd 88f9 01bb
00000200: 06cb ce3b 6763 94bd 9924 663c 3c25 c4ba
00000210: 3254 ea3c 88e7 abbd df3c 433d 15f5 913d
00000220: 1a54 0e3d 6726 76bd c908 3b3c 5687 e0bb
00000230: 28fd 63bd d2ee f43c a01b 45bc 9f78 47bd
00000240: 4fbe 2dbd c486 513c 4067 683d 3289 243d
00000250: cdc0 233d 4ef6 16bd fe1c 83bd c314 673d
00000260: cf5a a2bd c286 90bd 95cb 30bd df4c 393d
00000270: 4140 953d 155c 9c3c 0d73 82bd 0bdc 733d
00000280: cd82 593d 8b37 98bd a369 82bd ed83 cfbd
00000290: f736 eb39 5919 8cbd 4243 a13d 2282 36bb
000002a0: b1ca af3b 25cd e03c 259e 8ebd 0727 703d
000002b0: cb4b ab3d 40c9 44bc e028 1cbd b99d 03bd
000002c0: 764a 343d 2561 4e3d 3c5e b7bd 995e 353d
000002d0: c163 833c 669f acbd ee4a 49bc 1cbb 933d
000002e0: ff3a 84bd e888 1cbd 8861 b63d 8409 1a3d
000002f0: dd5a 32bd f3a9 09bd 7252 513d d2e7 3b3d
00000300: 5e4e 86bb 0797 d0bd 9d94 4f3d 3b01 3b3d
00000310: feda 2f3d 5eec 8abd 6425 5ebd 91fd 0abd
00000320: a119 2dbd be7c 913d cef9 473d a904 8fbd
00000330: d7eb 093c 25dc b2bc a26e 85bd 1ae8 163d
00000340: fc63 fbbc 317b 3c3d 2c3f cc3c 022a 903d
00000350: e23e 55bd a62d 60bd ba42 9c3d 405b 733c
00000360: 421d d33b d490 a3bd 107c 86bd d96e 25bd
00000370: 4118 923d eca3 933d a038 37bb 4143 013d
00000380: dc29 f3bb da83 84bd 1911 7fbd 3ac8 8b3d
00000390: 886d 89bd b94a df3c 3a79 f4b9 5118 2fbd
000003a0: 0889 3b3c 18a8 593d 14dd 693d 66b7 a2bd
000003b0: 9c3e 993a 5150 1ebd 62ad 123d bb1f 91bd
000003c0: dae9 6bbd a5b2 373d 4f18 2bbd 550f a7bd
000003d0: 54c6 81bd 7824 3dbc 473e 7abd 838f c6bb
000003e0: 1c26 90bc 727d 083d 2f7c 743d 7a5b a13c
000003f0: dec8 9c3b 023e 973d aff6 a03d e968 bcbc

lstm1.weight_hh_l0_reverse f4 [512, 128]
-0.026610909 -0.05265077 -0.057272293 0.053569503 0.021190612 0.015867587 -0.014527745 0.09124135
-0.0664494 -0.077948555 0.035101872 -0.05145898 -0.0746834 -0.014748126 0.07905872 0.08419179
0.0025142902 0.056148715 -0.092123725 0.022000054 -0.022553617 0.028307565 0.031300876 0.06600793
0.049176995 0.030056203 -0.026401179 0.06228556 -0.09725263 0.040799044 0.050263148 0.06431344
-0.06865345 -0.041943166 0.030336957 0.001853503 0.047217615 0.045975238 0.020571921 -0.01414882
0.00081064564 0.073575445 0.061070383 0.06750291 0.046698622 -0.098490335 0.040593386 0.003463296
0.0146522615 0.08563113 0.036942683 0.018704481 0.040968183 0.08535264 -0.051758107 0.036311936
0.0094944015 0.055968277 0.061353795 0.04546493 0.008703267 0.08587037 0.072801195 -0.013350156
-0.08932572 -0.01915879 0.06709864 -0.037256077 0.06788418 0.053668126 -0.05947918 0.013372275
-0.017800663 -0.050698135 0.011816041 0.052074462 0.091831975 0.0768589 0.027710833 0.04018145
0.059489436 -0.022422748 -0.064418495 0.03355354 0.02256466 0.019242896 0.042658366 -0.0717595
-0.07826947 -0.0026453044 0.028143402 0.009433825 0.047346 -0.052529503 0.058798477 0.06942171
0.020429265 -0.048383743 -0.0722421 -0.049835503 0.08455895 0.008192594 -0.030227479 -0.06598481
0.0070216535 -0.080472834 -0.065706335 0.0073486795 0.021314662 0.079123855 -0.08742592 -0.039991204
-0.061896253 -0.01950682 -0.032630533 0.09524943 0.027046265 0.006862546 0.065074295 -0.061868668
-0.07708238 -0.069736466 -0.08564202 0.062633716 -0.026724307 -0.034609906 0.042839777 -0.04719195
0.06359299 0.07882906 -0.067678615 0.0022640037 0.052350003 0.07987287 -0.008326966 -0.08542847
-0.11156264 -0.06382714 0.025997594 -0.016050369 -0.035709504 -0.024154468 -0.04206145 0.05094102
0.008667927 -0.06463063 0.05864646 0.036742225 -0.042931166 -0.041997373 0.020188203 -0.04650601
-0.053761184 0.06252825 0.028231638 -0.048398748 0.045103405 0.062445547 0.06290398 -0.05027688
-0.043167822 -0.08468694 -0.015588469 0.04437118 0.025859378 0.00625987 0.05479263 0.009477597
0.08003056 -0.085610755 -0.1031435 0.0068139005 0.05152078 0.03272713 -0.07635552 -0.02781682
-0.03574901 -0.017214434 0.07178361 0.091569416 0.07963223 0.042363837 -0.01574955 -0.02627419
0.092135735 -0.02012394 0.07539601 0.022535915 0.077167034 -0.033569377 0.080154486 -0.019259918
0.084253356 -0.08462194 0.01985 -0.0009565688 0.033688497 0.04720348 0.024495192 -0.10226315
0.045637403 -0.06316184 0.0587138 0.028385801 0.025574582 0.072469845 -0.038419127 0.05541864
-0.070735626 -0.042219624 0.028333794 -0.0100437775 0.06026583 -0.04792447 0.076392435 0.030053249
-0.011613095 0.03239627 -0.050113894 0.040509164 0.055395536 -0.039183952 0.012705941 -0.07682499
-0.01571776 0.032240428 -0.015949905 -0.075780414 0.082649864 0.019159233 -0.037112676 0.04126292
-0.03168117 -0.04783413 -0.038915094 -0.051322717 0.04009825 0.04582537 0.109968156 0.05695419
0.07845738 -0.06904545 -0.0049449974 -0.03352432 0.0071020513 0.034109235 -0.05185894 0.06388441
0.042885553 0.102372535 0.075617954 0.05084293 0.0028594453 -0.050707925 -0.011769945 -0.051507346
00000000: 1fff d9bc 55a8 57bd 5a96 6abd b26b 5b3d
00000010: ef97 ad3c befc 813c c705 6ebc bfdc ba3d
00000020: 9f16 88bd 7ea3 9fbd fbc6 0f3d a7c6 52bd
00000030: 9cf3 98bd 20a2 71bc 8ae9 a13d bf6c ac3d
00000040: cac6 243b 32fc 653d 5dab bcbd 7539 b43c
00000050: 5dc2 b8bc 44e5 e73c 5935 003d 2a2f 873d
00000060: d16d 493d 6d38 f63c 4947 d8bc 251f 7f3d
00000070: 632c c7bd e61c 273d bbe0 4d3d c4b6 833d
00000080: 2e9a 8cbd 99cc 2bbd 3685 f83c 3ef1 f23a
00000090: 4267 413d 8850 3c3d 7286 a83c 74d0 67bc
000000a0: 8281 543a b9ae 963d f024 7a3d f73e 8a3d
000000b0: 0e47 3f3d 4db5 c9bd 4045 263d 77f8 623b
000000c0: 0a10 703c 605f af3d 3651 173d 243a 993c
000000d0: 41ce 273d 5dcd ae3d 4f00 54bd d3bb 143d
000000e0: 688e 1b3c fe3e 653d 1e4e 7b3d 6f39 3a3d
000000f0: 2698 0e3c cedc af3d cb18 953d 9dba 5abc
00000100: 67f0 b6bd e5f2 9cbc 036b 893d d499 18bd
00000110: dc06 8b3d 1cd3 5b3d 71a0 73bd 6317 5b3c
00000120: b2d2 91bc d9a8 4fbd 1198 413c 084c 553d
00000130: 6712 bc3d 3368 9d3d d401 e33c 4e95 243d
00000140: 32ab 733d e9af b7bc d8ed 83bd 706f 093d
00000150: 86d9 b83c 47a3 9d3c 8aba 2e3d a5f6 92bd
00000160: be4b a0bd d85c 2dbb fe8c e63c 5490 1a3c
00000170: e1ed 413d 2d29 57bd acd6 703d f82c 8e3d
00000180: 465b a73c 082e 46bd abf3 93bd 5020 4cbd
00000190: 3e2d ad3d 3b3a 063c 9e9f f7bc 0b23 87bd
000001a0: e615 e63b f1ce a4bd 0b91 86bd 31cd f03b
000001b0: 169c ae3c b00b a23d 5c0c b3bd d1cd 23bd
000001c0: ed86 7dbd c4cc 9fbc 98a7 05bd 2212 c33d
000001d0: 2190 dd3c 35df e03b ac45 853d 006a 7dbd
000001e0: 5edd 9dbd fed1 8ebd 1565 afbd 1b46 803d
000001f0: efec dabc 1ec3 0dbd c378 2f3d 594c 41bd
00000200: 0b3d 823d 2171 a13d 169b 8abd ae5f 143b
00000210: f56c 563d 6394 a33d d46d 08bc 1ff5 aebd
00000220: f47a e4bd ceb7 82bd e8f8 d43c 107c 83bc
00000230: 2144 12bd 97df c5bc a148 2cbd 88a7 503d
00000240: ec03 0e3c 105d 84bd 4537 703d 047f 163d
00000250: 97d8 2fbd 7005 2cbd bb61 a53c 167d 3ebd
00000260: b034 5cbd d00e 803d 0946 e73c c43d 46bd
00000270: 59be 383d e7c6 7f3d cdd3 803d 21ef 4dbd
00000280: bed0 30bd 5970 adbd c766 7fbc 8ebe 353d
00000290: 0cd7 d33c 981f cd3b 3d6e 603d ec47 1b3c
000002a0: 10e7 a33d b154 afbd e63c d3bd 2447 df3b
000002b0: 7407 533d e20c 063d 4860 9cbd 1ae0 e3bc
000002c0: 8e6d 12bd 4905 8dbc 4903 933d bf88 bb3d
000002d0: 3916 a33d b485 2d3d 3305 81bc f83c d7bc
000002e0: a9b1 bc3d f6da a4bc 3969 9a3d 3d9d b83c
000002f0: c009 9e3d 0b80 09bd 0928 a43d fac6 9dbc
00000300: 068d ac3d 454e adbd 789c a23c 3fc2 7aba
00000310: f3fc 093d 7058 413d 24aa c83c 586f d1bd
00000320: 49ee 3a3d ff5a 81bd e27d 703d 5789 e83c
00000330: c981 d13c 126b 943d 605d 1dbd a8fe 623d
00000340: d7dd 90bd 7cee 2cbd 461c e83c a88e 24bc
00000350: 4ed9 763d 734c 44bd a373 9c3d 3b32 f63c
00000360: da44 3ebc f4b1 043d 3a44 4dbd f0ec 253d
00000370: 6ee6 623d 5a7f 20bd 942c 503c 6c56 9dbd
00000380: 88c2 80bc 8a0e 043d 60a9 82bc c332 9bbd
00000390: 5544 a93d d3f3 9c3c 7603 18bd 4f03 293d
000003a0: 1dc4 01bd b8ed 43bd 6f65 1fbd c537 52bd
000003b0: 103e 243d 62b3 3b3d fc36 e13d cc48 693d
000003c0: 43ae a03d b367 8dbd a509 a2bb cc50 09bd
000003d0: 53b8 e83b 20b6 0b3d 0a6a 54bd d4d5 823d
000003e0: c3a8 2f3d b1a8 d13d 96dd 9a3d ad40 503d
000003f0: 8865 3b3b 1db3 4fbd bad6 40bc 5ef9 52bd

lstm1.bias_ih_l0_reverse f4 [512]
-0.055457734 0.0056541646 -0.028356317 -0.0012939915 0.07279801 0.012443722 -0.069681615 -0.032411437
-0.025456075 0.047233623 0.06535354 -0.032618083 -0.005844304 0.05789806 -0.028863246 0.008046829
-0.017667344 -0.04472358 0.037921675 -0.035394058 0.051974602 -0.07899792 -0.0407101 -0.028462794
0.021291398 -0.05385785 -0.014322458 -0.021305006 0.0024244369 0.030316921 -0.05441525 -0.033780593
-0.031380974 -0.006761732 0.078855805 0.043999597 -0.07391656 0.07186921 -0.03885557 0.039432686
-0.08922769 -0.08556898 0.05941271 -0.0155147035 -0.021635486 0.08252915 -0.050092205 0.09084819
-0.017933602 0.027388114 -0.052486572 0.013512178 0.040549275 0.030830463 0.089808784 -0.03437696
-0.0033322095 0.004401983 0.041885257 0.014799054 -0.078547284 0.014281064 -0.040034708 0.08493002
0.005765326 0.036525976 -0.023452956 0.068897344 -0.0029003697 0.035825398 0.016233675 0.070935905
0.07145288 -0.026835488 0.038928818 -0.035397984 -0.045052882 -0.018482106 -0.072993904 0.051433854
-0.023294628 -0.0736105 0.059421178 -0.011957783 0.06268867 -0.004656905 -0.03592516 0.038456675
-0.05237476 0.054094087 -0.09128281 -0.007073846 -0.011664549 0.06616796 0.0033337031 0.07677099
-0.05686942 -0.014850203 0.023578877 0.06361721 -0.0041400203 0.07728381 -0.048527204 0.024583317
-0.020554533 -0.069842845 0.035891403 -0.05049569 -0.026306324 -0.0171823 -0.017319966 0.0784502
-0.091930136 0.0002596026 0.033848375 0.07588043 0.04163849 0.039774187 0.03286378 0.016362876
0.07149327 -0.026920775 0.04386369 -0.061458204 -0.03333575 -0.022676334 0.03778821 0.0154969385
0.03579592 0.06367874 0.05928772 -0.030126346 0.021387536 0.087107025 0.019185381 0.012170523
0.037130177 0.044603333 -0.05622895 -0.088475965 -0.04703069 0.005483203 0.0008004956 -0.09172014
0.0772786 -0.05151669 -0.053437598 -0.07638132 0.056911066 -0.074228965 -0.016519524 0.046443943
0.09322512 0.085300595 -0.04652139 0.025264213 -0.00017499598 -0.026529767 0.045513406 0.07856341
-0.054028284 0.043330576 -0.07480041 0.0484172 -0.018356636 -0.011681918 0.0019405612 -0.014252864
-0.05003608 -0.019887172 -0.0384359 0.09814539 0.015294216 0.082108535 0.0053422856 0.059047155
-0.035561927 0.09919195 0.056017626 -0.009904188 0.07163062 0.0024856126 0.07454874 0.02281823
-0.064330734 -0.0822877 -0.006478998 -0.04705091 -0.07192935 0.00034226273 -0.00991339 -0.019592386
0.051043905 0.056731112 0.007980795 0.0077188304 -0.051029574 0.039664287 -0.03548953 0.06423722
-0.036056917 0.07304758 -0.018550035 -0.086246476 0.08924935 0.037285857 0.06485223 0.070321865
-0.016464947 -0.03842604 -0.025523804 0.021257835 0.08417206 0.04592435 0.08826937 -0.013683472
-0.08555829 -0.08277728 0.07457614 0.002154504 0.058831353 0.013184942 0.068046965 -0.04117681
0.021670064 0.06642675 0.05939192 -0.065985896 0.08226871 0.08021486 0.005913479 -0.0023757552
0.09263011 -0.013793848 -0.031581312 -0.048075877 -0.024905514 0.053373486 0.03035276 -0.024550214
0.04870642 0.07050641 0.04421711 0.03685801 0.06387032 -0.03290487 0.039072704 -0.07891563
0.04335785 -0.0572903 0.020031394 -0.055114422 0.038981155 0.025413511 -0.0967278 0.058063872
00000000: a627 63bd 9246 b93b 824b e8bc 269b a9ba
00000010: 2017 953d c1e0 4b3c 3cb5 8ebd dbc1 04bd
00000020: 4289 d0bc 0b78 413d 14d8 853d 8a9a 05bd
00000030: 9381 bfbb 8426 6d3d 9d72 ecbc d9d6 033c
00000040: 1bbb 90bc 1330 37bd c253 1b3d 5cf9 10bd
00000050: 52e3 543d a9c9 a1bd a2bf 26bd ce2a e9bc
00000060: 4c6b ae3c 0d9a 5cbd bea8 6abc d687 aebc
00000070: 4de3 1e3b 315b f83c 86e2 5ebd 855d 0abd
00000080: 5689 00bd 8591 ddbb 277f a13d ec38 343d
00000090: 9161 97bd 2a30 933d 0527 1fbd 2b84 213d
000000a0: 02bd b6bd ca3e afbd be5a 733d 6231 7ebc
000000b0: e73c b1bc 0b05 a93d 7c2d 4dbd 9e0e ba3d
000000c0: 7de9 92bc 0a5d e03c 29fc 56bd 2f62 5d3c
000000d0: ff16 263d 2b90 fc3c abed b73d dbce 0cbd
000000e0: 3361 5abb 833e 903b e08f 2b3d bb77 723c
000000f0: 66dd a0bd 20fb 693c 6ffb 23bd caef ad3d
00000100: 0feb bc3b 439c 153d 6a20 c0bc 0d1a 8d3d
00000110: 2114 3ebb a7bd 123d 7cfc 843c d846 913d
00000120: e355 923d 19d6 dbbc d373 1f3d 7afd 10bd
00000130: 5f89 38bd c967 97bc d47d 95bd 4eac 523d
00000140: 60d4 bebc 1ac1 96bd 9f63 733d 94ea 43bc
00000150: eb62 803d f398 98bb 4326 13bd bf84 1d3d
00000160: eb86 56bd c391 5d3d 7bf2 babd b9cb e7bb
00000170: aa1c 3fbc 1183 873d 427a 5a3b 1c3a 9d3d
00000180: e9ef 68bd 444e 73bc 7d28 c13c bd49 823d
00000190: 02a9 87bb f946 9e3d 76c4 46bd f462 c93c
000001a0: fb61 a8bc c409 8fbd dd02 133d 92d4 4ebd
000001b0: 5c80 d7bc e5c1 8cbc 9ae2 8dbc 80aa a03d
000001c0: de45 bcbd 451b 8839 98a4 0a3d 3367 9b3d
000001d0: 1f8d 2a3d 42ea 223d 2c9c 063d 700b 863c
000001e0: 106b 923d f588 dcbc 6aaa 333d 99bb 7bbd
000001f0: 118b 08bd b8c3 b9bc cfc7 1a3d dfe6 7d3c
00000200: be9e 123d 006a 823d aed7 723d 87cb f6bc
00000210: ea34 af3c 2b65 b23d a92a 9d3c e066 473c
00000220: d015 183d fcb1 363d 5450 66bd e332 b5bd
00000230: 41a3 40bd 71ac b33b 5ad8 513a c5d7 bbbd
00000240: 3e44 9e3d 2a03 53bd 62e1 5abd cf6d 9cbd
00000250: 941b 693d 5b05 98bd f453 87bc 013c 3e3d
00000260: d0ec be3d 14b2 ae3d 378d 3ebd e5f6 ce3c
00000270: 207f 37b9 f454 d9bc 446c 3a3d dae5 a03d
00000280: c34c 5dbd 677b 313d f530 99bd 1d51 463d
00000290: a860 96bc 8465 3fbc 6e5a fe3a d884 69bc
000002a0: a2f2 4cbd 6cea a2bc f66e 1dbd 7300 c93d
000002b0: 9794 7a3c 8528 a83d 570e af3b 6edb 713d
000002c0: 62a9 11bd 2625 cb3d bd72 653d 2d45 22bc
000002d0: 13b3 923d a9e5 223b 03ad 983d 4ced ba3c
000002e0: d5bf 83bd 7486 a8bd c64d d4bb 74b8 40bd
000002f0: b24f 93bd ba71 b339 c56b 22bc 3680 a0bc
00000300: 6a13 513d e25e 683d e1c1 023c 3eee fc3b
00000310: 6304 51bd 0577 223d 785d 11bd ce8e 833d
00000320: 6bb0 13bd f899 953d 3ef6 97bc fea1 b0bd
00000330: 5dc8 b63d 0eb9 183d 3fd1 843d e904 903d
00000340: 7fe1 86bc a064 1dbd 4c17 d1bc e924 ae3c
00000350: 6762 ac3d 2c1b 3c3d 92c6 b43d a430 60bc
00000360: 2f39 afbd 2287 a9bd 60bb 983d 9432 0d3b
00000370: 25f9 703d a805 583c 355c 8b3d 04a9 28bd
00000380: 6b85 b13c bf0a 883d f144 733d 9d23 87bd
00000390: 7f7c a83d b047 a43d dbc5 c13b 8fb2 1bbb
000003a0: dbb4 bd3d 98ff 61bc 685b 01bd 36eb 44bd
000003b0: a606 ccbc 289e 5a3d 5aa6 f83c 881d c9bc
000003c0: 6280 473d aa65 903d 001d 353d 6df8 163d
000003d0: 71ce 823d 42c7 06bd b30a 203d 859e a1bd
000003e0: 0098 313d 3ca9 6abd e118 a43c a9bf 61bd
000003f0: b4aa 1f3d ff2f d03c 3a19 c6bd 62d4 6d3d
