results/models/ShanghaiComp_GRU_model.pth (torch, 683437 bytes, 19 tensors)

gru1.weight_ih_l0 f4 [384, 6]
0.06807851 0.008166383 -0.06716089 0.028543262 -0.07881943 -0.055765133 -0.06546225 0.060526337
0.04888721 0.024289457 0.06757755 -0.07723397 0.020693453 0.06467264 -0.0049902336 0.06604389
0.048230987 -0.028007569 0.08029105 -0.044544455 0.0048582954 -0.04152416 0.054981783 0.043290216
0.055898994 -0.052217066 0.055592146 0.0026985272 0.07986722 0.05922207 0.03785962 -0.015213892
-0.038960513 -0.0064732437 -0.033469774 -0.056588616 -0.035117824 0.07437997 0.038868535 -0.03380456
0.041306496 -0.039914474 0.0227875 0.060555384 0.054076646 0.04729082 -0.025189754 -0.042914055
-0.09015961 0.076046355 -0.039969493 -0.00044695046 -0.036409702 0.019408429 0.03728002 0.07936037
0.07028584 -0.07042354 0.007424043 0.06840356 -0.02577315 -0.09627069 0.06184587 0.02435447
-0.0785336 0.08630538 0.059633255 0.012033377 -0.057428543 0.019045243 -0.00016603235 0.10142786
0.075862035 0.03197724 -0.03345899 0.05724771 -0.06897462 0.072560996 -0.0014752437 0.07891284
-0.078951046 -0.059798032 -0.05950522 -0.057658605 -0.024790231 -0.06518674 0.07705976 -0.06172418
0.0692926 -0.005595736 -0.032466058 -0.03189384 -0.03344439 -0.04013111 -0.06607661 -0.040103886
0.00041016584 -0.03515428 -0.07524872 0.02239422 -0.06871378 0.016856406 -0.049835663 -0.061303955
-0.0032855144 0.018906001 -0.05786535 -0.03913914 -0.061670166 0.08294297 -0.067759 -0.05350424
0.024024488 -0.08185058 0.037701588 0.0018760082 -0.05888987 0.042420074 -0.01746034 -0.014562091
-0.029576238 0.057568554 -0.07835779 0.036870174 0.039822366 -0.039619517 -0.022062954 -0.064814754
-0.0732149 0.0018059702 -0.013099576 0.007850824 0.07459384 0.04860129 0.06923302 -0.045301937
-0.05297074 -0.07384654 0.022828404 -0.048933644 0.06518041 0.026427025 0.06962746 0.047842953
-0.07250656 0.077591546 -0.0052100644 0.06873399 -0.016831849 -0.065793574 -0.0076284027 0.08008726
-0.09121827 0.068045214 -0.011374229 -0.06889082 0.007306247 0.017487248 -0.07399348 0.08603048
-0.038346615 -0.0010261291 -0.047302965 0.0069725714 0.085767925 0.06677101 0.0035586257 0.08660593
-0.07170146 0.016150523 -0.0313227 -0.028976806 -0.07393321 0.04062311 -0.047698777 -0.022287453
-0.03479896 0.06636817 -0.035651468 -0.02315103 0.045120392 -0.04730468 0.065512374 0.045570094
0.0043558525 -0.084255084 0.026108043 0.06334659 0.056483995 0.015140133 -0.008542039 -0.043907214
0.05072752 0.067557886 0.020246265 -0.01668338 0.033786353 0.0015595341 -0.013913097 -0.068603404
-0.03087637 0.048431583 0.0030515809 -0.006334431 -0.023545638 -0.050223634 -0.06360209 0.058238957
0.020657558 0.0108899465 -0.06953892 0.013350886 -0.011240331 -0.069944546 0.038556512 0.06481297
-0.041377924 9.373691e-05 0.051025234 -0.01581589 0.04273508 0.05211937 -0.05453551 0.025959166
-0.072024316 0.05489423 0.05347399 -0.035060283 -0.055680376 -0.059754595 0.007966455 0.029998675
0.010420195 0.0095913205 0.06588322 -0.040163673 -0.06570563 0.04680064 0.028516991 -0.06542997
0.07520064 0.02701468 -0.035325866 0.09514587 0.019824725 0.04710273 0.056786202 0.075465366
0.034303434 0.07947816 -0.0018791889 -0.028641043 -0.027584627 -0.03634565 -0.059577208 0.04502845
00000000: bf6c 8b3d 4bcc 053c a68b 89bd 8fd3 e93c
00000010: 156c a1bd fb69 64bd 1211 86bd 77ea 773d
00000020: f53d 483d affa c63c 1966 8a3d d82c 9ebd
00000030: 5185 a93c 1773 843d 1d85 a3bb 0542 873d
00000040: db8d 453d 2170 e5bc a26f a43d 3f74 36bd
00000050: 5632 9f3b 3d15 2abd 9434 613d 1551 313d
00000060: 58f6 643d 90e1 55bd 97b4 633d c6d9 303b
00000070: 6d91 a33d d792 723d b012 1b3d b043 79bc
00000080: 0f95 1fbd 811d d4bb 9a17 09bd 77c9 67bd
00000090: b5d7 0fbd 8754 983d 9d34 1f3d a676 0abd
000000a0: 0031 293d 5c7d 23bd daac ba3c ec08 783d
000000b0: 797f 5d3d 05b4 413d be5a cebc a6c6 2fbd
000000c0: 9aa5 b8bd 31be 9b3d 0db7 23bd ad54 eab9
000000d0: 5722 15bd 6dfe 9e3c efb2 183d b187 a23d
000000e0: 06f2 8f3d 383a 90bd 6345 f33b 2a17 8c3d
000000f0: 3722 d3bc 9129 c5bd 1852 7d3d 0783 c73c
00000100: 39d6 a0bd e0c0 b03d 0042 743d a427 453c
00000110: 313a 6bbd c504 9c3c f818 2eb9 69b9 cf3d
00000120: 8e5d 9b3d 91fa 023d 4b0c 09bd 937c 6a3d
00000130: 9142 8dbd dc9a 943d f75c c1ba 0e9d a13d
00000140: 16b1 a1bd c8ee 74bd bfbb 73bd 6e2b 6cbd
00000150: e214 cbbc a080 85bd 82d1 9d3d 7ed2 7cbd
00000160: 47e9 8d3d 705c b7bb 21fb 04bd 1da3 02bd
00000170: fcfc 08bd 8560 24bd 2c53 87bd f943 24bd
00000180: 870b d739 effd 0fbd 001c 9abd 1574 b73c
00000190: cfb9 8cbd 7216 8a3c 7b20 4cbd db19 7bbd
000001a0: c951 57bb c2e0 9a3c 3804 6dbd 5d50 20bd
000001b0: db99 7cbd 01de a93d 3bc5 8abd 4327 5bbd
000001c0: 01cf c43c 47a1 a7bd fb6c 1a3d 64e4 f53a
000001d0: 8136 71bd acc0 2d3d fd08 8fbc d695 6ebc
000001e0: de49 f2bc 01cd 6b3d 0d7a a0bd 2e05 173d
000001f0: c71c 233d 1348 22bd 5ebd b4bc 99bd 84bd
00000200: b2f1 95bd 4eb6 ec3a 9b9f 56bc bea0 003c
00000210: a8c4 983d 2512 473d 0bca 8d3d 868e 39bd
00000220: d9f7 58bd db3c 97bd a202 bb3c a56e 48bd
00000230: 4f7d 853d 7d7d d83c d798 8e3d f9f6 433d
00000240: 527e 94bd 51e8 9e3d 30b9 aabb 68c4 8c3d
00000250: f2e2 89bc c8be 86bd aef7 f9bb ca04 a43d
00000260: a5d0 babd 4a5b 8b3d f95a 3abc a116 8dbd
00000270: 3e69 ef3b 6b41 8f3c e589 97bd c030 b03d
00000280: 5711 1dbd 2e7f 86ba c1c0 41bd 2b7a e43b
00000290: 18a7 af3d 3dbf 883d d537 693b 735e b13d
000002a0: 37d8 92bd 1a4e 843c 3b4c 00bd c460 edbc
000002b0: 4b6a 97bd 6b64 263d cb5f 43bd 2d94 b6bc
000002c0: 5b89 0ebd 09ec 873d 4607 12bd 3ba7 bdbc
000002d0: 29d0 383d 8dc2 41bd 5a2b 863d b5a7 3a3d
000002e0: 8abb 8e3b ee8d acbd 89e0 d53c dbbb 813d
000002f0: c35b 673d 520e 783c e9f3 0bbc 0dd8 33bd
00000300: a9c7 4f3d ca5b 8a3d 7fdb a53c 95ab 88bc
00000310: 8f63 0a3d 4869 cc3a c2f3 63bc f17f 8cbd
00000320: 71f0 fcbc 3260 463d 08fd 473b 0f91 cfbb
00000330: c8e2 c0bc 4cb7 4dbd d041 82bd f98b 6e3d
00000340: 0a3a a93c bf6b 323c 6c6a 8ebd adbd 5a3c
00000350: 5e29 38bc 163f 8fbd 6fed 1d3d aabc 843d
00000360: e67b 29bd 9f94 c438 d6ff 503d 5390 81bc
00000370: fb0a 2f3d 1f7b 553d a060 5fbd 51a8 d43c
00000380: 7c81 93bd c6d8 603d 8b07 5b3d 5f9b 0fbd
00000390: 1b11 64bd 3cc1 74bd bc85 023c c8bf f53c
000003a0: 77b9 2a3c ea24 1d3c c8ed 863d aa82 24bd
000003b0: ac90 86bd 07b2 3f3d 779c e93c 2600 86bd
000003c0: cb02 9a3d e44d dd3c dbb1 10bd d6db c23d
000003d0: 7667 a23c cbee 403d a698 683d 968d 9a3d
000003e0: c281 0c3d 72c5 a23d 1e4f f6ba 9fa0 eabc
000003f0: 28f9 e1bc 2ddf 14bd 3b07 74bd c16f 383d

gru1.weight_hh_l0 f4 [384, 128]
-0.005510082 0.07430773 0.1027017 0.08010566 0.013866416 -0.040549092 -0.07650756 -0.03885809
-0.06779305 0.0049984897 -0.01727395 0.059499823 -0.01831084 -0.06467887 -0.050185215 0.04155832
-0.075283185 -0.00062040257 0.044655483 0.0056603793 -0.058325112 -0.0050823865 0.057463672 0.0028355166
0.049989767 0.013424049 0.053514406 0.085900046 -0.017096667 -0.05417947 -0.0009562609 -0.07529877
-0.016516974 0.068104506 0.071456455 -0.038111195 0.07621154 0.08132863 0.07986904 0.096791595
0.040208198 0.02608526 -0.04791901 0.06377937 0.00012176227 0.06838211 -0.060434747 0.044136878
0.07696423 0.013119116 -0.0053198463 -0.027998954 -0.012494955 0.08591329 0.10126528 -0.016620087
-0.03376283 0.050040673 -0.029469043 -0.048299454 -0.01985511 0.074397765 0.017825427 -0.040781174
0.021314953 0.08955267 0.0135217495 -0.087321825 -0.021657469 0.057625934 -0.0032730561 -0.017609738
-0.038021576 -0.02913333 -0.0018952158 0.04085767 0.05644725 -0.07229751 0.028178887 -0.10091469
-0.012412454 -0.06415915 0.04853164 -0.041717928 0.06772355 -0.036624625 -0.04310091 0.060042482
0.05232546 -0.057690177 -0.07423355 0.04597059 0.0052191284 0.051756617 -0.0028031426 0.028805176
-0.05361365 0.061300423 0.045790583 -0.07268234 0.10470878 -0.053442672 0.011653385 0.044370513
-0.010692605 -0.06454656 0.04833867 -0.07764039 -0.041295357 -0.030102162 -0.082369626 0.05966619
-0.018005516 0.022187632 0.013632497 0.08634282 -0.006111109 0.05099059 -0.030121187 0.08901786
-0.055110015 0.052399915 0.083058774 0.07250362 0.028311647 0.058226466 0.06971548 0.07345832
-0.068069674 0.053968243 0.045432787 0.097902514 -0.078947246 -0.04789491 -0.055051822 0.016319515
-0.084177524 0.018897055 0.046262577 0.07735314 0.061246213 0.0015363514 0.037779193 -0.005176762
-0.045285027 0.005073454 0.036672436 -0.06702744 0.01490212 -0.058026798 0.062314723 -0.046992872
-0.05417069 -0.08444104 0.0441828 0.07991295 -0.06982717 0.03778012 -0.07163115 -0.062340174
0.08902815 -0.07286724 0.009531643 -0.048507895 -0.07241694 0.08630122 0.03703082 -0.044548422
0.020265797 -0.0679426 -0.068173766 0.052474752 -0.06965429 -0.010723067 -0.032128636 -0.04163988
0.074353136 0.011988516 -0.013533775 -0.02157318 0.025209054 -0.010234982 -0.005011427 0.051670164
0.0014621711 0.005459503 -0.040552955 0.07848663 -0.05882383 0.031157035 -0.053191725 -0.040847223
-0.0620056 -0.025795758 -0.08395949 0.019693036 -0.012266884 0.038193014 -0.07027449 -0.032090772
-0.012296501 0.0060918275 -0.016089635 0.05065967 -0.05054398 -0.060728133 0.09254707 0.05402138
0.010084085 0.018219525 0.06679852 -0.01566107 0.03584633 0.07475099 -0.083931535 0.046621233
0.06419943 0.014219852 -0.003625062 -0.012910019 -0.04133385 0.0130652655 0.021094626 -0.06405284
0.004274018 0.025777215 0.0047149784 -0.025499936 -0.08112367 0.03378368 0.026457023 -0.0058299387
-0.063512385 -0.014456149 -0.077712215 0.02627132 0.089780085 -0.049388207 -0.010296456 -0.023031903
-0.050488085 0.023819981 -0.08288191 -0.082513034 0.03171474 -0.06723538 -0.039674077 0.074935265
0.013113227 -0.019328633 -0.046667684 -0.013508195 0.03705363 0.081413805 -0.04891854 0.05445148
00000000: eb8d b4bb a72e 983d 4555 d23d 700e a43d
00000010: f72f 633c ce16 26bd ffaf 9cbd a929 1fbd
00000020: 15d7 8abd 5fca a33b 1982 8dbc 16b6 733d
00000030: 9d00 96bc 5b76 84bd 038f 4dbd 0f39 2a3d
00000040: 122e 9abd 83a2 22ba abe8 363d b47a b93b
00000050: 50e6 6ebd 268a a6bb 075f 6b3d 13d4 393b
00000060: 12c2 4c3d 8bf0 5b3c ec31 5b3d 5dec af3d
00000070: 4f0e 8cbc 4beb 5dbd 95ad 7aba 3e36 9abd
00000080: 9b4e 87bc 607a 8b3d c357 923d 7c1a 1cbd
00000090: cc14 9c3d a08f a63d 6192 a33d ac3a c63d
000000a0: 5ab1 243d c1b0 d53c b946 44bd c29e 823d
000000b0: 9f5a ff38 eb0b 8c3d 6d8a 77bd dfc8 343d
000000c0: 6c9f 9d3d 90f1 563c 1b52 aebb 105e e5bc
000000d0: a4b7 4cbc 4ff3 af3d 2c64 cf3d d926 88bc
000000e0: e54a 0abd 73f7 4c3d 1069 f1bc a6d5 45bd
000000f0: 2fa7 a2bc db5d 983d a106 923c 290a 27bd
00000100: b29c ae3c 6467 b73d 548a 5d3c c9d5 b2bd
00000110: 016b b1bc 2c09 6c3d c580 56bb 4c42 90bc
00000120: 83bc 1bbd 05a9 eebc e468 f8ba 5f5a 273d
00000130: 3b35 673d b810 94bd 69d7 e63c 5cac cebd
00000140: 9b5d 4bbc df65 83bd 1dc9 463d 6be0 2abd
00000150: a5b2 8a3d b403 16bd 948a 30bd 1bef 753d
00000160: 3953 563d 894c 6cbd c207 98bd a84b 3c3d
00000170: 3905 ab3b bffe 533d eeb4 37bb d5f8 eb3c
00000180: fd99 5bbd 2716 7b3d e88e 3b3d 7bda 94bd
00000190: 8f71 d63d b4e6 5abd d7ed 3e3c dbbd 353d
000001a0: 0930 2fbc fd30 84bd c5fe 453d ed01 9fbd
000001b0: 5225 29bd cf98 f6bc 68b1 a8bd 8964 743d
000001c0: 4e80 93bc d6c2 b53c d65a 5f3c 81d4 b03d
000001d0: b33f c8bb 82db 503d b5c0 f6bc ff4e b63d
000001e0: 0abb 61bd 4ba1 563d b81a aa3d c77c 943d
000001f0: d4ed e73c e07e 6e3d fdc6 8e3d 5171 963d
00000200: 1d68 8bbd ce0d 5d3d bb17 3a3d 1d81 c83d
00000210: 18af a1bd 742d 44bd 057e 61bd 81b0 853c
00000220: 4465 acbd ffcd 9a3c d47d 3d3d 536b 9e3d
00000230: 4fdd 7a3d 665f c93a 5bbe 1a3d d4a1 a9bb
00000240: cb7c 39bd 383f a63b d635 163d af45 89bd
00000250: 0628 743c 82ad 6dbd b93d 7f3d 997b 40bd
00000260: 16e2 5dbd 6def acbd 06f9 343d 67a9 a33d
00000270: 8c01 8fbd 54bf 1a3d 5ab3 92bd 6958 7fbd
00000280: 6454 b63d 6b3b 95bd 9c2a 1c3c 37b0 46bd
00000290: 554f 94bd b2be b03d a1ad 173d 6878 36bd
000002a0: 7504 a63c 7d25 8bbd b09e 8bbd c4ef 563d
000002b0: e9a6 8ebd ceaf 2fbc 5199 03bd 948e 2abd
000002c0: 7546 983d 7b6b 443c c4bc 5dbc 3dba b0bc
000002d0: 3883 ce3c a0b0 27bc e636 a4bb 18a4 533d
000002e0: 52a6 bf3a a1e5 b23b db1a 26bd 99bd a03d
000002f0: 42f1 70bd 0a3d ff3c 91df 59bd 6b4f 27bd
00000300: 96f9 7dbd a051 d3bc f4f2 abbd 4a53 a13c
00000310: 0afb 48bc 4770 1c3d 12ec 8fbd 9d71 03bd
00000320: 4377 49bc f49d c73b 69ce 83bc 8480 4f3d
00000330: 3407 4fbd 10be 78bd 5189 bd3d 8645 5d3d
00000340: b837 253c 1d41 953c aacd 883d a54b 80bc
00000350: 9ad3 123d 0c17 993d 4ce4 abbd e8f5 3e3d
00000360: fe7a 833d 62fa 683c 7392 6dbb 8b84 53bc
00000370: af4d 29bd b20f 563c a3ce ac3c 232e 83bd
00000380: 100d 8c3b bd2a d33c 1b80 9a3b 3ee5 d0bc
00000390: 2b24 a6bd c260 0a3d 66bc d83c 1209 bfbb
000003a0: c812 82bd 7cd9 6cbc 9527 9fbd f436 d73c
000003b0: 9fde b73d 4a4b 4abd 77b2 28bc 67ad bcbc
000003c0: 98cc 4ebd 1f22 c33c febd a9bd 98fc a8bd
000003d0: 51e7 013d b4b2 89bd 4981 22bd a977 993d
000003e0: dcd8 563c 1557 9ebc 9d26 3fbd 7a51 5dbc
000003f0: 8cc5 173d 48bc a63d cf5e 48bd 8408 5f3d

gru1.bias_ih_l0 f4 [384]
0.0422729 -0.09200956 -0.072934635 -0.020370642 0.030951677 -0.059270352 -0.010658461 0.010038174
0.008258824 0.08114445 0.041866336 -0.04751517 -0.06051936 0.03642825 -0.072933376 -0.06759871
0.012857995 0.03641507 -0.091931924 0.08337344 -0.07208941 -0.0405096 -0.013595409 -0.06706015
-0.04284395 -0.0044748774 -0.030529646 0.0014531296 0.011777766 -0.020048141 0.016354868 -0.058160193
-0.04452818 0.052550256 0.012219769 -0.02349664 -0.08409614 0.05176068 0.005704251 -0.07340889
-0.02390664 0.05315266 0.05555907 0.014794621 -0.05755076 -0.0049851444 0.083000146 0.07552405
-0.007910767 -0.08985439 0.08169514 0.013668701 -0.06724538 -0.051192433 0.070647396 -0.025474913
0.0418147 -0.015536754 0.006203496 0.06059237 -0.07115683 -0.08737363 -0.04962269 -0.02531051
-0.033830572 0.057749756 0.012780562 0.047670964 -0.028976612 0.047642756 0.050045248 0.03156386
-0.016111746 -0.013771475 -0.08288162 -0.05383461 0.035269316 -0.049147137 -0.0033654121 0.04902452
0.00939581 0.06522325 -0.06314092 0.07859363 0.05165193 -0.023096709 -0.0548092 0.051076856
-0.07230875 0.07084536 -0.064896554 -0.02688674 -0.012827546 -0.047889218 0.083748564 -0.01966712
0.03320052 0.027826058 -0.04534126 -0.051554956 0.05605825 2.1910455e-06 0.07309801 0.007982066
0.053770185 -0.05313565 -0.044986155 -0.03799781 0.08190389 -0.04829259 -0.05309722 0.045422208
0.036142502 0.043711923 -0.070376806 0.076225445 -0.026992591 -0.011478483 -0.01781696 0.020169165
0.04198531 0.051189356 0.045144297 -0.06559459 -0.01555935 -0.051844206 0.028913924 -0.04965311
0.0649405 0.072665684 0.04537659 0.020587383 0.06892409 -0.044563193 0.0693637 0.084389105
-0.07977584 0.022545407 0.0676744 -0.060523853 -0.025098557 0.03144043 -0.059818592 0.015418377
0.031493697 0.06228304 0.062451813 -0.003495416 -0.08722848 0.021002345 -0.08098279 -0.06525108
0.04920244 -0.076818384 -0.051033635 -0.07693618 -0.07394245 0.076158725 -0.068783455 0.052760426
0.0057885405 -0.047497932 -0.023732446 0.03527352 0.015152931 0.018093582 -0.007890944 -0.08816106
-0.007217378 0.029144328 -0.010106376 0.08602509 -0.0818278 -0.016673733 -0.06187258 0.06662911
-0.039440975 0.04272012 -0.07256134 0.1001303 -0.021908483 -0.022184579 0.025763571 -0.064126186
-0.063373305 0.008779727 -0.07994374 -0.03599841 0.010986011 -0.011659113 0.04184159 0.010043854
-0.046942204 -0.08165942 -0.09425305 -0.0065624006 0.082047865 -0.069931716 -0.07147795 0.004409245
-0.015669297 0.093378805 -0.02308407 -0.041316926 0.027768258 -0.013741766 0.06629208 0.071906656
-0.071776606 0.004786747 -0.023318473 -0.08894797 -0.0783547 0.047255993 -0.009456954 -0.062056933
0.0032269373 -0.042785585 0.03825093 -0.090538055 -0.006959148 -0.0061625866 -0.050495896 -0.03696848
-0.048320763 0.031013727 0.067662664 -0.05466823 0.0023489625 0.067517675 -0.04928473 0.0131547805
-0.07116186 -0.019803327 -0.036690637 -0.026445 0.08853035 -0.049194656 0.041255604 -0.011521073
-0.008260285 -0.034718994 -0.02293578 0.03326684 0.051428676 0.065517455 0.08351129 0.0015524193
-0.0026085798 0.08187559 -0.0098075075 0.023208577 -0.018270528 0.064682305 0.017628234 0.08947405
00000000: 5926 2d3d 826f bcbd c15e 95bd 55e0 a6bc
00000010: 5f8e fd3c 78c5 72bd d3a0 2ebc 2777 243c
00000020: 0550 073c 102f a63d 097c 2b3d 449f 42bd
00000030: 26e3 77bd ca35 153d 185e 95bd 3171 8abd
00000040: 57aa 523c f827 153d ce46 bcbd b2bf aa3d
00000050: 9da3 93bd 65ed 25bd 47bf 5ebc d556 89bd
00000060: 237d 2fbd fea1 92bb 4f19 fabc f076 be3a
00000070: 88f7 403c 003c a4bc a5fa 853c 6239 6ebd
00000080: 2e63 36bd f03e 573d 6d35 483c 077c c0bc
00000090: 993a acbd 0203 543d baea ba3b 6657 96bd
000000a0: dcd7 c3bc 9bb6 593d e891 633d 2365 723c
000000b0: 59ba 6bbd 6c5a a3bb fbfb a93d 5aac 9a3d
000000c0: 299c 01bc 9405 b8bd c84f a73d b0f2 5f3c
000000d0: f2b7 89bd 28af 51bd 95af 903d c4b0 d0bc
000000e0: e445 2b3d df8d 7ebc b246 cb3b b42f 783d
000000f0: acba 91bd f2f0 b2bd 2941 4bbd fd57 cfbc
00000100: ed91 0abd 028b 6c3d 9065 513c a142 433d
00000110: 5c60 edbc 0d25 433d 3ffc 4c3d 1b49 013d
00000120: c8fc 83bc c1a1 61bc d7bd a9bd ae81 5cbd
00000130: 8f76 103d 824e 49bd 3f8e 5cbb efcd 483d
00000140: e2f0 193c c493 853d 0750 81bd b2f5 a03d
00000150: f990 533d 4f35 bdbc 9d7f 60bd f735 513d
00000160: 9c16 94bd 5f17 913d 7ce8 84bd 9541 dcbc
00000170: a12a 52bc 7c27 44bd 5e84 ab3d f11c a1bc
00000180: 45fd 073d 79f3 e33c c2b7 39bd 4a2b 53bd
00000190: 569d 653d e009 1336 69b4 953d 36c7 023c
000001a0: 203e 5c3d c4a4 59bd 6743 38bd 97a3 1bbd
000001b0: 3abd a73d 73ce 45bd 787c 59bd a30c 3a3d
000001c0: 290a 143d 460b 333d b721 90bd 161c 9c3d
000001d0: 911f ddbc 3f10 3cbc e0f4 91bc ce39 a53c
000001e0: caf8 2b3d eeab 513d 3ae9 383d 7556 86bd
000001f0: a5ec 7ebc 975a 54bd e5dc ec3c 0f61 4bbd
00000200: 86ff 843d bfd1 943d cedc 393d dfa6 a83c
00000210: 1328 8d3d e587 36bd 8e0e 8e3d 32d4 ac3d
00000220: 8461 a3bd 25b1 b83c e098 8a3d dce7 77bd
00000230: 7d9b cdbc aec7 003d 5704 75bd 5c9d 7c3c
00000240: 89ff 003d 801c 7f3d 79cd 7f3d 5913 65bb
00000250: d8a4 b2bd 1c0d ac3c 4eda a5bd 5ca2 85bd
00000260: 7f88 493d f552 9dbd a508 51bd b790 9dbd
00000270: 246f 97bd 1bf9 9b3d 57de 8cbd 511b 583d
00000280: ccad bd3b 318d 42bd 8c6a c2bc f77a 103d
00000290: 0044 783c fe38 943c 0549 01bc c98d b4bd
000002a0: c17f ecbb 16c0 ee3c 3795 25bc ec2d b03d
000002b0: 5595 a7bd 5a97 88bc 1a6e 7dbd d874 883d
000002c0: dc8c 21bd 4bfb 2e3d 0a9b 94bd 1d11 cd3d
000002d0: 6b79 b3bc 6fbc b5bc 200e d33c 9754 83bd
000002e0: ddc9 81bd d8d8 0f3c 8bb9 a3bd 1273 13bd
000002f0: abfe 333c dd05 3fbc 1662 2b3d fa8e 243c
00000300: 7846 40bd 0e3d a7bd be07 c1bd 6809 d7bb
00000310: b608 a83d 5c38 8fbd 0863 92bd 6e7b 903b
00000320: e65c 80bc 633d bf3d ce1a bdbc f03b 29bd
00000330: 427a e33c 2525 61bc 24c4 873d cc43 933d
00000340: 9dff 92bd 25da 9c3b 6206 bfbc 5a2a b6bd
00000350: 6e78 a0bd 808f 413d 57f1 1abc 692f 7ebd
00000360: 067b 533b f03f 2fbd 02ad 1c3d 046c b9bd
00000370: 9109 e4bb 86ef c9bb c9d4 4ebd 436c 17bd
00000380: feeb 45bd 8010 fe3c b992 8a3d cbeb 5fbd
00000390: 0df1 193b b546 8a3d c9de 49bd 2687 573c
000003a0: 4fbd 91bd 963a a2bc ec48 16bd 2fa3 d8bc
000003b0: 664f b53d 5680 49bd a3fb 283d e2c2 3cbc
000003c0: 2556 07bc 8135 0ebd d1e3 bbbc cf42 083d
000003d0: e0a6 523d 042e 863d f807 ab3d 8c7a cb3a
000003e0: b5f4 2abb 64ae a73d abaf 20bc ea1f be3c
000003f0: 13ac 95bc 2878 843d 1669 903c 2c3e b73d

gru1.bias_hh_l0 f4 [384]
-0.015514018 0.032788713 0.081201896 0.082696036 -0.031895887 0.0631856 -0.019771406 0.06357316
0.005620357 0.028306508 0.0018441044 0.06587567 -0.090666205 -0.035993934 -0.047794193 0.05138708
0.072350435 0.08193452 -0.03751001 0.048250932 0.014579134 0.08287954 -0.0026465803 -0.034209188
-0.0032292712 0.02828316 -0.07913089 0.06897577 0.022096043 -0.008103975 -0.025414681 0.06415974
0.01830501 -0.0034688304 -0.03638912 0.027262101 -0.009633698 0.012054725 0.0616864 0.07835722
0.08806774 0.022344267 0.034273412 0.023508614 -0.058713462 -0.06649483 -0.0142411105 0.06489403
-0.022871867 -0.030022327 0.07529836 0.011367209 0.0052404096 0.050515287 0.03977188 0.0018617738
-0.08172483 0.0418888 0.021865726 0.08623592 -0.057383955 -0.015146136 0.05975258 -0.0342453
-0.03708551 0.08184669 -0.0834649 -0.007470192 0.078280576 0.032234535 0.014367195 -0.028151052
0.04586554 0.030791976 0.045396272 0.040818393 -0.08007999 0.0012332363 0.0039808555 0.004543037
0.033900272 -0.076460734 0.04830311 -0.009370219 -0.0032855484 0.034446497 -0.07685172 0.00064048124
0.071897864 0.08252937 0.054475013 -0.036972962 -0.0015348543 -0.06020734 0.03145571 0.002039496
0.053788815 0.026533019 0.07731084 -0.0627986 0.023942115 0.0721202 0.052858986 0.028724419
-0.089401335 -0.070878275 -0.015105422 0.027979694 0.012143117 -0.08151711 0.01842241 0.024490261
-0.054134432 -0.04701981 0.014744753 -0.07848753 -0.006547566 -0.086834244 0.08772655 -0.06559021
0.046066094 0.006713925 -0.0063260216 0.004140733 0.07495699 0.008898931 0.04689501 -0.0141592
0.085455395 -0.019225908 -0.009281396 0.016802996 -0.013394807 -0.044137254 -0.045675315 0.0408621
-0.07853396 0.06227965 -0.037378754 -0.023198659 -0.055196997 -0.03441035 -0.0049602757 0.02972827
-0.0864668 0.03549735 -0.0665013 0.0087593375 0.067918666 0.037742462 -0.030706234 -0.039031036
0.00079334294 0.009261838 0.08265072 0.0654012 -0.0075929738 0.051809795 0.0007572886 -0.04245415
-0.056955 -0.054510765 -0.041500345 -0.06905817 0.083220676 -0.02085617 -0.07946663 -0.08269136
-0.018389652 0.054048155 -0.06665724 -0.07014816 -0.07204586 -0.05578586 -0.022994917 -0.05612519
-0.012656387 -0.07604808 0.017844895 -0.044513807 -0.037715495 0.01811824 -0.05876967 0.043615628
-0.045269307 0.04542705 0.056529254 -0.046535157 0.082826436 0.062298473 0.051103193 0.034021165
0.08427726 0.0139744105 -0.10311985 -0.0009547226 -0.010106725 0.078042805 0.03262723 0.03271946
-0.05845572 0.011397603 0.09087333 -0.087790914 -0.08307701 0.017223235 0.053759824 0.03441431
-0.042662363 -0.026363937 -0.09429544 0.0043720445 0.053228017 -0.010522764 -0.08774838 0.051322922
-0.027475588 -0.04875376 0.017612081 -0.08225171 0.07797028 -0.00015694904 -0.048040725 -0.040093612
0.056552395 0.03291385 -0.02329628 -0.005178413 -0.063959934 -0.06232998 -0.037260745 0.058405243
-0.030729033 0.004166342 -0.046273638 0.047296 -0.08004356 -0.04428038 0.08968353 -0.049207933
-0.059944443 -0.002543269 -0.04642803 0.016929066 0.07288388 0.02155687 0.018731792 -0.013378235
0.08925465 0.09167658 -0.090869874 0.06777653 0.0037510807 -0.004929943 0.012084171 -0.078453735
00000000: 822e 7ebc 754d 063d 2e4d a63d 8a5c a93d
00000010: 43a5 02bd 7467 813d a5f7 a1bc a532 823d
00000020: f92a b83b 0de3 e73c e0b5 f13a d3e9 863d
00000030: 34af b9bd 606e 13bd d8c3 43bd 427b 523d
00000040: 772c 943d 49cd a73d 19a4 19bd c5a2 453d
00000050: 52dd 6e3c c0bc a93d 4072 2dbb ef1e 0cbd
00000060: 2ea2 53bb 16b2 e73c 600f a2bd 2b43 8d3d
00000070: c302 b53c 89c6 04bc 7332 d0bc 2f66 833d
00000080: 63f4 953c 5155 63bb c20c 15bd c554 df3c
00000090: a8d6 1dbc 2e81 453c e1aa 7c3d c079 a03d
000000a0: dc5c b43d 530b b73c 4762 0c3d 2395 c03c
000000b0: 877d 70bd 712e 88bd 8c53 69bc 29e7 843d
000000c0: c85d bbbc 62f1 f5bc 0736 9a3d 883d 3a3c
000000d0: beb7 ab3b 1ee9 4e3d d7e7 223d c306 f43a
000000e0: 595f a7bd 9793 2b3d c01f b33c 759c b03d
000000f0: 700b 6bbd 8027 78bc 1fbf 743d cd44 0cbd
00000100: fae6 17bd 3d9f a73d a5ef aabd 83c8 f4bb
00000110: 9151 a03d 5c08 043d 6264 6b3c 099d e6bc
00000120: 81dd 3b3d 743f fc3c 71f1 393d 3031 273d
00000130: fa00 a4bd 8ba4 a13a d671 823b c2dd 943b
00000140: 03db 0a3d 7297 9cbd 7bd9 453d 8c85 19bc
00000150: 5b52 57bb c517 0d3d 6f64 9dbd f8e5 273a
00000160: 303f 933d 2905 a93d 3121 5f3d f670 17bd
00000170: 2a2d c9ba f99b 76bd b4d7 003d 11a9 053b
00000180: a951 5c3d c65b d93c 2555 9e3d 8d9c 80bd
00000190: 4122 c43c c1b3 933d aa82 583d 794f eb3c
000001a0: 0c18 b7bd a128 91bd bb7c 77bc ac35 e53c
000001b0: edf3 463c 71f2 a6bd 98ea 963c cd9f c83c
000001c0: 11bc 5dbd d897 40bd fa93 713c 12be a0bd
000001d0: f78c d6bb 27d6 b1bd faa9 b33d 2954 86bd
000001e0: cdaf 3c3d 7c00 dc3b 844a cfbb fcae 873b
000001f0: 0d83 993d d2cc 113c fb14 403d fdfb 67bc
00000200: 3d03 af3d a77f 9dbc ff10 18bc 70a6 893c
00000210: e575 5bbc 44c9 34bd 0a16 3bbd 045f 273d
00000220: 6ad6 a0bd f218 7f3d 771a 19bd 1d0b bebc
00000230: 3f16 62bd def1 0cbd cf89 a2bb b388 f33c
00000240: 8115 b1bd ab65 113d d531 88bd 5383 0f3c
00000250: f118 8b3d d797 1a3d a48b fbbc 02df 1fbd
00000260: 58f8 4f3a f7be 173c c844 a93d 10f1 853d
00000270: 7bce f8bb 8236 543d c784 463a 67e4 2dbd
00000280: a549 69bd ae46 5fbd 44fc 29bd 5f6e 8dbd
00000290: 9a6f aa3d 8fda aabc 67bf a2bd 165a a9bd
000002a0: e5a5 96bc 9961 5d3d 9783 88bd d7a9 8fbd
000002b0: c88c 93bd b77f 64bd d65f bcbc 87e3 65bd
000002c0: bc5c 4fbc 19bf 9bbd 752f 923c 1c54 36bd
000002d0: 907b 1abd b46c 943c 77b8 70bd 4da6 323d
000002e0: 4f6c 39bd b711 3a3d 388b 673d a69b 3ebd
000002f0: e8a0 a93d af2c 7f3d 9551 513d c759 0b3d
00000300: 8e99 ac3d edf4 643c 8030 d3bd 5946 7aba
00000310: ad96 25bc e8d4 9f3d 21a4 053d d704 063d
00000320: 446f 6fbd 03bd 3a3c cc1b ba3d b9cb b3bd
00000330: 4824 aabd be17 8d3c 4333 5c3d 05f6 0c3d
00000340: bbbe 2ebd 2ff9 d7bc f81d c1bd 5e43 8f3b
00000350: 9f05 5a3d ac67 2cbc 6cb5 b3bd fc37 523d
00000360: 7c14 e1bc 06b2 47bd 3647 903c 9673 a8bd
00000370: e2ae 9f3d b092 24b9 5ac6 44bd 3339 24bd
00000380: 7ca3 673d acd0 063d d7d7 bebc adaf a9bb
00000390: 6dfd 82bd b94d 7fbd b99e 18bd 563a 6f3d
000003a0: 74bb fbbc cf85 883b 6d89 3dbd 73b9 413d
000003b0: e1ed a3bd 585f 35bd 00ac b73d 428e 49bd
000003c0: 4e88 75bd f9ac 26bb 512b 3ebd d3ae 8a3c
000003d0: 2544 953d 0898 b03c 6a73 993c 6230 5bbc
000003e0: 24cb b63d eec0 bb3d fc19 babd 6cce 8a3d
000003f0: b1d4 753b 5c8b a1bb b0fc 453c 5aac a0bd

gru1.weight_ih_l0_reverse f4 [384, 6]
0.02342869 0.045085564 0.06747022 0.057183195 0.03971078 -0.05076698 -0.04281011 -0.012153123
-0.051192813 0.015814245 -0.02143499 0.0820908 0.0031523446 0.027726581 0.061581355 0.05947051
0.04550735 0.05433483 0.0057283505 0.0035506352 0.06411527 0.006268013 0.018227907 -0.043162767
-0.000120101 -0.016445009 0.011235176 0.0006455063 -0.051119506 -0.05689451 0.060430977 0.025327679
-0.012156437 0.073418625 0.059903294 -0.06416852 0.032572888 0.011080441 0.016815621 -0.019500969
-0.059753407 -0.028919883 0.072641335 0.045583345 -0.074528806 -0.062696695 0.057513468 0.0511924
0.00599531 -0.068310834 0.0031762393 0.0005650975 0.0104717985 0.018772056 0.00911139 0.08838132
-0.056667842 0.02481848 0.03290768 0.07838777 -0.022758933 0.073274285 -0.060242277 -0.012326611
0.06851507 -0.10369832 0.037193764 -0.043972597 -0.071876355 0.015185247 -0.04973633 -0.041666497
0.07374103 -0.015124037 -0.029987745 -0.07470039 -0.0045768265 -0.038158238 0.004055006 -0.08406036
0.03628505 0.028045895 0.049949948 0.06537306 0.072724015 -0.077868305 0.020341102 0.051866703
-0.059667252 0.026610425 0.0051286235 -0.03605248 -0.031712737 0.0290119 0.010501025 0.026791714
-0.016839033 0.07293748 -0.064576015 0.056539938 -0.085466854 -0.035875633 0.014683277 -0.042916525
-0.057044957 -0.011791771 0.06694999 -0.025743857 0.061852545 0.022238664 0.07548281 -0.04022454
-0.005841346 -0.0029073947 -0.04620357 -0.002161784 0.030445281 -0.057903875 -0.0016274046 -0.03372416
-0.05114123 -0.021503529 0.071839705 -0.048863407 0.038806323 -0.0054200613 -7.1388e-05 -0.07543308
-0.026110372 0.011875031 -0.008771548 0.045927007 -0.08323821 -0.018673504 0.057296492 -0.04355081
0.018964268 0.017438527 -0.009791618 0.047417317 -0.08692135 -0.007646774 -0.080408275 0.022029977
0.026952539 0.04282818 0.06736589 -0.020139216 -0.021519806 0.09199553 0.03320074 0.031151205
-0.0012745785 -0.07357871 -0.052512284 0.070678376 0.005177823 -0.00332971 0.04526454 -0.09148256
0.022582823 0.04249759 -0.07177485 -0.025861254 -0.092331976 -0.06509 0.04263041 0.04821743
-0.0060186475 -0.071747266 -0.027656274 -0.034744255 0.060310945 -0.0105385715 -0.022259163 -0.07824194
0.03439443 0.059254438 -0.050422646 0.077002056 0.02746624 -7.1937815e-05 -0.079138644 0.052108012
0.011615978 -0.005366737 -0.009577731 -0.08221427 -0.048569694 -0.044966545 -0.002943165 0.07961605
0.087227665 0.017112995 0.027235683 0.068770684 0.03093369 -0.038087334 0.0094897505 -0.039071284
-0.0064632683 -0.053007808 -0.057717707 -0.006025066 -0.029016221 0.0237727 0.06591073 0.039246928
0.022537485 -0.04975412 -0.055212054 0.056125082 -0.09070903 0.0042945934 -0.0583141 0.07762707
-0.033235785 0.043860897 -0.059647053 -0.043887965 0.07781312 -0.05216759 0.028398147 0.06259055
0.080975495 -0.031848274 -0.050299827 0.022262622 -0.014405851 -0.035925 0.008401099 -0.0010249787
-0.07085309 -0.08153043 -0.0002735406 -0.034843843 0.042734887 0.0069046933 -0.06543068 0.056903612
0.04189539 -0.04894257 0.04818923 -0.0646231 0.07646232 0.049045935 -0.079937406 -0.040505964
-0.06533256 -0.014982979 0.07581544 0.09082761 0.052937772 -0.042451013 0.082894176 -0.019236317
00000000: 86ed bf3c a4ab 383d d42d 8a3d ed38 6a3d
00000010: c5a7 223d 09f1 4fbd a759 2fbd e41d 47bc
00000020: 8eaf 51bd e08c 813c 6f98 afbc 391f a83d
00000030: 9197 4e3b db22 e33c bb3c 7c3d 5997 733d
00000040: ea65 3a3d 338e 5e3d e3b4 bb3b c6b1 683b
00000050: de4e 833d e763 cd3b b152 953c 71cb 30bd
00000060: bcde fbb8 afb7 86bc be13 383c 3237 293a
00000070: b062 51bd 380a 69bd 7986 773d fe7b cf3c
00000080: cb2b 47bc 815c 963d 285d 753d c96a 83bd
00000090: 266b 053d bd8a 353c eac0 893c 7fc0 9fbc
000000a0: fdbf 74bd 64e9 ecbc fbc4 943d 9ab5 3a3d
000000b0: 8fa2 98bd 2067 80bd 3e93 6b3d 1faf 513d
000000c0: 4e74 c43b 8de6 8bbd 7428 503b 0d23 143a
000000d0: e891 2b3c dbc7 993c f147 153c 4401 b53d
000000e0: 8a1c 68bd 2050 cb3c 34ca 063d c489 a03d
000000f0: f170 babc d410 963d 9bc0 76bd 8ef5 49bc
00000100: a151 8c3d c95f d4bd 7d58 183d 9c1c 34bd
00000110: e933 93bd 8bcb 783c 52b8 4bbd 7daa 2abd
00000120: 8a05 973d cfca 77bc dca8 f5bc 85fc 98bd
00000130: 34f9 95bb d04b 1cbd dbdf 843b d727 acbd
00000140: a29f 143d 81c0 e53c 5198 4c3d 50e2 853d
00000150: 54f0 943d 6b79 9fbd 62a2 a63c 2e72 543d
00000160: a665 74bd 1bfe d93c 030e a83b c4ab 13bd
00000170: 37e5 01bd 5daa ed3c 7e0c 2c3c 4c7a db3c
00000180: 03f2 89bc 3f60 953d 6e40 84bd 6c96 673d
00000190: 3f09 afbd 54f2 12bd 2192 703c 3dc9 2fbd
000001a0: f9a7 69bd 4632 41bc 141d 893d c8e4 d2bc
000001b0: 1859 7d3d dc2d b63c bb96 9a3d 7dc2 24bd
000001c0: c368 bfbb fd89 3ebb f43f 3dbd b8ac 0dbb
000001d0: 6268 f93c 9d2c 6dbd a34e d5ba 5822 0abd
000001e0: 7779 51bd 2b28 b0bc b220 933d ff24 48bd
000001f0: 61f3 1e3d c59a b1bb 24b6 95b8 a97c 9abd
00000200: 6be5 d5bc 7d8f 423c 8ab6 0fbc f51d 3c3d
00000210: cb78 aabd 2df9 98bc baaf 6a3d 5662 32bd
00000220: f45a 9b3c 3edb 8e3c 066d 20bc a938 423d
00000230: d203 b2bd ca91 fabb 18ad a4bd 3678 b43c
00000240: 92cb dc3c 9a6c 2f3d 21f7 893d fffa a4bc
00000250: 4e4a b0bc 2768 bc3d 80fd 073d d030 ff3c
00000260: c20f a7ba 6fb0 96bd 1f17 57bd d3bf 903d
00000270: baaa a93b 4437 5abb 4f67 393d 355b bbbd
00000280: 9dff b83c f411 2e3d b1fe 92bd fbda d3bc
00000290: 8c18 bdbd e84d 85bd 3a9d 2e3d a47f 453d
000002a0: 1338 c5bb 3bf0 92bd 698f e2bc fe4f 0ebd
000002b0: 9c08 773d f9a9 2cbc d958 b6bc 4f3d a0bd
000002c0: 2de1 0c3d c8b4 723d fa87 4ebd 41b3 9d3d
000002d0: e100 e13c 52dd 96b8 7113 a2bd 366f 553d
000002e0: f150 3e3c 74db afbb eaeb 1cbc f55f a8bd
000002f0: 04f1 46bd d72e 38bd 1de2 40bb bd0d a33d
00000300: 6ba4 b23d 8d30 8c3c 5e1d df3c a5d7 8c3d
00000310: a668 fd3c 7701 1cbd e67a 1b3c 3609 20bd
00000320: d3c9 d3bb b71e 59bd 6769 6cbd eb6d c5bb
00000330: 6db3 edbc f7be c23c 34fc 863d 63c1 203d
00000340: 88a0 b83c faca 4bbd 0926 62bd 6ae3 653d
00000350: a8c5 b9bd a9b9 8c3b c4da 6ebd f1fa 9e3d
00000360: 3f22 08bd 7ca7 333d 7850 74bd dec3 33bd
00000370: 7c5c 9f3d afad 55bd 3ba3 e83c 792f 803d
00000380: 7bd6 a53d 5673 02bd 3107 4ebd 1a60 b63c
00000390: 8506 6cbc 1826 13bd c3a4 093c 9458 86ba
000003a0: 6d1b 91bd 6df9 a6bd ff69 8fb9 6bb8 0ebd
000003b0: c70a 2f3d c440 e23b 8500 86bd c313 693d
000003c0: 809a 2b3d 0178 48bd 1262 453d 1e59 84bd
000003d0: 4798 9c3d 64e4 483d 39b6 a3bd 95e9 25bd
000003e0: 14cd 85bd 2b7b 75bc 2045 9b3d d303 ba3d
000003f0: 47d5 583d 1de1 2dbd 6cc4 a93d 7b95 9dbc

gru1.weight_hh_l0_reverse f4 [384, 128]
0.065378435 0.015880274 0.01895686 0.011641753 -0.07271316 0.0013153494 -0.021125909 -0.0732061
0.06201745 -0.044227872 0.019638628 -0.008364162 0.046596844 0.051741626 0.028414754 0.029704466
-0.0830292 0.049524214 -0.03501629 -0.043506254 -0.041809198 -0.091502905 0.07393668 0.09161462
-0.08978065 -0.0053787515 -0.0055385833 -0.08241176 0.024932526 0.056433037 0.0033646568 -0.0042837136
-0.078851506 0.051068295 0.06558102 -0.07099782 0.044422712 0.03794862 -0.08572962 -0.005911735
0.008674139 0.05985965 0.018805958 -0.05522427 -0.066127196 -0.02699392 -0.09045057 0.06582167
0.035053797 0.0811495 -0.087606765 0.082741484 0.0862476 0.0196708 0.050904613 0.059511293
-0.07734582 0.08661109 0.022391725 -0.008585918 0.02138747 -0.043436795 -0.052333992 0.074251264
0.08441923 -0.04083529 0.051302437 0.047211148 -0.058505233 0.058998805 0.076736815 0.04329456
-0.042973086 -0.048230905 0.05893395 -0.07939174 0.07197167 0.05514172 -0.08649394 -0.05597302
0.058949824 -0.0030149596 -0.08413264 -0.018942706 0.053185914 -0.071370006 0.06703795 0.017181514
0.040732905 0.019735655 0.011219879 0.03461901 -0.025475983 -0.054238006 -0.025876118 -0.0326409
0.03641438 0.013295788 0.06344402 0.060746852 0.016370483 0.06660827 0.06552981 -0.009321862
-0.084244184 -0.08624114 0.028231064 -0.04883087 0.04203621 0.0019724441 -0.026064811 0.07496296
0.016434569 0.051111907 -0.08178585 -0.02566974 0.07533231 -0.011117505 0.083144434 0.084057055
0.038631495 0.009681293 -0.08539274 -0.064946875 0.053750806 0.0867846 -0.009246021 0.025007894
0.044512384 0.06283036 0.066206835 -0.05510839 -0.019040141 0.03339123 0.093399376 0.04392802
-0.022237115 0.040781014 0.042762507 -0.00781231 -0.07865083 0.023721516 -0.06510929 -0.05380387
0.05679782 0.013688377 -0.104891166 -0.036323674 -0.075677715 0.07515101 0.07684332 -0.0890341
0.06579535 0.042017955 0.019053651 0.056719534 -0.08645633 0.08206853 0.030730292 0.07747148
-0.0030873697 0.0045564612 0.019268615 0.057465997 -0.01826533 -0.010721561 -0.0452001 0.0049732905
-0.026242606 -0.08892945 0.07274181 0.025230568 0.07027933 0.009225766 0.09104783 0.056051444
0.03808144 -0.039635636 -0.057251137 -0.043343574 0.029227948 -0.07471834 0.0672555 0.04999748
-0.029254865 -0.016128499 0.090622276 -0.06765728 0.069629095 -0.0617898 0.08661863 -0.015547149
-0.09501101 -0.029490216 -0.078176774 -0.014378639 0.03583924 0.09325035 -0.057661045 -0.015827369
-0.0479506 -0.09404346 0.006527032 -0.052847154 -0.0632828 0.08308907 0.02552242 0.09903899
0.038897425 -0.052044496 0.06375547 0.049410407 0.0005090155 0.011851653 -0.016092623 -0.07738857
-0.0030289616 -0.011432985 0.009437307 -0.05368619 0.0140145775 0.037287366 0.047348082 -0.024919532
-0.074522525 -0.08447928 0.065836646 0.08668668 -0.026006265 -0.064394 0.021767732 -0.036612757
-0.089165464 0.020496964 -0.031931505 0.06037937 0.02824675 0.07535561 -0.034670863 -0.08917314
-0.032895245 0.048962176 0.06806359 0.09954197 0.029487003 0.08622825 -0.057803176 -0.0063265427
0.0130735515 0.0026452846 -0.019430833 -0.024424503 0.058968905 0.00040779397 -0.024702076 -0.059651718
00000000: 21e5 853d 5917 823c 6b4b 9b3c 0dbd 3e3c
00000010: a3ea 94bd cd67 ac3a 3e10 adbc 14ed 95bd
00000020: 0206 7e3d 4928 35bd 30e1 a03c d709 09bc
00000030: 55dc 3e3d 07ef 533d 0fc6 e83c c856 f33c
00000040: 370b aabd e7d9 4a3d 3e6d 0fbd 9d33 32bd
00000050: 1f40 2bbd e065 bbbd 1d6c 973d 72a0 bb3d
00000060: ebde b7bd 3d40 b0bb 017d b5bb 7fc7 a8bd
00000070: 4c3f cc3c 5426 673d 9381 5c3b 655e 8cbb
00000080: e67c a1bd fd2c 513d 584f 863d 4e67 91bd
00000090: 97f4 353d 0370 1b3d 0393 afbd 3ab7 c1bb
000000a0: fa1d 0e3c 642f 753d f40e 9a3c d832 62bd
000000b0: b26d 87bd 5a22 ddbc 263e b9bd 83cd 863d
000000c0: 9294 0f3d b631 a63d 2d6b b3bd 5e74 a93d
000000d0: 95a2 b03d a824 a13c 5b81 503d 1dc2 733d
000000e0: 7c67 9ebd 2861 b13d da6e b73c f3ab 0cbc
000000f0: c734 af3c c8ea 31bd 2b5c 56bd 0c11 983d
00000100: fde3 ac3d e842 27bd 8122 523d 7a60 413d
00000110: 2fa3 6fbd bba8 713d 3128 9d3d a355 313d
00000120: 8c04 30bd c58d 45bd ba64 713d 2398 a2bd
00000130: e265 933d 49dc 613d bc23 b1bd f743 65bd
00000140: 5f75 713d a196 45bb bc4d acbd bc2d 9bbc
00000150: 79d9 593d 702a 92bd 314b 893d 3fc0 8c3c
00000160: 8cd7 263d abac a13c 95d3 373c aacc 0d3d
00000170: 02b3 d0bc ac28 5ebd 27fa d3bc 77b2 05bd
00000180: 3f27 153d 94d6 593c f0ee 813d b1d1 783d
00000190: 641b 863c eb69 883d 7e34 863d b9ba 18bc
000001a0: 3788 acbd 329f b0bd d544 e73c e102 48bd
000001b0: 292e 2c3d 1f44 013b df85 d5bc 2e86 993d
000001c0: caa1 863c b85a 513d 577f a7bd 5949 d2bc
000001d0: d347 9a3d 3226 36bc a147 aa3d 1b26 ac3d
000001e0: 0f3c 1e3d 499e 1e3c 64e2 aebd de02 85bd
000001f0: ce29 5c3d 20bc b13d 9f7c 17bc 5bdd cc3c
00000200: 9e52 363d 34ad 803d 7397 873d 56b9 61bd
00000210: 12fa 9bbc 3ec5 083d 2c48 bf3d deed 333d
00000220: 9c2a b6bc fe09 273d bd27 2f3d 68fe ffbb
00000230: b013 a1bd a053 c23c 0558 85bd 7261 5cbd
00000240: d5a4 683d 3745 603c 2ed1 d6bd 22c8 14bd
00000250: ebfc 9abd c6e8 993d 0860 9d3d 8357 b6bd
00000260: b6bf 863d 051b 2c3d 6716 9c3c be52 683d
00000270: 0410 b1bd 8c13 a83d 18be fb3c 5ea9 9e3d
00000280: 7855 4abb 5e4e 953b 37d9 9d3c 7761 6b3d
00000290: 2ca1 95bc 7ca9 2fbc bd23 39bd fcf6 a23b
000002a0: bcfa d6bc a520 b6bd a8f9 943d 56b0 ce3c
000002b0: 9cee 8f3d ab27 173c 4977 ba3d 3396 653d
000002c0: 49fb 1b3d fa58 22bd 2b80 6abd 0889 31bd
000002d0: 736f ef3c ee05 99bd 40bd 893d 28ca 4c3d
000002e0: e6a7 efbc ea1f 84bc 2c98 b93d e68f 8abd
000002f0: b399 8e3d 4d17 7dbd 1c65 b13d 78b9 7ebc
00000300: 2295 c2bd 7795 f1bc 251b a0bd 6294 6bbc
00000310: 2bcc 123d 0afa be3d fd2d 6cbd 66a8 81bc
00000320: d967 44bd dc99 c0bd b6e0 d53b 4276 58bd
00000330: 6a9a 81bd 9a2a aa3d 6514 d13c f4d4 ca3d
00000340: e852 1f3d 9c2c 55bd 3a92 823d 9162 4a3d
00000350: 746f 053a 702d 423c add4 83bc e67d 9ebd
00000360: 8b81 46bb 6a51 3bbc ef9e 1a3c 0de6 5bbd
00000370: 669d 653c a3ba 183d 10f0 413d 0c24 ccbc
00000380: 449f 98bd 7903 adbd 5dd5 863d c988 b13d
00000390: 170b d5bc 00e1 83bd 3e52 b23c 42f7 15bd
000003a0: 629c b6bd 40e9 a73c 9cca 02bd 5c50 773d
000003b0: ba65 e73c 0b54 9a3d 0903 0ebd 68a0 b6bd
000003c0: 2abd 06bd 908c 483d ec64 8b3d a9dc cb3d
000003d0: ba8e f13c 7098 b03d 06c3 6cbd e34e cfbb
000003e0: 7332 563c 835c 2d3b 692d 9fbc e515 c8bc
000003f0: 6189 713d 2ecd d539 025c cabc 5c55 74bd

gru1.bias_ih_l0_reverse f4 [384]
0.07630359 -0.028704545 -0.089910015 -0.08944097 -0.04913602 0.02261803 0.030412363 0.067885
0.02085377 0.058762647 0.06126429 -0.06884127 -0.01855659 -0.07277919 -0.008931547 -0.047139153
-0.046649136 0.058130875 0.038501512 0.021392638 -0.06922808 -0.09706589 0.055394255 0.06785068
-0.010835584 -0.075850286 0.07799126 0.053746548 -0.04775632 0.04560815 -0.012661293 -0.061924357
-0.024161847 0.020152826 0.049318828 -0.017540293 0.0068827886 -0.048219964 0.025419235 0.05080697
0.067407936 0.079481 0.025966352 0.034730803 0.07433968 -0.07854 0.01035161 0.018909832
0.031370692 -0.018259421 -0.05335938 0.015114081 -0.03275582 0.03426232 0.014636554 -0.034502376
-0.053877257 0.0061930744 0.03907807 -0.047027193 -0.01993991 0.046633363 0.075760834 0.04725802
-0.037665196 -0.010897422 -0.030519444 -0.03332458 0.05879642 -0.012755732 -0.0004878351 -0.078736804
0.027462823 0.04984059 -0.0076359296 0.024244549 -0.054280862 0.046780672 0.005392697 -0.035446294
-0.07839438 0.07712589 0.0054304437 -0.06444174 -0.007531941 -0.035371665 -0.056544773 0.0695763
-0.06792917 0.037531096 0.09431103 -0.013174744 0.0101660285 -0.0293314 0.013560331 -0.058798112
-0.054947276 0.06527477 -0.00075707835 0.030950835 0.007856668 0.07023708 -0.034145165 0.030452421
-0.08246532 -0.06086447 0.027001206 -0.032744575 0.095157355 -0.027888963 -0.019815862 0.074010745
-0.08583112 0.027496142 0.05956697 -0.016243294 -0.03657018 0.014427362 0.031840414 -0.0060169687
0.06900926 0.011815408 0.07159693 -0.07645292 0.03499769 -0.049730685 -0.06782648 -0.0690932
-0.036968134 0.052414495 0.032594047 0.07259139 0.06664693 -0.076886065 0.058814075 0.005708932
0.015341405 0.02244621 -0.019836843 -0.05913672 0.073311426 0.08264291 0.03123923 0.071584605
-0.078300804 0.031581137 -0.02195369 0.0643847 -0.07854162 0.046306245 0.073088996 -0.027816627
0.0015932762 -0.08616943 -0.041684724 0.043626864 -0.057407074 0.011260761 -0.029397847 0.012632039
-0.03251395 0.008138955 -0.030272448 -0.043964937 -0.003958712 -0.0423275 0.028877543 0.065597035
0.034312505 0.07529291 0.0453053 0.034742028 0.053629164 -0.0179931 -0.023581348 0.013289211
-0.03365702 -0.0118011115 0.02515727 0.01991793 0.033976354 0.08928104 -0.06774828 0.012772074
-0.04388668 -0.07238966 -0.02470671 -0.013338051 0.040534984 -0.041901737 -0.01675813 -0.028615536
-0.042298842 -0.08516636 0.0046594744 -0.015010277 -0.045351345 0.04937161 0.024320656 0.047965277
0.025094135 0.06388802 -0.007519863 -0.023680974 0.07720265 0.021476636 -0.0360612 -0.009828561
0.05221316 -0.04517209 -0.046438072 0.035428263 -0.06729163 -0.028047865 -0.040943366 -0.011117339
0.015287933 0.09419223 0.05093274 -0.00041402306 -0.05460739 -0.07760143 -0.078442946 -0.0814368
0.040687438 0.050720736 0.019368311 -0.07426211 -0.034703095 0.05568768 -0.07957319 -0.032893483
0.08043059 -0.021843584 0.022547064 -0.06525409 0.0212997 0.02190622 0.050950184 0.00039893753
-0.02403738 -0.0027911016 0.017668523 0.07355197 0.06525186 0.009884941 0.073189266 -0.06791054
-0.019106533 -0.09130088 0.07943647 -0.008766886 -0.0017339161 0.06360857 -0.04916983 -0.08912211
00000000: 0e45 9c3d cb25 ebbc be22 b8bd d42c b7bd
00000010: da42 49bd 7249 b93c 5923 f93c 4a07 8b3d
00000020: 87d5 aa3c 1ab1 703d 44f0 7a3d a7fc 8cbd
00000030: fd03 98bc 420d 95bd a055 12bc fc14 41bd
00000040: 2a13 3fbd a41a 6e3d c3b3 1d3d 9d3f af3c
00000050: 74c7 8dbd 7bca c6bd 16e5 623d 4cf5 8a3d
00000060: bc87 31bc 6557 9bbd e2b9 9f3d 5725 5c3d
00000070: 229c 43bd 9dcf 3a3d 5071 4fbc 65a4 7dbd
00000080: 11ef c5bc 8a17 a53c 8a02 4a3d a9b0 8fbc
00000090: 0489 e13b 4c82 45bd 003c d03c f81a 503d
000000a0: 2c0d 8a3d efc6 a23d 63b7 d43c e341 0e3d
000000b0: 673f 983d 94d9 a0bd cd99 293c cbe8 9a3c
000000c0: 8e7e 003d c894 95bc 5e8f 5abd 0da1 773c
000000d0: f72a 06bd a556 0c3d 28ce 6f3c 5d52 0dbd
000000e0: 66ae 5cbd 46ef ca3b 5410 203d 969f 40bd
000000f0: 0659 a3bc a002 3f3d 7f28 9b3d a091 413d
00000100: d246 1abd 1a8b 32bc ea03 fabc 5b7f 08bd
00000110: 84d4 703d 6bfd 50bc 1ec4 ffb9 c340 a1bd
00000120: b7f9 e03c a625 4c3d d236 fabb 819c c63c
00000130: 9c55 5ebd 179d 3f3d 39b5 b03b 2230 11bd
00000140: 3c8d a0bd 2ef4 9d3d ddf1 b13b 08fa 83bd
00000150: 80ce f6bb e1e1 10bd 7e9b 67bd 057e 8e3d
00000160: 731e 8bbd 35ba 193d 2426 c13d e2da 57bc
00000170: 6a8f 263c 6748 f0bc 272c 5e3c 4ad6 70bd
00000180: 6510 61bd c7ae 853d ab76 46ba 9b8c fd3c
00000190: 41b9 003c 75d8 8f3d cddb 0bbd 5b77 f93c
000001a0: 94e3 a8bd 064d 79bd a231 dd3c 2d1f 06bd
000001b0: dce1 c23d 6577 e4bc e054 a2bc f292 973d
000001c0: 3ac8 afbd 973f e13c 7ffc 733d a810 85bc
000001d0: 9dca 15bd be60 6c3c 186b 023d fe29 c5bb
000001e0: ba54 8d3d 6a95 413c 69a1 923d 5993 9cbd
000001f0: bd59 0f3d 67b2 4bbd 9ce8 8abd bc80 8dbd
00000200: e66b 17bd 95b0 563d 5681 053d cbaa 943d
00000210: 307e 883d 7176 9dbd 07e7 703d fe11 bb3b
00000220: 845a 7b3c 1de1 b73c e080 a2bc 5839 72bd
00000230: 4d24 963d b040 a93d 6ae9 ff3c f39a 923d
00000240: 2c5c a0bd 395b 013d 3ad8 b3bc 20dc 833d
00000250: 6eda a0bd 9eab 3d3d afaf 953d b2df e3bc
00000260: 7ad5 d03a 9979 b0bd 9abd 2abd 15b2 323d
00000270: ae23 6bbd 0e7f 383c c1d3 f0bc 9df6 4e3c
00000280: 592d 05bd 4059 053c edfd f7bc 9414 34bd
00000290: 15b8 81bb 9a5f 2dbd 9990 ec3c bd57 863d
000002a0: 458b 0c3d 2b33 9a3d 0d92 393d a84d 0e3d
000002b0: 41aa 5b3d 4466 93bc ac2d c1bc feba 593c
000002c0: f2db 09bd 7359 41bc 9e16 ce3c ed2a a33c
000002d0: ca2a 0b3d fad8 b63d 9cbf 8abd f641 513c
000002e0: 85c2 33bd 0841 94bd ba65 cabc d787 5abc
000002f0: 0308 263d 28a1 2bbd 5948 89bc 216b eabc
00000300: 8d41 2dbd b36b aebd 81ae 983b aaed 75bc
00000310: 55c2 39bd e339 4a3d 1d3c c73c 3d77 443d
00000320: 3792 cd3c b9d7 823d 2f69 f6bb 9afe c1bc
00000330: 6c1c 9e3d c5ef af3c e9b4 13bd f907 21bc
00000340: 77dd 553d 5f06 39bd d935 3ebd 3a1d 113d
00000350: 32d0 89bd a3c4 e5bc 3bb4 27bd 8025 36bc
00000360: 3d7a 7a3c dbe7 c03d d99e 503d 3c11 d9b9
00000370: 00ac 5fbd 80ed 9ebd b2a6 a0bd 56c8 a6bd
00000380: dfa7 263d 8cc0 4f3d 4baa 9e3c bc16 98bd
00000390: d524 0ebd c418 643d 45f7 a2bd 51bb 06bd
000003a0: cbb8 a43d 51f1 b2bc 9fb4 b83c f0a3 85bd
000003b0: b57c ae3c ac74 b33c 24b1 503d 7d28 d139
000003c0: 0aea c4bc eaea 36bb 94bd 903c 6aa2 963d
000003d0: c4a2 853d 73f4 213c 41e4 953d ae14 8bbd
000003e0: 4e85 9cbc f5fb babd 97af a23d fca2 0fbc
000003f0: 9244 e3ba 3645 823d 4e66 49bd a785 b6bd
