results/models/ShanghaiComp_LSTM_model.pth (torch, 905223 bytes, 19 tensors)

lstm1.weight_ih_l0 f4 [512, 6]
0	0xbd657491	-0.05601937
1	0x3db8f3bd	0.090308644
2	0x3d58a0c5	0.052887697
3	0x3d6aa2c3	0.057284128
4	0x3c748368	0.014923908
5	0xbd1f0d0b	-0.038830798
6	0x3dadd973	0.08488741
7	0xbd384550	-0.044987977
8	0x3d85b5f7	0.06528848
9	0x3d810da0	0.06301427
10	0x3bcfedd9	0.0063454923
11	0x3dba38a1	0.09092832
12	0x3d16b589	0.03679422
13	0xbd9cf2db	-0.076635085
14	0xbd1e05c1	-0.038579706
15	0xbd8e60bc	-0.06952044
16	0x3c69bba5	0.014265929
17	0x3cdb5ba0	0.026777089
18	0x3da3461a	0.07972355
19	0xbd6fd140	-0.058549166
20	0xbd759550	-0.05995685
21	0x3d262190	0.04055935
22	0xbcacb1db	-0.021080902
23	0x3d84d7f4	0.06486502
24	0x3c1dd1f0	0.0096325725
25	0x3cc4a5d5	0.024004856
26	0x3d5775de	0.05260264
27	0x3d1365f2	0.035985895
28	0x3d3c49ad	0.0459687
29	0x3d907309	0.07053191
30	0xbd262c5e	-0.040569656
31	0x3da921e4	0.08258417
32	0xbd12be39	-0.03582594
33	0x3cb01556	0.021494549
34	0xbd76825c	-0.060182914
35	0xbd39b428	-0.045337826
36	0xbcf560d8	-0.029953405
37	0x3da06c65	0.078331746
38	0xbd4ffc52	-0.05077774
39	0x3c83ca4b	0.016087672
40	0x3d68e135	0.0568554
41	0xbd919e66	-0.0711029
42	0xbd73632e	-0.059420757
43	0x3d7d5101	0.06184483
44	0xbd11f11f	-0.03563034
45	0xbccc2a89	-0.024922626
46	0xbd9a995e	-0.07548784
47	0xbd2a8919	-0.041634653
48	0xbceac063	-0.02865619
49	0xbd73ec9a	-0.059551813
50	0xbd8f269b	-0.06989785
51	0x3d73c733	0.059516143
52	0xbcec6508	-0.02885677
53	0xbc39c066	-0.011337375
54	0xbd7f54f6	-0.062336884
55	0xbd632ca1	-0.055462483
56	0x3d331ad8	0.043726772
57	0xbd60acd4	-0.05485232
58	0x3d31fac6	0.043452047
59	0xbbae159e	-0.0053126356
60	0x3c27ae5a	0.01023444
61	0xbc96e2d9	-0.018418716
62	0x3d867676	0.065655634
63	0xbdb22e3e	-0.08700226
64	0xbd4d1010	-0.050064147
65	0x3ccfc1b7	0.025360925
66	0xbd5b7d6d	-0.053586412
67	0xbcc1d6c3	-0.023661977
68	0x3d8fe36b	0.070257984
69	0xbd9179ad	-0.07103286
70	0x3be55b24	0.00699939
71	0x3d6a3e8a	0.05718855
72	0x3d34db52	0.044154473
73	0x3d5d13b8	0.053973883
74	0x3da8e276	0.08246319
75	0xbd693f0a	-0.056944884
76	0xbd34a0f7	-0.04409882
77	0x3da96813	0.08271804
78	0xbb89835a	-0.0041965665
79	0x3da196fc	0.07890126
80	0x3d96beed	0.07360635
81	0x3d9c9bd0	0.076469064
82	0x3ddc829d	0.107671
83	0x3d42d534	0.047566608
84	0xbd0c3cab	-0.034237545
85	0xbd6206a0	-0.0551821
86	0x3db2ad93	0.08724513
87	0xbd097c06	-0.033565544
88	0xbdb36581	-0.08759595
89	0x3d64d853	0.055870365
90	0xbda612e5	-0.081090726
91	0xbb78153c	-0.0037854454
92	0xbc7cc296	-0.015427252
93	0x3cdf6018	0.0272675
94	0x3d4aad53	0.0494817
95	0x3ccae1a5	0.024765799
96	0xbcae6da5	-0.021292517
97	0xba9acbda	-0.001181002
98	0x3d2cc610	0.042181075
99	0xbd34e104	-0.044159904
100	0x3d1ac5dd	0.037786353
101	0x3d777763	0.06041659
102	0x3dadbf9e	0.08483814
103	0xbd066514	-0.03281124
104	0xbccc5675	-0.02494357
105	0xbd055135	-0.03254815
106	0xbd9ed804	-0.077560455
107	0xbdae57b4	-0.08512822
108	0x3d6f35bf	0.058400866
109	0x3db3b90a	0.08775528
110	0x3db8b28c	0.0901843
111	0x3d1362b7	0.035982814
112	0x3da0e6e4	0.07856539
113	0x3cabc3d1	0.020967396
114	0xbdd17669	-0.10227663
115	0xbcbe1fd3	-0.023208534
116	0x3d0ff1cb	0.0351427
117	0x3c835bc5	0.01603497
118	0x3d9ec5b8	0.077525556
119	0x3da001e4	0.078128606
120	0x3d4e105f	0.05030858
121	0x3c2d047d	0.010560152
122	0xbcb88fb8	-0.022529468
123	0x3ae71eca	0.0017633077
124	0x3d8ff86a	0.07029803
125	0x394a2eb3	0.00019281618
126	0xbd4abe1b	-0.049497705
127	0x3c0ac544	0.008469883
128	0xbd34bb0f	-0.044123705
129	0x3b420955	0.0029607613
130	0x3d05107d	0.032486428
131	0xbdba376b	-0.090926014
132	0x3d50ba46	0.050958894
133	0xbd15d90c	-0.036583945
134	0x3c8f0116	0.017456573
135	0x3d4bae85	0.04972698
136	0xbd9a1cb8	-0.07525009
137	0xbd5b6324	-0.053561345
138	0x3c8ce7a0	0.017200291
139	0xbd3c786a	-0.046013273
140	0x3d241780	0.040061474
141	0x3da2e781	0.07954312
142	0x3d82434e	0.063604936
143	0xbc794cf1	-0.015216098
144	0xbd3243aa	-0.04352156
145	0xbd488ea4	-0.048964158
146	0x3d38d3a8	0.045123726
147	0xbcfa1e1a	-0.030531932
148	0xbd81d88b	-0.063401304
149	0xbdfc1201	-0.123081215
150	0x3d1c5f17	0.038176622
151	0x3da06dc2	0.07833435
152	0x3d858d96	0.06521146
153	0x3d585425	0.05281462
154	0x3dc7da52	0.09758438
155	0x3cbaf67c	0.022822611
156	0xbd9bead1	-0.07613147
157	0x3dab0759	0.08351011
158	0xbcfdaa62	-0.030965034
159	0xbd918f87	-0.07107454
160	0xbd83c55d	-0.064341284
161	0xbd95f3ac	-0.07321867
162	0xbc7b8b8b	-0.015353094
163	0x3cd8d098	0.026466653
164	0x3c33c639	0.010972553
165	0xbbf13785	-0.007361355
166	0xbd60af01	-0.054854397
167	0xbce5f203	-0.028069502
168	0xbcfe83ec	-0.031068765
169	0xbce31a11	-0.02772239
170	0xbdaf9199	-0.085726924
171	0x3d98b9b9	0.07457299
172	0x3d731541	0.05934644
173	0xbd639330	-0.05556029
174	0xbda27988	-0.079333365
175	0xbc092b17	-0.00837209
176	0x3d7776f1	0.060416166
177	0x3d560cc0	0.052258253
178	0x3d98f174	0.074679285
179	0x3d82561c	0.0636408
180	0x3d8e17c7	0.06938129
181	0xbcc82c58	-0.024435207
182	0x3d7871fa	0.06065557
183	0xbd91cc42	-0.07119037
184	0xbd130209	-0.035890613
185	0x3dc2c042	0.095093265
186	0xbd109b90	-0.035304606
187	0xbda603d0	-0.08106196
188	0x3db5a669	0.08869631
189	0xbd86a4eb	-0.06574424
190	0x3cbd7f6d	0.02313205
191	0x3db73004	0.08944705
192	0x3d2c7799	0.042106245
193	0x3c67b5ef	0.014142497
194	0xbd58b422	-0.052906163
195	0xbc4d79a1	-0.012541206
196	0x3d8d5e4a	0.0690275
197	0x3d488a93	0.04896028
198	0x3d7df8dd	0.062004913
199	0xbc628d0b	-0.013827573
200	0x3c1cc97f	0.009569525
201	0x3dad6c02	0.084678665
202	0xbc761b72	-0.015021192
203	0xbd9d65aa	-0.076854065
204	0xbd64ff58	-0.055907577
205	0xbde08217	-0.10962313
206	0xbd971356	-0.07376735
207	0xbdef06db	-0.116712295
208	0xbc87128f	-0.016488342
209	0x3c8a099b	0.016850283
210	0x3cb1a6b7	0.021685941
211	0xbd8a8c85	-0.06765083
212	0x3d9abf1f	0.07555985
213	0x3d7c1ff6	0.061553918
214	0x3cce9cc3	0.025221234
215	0x3d5b560d	0.05354886
216	0x3cb52578	0.022112593
217	0x3d6722c7	0.05642965
218	0xbd9f9303	-0.07791712
219	0x3c953a80	0.018216372
220	0xbb85a93b	-0.0040790117
221	0xbd1ad07f	-0.037796494
222	0xbc827018	-0.015922591
223	0x3d75b15c	0.059983596
224	0x3da0a065	0.07843093
225	0x3bc2d949	0.0059463126
226	0xbdbccc35	-0.09218637
227	0x3c7c83c0	0.015412271
228	0x3d0ffc65	0.03515281
229	0xbd988895	-0.07447926
230	0x3da8c90a	0.0824147
231	0xbd6aac59	-0.05729327
232	0x3dc7f632	0.09763755
233	0xbc8e8652	-0.017398033
234	0xbcdc0702	-0.02685881
235	0x3d392a08	0.0452061
236	0x3dc5fa9b	0.0966694
237	0x3c93f86f	0.018062798
238	0x3d0d0193	0.03442533
239	0x3cff8f7e	0.031196352
240	0x3c90c3b1	0.017671438
241	0x3d9395fc	0.072063416
242	0xbd9c3917	-0.076280765
243	0x3cb59eed	0.022170508
244	0x3d128c98	0.035778612
245	0x3cfee971	0.031117173
246	0xbd8354c3	-0.064126514
247	0xbce81ee7	-0.028335048
248	0xbd9131ff	-0.07089614
249	0x3cfc6244	0.030808575
250	0xbd4d3761	-0.05010164
251	0x3d00d58d	0.031453658
252	0xbca5d162	-0.020241443
253	0xbb37d155	-0.0028048356
254	0xbd8ebe5f	-0.06969904
255	0x3db02bda	0.08602114

lstm1.weight_hh_l0 f4 [512, 128]
0	0x3d3d26f2	0.04617972
1	0x3d8a6b24	0.06758717
2	0x3d816c56	0.063194916
3	0x3d1927bd	0.037391413
4	0xbcb8f9b5	-0.022580007
5	0x3c9e800e	0.01934817
6	0xbd54b062	-0.051926024
7	0xbd9ca0a4	-0.07647827
8	0xbc097546	-0.008389777
9	0xba26e7b8	-0.0006366926
10	0x3c3de5dc	0.011590447
11	0xbd9a464d	-0.0753294
12	0x3cb39a9a	0.021924306
13	0xbd8cb890	-0.0687114
14	0xbd5acf03	-0.053420078
15	0x3c06532d	0.008198542
16	0x3c713abb	0.014723475
17	0xbd07c71c	-0.03314887
18	0xbd458fb3	-0.048232745
19	0x3d03b895	0.032158453
20	0x3d3e2be3	0.046428572
21	0x3d17ce84	0.037062183
22	0x3cd648ce	0.026157763
23	0x3da393e9	0.07987196
24	0xbcf2df4a	-0.029647488
25	0x3ce6c47e	0.028169867
26	0xbb100f30	-0.0021981709
27	0xbceec05a	-0.029144455
28	0xbd9b54fa	-0.07584567
29	0xbdc61d71	-0.09673584
30	0x3ccfca60	0.025365055
31	0xbb743f7d	-0.0037269287
32	0xbd959954	-0.07304636
33	0x399c4c8d	0.00029811673
34	0x3d8f6d5b	0.0700328
35	0x3d402568	0.046910673
36	0x3d5bfeec	0.05370991
37	0xbd753fb4	-0.059875205
38	0x3d3f1d05	0.046658535
39	0xbbe4ff97	-0.0069884765
40	0xbd9f7c13	-0.07787337
41	0x3d7e1040	0.062027216
42	0xbd0130e9	-0.031540785
43	0xbce326ac	-0.027728401
44	0x3d35d384	0.04439117
45	0xbd55ded4	-0.05221446
46	0x3ceec4d4	0.02914659
47	0xbd9e025b	-0.07715293
48	0x3d755b22	0.059901364
49	0xbdbfd53c	-0.09366843
50	0x3d5d5a67	0.054041293
51	0xbd746ebb	-0.059675913
52	0xbd0da8cc	-0.034584805
53	0xbdac0c34	-0.08400765
54	0x3c6b8ae9	0.0143763805
55	0xbd0fa5a0	-0.03507006
56	0x3b870620	0.004120603
57	0x3c025c76	0.007956615
58	0x3d8686a6	0.06568651
59	0xbd2da58a	-0.0423942
60	0xbd99a00f	-0.07501232
61	0x3d50dbdf	0.050990935
62	0xbca53f7c	-0.020171873
63	0x3a0d9bd4	0.00054019433
64	0xbca84c41	-0.020544173
65	0x3c658a2f	0.014009996
66	0x3c64534f	0.013935878
67	0xbd605868	-0.05477181
68	0xbd447bc2	-0.047969587
69	0xbdbf132b	-0.09329828
70	0xbdc5763c	-0.09641692
71	0xbcee9d48	-0.029127732
72	0xbd008703	-0.031378757
73	0x3cbae77c	0.022815458
74	0xbd2e69cf	-0.042581376
75	0x3d5948d0	0.053047955
76	0x3d4d98d8	0.05019459
77	0x3d5e388d	0.05425315
78	0xbd00f8ee	-0.031487398
79	0x3d30def1	0.043181363
80	0x3d7268c6	0.05918195
81	0xbb0b6466	-0.002126956
82	0xbd9f9e6b	-0.07793888
83	0xbd9ad900	-0.07560921
84	0x3db8212e	0.089907035
85	0x3d6761d0	0.056489766
86	0x3db73818	0.08946246
87	0x3d8d125a	0.06888266
88	0xbd9a399d	-0.0753052
89	0xbcd8d2ab	-0.026467642
90	0xbcd854d1	-0.026407631
91	0x3cdabeb7	0.026702268
92	0x3da4bf1e	0.08044265
93	0x3d63125e	0.05543744
94	0x3da9bb77	0.08287709
95	0xbd78de34	-0.060758784
96	0x3dbcacee	0.09212671
97	0x3d7411b6	0.059587203
98	0x3c66a39b	0.0140770925
99	0xbd18b97e	-0.037286274
100	0x3d2d12a8	0.04225412
101	0x3d2dd04b	0.04243497
102	0xbbe69bd9	-0.0070376215
103	0xbd94eba8	-0.0727151
104	0xbcc1aeed	-0.023642981
105	0xbcbc3d50	-0.022978455
106	0x3c615122	0.013752254
107	0xbd21f3f9	-0.03953931
108	0x3dbb8546	0.09156279
109	0x3cd9b0a9	0.026573496
110	0x3d3dddb0	0.046353996
111	0x3c61cdb3	0.013781953
112	0x3cf18544	0.029482491
113	0xbbe94d97	-0.007119845
114	0x3d68f50f	0.05687433
115	0x3d845f99	0.06463546
116	0x3d5dc16e	0.054139547
117	0x39a5ae39	0.00031601058
118	0xbc741a52	-0.014898853
119	0xbca33156	-0.019920986
120	0xbd1310ee	-0.035904817
121	0x3d7b6bb8	0.061382025
122	0xbc3443d1	-0.011002497
123	0xbd4037fa	-0.046928383
124	0xbd37e368	-0.044894606
125	0x3d571ad2	0.052515812
126	0x3d92c16c	0.071657985
127	0xbc080d62	-0.008303972
128	0x3b3b8522	0.002861329
129	0xbc6423d7	-0.0139245605
130	0xbcfe69bd	-0.03105628
131	0xbbac30d8	-0.005254846
132	0xbc8ebb51	-0.017423304
133	0xbd6c2a7b	-0.0576577
134	0xbd76d1c5	-0.060258646
135	0x3d3e2123	0.04641832
136	0xbc61d3cf	-0.013783409
137	0x3d023849	0.03179196
138	0x3d37e55b	0.044896465
139	0x3c09a0f7	0.008400193
140	0xbc446331	-0.01198654
141	0xbba70b40	-0.0050977767
142	0xbd1c92f9	-0.0382261
143	0x3d6948f4	0.05695434
144	0x3c0652ab	0.0081984205
145	0x3ce533cd	0.027978802
146	0x3c9fd554	0.019510902
147	0x3d7f7f75	0.062377412
148	0xbc8f404c	-0.017486714
149	0x3bd37529	0.0064531756
150	0x3d14ca4f	0.03632575
151	0x3d8f4e8d	0.06997404
152	0xbd89ce19	-0.06728763
153	0xbd5b471c	-0.053534612
154	0xbd6c427d	-0.057680596
155	0x3d5ac4c4	0.053410307
156	0x3b542f68	0.003237689
157	0x3d0de82e	0.034645252
158	0xbceb5fe8	-0.028732255
159	0xbd7647b8	-0.06012699
160	0x3ceabecb	0.02865543
161	0x3b8e046d	0.0043340237
162	0x3da15fca	0.078795984
163	0x3d8374fa	0.06418796
164	0xbd55b53d	-0.052174795
165	0xba465664	-0.0007565974
166	0x3cb4b892	0.022060666
167	0x3d6244c8	0.055241376
168	0xbd11d62f	-0.035604652
169	0xbcc0f0eb	-0.023552379
170	0xbd812833	-0.063064955
171	0x3c4daac9	0.012552925
172	0x3bd58921	0.006516591
173	0xbc8465df	-0.016161857
174	0xbceed687	-0.029155029
175	0x3caa2ed1	0.020774277
176	0x3d7701b8	0.060304374
177	0x3d96c985	0.073626556
178	0x3cdd82e4	0.027039953
179	0x3ce8e8eb	0.028431376
180	0xbc710217	-0.014709971
181	0xbd8f3ac4	-0.069936305
182	0x3d5d0546	0.053960107
183	0x3d625d87	0.055264976
184	0x3d71f665	0.05907287
185	0x3da674bd	0.08127735
186	0xbd4e8995	-0.050424177
187	0xbce7ca72	-0.028294776
188	0xbd61eee9	-0.055159483
189	0xbd86887c	-0.06569001
190	0xbd41af0f	-0.04728609
191	0xbd791a3b	-0.06081603
192	0x3b988aa3	0.0046551987
193	0x3d3239e1	0.04351223
194	0x3d7ccc31	0.06171817
195	0xbd7ca3cc	-0.061679646
196	0x3d684f49	0.056716237
197	0xbc8bb1ba	-0.01705252
198	0xbdb77e58	-0.08959645
199	0xbce0db99	-0.027448462
200	0x3cfc79b1	0.030819746
201	0x3c931bf9	0.017957674
202	0x3d0f8138	0.035035342
203	0xbd8dd7e8	-0.069259465
204	0xbc09ef21	-0.008418829
205	0xbda5a8d3	-0.08088841
206	0x3d93b482	0.072121635
207	0xbd09362d	-0.03349893
208	0xbd984e0d	-0.07436762
209	0xbbc4f6d9	-0.006010872
210	0x3d185085	0.037186164
211	0xbb9eb694	-0.0048435424
212	0x3d8a2a4d	0.067463495
213	0x3c0558a4	0.008138809
214	0x3db22972	0.08699311
215	0xbc54f283	-0.012997272
216	0x3b78278e	0.0037865373
217	0xbd899b84	-0.067191154
218	0xbb629079	-0.0034570976
219	0xba51f557	-0.0008009276
220	0xbda8ad4a	-0.08236177
221	0x3d88cf07	0.06680112
222	0x3d1bf5a1	0.038076047
223	0x3ca04508	0.019564167
224	0xbc366e34	-0.011134673
225	0x3cdc01c7	0.026856316
226	0x3ca56157	0.020188017
227	0xbc8ef6c1	-0.017451646
228	0x3d16e17f	0.036836144
229	0x3cdcc9ac	0.026951633
230	0xbd4d913e	-0.050187342
231	0x3c9e2165	0.019303033
232	0xbda4efc7	-0.080535464
233	0x3c1c0f71	0.009525166
234	0xbcf96d39	-0.03044759
235	0x3dafc629	0.08582718
236	0x3b92955c	0.0044733714
237	0xbcb8c384	-0.022554167
238	0x3cff19dc	0.03114026
239	0xbd89ac9e	-0.06722377
240	0x3caa82e3	0.020814365
241	0xbbf6e4c2	-0.0075345943
242	0xbcde512f	-0.02713832
243	0xbd05f34b	-0.032702725
244	0xbd9509e8	-0.0727728
245	0xbdb2b6d0	-0.08726275
246	0x3b65d277	0.0035068074
247	0xbd988499	-0.07447166
248	0xbdabf736	-0.08396761
249	0x3d4e8938	0.05042383
250	0x3d835aad	0.064137794
251	0x3ce706da	0.02820151
252	0x3b3827c4	0.0028099874
253	0x3d24d775	0.04024454
254	0x3ccc6953	0.024952566
255	0xbd3de12b	-0.046357315

lstm1.bias_ih_l0 f4 [512]
0	0xbccc9334	-0.024972536
1	0xbaab1cf0	-0.0013054889
2	0x3d989f65	0.07452277
3	0xbce51afd	-0.02796697
4	0xbda54283	-0.08069327
5	0x3bf52689	0.0074814004
6	0xbd8120cc	-0.06305084
7	0xbcf0b446	-0.029382836
8	0xbdb16184	-0.08661178
9	0x3d49d87f	0.049278732
10	0xbcca4999	-0.024693297
11	0xbd81edad	-0.06344161
12	0x3d6b64a6	0.057469033
13	0x3ba4f00c	0.0050334986
14	0x3d0e17c3	0.03469063
15	0x3d78112d	0.060563255
16	0x3c317332	0.010830687
17	0xbce97647	-0.028498782
18	0xbd91508c	-0.07095441
19	0x3d8a25e3	0.067455076
20	0x3d965bf9	0.07341761
21	0x3d260f3a	0.040541865
22	0xbdab3a1f	-0.08360695
23	0xbd91dea4	-0.071225435
24	0xbdafa11a	-0.085756496
25	0xbd880e49	-0.0664335
26	0xbd4ec184	-0.05047752
27	0x3c4695a8	0.012120642
28	0x3cb60be5	0.022222469
29	0x3d9e4286	0.07727532
30	0xbd7a1840	-0.061058283
31	0xbd4ac97d	-0.04950856
32	0x3da4ec67	0.08052903
33	0x3cbb4b55	0.02286307
34	0x3d8d707b	0.069062196
35	0xbd95cb66	-0.07314186
36	0x3d8c304b	0.06845149
37	0x3d8392e6	0.06424503
38	0x3da64864	0.08119276
39	0xba5aba62	-0.0008343813
40	0x3d8b5d5e	0.06804918
41	0x3d873b6d	0.066031314
42	0xbcfc6c60	-0.030813396
43	0xbd78dfa5	-0.06076016
44	0x3d11550c	0.035481498
45	0x3d449db2	0.048001952
46	0xbd93dce1	-0.07219864
47	0x3d9e8c9b	0.07741662
48	0xbda338a9	-0.079697914
49	0xbccac697	-0.024752898
50	0x3d89ce44	0.06728795
51	0xbd59ac1f	-0.053142663
52	0x3caaee0e	0.020865466
53	0x3ddb8c02	0.10720064
54	0x3dc69615	0.096965946
55	0xbc6b9e4b	-0.014381002
56	0xbd99693f	-0.07490777
57	0x3d684a8a	0.05671171
58	0xbd7416ea	-0.059592165
59	0xbdacec1e	-0.08443473
60	0xbd00e904	-0.03147222
61	0x3dcb0fe1	0.09915138
62	0x3ccb29e6	0.024800252
63	0xbd76ae57	-0.060224857
64	0xbd68218f	-0.05667263
65	0xbd36dcf7	-0.044644322
66	0xbb47fb06	-0.0030514612
67	0xbd2456db	-0.040121894
68	0xbd4490eb	-0.047989767
69	0x3d8a6efd	0.067594506
70	0x3d33a9a2	0.043862946
71	0xbd720af2	-0.05909247
72	0x3d48cc08	0.049022704
73	0xbcdb2193	-0.026749408
74	0xbd949caa	-0.07256444
75	0xbd4c12a4	-0.049822465
76	0x3da05e80	0.078305244
77	0xbcb13df9	-0.021635996
78	0xbd5cebaa	-0.053935684
79	0x3d120227	0.035646584
80	0xbceb52a7	-0.028725935
81	0x3d9cafd2	0.076507226
82	0x3d6bcdfa	0.05756948
83	0xbd589454	-0.05287583
84	0xbd6bd18e	-0.057572894
85	0x3cb642e7	0.022248698
86	0x3c951fa2	0.01820356
87	0xbd5f79a0	-0.05455935
88	0x3da46e4e	0.080288514
89	0xbd918f66	-0.07107429
90	0x3d5857dd	0.052818168
91	0xbc8f423c	-0.017487638
92	0xbc989da5	-0.018629858
93	0xbcffbcf9	-0.031218039
94	0x3c1b98d2	0.009496884
95	0xbd3f583c	-0.046715006
96	0x3dc6b9a5	0.09703378
97	0x3d3b2adc	0.04569517
98	0x39886dc1	0.00026021714
99	0x3c86c31c	0.016450457
100	0xbd82214b	-0.063540064
101	0xbd44c8ef	-0.048043188
102	0x3d5504d7	0.05200657
103	0xbc3c39fa	-0.011488432
104	0x384c67b0	4.8733957e-05
105	0x3d06bafb	0.032893162
106	0xbd1a0a53	-0.037607502
107	0x39ddb83c	0.0004228967
108	0xbd7d0b07	-0.061778095
109	0x3dbcd013	0.092193745
110	0x3db434cf	0.08799135
111	0x3d94aeff	0.0725994
112	0x3b681849	0.0035414866
113	0x3cf46e22	0.029837672
114	0x3d8fa122	0.070131555
115	0xbdaa7565	-0.083231725
116	0xbdb351f1	-0.087558635
117	0xbbbc1cee	-0.0057407534
118	0xbd599d87	-0.053128745
119	0xbd876ffe	-0.06613158
120	0x3d49001f	0.04907238
121	0xbdb6e78d	-0.089308836
122	0xbc8fb791	-0.017543586
123	0xbd4bd5b7	-0.04976436
124	0xbd87b424	-0.06626156
125	0x3b3df95b	0.0028987739
126	0x3d7bfd91	0.061521117
127	0xbd8ca0f0	-0.06866634
128	0x3caa8196	0.020813745
129	0x3d89924f	0.06717359
130	0xbd2937ff	-0.041313168
131	0xbbb9ad10	-0.0056663826
132	0xbdad2112	-0.08453573
133	0xbd5f4039	-0.054504607
134	0x3c3e2902	0.011606457
135	0x3d5c0540	0.053715944
136	0x3d02221d	0.031770814
137	0xbd1c1707	-0.038107898
138	0xbbf3cb5d	-0.0074400143
139	0x3ce48edd	0.027900154
140	0x3d21a84c	0.03946714
141	0xbb8f848d	-0.004379815
142	0xbd1d33c7	-0.038379457
143	0xbc231b13	-0.009955185
144	0x3da9009a	0.08252068
145	0xbdd0ee89	-0.10201747
146	0x3da1dc2f	0.07903325
147	0xbd871f15	-0.06597725
148	0x3da260ed	0.079286434
149	0x3cef9f8e	0.029250886
150	0x3d9aa7f1	0.075515635
151	0xbd9eab1a	-0.07747479
152	0x3c8454a1	0.016153635
153	0xbd8b3990	-0.067980886
154	0x3d294d61	0.04133356
155	0x3cec7721	0.028865399
156	0x3cc2119a	0.023690034
157	0x3ce9e112	0.028549705
158	0xbd989ce4	-0.074517995
159	0x3da765fd	0.081737496
160	0xbd8efda3	-0.06981971
161	0x3d971a38	0.07378048
162	0x3d371809	0.044700656
163	0x3c95fbef	0.018308608
164	0x3d7289c2	0.059213407
165	0xbcfa8634	-0.030581571
166	0x3dadd9c5	0.08488802
167	0x3d051df3	0.032499265
168	0xbd874c5b	-0.066063605
169	0x3d790e20	0.060804486
170	0x3c813062	0.015770141
171	0x3d21cf6e	0.03950446
172	0xbce89a1c	-0.028393798
173	0xbd20cf18	-0.03926
174	0xbd57f68b	-0.052725356
175	0xba85ac51	-0.0010198449
176	0xbc0675f3	-0.008206832
177	0xbc76190b	-0.015020619
178	0xbb657b1b	-0.0035016004
179	0xbc89ba2f	-0.016812412
180	0xbd07448b	-0.033024352
181	0xbc2b98ac	-0.0104734115
182	0x3ddf150c	0.10892686
183	0x3d6cdaa4	0.0578257
184	0xbd4c1d03	-0.049832355
185	0xbc20f084	-0.009822968
186	0xbd2ace97	-0.041700926
187	0xbbeddf87	-0.0072593126
188	0x3dafac46	0.085777804
189	0x3a7f5f18	0.0009741648
190	0xbb8f0210	-0.0043642595
191	0x3d84c310	0.06482518
192	0xbc117ed6	-0.008880338
193	0xbbe07156	-0.006849448
194	0x3d89fc16	0.06737535
195	0x3d91489c	0.07093927
196	0xbd7b1e1f	-0.061308023
197	0x3dadc0b5	0.084840216
198	0xbcb75cc9	-0.02238311
199	0xbd0811cc	-0.033220097
200	0xbc114f36	-0.008868983
201	0x3d305681	0.043051247
202	0xbd30acc7	-0.043133523
203	0x3d425e8a	0.04745344
204	0x3d367f37	0.044554915
205	0xbd558260	-0.05212629
206	0xbb8bafb2	-0.004262888
207	0x3d87a2d4	0.06622854
208	0x3da890dd	0.082307555
209	0x3d3853fc	0.04500197
210	0xbd38368e	-0.044973902
211	0x3d88455a	0.06653853
212	0x3bae929e	0.0053275367
213	0xbcef9409	-0.029245393
214	0xbd801d68	-0.06255609
215	0xbcdd150e	-0.026987579
216	0xbb8bd924	-0.0042678285
217	0x3dba39b8	0.0909304
218	0xbdcd7439	-0.10031933
219	0x3d157d73	0.03649659
220	0xbc24ad11	-0.010051028
221	0xbd819e12	-0.06328978
222	0x3ca3ab9e	0.019979294
223	0x3d411c10	0.047145903
224	0xbd86fac2	-0.06590797
225	0xbd7c14de	-0.061543338
226	0x3cc6ffd0	0.024291903
227	0xbd38bca1	-0.045101766
228	0xbd16e297	-0.036837187
229	0xbc26ae47	-0.010173387
230	0xbdb1236b	-0.086493336
231	0x3d762729	0.06009594
232	0x3d135310	0.035967886
233	0x3ab5bee5	0.0013866095
234	0x3d8b5db7	0.06804984
235	0xbd7e6f7b	-0.062118035
236	0xbcf7c57f	-0.03024554
237	0x3d3341c4	0.04376389
238	0x3d340b6a	0.043956198
239	0xbd63d296	-0.055620752
240	0xbda7ca3c	-0.0819287
241	0xbd1dc2a3	-0.0385157
242	0xbd57c6a5	-0.052679677
243	0xbd3aff49	-0.045653615
244	0xbc5d02a8	-0.013489403
245	0x3d9cb82e	0.07652317
246	0x3c70ad19	0.014689707
247	0x3cdfb11b	0.02730613
248	0x3c7909dd	0.0152001055
249	0xbcbff655	-0.02343289
250	0x3db57b4a	0.08861406
251	0x3c6fab3b	0.014628227
252	0xbdc596ac	-0.09647879
253	0xbd7c33bd	-0.06157278
254	0x3d1dbd4f	0.038510617
255	0xbd542ab9	-0.051798556

lstm1.bias_hh_l0 f4 [512]
0	0xbd8ab69f	-0.067731135
1	0xbc2de5c5	-0.010613863
2	0x3ce73f8b	0.028228542
3	0x3d557340	0.052111864
4	0xbd8f5826	-0.06999235
5	0x3d0ba28f	0.034090575
6	0xbd97c378	-0.074103296
7	0xbcf944e2	-0.030428354
8	0xbb94e065	-0.0045433515
9	0xbbc18f84	-0.005907001
10	0x3d46f797	0.048575964
11	0xbced4489	-0.028963344
12	0x3d40ab53	0.047038388
13	0xbd5a78f7	-0.053338017
14	0x3c0c2162	0.008552881
15	0x3d0d3b41	0.034480337
16	0xbd9f1989	-0.07768542
17	0xbb24f7fd	-0.0025172227
18	0xbd9d8786	-0.07691865
19	0xbac4d3d5	-0.0015016744
20	0xbd13cfed	-0.036086965
21	0xbd98d476	-0.07462399
22	0xbd746497	-0.059666242
23	0xbd1c51b3	-0.038163852
24	0xbda6967e	-0.08134173
25	0xbd75bc33	-0.059993934
26	0x3db12189	0.086489744
27	0xbd9687d5	-0.07350127
28	0xbda7e0cd	-0.08197174
29	0x3d918417	0.07105272
30	0x389acd79	7.3815645e-05
31	0xbd61ca23	-0.055124413
32	0x3c19ee76	0.009395232
33	0x3ccc5f65	0.024947831
34	0x3cbc2ccd	0.022970581
35	0xbc9febcd	-0.019521618
36	0x3d43a28f	0.04776245
37	0x3ca7aeab	0.02046903
38	0x3d137765	0.036002535
39	0x3ce6d0db	0.028175762
40	0xbd8b8278	-0.06811994
41	0xbd4b26e4	-0.049597636
42	0x3da5febf	0.081052296
43	0x3ce5c8c3	0.028049832
44	0xbd63a529	-0.05557743
45	0xbd866b13	-0.065633915
46	0xbd1754da	-0.036946155
47	0xbd844466	-0.064583585
48	0x3da11bd4	0.07866636
49	0xbc61345d	-0.013745395
50	0xbd0e87d7	-0.034797516
51	0x3ca00c4c	0.019537114
52	0x3ccc3338	0.024926767
53	0xbbcd95eb	-0.006273975
54	0x3d95075e	0.07276796
55	0x3da78974	0.08180514
56	0x3da7f973	0.082018755
57	0x3d8e4b43	0.06947949
58	0xbd9cd769	-0.07658274
59	0x3d18cfac	0.037307426
60	0x3d9d32f1	0.07675732
61	0xbd3b0836	-0.045662127
62	0xbd08a93d	-0.033364523
63	0xbd7f2a95	-0.06229647
64	0x3d261622	0.04054845
65	0xbb597905	-0.0033183706
66	0x3c6f47f4	0.014604557
67	0xbc8e536b	-0.017373761
68	0x3d61dfb1	0.05514497
69	0x3d623df2	0.055234857
70	0xbdb4aac6	-0.08821635
71	0xbdcc6670	-0.09980476
72	0x3cdd6b7d	0.027028793
73	0xbd6fdd54	-0.058560684
74	0xbd248adb	-0.040171485
75	0xbc39b2cd	-0.011334133
76	0x3d81f216	0.06345002
77	0xbcf963ea	-0.03044315
78	0xbd8c51ad	-0.06851516
79	0x3d3d1f9d	0.046172727
80	0x3d236826	0.039894246
81	0xbda5753b	-0.080790006
82	0xbb909871	-0.0044127037
83	0x3c8b3f22	0.016997878
84	0x3cbf8627	0.023379399
85	0xbc50cee4	-0.012744639
86	0x3c37361b	0.011182333
87	0xbd08d062	-0.033401854
88	0x3da578c6	0.08079676
89	0x3db513d4	0.088416725
90	0x3d74632a	0.059664883
91	0x3d8d6d5c	0.06905624
92	0xbd40c19c	-0.04705964
93	0x3d0fcbeb	0.03510658
94	0xbd35d0e5	-0.04438867
95	0xbbd3d52c	-0.006464621
96	0x3ba63a3e	0.005072861
97	0xbdb35290	-0.08755982
98	0xbd5636ff	-0.052298542
99	0x3d867091	0.06564439
100	0xbd98b375	-0.07456104
101	0x3d4a2499	0.04935131
102	0x3d96474f	0.0733782
103	0x3d8ab47d	0.06772707
104	0x3dbe69cb	0.09297522
105	0xbd876bfb	-0.066123925
106	0xbd4a84ce	-0.04944306
107	0xbd9f54ca	-0.07779844
108	0xbc8e213e	-0.017349835
109	0xbd99f3ab	-0.07517179
110	0xbd9f1912	-0.07768454
111	0x3cb51cd3	0.022108471
112	0x3d4f943f	0.050678488
113	0xbcc2fa50	-0.023800999
114	0xbd01609f	-0.031586286
115	0xbdd4ed57	-0.103968315
116	0x3da193a3	0.078894876
117	0xbbd60ae4	-0.00653206
118	0xbd9658e0	-0.0734117
119	0xbd3d3a3a	-0.046198107
120	0xbcb319f0	-0.021862954
121	0xbc6b8eed	-0.014377338
122	0xbd4c1f4c	-0.049834535
123	0xbd03ffdd	-0.032226432
124	0xbdac2256	-0.084049866
125	0x3d4a85ba	0.049443938
126	0xbcf19541	-0.029490115
127	0xbd298ff2	-0.041397043
128	0xbdaa692d	-0.08320842
129	0xbd60e6b3	-0.054907512
130	0x3cbc62a4	0.022996254
131	0xbbf9795d	-0.0076133446
132	0x3d926472	0.07148065
133	0x3ce13338	0.027490243
134	0x3afe33d1	0.0019394105
135	0xbcf62457	-0.030046625
136	0x3d4fdbb5	0.05074664
137	0xbd4acf87	-0.04951432
138	0x3c1c2dbf	0.009532391
139	0xbc8f8148	-0.0175177
140	0x3c2e7ce8	0.010649897
141	0x3db96c71	0.09053887
142	0xbdb1d856	-0.08683841
143	0xbcb62c98	-0.02223806
144	0x3c8c682b	0.017139515
145	0x3d7700e1	0.060303573
146	0x3d922287	0.07135492
147	0xbd9747d6	-0.073867485
148	0xbd31fa9f	-0.0434519
149	0xbc40fe4b	-0.011779378
150	0x3d44237f	0.047885414
151	0xbd90d4e2	-0.07071854
152	0xbb1791c7	-0.0023127662
153	0xbd6894ae	-0.056782417
154	0xbcba3322	-0.02272946
155	0xbd0bbf0d	-0.034117747
156	0xbd3eb87a	-0.04656265
157	0xbd9e114e	-0.07718144
158	0x3d0a8815	0.033821184
159	0x3c9a2ece	0.018821146
160	0xbd0f2da0	-0.03495562
161	0xbc70c0d4	-0.014694411
162	0x3db7cfa3	0.089751504
163	0xbd76cd39	-0.06025431
164	0x3d7075ea	0.0587062
165	0xbda3109c	-0.07962152
166	0x3cac3b23	0.021024292
167	0xbc3e3256	-0.011608681
168	0xbd1f8534	-0.03894539
169	0xbd872f79	-0.066008516
170	0xbd95f597	-0.07322233
171	0x3a13bab3	0.00056354253
172	0x3caeafac	0.021324001
173	0x3d5ef230	0.054430187
174	0xbc1fbd18	-0.009749673
175	0x3d759fc0	0.059966803
176	0x3d8d2ff0	0.06893909
177	0x3cbbd668	0.022929385
178	0x3d81ab98	0.06331557
179	0x3da344f6	0.07972138
180	0x3d80f9f4	0.06297675
181	0x3db352e4	0.087560445
182	0x3a32bf71	0.0006818688
183	0xbc78fdc4	-0.015197221
184	0x3d510fd5	0.05104049
185	0x3c2fac90	0.010722294
186	0x3d7c140e	0.061542563
187	0xbda3040f	-0.079597585
188	0x3d8f0149	0.06982667
189	0x3db08fe2	0.086211935
190	0x3d5c9fec	0.05386345
191	0xbc5c24d4	-0.013436515
192	0x3d4ae5ff	0.049535748
193	0x3d16a9e1	0.036783103
194	0xbda4f40a	-0.08054359
195	0xbd81de40	-0.06341219
196	0x3c55c4e1	0.013047428
197	0x3d885e29	0.066585846
198	0xbd9576e6	-0.07298069
199	0xbd93e773	-0.0722188
200	0xbaac26c6	-0.0013134114
201	0x3bbef732	0.005827808
202	0xbd718bd0	-0.058971226
203	0x3d5e2684	0.05423595
204	0xbd4c0cc1	-0.04981685
205	0xbce96801	-0.028491976
206	0xbd7d4c42	-0.061840303
207	0x3d4c97cd	0.049949456
208	0xbd5c63e4	-0.0538062
209	0xbda589a4	-0.080828935
210	0xbd7a9c99	-0.0611845
211	0x3cc807d5	0.024417797
212	0x3d8eebc0	0.069785595
213	0x3da061ac	0.078311294
214	0xbd77847e	-0.06042909
215	0xbda7f949	-0.08201844
216	0x3d14a2aa	0.03628794
217	0x3cf3b782	0.02975059
218	0xbd290136	-0.04126092
219	0x3d1f2916	0.038857542
220	0x396869dc	0.0002216468
221	0x3ce0a437	0.027422054
222	0x3cf851f5	0.030312518
223	0x3c57acf4	0.013163794
224	0x3c270170	0.010193214
225	0x3b888555	0.004166285
226	0x3c89fd87	0.016844524
227	0xbd1c2d2e	-0.038129024
228	0x3d5864c2	0.052830465
229	0xbd00cd94	-0.031446055
230	0xbca12cc4	-0.019674666
231	0x3d155a4a	0.03646306
232	0x3db419ae	0.087939605
233	0x3db4f70f	0.08836185
234	0xbb20ad4e	-0.002451736
235	0xbd8a41be	-0.067508206
236	0x3d9d28b4	0.07673779
237	0x3d971491	0.073769696
238	0x3c74f53b	0.014951046
239	0x3da0d431	0.07852972
240	0x3d1e3f00	0.0386343
241	0x3d715206	0.058916114
242	0xbda616e5	-0.081098355
243	0x3d1fb00a	0.038986243
244	0x3d8386f8	0.064222276
245	0xbdb07807	-0.086166434
246	0x3bd8876a	0.0066079395
247	0x3d82b1a4	0.063815385
248	0xbd1d4a47	-0.038400915
249	0x3c37d9a8	0.011221327
250	0xbd6b09f8	-0.057382554
251	0x3bb7f02b	0.005613347
252	0x3d1d89bd	0.038461436
253	0xbda5cfbf	-0.08096265
254	0xbd0a3b13	-0.033747744
255	0xbd5f5d7d	-0.054532517

lstm1.weight_ih_l0_reverse f4 [512, 6]
0	0xbd39e262	-0.04538191
1	0x3d3e355a	0.0464376
2	0xbbaf9b18	-0.005359065
3	0xbc2f7875	-0.010709872
4	0xbcd5da55	-0.026105085
5	0x3da1fef6	0.07909958
6	0xbd859dea	-0.0652426
7	0xbd160e10	-0.036634505
8	0x3d230937	0.03980371
9	0xbd9087bb	-0.070571385
10	0xbd88fc6c	-0.06688771
11	0xbc9514ac	-0.018198334
12	0x3c6d616e	0.014488561
13	0xbc9a683b	-0.01884853
14	0x3da5dc49	0.08098657
15	0x3b905f40	0.004405886
16	0x3d25604e	0.040375046
17	0x3d9e46e9	0.07728369
18	0xbd3b99d1	-0.045800988
19	0x3c55c1f1	0.0130467275
20	0x3d41ced8	0.047316402
21	0xb92cd5d6	-0.00016482858
22	0x3d090399	0.033450697
23	0x3d90f3c9	0.07077748
24	0xbd3739b1	-0.044732753
25	0xbd838a13	-0.0642282
26	0x3d9444a6	0.07239656
27	0x3d8fb53c	0.070169896
28	0xbcec0e6a	-0.028815467
29	0xb91d51b6	-0.00015003126
30	0xbb0e7d5f	-0.0021742207
31	0xbca2d495	-0.019876758
32	0xbd2e9cf1	-0.04263014
33	0x3c427090	0.011867657
34	0xbc43d50e	-0.011952652
35	0xbce1b0f4	-0.027550198
36	0x3cfff302	0.031243805
37	0x3c9823ba	0.018571723
38	0xbb6c0223	-0.0036012016
39	0x3bde37df	0.0067815627
40	0x3d972606	0.07380299
41	0xbda44811	-0.08021558
42	0x3db35a34	0.08757439
43	0x3d9f47ed	0.07777391
44	0xbd85d19d	-0.06534121
45	0xbd7bebc4	-0.06150414
46	0xbc8ef670	-0.017451495
47	0xbda6fb44	-0.08153394
48	0x3cafe904	0.021473415
49	0x3d37dc6d	0.04488795
50	0x3d3757c5	0.044761438
51	0xbd17cfe0	-0.03706348
52	0x3c9ec523	0.019381111
53	0xbd362f10	-0.044478476
54	0xbcb39ec4	-0.021926291
55	0x3d9ceb93	0.0766212
56	0xbd50c579	-0.050969575
57	0x3d68a088	0.05679372
58	0x3d1b12ed	0.037859846
59	0xbd4f5b02	-0.0506239
60	0x3d40d837	0.0470812
61	0xbd6a2bf4	-0.057170823
62	0xbcf52be4	-0.029928155
63	0xbccbccc3	-0.024877911
64	0xbc515f1a	-0.012779022
65	0x3da77ff0	0.08178699
66	0xbb4f7e78	-0.0031661075
67	0x3d5db4ab	0.054127377
68	0x3bcaf854	0.006194154
69	0x3ca7eb2f	0.020497886
70	0x3c1c2c6f	0.009532078
71	0xbc32ab1d	-0.010905054
72	0x3d4ea195	0.050447065
73	0xbbaca3bb	-0.0052685416
74	0xbd76e289	-0.060274635
75	0xbbe6848c	-0.007034844
76	0x3adcade8	0.0016836496
77	0x3d7cda21	0.06173146
78	0xbd8e6b8e	-0.06954108
79	0xbba2b848	-0.0049658157
80	0xbc6e9d76	-0.014563909
81	0x3d00bf50	0.03143245
82	0x3dad2021	0.08453394
83	0xba3f14b0	-0.00072891545
84	0xbd8e2a2d	-0.06941638
85	0xbb902cf2	-0.004399889
86	0x3d07e5d0	0.03317815
87	0x3d0e9e67	0.034819033
88	0x3db9ca0e	0.09071742
89	0x3dbb0a0f	0.09132778
90	0xbdc5ff47	-0.09667831
91	0xbd98aadc	-0.07454464
92	0xbd368b3e	-0.044566385
93	0xbdda2952	-0.106524125
94	0xbd7debe2	-0.061992534
95	0xbcd176ae	-0.025569286
96	0xbd8fa80f	-0.070144765
97	0x3ca3196c	0.019909583
98	0xbd96b4f7	-0.07358735
99	0x3d5c098c	0.053720042
100	0xbd84dedd	-0.0648782
101	0x3c1927e6	0.009347891
102	0x3d577dd1	0.052610222
103	0x3dc13ce4	0.09435442
104	0x3d398272	0.045290418
105	0x3d422e6a	0.047407545
106	0x3d66fde7	0.056394484
107	0x3c9973f9	0.018732058
108	0x3cb69ba9	0.022291021
109	0xbd0b1202	-0.03395272
110	0x3d17b254	0.0370353
111	0x3d2f8c45	0.04285838
112	0x3d85ca95	0.0653278
113	0x3d8af7a6	0.067855164
114	0x3cadb8b9	0.021206247
115	0x3cd15b48	0.025556222
116	0xbdacd63c	-0.084392995
117	0xbd1e36ed	-0.0386266
118	0xbcae565c	-0.021281414
119	0x3cd3c649	0.025851386
120	0x3d0dc89b	0.03461514
121	0x3da400a4	0.08007935
122	0x3d3f08ea	0.04663936
123	0x3d871720	0.065962076
124	0xbd9394a7	-0.072060876
125	0x3caed332	0.02134094
126	0x3d8bcd07	0.06826215
127	0x3d505997	0.05086669
128	0x3d66ab3e	0.056315653
129	0xbda8ca4b	-0.08241709
130	0x3db9cd04	0.09072307
131	0xbb8863a6	-0.0041622696
132	0xbd8ba06e	-0.06817709
133	0xbd0b4043	-0.03399683
134	0x3d82f695	0.06394688
135	0xbd4b6550	-0.049657166
136	0xbd3b1d96	-0.045682512
137	0x3d85de13	0.06536498
138	0xbd9b7939	-0.07591481
139	0xbdbaa58c	-0.09113607
140	0x3d82d390	0.063880086
141	0x3d969b5b	0.073538505
142	0xbd00464c	-0.03131704
143	0x3da6b1da	0.08139391
144	0xbd4391f8	-0.04774663
145	0x3d5d0868	0.053963095
146	0x3d9cc59b	0.07654878
147	0xbd28d820	-0.041221738
148	0xbcbce560	-0.023058593
149	0x3d5af0b0	0.053452194
150	0xbd1843c1	-0.03717399
151	0x3c8f06f7	0.017459376
152	0xbd09d80a	-0.033653297
153	0x3d805e74	0.062680155
154	0x3cb55ff0	0.022140473
155	0xbd0663ca	-0.03281001
156	0xbc615654	-0.013753492
157	0x3d2770c4	0.040879026
158	0xbc94b1b1	-0.018151136
159	0xbda69be3	-0.08135202
160	0xbc84822d	-0.016175354
161	0x3d7f20d6	0.062287174
162	0xbd7d7273	-0.061876725
163	0x3d51bf21	0.051207665
164	0x3b02924b	0.0019923623
165	0xbd803479	-0.06260008
166	0xbdbdc322	-0.09265734
167	0xbdae7fde	-0.085204825
168	0x3d7cc836	0.061714374
169	0x3dc268b3	0.09492626
170	0x3c46388f	0.012098446
171	0xbd3f6510	-0.04672724
172	0xbd7462f5	-0.059664685
173	0x3d9990d8	0.0749833
174	0xbbcaf383	-0.0061935796
175	0x39c328d9	0.00037223732
176	0x3bfce103	0.007717253
177	0x3d0ebaa2	0.034845956
178	0xbd026f82	-0.031844623
179	0xbd215308	-0.039385825
180	0xbd5f53f9	-0.054523442
181	0xbdabd980	-0.08391094
182	0xbd8056ba	-0.06266542
183	0xbd607350	-0.05479747
184	0x3d12d1e4	0.0358447
185	0xbd5f50a1	-0.054520253
186	0x3db2c435	0.0872883
187	0xbd2b9eea	-0.0418996
188	0xbd231bfd	-0.039821614
189	0xbcfe179b	-0.031017115
190	0x3dd2368b	0.102643095
191	0xbd716cb8	-0.058941573
192	0xbdaa23cb	-0.08307608
193	0xbd222d6b	-0.039594095
194	0x3cef40a9	0.029205637
195	0xbd9ac49a	-0.0755703
196	0x3cb00271	0.02148554
197	0xbc13b368	-0.009014942
198	0xbd713eb2	-0.05889768
199	0xbd5e4a0b	-0.05426983
200	0x3ab84c1f	0.0014060772
201	0xbd0dfece	-0.03466683
202	0xbd9d73c0	-0.07688093
203	0xbd51999c	-0.051171884
204	0x3ce72c8d	0.028219486
205	0x3db2e481	0.0873499
206	0x3da269bf	0.07930326
207	0xbc9fed33	-0.019522285
208	0xbd5e12e9	-0.054217253
209	0x3cc25e96	0.023726743
210	0x3d0af457	0.033924427
211	0x3d9d3755	0.07676569
212	0xbd3faa15	-0.046793062
213	0xbda8a97a	-0.0823545
214	0xbda2360c	-0.07920465
215	0xbced6c19	-0.028982209
216	0xbd1b9caa	-0.037991203
217	0x3c61fd52	0.013793306
218	0x3d374a75	0.044748742
219	0x3d5c0e05	0.053724308
220	0x3d80bd12	0.06286062
221	0x3c98fddd	0.018675739
222	0x3d8e8077	0.069580965
223	0xbd744541	-0.05963636
224	0xbd80ef67	-0.062956624
225	0x3d2dab3c	0.04239963
226	0x3cbd5596	0.0231121
227	0x3daa3969	0.08311731
228	0x3da49cb6	0.08037703
229	0xbd4610be	-0.04835581
230	0xbd47e4ed	-0.048802305
231	0x3d82ab06	0.063802764
232	0x3d5202e9	0.051272307
233	0xbd4c46bf	-0.049872156
234	0xbd9317d0	-0.07182276
235	0x3c8d8186	0.017273676
236	0x3c81681f	0.01579672
237	0xbd812e24	-0.06307629
238	0x3d4ef09b	0.050522428
239	0x3d4fca6b	0.05073015
240	0xbc3cc067	-0.011520482
241	0xbd7f63ed	-0.062351156
242	0xbd4f74ef	-0.050648626
243	0xbdb2a5af	-0.08723008
244	0xbd33390f	-0.043755587
245	0x3d8327bd	0.06404064
246	0xbcba9d3c	-0.022780053
247	0x3d1db253	0.03850014
248	0xbcea8e24	-0.028632231
249	0xbbadf65d	-0.00530891
250	0x3d16b284	0.03679134
251	0xbdbce4fd	-0.092233635
252	0x3d43f60d	0.047842074
253	0xbd55e120	-0.05221665
254	0xbd1d1fdd	-0.038360465
255	0xbdc44ad6	-0.09584586

lstm1.weight_hh_l0_reverse f4 [512, 128]
0	0x3ce87f7b	0.0283811
1	0x3c8d029a	0.017213155
2	0xbca8270a	-0.020526428
3	0xbd12c56a	-0.0358328
4	0x3d920fe7	0.071319394
5	0x3d836197	0.06415098
6	0x3d6de7df	0.058082458
7	0xbdb5e897	-0.088822536
8	0xbd8906cc	-0.066907495
9	0x3d92a4dd	0.071603514
10	0x3d741066	0.05958595
11	0x3da551bf	0.080722325
12	0xbd850314	-0.06494728
13	0x3d37d0f2	0.044877
14	0x3d9329f9	0.0718574
15	0xbd4046e2	-0.0469426
16	0x3aa9a637	0.0012943213
17	0xbc1413a6	-0.009037888
18	0xbda17e9a	-0.078854755
19	0x3d8e0d75	0.069361605
20	0xbd347a06	-0.044061683
21	0x3cf8ead1	0.030385407
22	0x3d8670b0	0.06564462
23	0x3cb33f74	0.021880843
24	0x3d40c924	0.047066823
25	0xbc9a03a7	-0.01880057
26	0xbce6a23e	-0.028153535
27	0x3b0dcfea	0.002163882
28	0x3d9e52f8	0.07730669
29	0xbc8fb83c	-0.017543904
30	0xbd10a701	-0.035315517
31	0xbc54dda6	-0.012992298
32	0x3d600739	0.054694388
33	0x3c19f086	0.009395724
34	0x3c8c7520	0.017145693
35	0xbdab6f30	-0.08370817
36	0x3d000853	0.03125794
37	0x3d91295a	0.07087965
38	0x3d475e70	0.048674047
39	0xbc5c8d59	-0.013461434
40	0xbd82a98d	-0.063799955
41	0x3d2aeb22	0.041728146
42	0xbd8ba507	-0.06818586
43	0x3d8f6a21	0.07002664
44	0xbd9048b3	-0.07045116
45	0xbda78ac4	-0.08180764
46	0x3d42ec46	0.04758861
47	0x3be9711d	0.00712408
48	0x3cccf144	0.025017388
49	0xbd59aace	-0.053141408
50	0x3d5d26d0	0.053992093
51	0xbdaf5881	-0.08561803
52	0xbc54b9b5	-0.012983729
53	0xbd9142af	-0.07092797
54	0xbb8f0bf0	-0.0043654367
55	0xbdab790b	-0.083726965
56	0xbca7d6d6	-0.020488184
57	0x3d82b3a4	0.0638192
58	0xbd18fd46	-0.037350915
59	0xbb1ee120	-0.0024243072
60	0x3d7fc7b2	0.062446304
61	0x3d6cd480	0.057819843
62	0xbd22041e	-0.039554708
63	0x3d6c6722	0.057715543
64	0x3d7caab9	0.06168625
65	0xbd257354	-0.04039319
66	0x3d923578	0.071391046
67	0xbd67d050	-0.056595147
68	0x3d7a6c64	0.061138526
69	0x3c07441b	0.008255984
70	0x3ce279f3	0.02764604
71	0x3d6b00f3	0.057373952
72	0xbd3070b1	-0.04307622
73	0xbd86b198	-0.06576842
74	0xb9e4ebc0	-0.00043663196
75	0xbcde1a64	-0.027112193
76	0x3dacb66e	0.08433233
77	0x3d8fd216	0.070224926
78	0xbc199043	-0.009372774
79	0xbda6fd0f	-0.08153736
80	0xbca65e10	-0.020308524
81	0xbdaca01d	-0.08428977
82	0x3bb8adb2	0.0056359405
83	0x3d1d5616	0.038412176
84	0x3db74d0a	0.08950241
85	0x3d0f3cc7	0.03497007
86	0xbc7508fa	-0.014955753
87	0x3dbd1d33	0.09234085
88	0xbd97b2a5	-0.074071206
89	0xbda64f4a	-0.08120592
90	0xbdb50b55	-0.08840052
91	0x3d86f2ee	0.06589304
92	0xbb9fa29e	-0.0048716804
93	0xbd726e4e	-0.059187226
94	0x3d34e619	0.04416475
95	0x3da98fac	0.08279356
96	0xbd114b2c	-0.03547208
97	0x3da1acab	0.07894262
98	0x3b2d117e	0.0026408131
99	0x3d3dc56e	0.04633086
100	0x3d6e9cb3	0.05825491
101	0xbd607694	-0.054800585
102	0xbd7b6ec2	-0.061384924
103	0x3d765568	0.060140043
104	0x3d97d872	0.074143305
105	0x3da8b84b	0.08238276
106	0xbd8754ee	-0.06607996
107	0xbbe40afa	-0.0069593163
108	0x3cf018c0	0.029308677
109	0xbd9586ad	-0.07301078
110	0x3cc2127b	0.023690453
111	0x3cb8d2ed	0.022561515
112	0xbc893dcd	-0.016753102
113	0x3d690622	0.056890614
114	0x3b8a5a49	0.0042221886
115	0x3bfabea7	0.007652122
116	0x3cd2fc2a	0.025755007
117	0x3d40b97c	0.04705189
118	0xbbf5fc6c	-0.0075068977
119	0xbcbc1094	-0.022957124
120	0xbdb234d5	-0.08701483
121	0xbcc23cf5	-0.023710707
122	0xbd4c64c6	-0.049900793
123	0x3d9011ed	0.07034669
124	0x3cf693cf	0.030099778
125	0xbd63f876	-0.055656873
126	0xbd5dc483	-0.054142486
127	0xbdb10d55	-0.08645121
128	0xbc5bd430	-0.013417289
129	0x3c23bec5	0.0099942135
130	0xbdba1b2b	-0.09087213
131	0xbd898043	-0.06713917
132	0xbd30b1eb	-0.043138426
133	0x3da85abf	0.082204334
134	0xbcc98ec7	-0.024604214
135	0xbcd3078b	-0.025760433
136	0x3d57d06b	0.052688997
137	0x3dca4444	0.09876302
138	0x3d685566	0.056722067
139	0xbce99b33	-0.028516388
140	0xbcda9824	-0.026683874
141	0xbcde3401	-0.027124407
142	0x3d81f3fa	0.06345363
143	0x3d0e82ec	0.034792826
144	0xbdaee6c2	-0.08540107
145	0x3d0ee69b	0.03488789
146	0x3cb61bec	0.022230111
147	0x3d5f44e8	0.054509073
148	0x3d913535	0.070902266
149	0x3da6be8d	0.081418134
150	0xbd334dc0	-0.04377532
151	0x3d7ee73b	0.062232237
152	0xbc80779a	-0.01568203
153	0xbb7174ef	-0.003684338
154	0x3d4445b0	0.04791802
155	0x3da529d1	0.080646165
156	0xbc05f665	-0.008176421
157	0xbd3fb573	-0.046803903
158	0xbd6af564	-0.05736293
159	0x3d8eca8b	0.06972226
160	0x3d3c08fa	0.045907
161	0xbcbf15d6	-0.023325842
162	0xbd4a96a2	-0.04946006
163	0x3d8cf81c	0.068832606
164	0xbd8e4e16	-0.069484875
165	0x3d7c03ff	0.06152725
166	0x3c50c2f4	0.012741793
167	0x3d4d4932	0.050118633
168	0x3d93f162	0.072237745
169	0xbc80eb8c	-0.015737318
170	0xbdbf36a5	-0.093365945
171	0xbb2eb310	-0.0026657023
172	0x3d288c1b	0.04114924
173	0x3c7a8c11	0.0152921835
174	0xbb0a0ae3	-0.0021063618
175	0x3d79feae	0.061033897
176	0x3cfb2550	0.03065744
177	0xbcf9101a	-0.030403186
178	0xbda52c59	-0.08065099
179	0xbc886cf3	-0.016653514
180	0x3d70e682	0.05881358
181	0x3d85147f	0.0649805
182	0xbd256b97	-0.04038581
183	0x3d754446	0.059879564
184	0xbbd695ed	-0.0065486343
185	0xbcf67f5d	-0.030090028
186	0x3d19ca4f	0.037546452
187	0x3d0d907b	0.034561615
188	0xbbe17f77	-0.00688165
189	0xbd4cf938	-0.05004236
190	0xbca40d6a	-0.020025928
191	0xbda9c9e7	-0.08290463
192	0x3da776f7	0.081769876
193	0x3cf8da5b	0.030377558
194	0x3da0c345	0.07849745
195	0xbd17e52a	-0.037083782
196	0xbd512b12	-0.051066466
197	0x3c03ccd6	0.008044442
198	0xbd950600	-0.07276535
199	0xbd597427	-0.053089287
200	0xbc98b3c2	-0.018640403
201	0x3d6512b0	0.055926025
202	0xbd999e16	-0.075008556
203	0x3d9af5bc	0.07566401
204	0x3da81d86	0.08208756
205	0xbcde1a68	-0.0271122
206	0x3d27695f	0.040871974
207	0x3db9013b	0.09033438
208	0x3d2a9d1e	0.041653745
209	0x3d4e63c9	0.05038813
210	0xbc5f6c0b	-0.013636599
211	0x3d7e8dcb	0.062146943
212	0x3d53da65	0.05172195
213	0x3c0534a8	0.00813023
214	0x3cce3ab6	0.02517448
215	0xbcb34996	-0.021885674
216	0x3c6a1b53	0.014288741
217	0xbc8556ff	-0.016276835
218	0xbd43d0fc	-0.047806725
219	0xbcc68648	-0.024233952
220	0x3d56c84b	0.052437108
221	0x3d60c5a4	0.054875985
222	0x3d8fe3a0	0.07025838
223	0x3c95a6b9	0.018267976
224	0xbd618f32	-0.055068202
225	0x3d7665bb	0.06015561
226	0x3d66cd6c	0.05634825
227	0x3c75a186	0.0149921235
228	0xbda003f3	-0.07813253
229	0x3db378b5	0.087632574
230	0xbd8f8c3f	-0.07009172
231	0xbcf7840b	-0.03021433
232	0xbc13866b	-0.009004216
233	0xbd94751b	-0.072488986
234	0x3c03582f	0.00801663
235	0xbcee5a9a	-0.029095937
236	0x3db85204	0.09000018
237	0xbd84a09c	-0.06475946
238	0xbda5b34e	-0.0809084
239	0x3d9c2dde	0.07625936
240	0x3da89dae	0.082332
241	0x3dac02b1	0.08398951
242	0xbd92b67f	-0.071637146
243	0xbda4c1f0	-0.08044803
244	0x3da7df94	0.08196941
245	0x3d8c8e29	0.068630524
246	0x3d4e33bf	0.050342318
247	0x3c7c1954	0.015386898
248	0xbc33e113	-0.010978955
249	0xbd31f507	-0.043446567
250	0x3cbd26b9	0.023089753
251	0x3d4f8f47	0.05067375
252	0x3d270312	0.040774412
253	0x3da2a341	0.079412945
254	0xbdac800c	-0.084228605
255	0x3d51eed5	0.05125316

lstm1.bias_ih_l0_reverse f4 [512]
0	0x3ce324c5	0.027727494
1	0xbda1f939	-0.079088636
2	0x3d58062a	0.052740254
3	0x3cdc3f52	0.026885662
4	0x3d953125	0.07284764
5	0x3d313aca	0.043268956
6	0xbc6e8a0d	-0.014559281
7	0x3b5d1ee3	0.0033740334
8	0xbd90f6b9	-0.070783086
9	0x3d9b0066	0.07568435
10	0xbd9636f5	-0.07334701
11	0x3d8a5908	0.067552626
12	0xbd075f53	-0.033049893
13	0x3dad5940	0.08464289
14	0x3d7f2121	0.062287454
15	0xbc100f0d	-0.008792651
16	0x3d602d1d	0.054730523
17	0xba22ac18	-0.00062054535
18	0x3d7e57d3	0.062095474
19	0xbccbd6fb	-0.024882784
20	0xbd897022	-0.06710841
21	0x3ce754bf	0.028238652
22	0x3d50c2e6	0.05096712
23	0xbd3d601a	-0.046234228
24	0x3d9ef0f1	0.077608
25	0x3dafef29	0.08590538
26	0x3cf353a8	0.029702976
27	0xbd740497	-0.05957469
28	0xbd99ccc9	-0.07509763
29	0x3d7e7fc4	0.062133566
30	0x3d8906f6	0.06690781
31	0xbc681e7f	-0.014167427
32	0xbcc0a37e	-0.02351546
33	0x3c313033	0.010814714
34	0x3daa0eed	0.08303628
35	0x3d8faf4d	0.07015858
36	0xbd94e6d2	-0.07270588
37	0x3ce8f4e7	0.028437091
38	0xbd3165f9	-0.04331014
39	0xbd8ac930	-0.06776655
40	0xbc35d21c	-0.011097457
41	0x3d7096c4	0.05873753
42	0x3db3b035	0.08773843
43	0x3d9b9b9c	0.075980395
44	0xbd974c85	-0.07387642
45	0xbc15c168	-0.00914035
46	0x3d12682f	0.03574389
47	0xbb99b1df	-0.0046903933
48	0xbd8bd406	-0.0682755
49	0x3d4768a4	0.048683777
50	0x3d846afd	0.06465719
51	0xbc91aba0	-0.017782032
52	0x3cad44c3	0.021150952
53	0xbd5e733d	-0.05430912
54	0xbd029d86	-0.031888507
55	0xbda41457	-0.08011692
56	0x3da28be1	0.07936836
57	0x3d5ceee9	0.05393878
58	0xbd9c0ccc	-0.07619628
59	0x3cc52393	0.024064815
60	0xbce5b170	-0.02803871
61	0x3d258ddd	0.040418494
62	0xbd47e3bd	-0.048801173
63	0xbcd28a51	-0.02570072
64	0x3d406f53	0.046981167
65	0xbcbd866c	-0.023135386
66	0x3ce46b55	0.027883211
67	0xbca5fee4	-0.020263143
68	0x3c015955	0.007894834
69	0xbcd39073	-0.025825715
70	0x3d37e30a	0.044894256
71	0xbc5861de	-0.013206927
72	0xbce1e613	-0.027575528
73	0xbcbb28be	-0.022846576
74	0xbd4933b7	-0.049121585
75	0xbc207846	-0.0097943
76	0x3db33060	0.08749461
77	0xbcc65d33	-0.024214363
78	0xbdc0d06d	-0.09414754
79	0xbd04d0df	-0.032425757
80	0xbdb24835	-0.08705179
81	0xbca873e3	-0.020563072
82	0xbd3ed130	-0.046586215
83	0xbd9b42fa	-0.07581134
84	0x3d0746a9	0.03302637
85	0x3d1785b8	0.03699276
86	0xbd991c9c	-0.0747616
87	0xbcea11b3	-0.028572893
88	0x3d352e8a	0.044233836
89	0x3cbdcd5e	0.023169216
90	0x3d62a576	0.055333577
91	0x3bb33eaa	0.0054701166
92	0x3b9b775f	0.0047444548
93	0x3ce13d7a	0.027495135
94	0x3c8b6f34	0.0170208
95	0xbd63bbab	-0.055598896
96	0x3ca6eb4e	0.020375874
97	0xbd68dad3	-0.056849312
98	0xbdb5a716	-0.0886976
99	0x3d1a084f	0.03760558
100	0xbdbe4838	-0.092911184
101	0xbd9fbab2	-0.07799281
102	0xbcf87963	-0.03033132
103	0xbd915acb	-0.070973955
104	0xbd840750	-0.06446707
105	0xbcf43c6c	-0.029813968
106	0x3d6dcb87	0.058055427
107	0x3d076a3d	0.0330603
108	0xbcd8df99	-0.026473807
109	0x3db1ad07	0.086755805
110	0xbaa01136	-0.001221216
111	0x3a9e205c	0.0012064087
112	0xbc1309cc	-0.008974504
113	0x3b65ef72	0.0035085347
114	0x3ca55cbb	0.020185819
115	0x3d77fdfe	0.06054496
116	0x3cd48c11	0.025945695
117	0xbcf7ee56	-0.030265015
118	0x3c0a24aa	0.008431593
119	0xbd6302c1	-0.05542255
120	0xbd4b20ee	-0.04959195
121	0x3d862efe	0.06551932
122	0x3da7c69b	0.08192178
123	0xbd8945d1	-0.067027695
124	0x3cf63b52	0.030057583
125	0x3da6bb2f	0.08141171
126	0x3daa6f1d	0.083219744
127	0xbd32104e	-0.04347258
128	0x3da9c583	0.082896255
129	0xbd84860f	-0.06470882
130	0xbc03217a	-0.008003587
131	0xbd45fd75	-0.04833742
132	0x3d01ab9a	0.031657793
133	0xbcade9e8	-0.0212297
134	0x3d47e593	0.048802923
135	0x3cd4782d	0.02593621
136	0x3cca7b02	0.024716858
137	0x3c9917a0	0.018688023
138	0xbccc355a	-0.024927784
139	0x3d850821	0.06495691
140	0xbce92cdc	-0.028463773
141	0x3d2c7890	0.042107165
142	0x3d54a590	0.051915705
143	0xbd454dfd	-0.04817008
144	0x3dd804c3	0.10547783
145	0xbc317925	-0.010832106
146	0x3abcc223	0.0014401119
147	0xbc4963a3	-0.012291822
148	0x3d85a074	0.06524745
149	0x3daa97f8	0.08329767
150	0xbdac0655	-0.08399645
151	0x3c713bea	0.014723757
152	0x3dbc12c5	0.091832675
153	0xbdacca77	-0.084370546
154	0xbd0badad	-0.034101177
155	0xbd21047f	-0.03931093
156	0x3db2fe38	0.08739895
157	0xbdcb7a9b	-0.099354945
158	0xbc897eba	-0.01678406
159	0xbd8aecf8	-0.067834795
160	0x3d611098	0.054947466
161	0x3d9d0f26	0.07668905
162	0x3cf40e17	0.029791875
163	0xbda34920	-0.07972932
164	0xbda8e0a2	-0.0824597
165	0xbd253e94	-0.040342882
166	0xbcefb90c	-0.029263042
167	0x3d34e648	0.044164926
168	0xbd85684d	-0.065140344
169	0x3cbd047a	0.023073424
170	0x3d81cedf	0.06338286
171	0xbcbe601f	-0.023239193
172	0x3d368f72	0.044570394
173	0x3d4c56ca	0.049887456
174	0x3c82e3b7	0.015977724
175	0xbda50a1e	-0.0805857
176	0x3d4e906f	0.05043071
177	0xbd91e9bf	-0.07124662
178	0x3cdfb534	0.027308084
179	0x3d883129	0.066500016
180	0xbcbf2902	-0.023334984
181	0xbd8fe9b7	-0.070269994
182	0xbd72fbbd	-0.059322108
183	0xbdb97bdf	-0.0905683
184	0x3ca56996	0.020191949
185	0xbbfc57ef	-0.007700912
186	0xbd95f985	-0.07322983
187	0xbcbdf8e9	-0.023189979
188	0xbd0dd1b9	-0.034623835
189	0x3ce319a4	0.027722187
190	0xbddbfeec	-0.10741982
191	0xbdc44de2	-0.095851675
192	0xbdcf3802	-0.101181045
193	0x3d101c3c	0.035183176
194	0xbd3672fa	-0.044543244
195	0xbd328de7	-0.04359236
196	0xbd799200	-0.060930252
197	0xbd395ae4	-0.045252696
198	0x3da4919f	0.080355875
199	0xbd327dc5	-0.043576974
200	0x3cd0d97c	0.02549433
201	0xbdacd903	-0.08439829
202	0x3d4ffdbf	0.0507791
203	0xbda90d71	-0.08254517
204	0xbd3f7cee	-0.04675
205	0xbc4a9a6a	-0.012365917
206	0x3c8c7192	0.017143998
207	0xbd4d9e3d	-0.050199736
208	0x3d85cafa	0.06532855
209	0xbd58dd01	-0.05294514
210	0xbd50bbbe	-0.050960295
211	0x3cbced4a	0.023062367
212	0x3c9bf4d2	0.019037638
213	0xbd8576f2	-0.06516828
214	0x3cd52434	0.02601824
215	0xbcb90ce6	-0.022589158
216	0xbd1212da	-0.03566251
217	0xbc63427c	-0.013870832
218	0x3d38db7b	0.045131188
219	0x3c5e84b6	0.013581445
220	0x3d5ebf85	0.054381866
221	0x3cfec600	0.031100273
222	0x3d53f77f	0.051749703
223	0xbd1feb57	-0.039042797
224	0x3d9037dd	0.07041905
225	0x3db9d49d	0.09073756
226	0x3cb27459	0.021783995
227	0x3b556e58	0.003256699
228	0x3d5258f5	0.051354367
229	0xbdbbf269	-0.091770954
230	0x3c099e28	0.008399524
231	0xbdbc340d	-0.091896154
232	0xbc174539	-0.009232813
233	0x3d996056	0.07489078
234	0xbd888adc	-0.0666711
235	0xbd04c5d1	-0.032415215
236	0x3d9774e2	0.073953405
237	0x3d178329	0.03699032
238	0x3d6bd20b	0.05757336
239	0x3da08a31	0.07838858
240	0x3cd9aa87	0.026570572
241	0x3db7f45c	0.08982155
242	0xbc9ac8ab	-0.018894514
243	0xbc6fbbc5	-0.01463217
244	0xbcc7ba5d	-0.024380857
245	0x3cc51880	0.024059534
246	0x3c777483	0.015103462
247	0xbd93776c	-0.07200512
248	0x3ca0aac2	0.019612674
249	0xbd727525	-0.05919375
250	0x3c813064	0.015770145
251	0xbce88c1a	-0.028387118
252	0x3db87f73	0.09008684
253	0xbd840c84	-0.064477
254	0xbd1647dc	-0.036689624
255	0xbcc62ac7	-0.02419032
