results/models/SP500_GRU_model.pth (torch, 683191 bytes, 19 tensors)

gru1.weight_ih_l0 f4 [384, 6]
-0.046211917 -0.050298553 0.025706992 0.03550531 0.052298233 -0.03445817 -0.03648442 0.0020059443
-0.06471438 0.06254025 0.013444665 0.037083663 -0.038470387 -0.084821135 0.04683914 0.06709795
-0.01831159 -0.07454779 0.029260712 0.02361274 -0.006618274 0.060279794 0.02649215 0.02208769
0.06601994 -0.08175758 -0.003943654 0.06552829 0.024796268 -0.038546633 -0.034080777 0.021024901
0.004909234 0.029842839 0.021403283 -0.00043052086 0.028372006 -0.055086106 -0.057791308 0.02052349
0.02639894 -0.004121924 0.009149386 -0.050757915 0.018206306 0.0018442485 0.039919846 -0.07087573
0.017706843 -0.09116347 -0.06798728 0.021152215 0.059859082 0.023133382 -0.07478964 0.012351451
0.06362355 0.06923925 0.066820756 0.03722248 0.023499837 0.011936815 0.0070566693 -0.028323855
0.08361381 -0.015377451 0.0517351 0.024615243 0.05845498 -0.06407612 0.035885196 0.011678347
0.013997966 0.04535544 -0.06750734 0.029041644 -0.085282594 -0.08228169 0.06633323 0.017999532
0.052228734 0.04818288 0.06498926 0.059385017 -0.065506235 0.100951694 0.020746896 0.084927656
-0.063172616 -0.002166833 -0.0329682 0.00820496 -0.069742866 0.016273005 -0.08671457 -0.07103194
0.0188997 -0.039701078 0.0827178 0.05478768 0.02821935 0.059092093 -0.030820731 -0.026960239
0.06679155 0.0831207 -0.05606072 0.06203054 -0.050126858 -0.0075859986 -0.040199652 0.0707161
-0.07718157 0.050703686 0.01811239 -0.060271498 -0.018377008 0.004145762 -0.022745784 -0.0608543
0.07876372 -0.008000774 -0.002865844 0.0719526 -0.067065686 -0.056876637 -0.013341577 0.03960451
-0.06083455 -0.027545042 -0.03143409 -0.006292728 0.070259884 0.02460994 -0.026705304 0.08229133
0.016895773 0.020811679 0.04768425 -0.08240358 -0.035335314 0.08245545 0.033980418 0.03250157
0.01753338 0.046678644 -0.094608866 -0.07253777 -0.022014316 -0.09794363 0.025778309 -0.028824996
0.04818042 0.05739681 0.048132442 -0.094892465 -0.019848978 -0.0014027208 -0.0153116 0.033575933
-0.030082574 0.011138432 -0.010343336 -0.023578845 0.03300242 0.010524623 0.080027044 0.0053023165
0.04253387 -0.032618035 -0.021164114 -0.0062509254 -0.0781112 0.032185715 0.043107867 0.0763368
0.020948961 -0.023141935 0.013989407 0.06915817 -0.01017814 -0.067778036 0.0012083006 -0.05754521
0.0062609306 -0.081269994 0.016196894 0.02655697 -0.00615753 0.021133477 0.017419841 -0.06615351
0.02491065 -0.019458545 0.05843979 -0.0040227748 -0.013397869 -0.0078079468 0.02036132 -0.07987393
0.036963448 -0.057532046 0.05730456 -0.063924424 0.076486774 -0.07459932 -0.008801443 -0.017928084
0.0315807 -0.03833643 -0.053556956 -0.027858177 0.062085137 -0.0061026816 -0.016306305 0.0103938095
0.019313326 -0.09164703 -0.012106223 -0.012293417 0.07470101 -0.016772782 0.007985213 0.035202567
-0.045114778 0.07008307 -0.028477082 0.010562546 -0.041344054 0.034283776 -0.021459593 0.100776136
0.068704545 -0.019446557 0.018118905 0.040077236 0.033350762 0.007889208 0.060415227 -0.06881373
0.03594033 0.085845836 -0.025891643 0.062697634 0.05709114 -0.0036024533 -0.05787489 -0.010119878
-0.052025065 0.059248663 -0.07471425 0.071118 -0.005447797 0.06224111 -0.055248193 0.04614454
00000000: b548 3dbd db05 4ebd 7897 d23c 046e 113d
00000010: ac36 563d 0324 0dbd b070 15bd 2976 033b
00000020: f988 84bd 1a15 803d 0347 5c3c 0ae5 173d
00000030: 2093 1dbd b4b6 adbd 66da 3f3d a66a 893d
00000040: 3002 96bc 83ac 98bd 29b4 ef3c 816f c13c
00000050: 1bde d8bb f2e7 763d 1106 d93c 3ef1 b43c
00000060: 7635 873d 8570 a7bd c439 81bb b233 863d
00000070: 8b21 cb3c 13e3 1dbd 4998 0bbd 6a3c ac3c
00000080: a4dd a03b f878 f43c f055 af3c 88b7 e1b9
00000090: 696c e83c f8a1 61bd 94b6 6cbd e120 a83c
000000a0: 9742 d83c 3411 87bb 4ee7 153c 88e7 4fbd
000000b0: 6425 953c b6ba f13a fe82 233d 4b27 91bd
000000c0: f10d 913c eab3 babd ea3c 8bbd 6947 ad3c
000000d0: cc2e 753d 3882 bd3c 502b 99bd be5d 4a3c
000000e0: 104d 823d 4fcd 8d3d 52d9 883d 9976 183d
000000f0: bb82 c03c a292 433c a23b e73b 6e07 e8bc
00000100: b83d ab3d b4f1 7bbc 2fe8 533d e8a5 c93c
00000110: 7d6e 6f3d 573a 83bd 5bfc 123d 8a56 3f3c
00000120: ba57 653c a0c6 393d 4a41 8abd bee8 ed3c
00000130: a4a8 aebd 4d83 a8bd b7d9 873d c173 933c
00000140: cced 553d 695b 453d 1719 853d b43d 733d
00000150: 2228 86bd c3bf ce3d 65f5 a93c 8dee ad3d
00000160: a560 81bd 6d01 0ebb aa09 07bd 196e 063c
00000170: 59d5 8ebd f74e 853c 6997 b1bd 3279 91bd
00000180: 8bd3 9a3c 999d 22bd f367 a93d 0c69 603d
00000190: 442c e73c 8d0a 723d c27b fcbc b8db dcbc
000001a0: 02ca 883d 303b aa3d ed9f 65bd bc13 7e3d
000001b0: d251 4dbd f893 f8bb 64a8 24bd 9ad3 903d
000001c0: 5f11 9ebd abae 4f3d 6f60 943c 3fdf 76bd
000001d0: 618b 96bc 2cd9 873b 5e55 babc 5c42 79bd
000001e0: e04e a13d ae15 03bc e2d0 3bbb e25b 933d
000001f0: bc59 89bd 7af7 68bd a196 5abc 5738 223d
00000200: a62d 79bd 24a6 e1bc 08c1 00bd 3a33 cebb
00000210: 6ae4 8f3d c99a c93c 15c5 dabc 5b88 a83d
00000220: 0169 8a3c 417d aa3c 8f50 433d 35c3 a8bd
00000230: c3bb 10bd 67de a83d 0d2f 0b3d 5e20 053d
00000240: 2aa2 8f3c 1b32 3f3d 4bc2 c1bd af8e 94bd
00000250: 5e57 b4bc ab96 c8bd 082d d33c 6622 ecbc
00000260: d558 453d eb18 6b3d 8626 453d fb56 c2bd
00000270: 539a a2bc 80db b7ba 81dd 7abc eb86 093d
00000280: bb6f f6bc f87d 363c 1877 29bc 6c28 c1bc
00000290: 8c2d 073d 786f 2c3c 38e5 a33d 0ebf ad3b
000002a0: ff37 2e3d 7d9a 05bd 5d60 adbc 90d4 ccbb
000002b0: c4f8 9fbd 2bd5 033d e091 303d 7856 9c3d
000002c0: 289d ab3c 2894 bdbc d333 653c cca2 8d3d
000002d0: 37c2 26bc 36cf 8abd d75f 9e3a 87b4 6bbd
000002e0: 7e28 cd3b e270 a6bd 59af 843c 018e d93c
000002f0: 1bc5 c9bb 1d20 ad3c 0eb4 8e3c 7e7b 87bd
00000300: 6b11 cc3c 8767 9fbc 905e 6f3d 7bd1 83bb
00000310: bc82 5bbc ced9 ffbb c8cc a63c f194 a3bd
00000320: fc66 173d b9a6 6bbd 30b8 6a3d cfea 82bd
00000330: 19a5 9c3d 87c7 98bd ed33 10bc ebdd 92bc
00000340: c45a 013d a906 1dbd 8a5e 5bbd d536 e4bc
00000350: fc4c 7e3d 01f9 c7bb cd94 85bc cc4a 2a3c
00000360: fb36 9e3c 70b1 bbbd 2e59 46bc 546a 49bc
00000370: d8fc 983d 1367 89bc 69d4 023c 9130 103d
00000380: 46ca 38bd b687 8f3d c548 e9bc 870e 2d3c
00000390: 6258 29bd 256d 0c3d 07cc afbc b863 ce3d
000003a0: f8b4 8c3d 634e 9fbc 196e 943c 0728 243d
000003b0: cf9a 083d bd41 013c f575 773d 36ee 8cbd
000003c0: 2b36 133d f1cf af3d b61a d4bc 9e67 803d
000003d0: 66d8 693d 2317 6cbb 380e 6dbd d8cd 25bc
000003e0: 3c18 55bd baae 723d c903 99bd 50a6 913d
000003f0: 6f83 b2bb 89f0 7e3d ee4b 62bd 0f02 3d3d

gru1.weight_hh_l0 f4 [384, 128]
0.045925163 0.053176075 -0.08371121 0.048838444 0.003266098 -0.056521114 -0.063182935 0.002735004
-0.011405311 -0.07910317 0.030612731 -0.054462474 -0.008721046 0.048396386 0.040333163 -0.07252909
-0.09572845 -0.03752191 0.080877855 -0.05898024 0.024346128 -0.03256462 0.06673056 0.07719402
0.07454237 -0.049431324 0.060013317 -0.09015329 -0.048852593 -0.031836286 0.0822387 0.05578408
0.054473028 -0.07366035 -0.08400003 0.055396274 -0.05176141 -0.0065433783 -0.054086536 0.027497938
-0.07923499 0.04319207 -0.00017240149 -0.07174453 -0.07345778 -0.071626306 0.07294952 0.050749544
0.061849385 -0.033633202 -0.012650764 -0.048802786 -0.08015765 0.072909035 -0.04442248 -0.02236925
-0.045935918 -0.055290896 0.07203559 -0.036069047 0.04686139 -0.06320897 0.032954965 0.006012741
0.021592919 -0.04972323 0.02063641 -0.016892249 -0.017291887 0.0107544605 -0.060100734 -0.036864437
0.032522548 -0.038604792 -0.07206869 0.025694117 -0.0043389667 -0.08508936 0.060983896 -0.06426204
0.02458652 0.06906383 -0.06718002 0.012886159 0.09640947 0.009186792 0.062501974 0.0077673863
0.07242534 -0.047316838 0.07633809 -0.07080651 0.05353133 -0.02416293 0.049473234 0.0771245
-0.0061789285 -0.050574224 -0.07567621 0.033244018 0.0855998 -0.043843523 0.0070223385 -0.043178353
0.07813528 -0.06966007 0.030803943 -0.04820348 0.035922743 0.044322334 0.001981941 -0.022253208
0.08362969 0.048646726 -0.078168385 0.0194995 -0.060757313 0.07396303 -0.030031875 0.026555235
-0.060065173 -0.04658843 -0.08927635 0.009109336 -0.07017544 0.046732843 -0.088686824 0.0009817755
-0.018459897 -0.0454933 -0.06733577 -0.034622405 -0.03637828 0.034560498 -0.01723105 -0.044095233
-0.050601035 0.016174013 -0.06943987 -0.042166304 0.037812322 0.06126392 -0.002584157 -0.024992555
0.00020822925 0.06670703 -0.012983371 -0.025172953 -0.07858123 0.021959625 -0.047552407 0.04291209
0.08877319 -0.031399723 -0.002671893 -0.09301544 0.06274109 -0.020590158 0.026215753 0.062634796
-0.06589654 0.036075488 -0.015779853 0.06794767 0.03096403 0.015144888 0.024145812 0.022792285
-0.06955638 -0.08451648 -0.064164214 0.08886959 0.05054453 -0.045745652 -0.06908327 0.03506912
-0.00734976 -0.057982102 -0.03586121 0.06879194 -0.079473734 -0.042601604 0.08136635 -0.004647308
-0.075509585 -0.049062546 -0.00765966 0.021132717 0.062802926 -0.06766642 0.051356234 0.042235382
-0.020312987 0.015103371 0.0074219364 -0.040681314 -0.034718577 0.05716214 0.005124067 0.08402965
0.083440594 0.02439826 -0.045624018 -0.0055849114 -0.055449136 0.040098023 -0.033844654 0.016586902
0.058684845 -0.023402147 -0.06160096 0.008316433 -0.063340165 0.046198748 -0.0317662 -0.007163183
0.046853583 0.004234377 -0.0390675 -0.022440286 -0.08848413 0.06662567 -0.06291135 0.008743572
-0.03422256 -0.023516797 0.07034181 0.044881616 -0.028111596 0.051164936 0.048861787 -0.01731515
0.028489703 -0.056228664 0.022210384 0.0723946 0.014069445 0.047920957 -0.017789986 0.071424
-0.008125816 0.06837691 0.00868297 0.03907938 -0.028663142 0.028818578 -0.07443781 0.055722352
-0.002480746 -0.0021526741 0.053977814 0.012672537 -0.018313685 -0.081775576 -0.0082211085 0.021860251
00000000: 061c 3c3d 28cf 593d c870 abbd d20a 483d
00000010: 080c 563b af82 67bd 0e66 81bd c13d 333b
00000020: 57dd 3abc d800 a2bd 8dc7 fa3c 0b14 5fbd
00000030: b8e2 0ebc 4a3b 463d 6334 253d 228a 94bd
00000040: 470d c4bd 93b0 19bd 4aa3 a53d 4495 71bd
00000050: 8871 c73c 7b62 05bd 08aa 883d e617 9e3d
00000060: aca9 983d 8078 4abd 86d0 753d 4aa2 b8bd
00000070: a819 48bd c466 02bd c36c a83d d97d 643d
00000080: 1c1f 5f3d 3ddb 96bd 3508 acbd 34e7 623d
00000090: c603 54bd d669 d6bb d889 5dbd 5b43 e13c
000000a0: f445 a2bd 2bea 303d acc6 34b9 ccee 92bd
000000b0: 0871 96bd d0b0 92bd 8f66 953d c1de 4f3d
000000c0: c855 7d3d f8c2 09bd 2645 4fbc 6ee5 47bd
000000d0: b229 a4bd 5551 953d 59f4 35bd b83f b7bc
000000e0: 4d27 3cbd b578 62bd 6587 933d 23bd 13bd
000000f0: bbf1 3f3d b473 81bd c9fb 063d 8706 c53b
00000100: a2e3 b03c 96aa 4bbd b00d a93c 9d61 8abc
00000110: b7a7 8dbc 7a33 303c 302c 76bd 2aff 16bd
00000120: 5d36 053d 0f20 1ebd c098 93bd 787c d23c
00000130: e42d 8ebb 5543 aebd 40ca 793d d19b 83bd
00000140: ab69 c93c 5671 8d3d ae95 89bd 7820 533c
00000150: 5472 c53d 3384 163c 0901 803d 8f85 fe3b
00000160: bd53 943d 4dcf 41bd 2557 9c3d 0103 91bd
00000170: ab43 5b3d 56f1 c5bc 72a4 4a3d 73f3 9d3d
00000180: 9c78 cabb eb26 4fbd 21fc 9abd e12a 083d
00000190: f34e af3d 4495 33bd a51b e63b c9db 30bd
000001a0: 6405 a03d f0a9 8ebd 8d58 fc3c 0371 45bd
000001b0: ba23 133d 568b 353d 74e3 013b 5c4c b6bc
000001c0: 0b46 ab3d ca41 473d bf16 a0bd 6abd 9f3c
000001d0: a9dc 78bd ee79 973d 6805 f6bc 5d8a d93c
000001e0: e606 76bd 82d3 3ebd 85d6 b6bd 533f 153c
000001f0: 24b8 8fbd f06a 3f3d 70a1 b5bd ebae 803a
00000200: 3639 97bc 2f57 3abd 56e7 89bd 39d0 0dbd
00000210: 6401 15bd 4f8f 0d3d 2228 8dbc 349d 34bd
00000220: 0843 4fbd 5d7f 843c 7e36 8ebd 93b6 2cbd
00000230: 18e1 1a3d e0ef 7a3d f65a 29bb 30bd ccbc
00000240: 1d58 5a39 b29d 883d 34b8 54bc 8237 cebc
00000250: 32ef a0bd ace4 b33c 50c6 42bd 96c4 2f3d
00000260: b8ce b53d ff9c 00bd ed1a 2fbb e17e bebd
00000270: 677e 803d b1ac a8bc 6bc2 d63c ac46 803d
00000280: c4f4 86bd e4c3 133d c044 81bc 2628 8b3d
00000290: 47a8 fd3c 4422 783c 70cd c53c e3b6 ba3c
000002a0: 9373 8ebd fa16 adbd 8768 83bd 4201 b63d
000002b0: c807 4f3d cb5f 3bbd 887b 8dbd a3a4 0f3d
000002c0: 41d6 f0bb a47e 6dbd 34e3 12bd cae2 8c3d
000002d0: 20c3 a2bd 057f 2ebd 67a3 a63d 7248 98bb
000002e0: c5a4 9abd cff5 48bd e3fd fabb 851e ad3c
000002f0: d29e 803d b194 8abd ea5a 523d 02ff 2c3d
00000300: 6c67 a6bc 2174 773c b733 f33b 73a1 26bd
00000310: 1135 0ebd d922 6a3d cae7 a73b bd17 ac3d
00000320: e7e2 aa3d dcde c73c 40e0 3abd a201 b7bb
00000330: a21e 63bd d33d 243d b1a0 0abd 41e1 873c
00000340: 855f 703d dcb5 bfbc 4a51 7cbd a641 083c
00000350: 7db8 81bd e63a 3d3d 461d 02bd 22b9 eabb
00000360: 8be9 3f3d 87c0 8a3b 3e05 20bd b1d4 b7bc
00000370: 2b37 b5bd 0a73 883d aad7 80bd 3341 0f3c
00000380: f42c 0cbd 4ca6 c0bc 5e0f 903d c9d5 373d
00000390: 4a4a e6bc 5392 513d 4c23 483d 80d8 8dbc
000003a0: 3d63 e93c 0750 66bd 8df2 b53c 9f43 943d
000003b0: 8883 663c c448 443d 4ebc 91bc bf46 923d
000003c0: 2422 05bc 3209 8c3d 0443 0e3c b311 203d
000003d0: f7ce eabc f014 ec3c da72 98bd 1f3d 643d
000003e0: 0394 22bb e113 0dbb d717 5d3d 79a0 4f3c
000003f0: 9506 96bc f479 a7bd d4b1 06bc 4514 b33c

gru1.bias_ih_l0 f4 [384]
-0.009672527 0.0714588 -0.06918716 -0.02272389 -0.057446703 0.052492235 -0.015006605 -0.083642684
0.06320053 -0.056433912 0.043313492 -0.04028691 0.055981103 0.02502104 0.025367986 -0.019900475
-0.007405717 0.09315271 -0.042715874 0.047283407 -0.04050507 0.0927175 -0.015153535 0.008897708
-0.001342433 0.014274741 0.03188748 0.032051187 -0.04358267 -0.03907942 -0.0522969 0.08686717
-0.055446886 0.04923965 -0.05540408 0.042347964 0.074711174 -0.08508699 -0.09229419 -0.05991438
0.042034496 -0.026426518 0.049774185 0.0062165866 0.014132728 0.06117966 -0.0059194216 0.036869626
-0.0031526603 -0.08493518 0.024137657 0.035277292 -0.07030304 0.003078533 -0.0638719 0.05370804
-0.0019644748 -0.05536639 -0.0025984826 -0.06720836 0.05889776 0.03153332 0.07808298 -0.087139696
0.0031878455 0.030860083 -0.025668394 0.0049081463 0.0051814336 0.053239 -0.022814902 0.08666589
0.027309287 -0.012771656 0.019376451 -0.010867168 -0.016884673 0.05673973 0.042627737 -0.09105035
0.06113327 -0.041596197 -0.07179659 -0.017092468 -0.0063246535 -0.031240195 -0.008657544 -0.066577174
-0.038042646 0.068685554 0.046508085 -0.019490235 0.028623564 -0.0434065 -0.07490919 -0.055597574
0.04719944 -0.070268236 -0.018520866 -0.05269919 0.03476429 -0.051598053 -0.015961332 -0.06631339
0.015980974 -0.029185597 -0.07637996 0.02061105 0.02025222 0.058033224 -0.028251283 0.0126651665
0.09322915 -0.029849844 0.011200756 -0.058298197 0.034139305 -0.027303908 -0.018101558 0.037339177
0.036401007 -0.04068429 -0.039198074 0.065857075 -0.030535059 0.08350342 -0.0070158914 -0.08043521
0.01289981 -0.05368144 0.03400781 -0.092672214 0.05898086 0.019434469 -0.08802888 -0.0014643184
0.015760846 -0.032144263 -0.007890848 -0.00013516194 0.019157352 -0.07956303 -0.014564159 0.048022665
-0.057182297 -0.010889184 -0.022484258 0.06241822 0.05697144 0.05358764 -0.024605732 0.10665144
-0.010380803 -0.056400687 0.007926128 0.011168003 -0.041063588 -0.03896106 0.03335294 -0.0012506951
-0.057939302 -0.009153188 -0.07419162 0.09067396 -0.08685791 0.024355672 -0.05705421 0.04356291
-0.07991527 0.051065404 0.08545668 -0.10544421 0.031362195 0.061672408 -0.0860833 -0.061972596
0.018271716 0.0009076844 0.010570383 0.0717201 0.08359921 -0.014367746 0.04802751 -0.021120189
-0.0041075293 0.049810015 -0.057649363 -0.022317786 -0.068741985 -0.008892875 -0.013889545 -0.056623593
-0.07392431 -0.00058028626 -0.019298637 -0.040477492 -0.05359935 0.0065135066 0.03851758 0.057017777
0.017713016 0.07535424 -0.042049173 -0.04341538 -0.02494636 0.028239045 -0.038029805 0.042370804
0.039179374 -0.06278414 -0.07371522 0.050121166 -0.029459648 0.020432543 0.07260612 -0.08164382
-0.052365355 0.08315577 0.033764604 -0.029033804 -0.034941226 -0.07347789 -0.0038942562 -0.07017016
0.038283985 0.0058107455 0.10329277 -0.043295726 0.016539946 0.080623895 -0.06802116 0.016177835
0.09636351 0.057612434 -0.063765146 0.0071468446 -0.024051458 -0.027800433 0.05716206 -0.06644234
0.05593808 0.06264471 -0.06705199 0.092335716 0.01485166 -0.05941654 0.084108 -0.057721674
0.0015823825 0.01050746 0.06212561 -0.08714636 0.064850755 0.005920736 -0.047861166 -0.018304443
00000000: 8579 1ebc fe58 923d ffb1 8dbd 7427 babc
00000010: 3c4d 6bbd 1902 573d 43de 75bc db4c abbd
00000020: 486f 813d 3f27 67bd 7d69 313d e303 25bd
00000030: 714c 653d edf8 cc3c 86d0 cf3c 5206 a3bc
00000040: a8ab f2bb d9c6 be3d d7f6 2ebd 3fac 413d
00000050: a5e8 25bd ace2 bd3d 8846 78bc b1c7 113c
00000060: 94f4 afba 9ae0 693c 729c 023d 1b48 033d
00000070: be83 32bd be11 20bd 4635 56bd 6ae7 b13d
00000080: 461c 63bd 84af 493d 63ef 62bd 0f75 2d3d
00000090: 2c02 993d 1642 aebd bc04 bdbd c868 75bd
000000a0: 5d2c 2c3d 6d7c d8bc 04e0 4b3d 82b4 cb3b
000000b0: f58c 673c 8697 7a3d b5f7 c1bb 9b04 173d
000000c0: dd9c 4ebb 7ff2 adbd 56bc c53c ec7e 103d
000000d0: 0afb 8fbd 37c1 493b 45cf 82bd f6fc 5b3d
000000e0: 6bbe 00bb dec7 62bd 4e4b 2abb 89a4 89bd
000000f0: c73e 713d 1529 013d f8e9 9f3d 4c76 b2bd
00000100: 2ceb 503b 49ce fc3c 8646 d2bc 84d4 a03b
00000110: 04c9 a93b 2311 5a3d 51e6 babc e37d b13d
00000120: bab7 df3c 3540 51bc 5dbb 9e3c 350c 32bc
00000130: ba51 8abc eb67 683d 6c9a 2e3d 9b78 babd
00000140: e166 7a3d c660 2abd 170a 93bd 8105 8cbc
00000150: 0a3f cfbb 70eb ffbc 5fd8 0dbc 9d59 88bd
00000160: 9bd2 1bbd 03ab 8c3d 437f 3e3d fca9 9fbc
00000170: f77b ea3c 04cb 31bd fd69 99bd 48ba 63bd
00000180: 3354 413d cbe8 8fbd 12b9 97bc 1bdb 57bd
00000190: 0065 0e3d 7b58 53bd 57c1 82bc 51cf 87bd
000001a0: 88ea 823c a216 efbc 196d 9cbd 81d8 a83c
000001b0: fce7 a53c 3fb4 6d3d 3c6f e7bc 8f81 4f3c
000001c0: edee be3d a987 f4bc 6083 373c 17ca 6ebd
000001d0: a8d5 0b3d 72ac dfbc b849 94bc f7f0 183d
000001e0: 3919 153d 92a4 26bd 298e 20bd 13e0 863d
000001f0: a924 fabc d703 ab3d 90e5 e5bb 37bb a4bd
00000200: ba59 533c 12e1 5bbd c64b 0b3d eeca bdbd
00000210: ea95 713d 0935 9f3c 7c48 b4bd 5fee bfba
00000220: e41c 813c b4a9 03bd 9e48 01bc 42ba 0db9
00000230: e1ef 9c3c f1f1 a2bd 839e 6ebc 6ab3 443d
00000240: fc37 6abd 8c68 32bc e830 b8bc 3faa 7f3d
00000250: e25a 693d b77e 5b3d f691 c9bc 126c da3d
00000260: 3e14 2abc 6804 67bd 97dc 013c 00fa 363c
00000270: 4b32 28bd a295 1fbd 189d 083d 5dee a3ba
00000280: c351 6dbd 41f7 15bc c7f1 97bd 45b3 b93d
00000290: 8fe2 b1bd 8c85 c73c adb1 69bd 066f 323d
000002a0: 9eaa a3bd f529 513d e903 af3d 22f3 d7bd
000002b0: a575 003d 359c 7c3d 714c b0bd fad6 7dbd
000002c0: 91ae 953c abf1 6d3a 662f 2d3c fde1 923d
000002d0: 1036 ab3d b266 6bbc 7fb8 443d 3f04 adbc
000002e0: 7498 86bb 9605 4c3d bd21 6cbd cad3 b6bc
000002f0: 99c8 8cbd 6cb3 11bc f990 63bc 24ee 67bd
00000300: a165 97bd 5a1e 18ba 2d18 9ebc bacb 25bd
00000310: fe8a 5bbd 416f d53b 9cc4 1d3d 798b 693d
00000320: e31a 913c 5353 9a3d c13b 2cbd 53d4 31bd
00000330: 4f5c ccbc 9255 e73c 24c5 1bbd 028d 2d3d
00000340: 8d7a 203d f994 80bd 01f8 96bd da4b 4d3d
00000350: 5c55 f1bc 2662 a73c 84b2 943d e034 a7bd
00000360: 0e7d 56bd 934d aa3d c14c 0a3d 4dd8 edbc
00000370: 881e 0fbd 937b 96bd c736 7fbb 5fb5 8fbd
00000380: abcf 1c3d 1168 be3b 298b d33d dc56 31bd
00000390: c87e 873c 241e a53d ae4e 8bbd 6187 843c
000003a0: 3b5a c53d 04fb 6b3d 4d97 82bd 1430 ea3b
000003b0: 9007 c5bc bcbd e3bc c422 6a3d ec12 88bd
000003c0: 541f 653d df4b 803d 8e52 89bd 821a bd3d
000003d0: 6054 733c c25e 73bd d140 ac3d 906d 6cbd
000003e0: f267 cf3a 7b27 2c3c 6c77 7e3d ca79 b2bd
000003f0: 79d0 843d bc02 c23b 120a 44bd 33f3 95bc

gru1.bias_hh_l0 f4 [384]
-0.071896024 -0.015701752 0.014667706 0.047105536 -0.018364156 0.017765682 -0.037107844 0.03833788
0.021010319 0.07855257 0.049758498 -0.043424625 -0.012536449 -0.028280066 -0.04739313 -0.059221677
-0.084239796 0.016397383 0.022508483 0.06550659 -0.0055251257 -0.029679991 0.0041115363 -0.08313181
-0.0475951 0.0572379 0.0048534274 -0.044304423 0.023656359 0.050662868 0.0030291413 0.07586061
0.008234431 0.0051715197 -0.0209296 0.075672805 0.073554374 -0.07765817 0.024209794 0.01086942
-0.054115616 -0.079070516 -0.083047576 -0.052051827 0.059456263 -0.032613114 0.049018145 -0.040711846
-0.07176453 0.03921799 -0.020029353 0.07191294 0.024836406 0.052144077 -0.07507373 -0.04470109
0.0223822 -0.0257114 -0.07917008 -0.033627205 -0.001980998 -0.07110164 -0.035509616 -0.021302875
0.05632896 -0.023198327 0.072589554 0.0013733883 -0.0053513707 0.07563268 -0.07252354 -0.061300132
0.03463791 -0.086925335 0.026538322 0.04822042 0.00065867166 0.036403004 0.027583519 -0.069289245
0.0752626 -0.07868482 0.0016101686 -0.07689583 0.027883584 0.025092924 -0.022013001 -0.027195446
0.042563695 0.067875735 0.048092596 -0.040735655 -0.046246327 -0.06824229 0.06562334 0.0228458
0.068419956 0.07012752 -0.04828495 -0.021290617 -0.04979019 -0.05545054 0.0072103734 0.020642465
0.083526276 -0.0404591 0.013273146 -0.03776041 -0.004719032 -0.030020395 0.016453978 -0.028374806
0.026090203 -0.00049147045 0.050004385 0.058913026 0.021406993 0.072974995 0.030392833 0.06904122
0.076667406 0.0022656904 -0.03696927 -0.020907104 -0.028563036 0.0035286946 -0.072640374 -0.08209242
0.043911338 -0.105120145 -0.064882606 -0.07261814 -0.011306029 0.04542482 -0.004344112 -0.072040096
0.036469836 -0.005605572 0.0099664265 -0.027190408 0.056484032 -0.009087852 -0.072026595 -0.023830371
0.049777895 0.002064209 -0.09849804 0.011983508 -0.044907972 0.002680614 -0.013489097 0.014813037
-0.041340623 0.02401586 0.04768343 -0.0111668985 -0.037393842 0.09190488 -0.027107367 -0.020235535
-0.050449554 0.06400085 -0.05404107 -0.0373687 0.03905863 0.06214881 0.023101036 0.026515994
-0.0031123045 0.015612077 -0.034416527 -0.01499381 0.06700141 -0.08928145 0.0276659 0.08278749
0.059808146 0.07135305 0.023191094 -0.053119775 0.028411435 0.07213979 -0.08010259 -0.08941653
0.020004548 0.034273855 0.06726986 0.08722432 0.0092613455 0.058042508 0.08779259 0.0029495026
0.051629286 0.03146101 0.09918247 -0.043345265 -0.049157653 0.06709099 -0.06774093 0.041173913
-0.03571589 -0.06166773 -0.026077338 -0.05097357 0.08026848 -0.07830208 -0.08511146 0.042535227
0.05267104 -0.086820774 -0.06979281 -0.015835876 -0.03831783 0.09235349 -0.06432161 0.05584673
-0.012417143 -0.02002106 0.07475498 0.013207306 -0.058468025 0.028402425 -0.056669798 -0.0038380693
0.036724556 0.051022787 0.05925692 -0.024577398 0.07111401 -0.04719107 0.02472883 0.013878545
0.0940062 0.016227238 0.06428818 0.011803831 0.04578373 0.003017633 -0.0829623 0.052841805
0.033005193 0.043346267 0.019834299 0.022224793 -0.0818775 -0.01011726 0.0870573 -0.052074745
-0.03342447 -0.044128597 0.0965532 0.07495052 -0.060600083 -0.08679047 0.0627448 -0.031620935
00000000: 393e 93bd f6a0 80bc d150 703c bcf1 403d
00000010: 6d70 96bc 5689 913c 65fe 17bd 2e08 1d3d
00000020: d51d ac3c 2be0 a03d 91cf 4b3d 05de 31bd
00000030: ae65 4dbc 99ab e7bc 4c1f 42bd 6e92 72bd
00000040: ea85 acbd ce53 863c b663 b83c 5228 863d
00000050: 1d0c b5bb 7423 f3bc 11ba 863b 0341 aabd
00000060: 14f3 42bd 4a72 6a3d 8009 9f3b 8e78 35bd
00000070: fbca c13c de83 4f3d 8f84 463b cf5c 9b3d
00000080: b5e9 063c da75 a93b 8d74 abbc 58fa 9a3d
00000090: ada3 963d 3f0b 9fbd 9e53 c63c a715 323c
000000a0: 56a8 5dbd b9ef a1bd d914 aabd 4c34 55bd
000000b0: 6988 733d 5495 05bd 40c7 483d 77c1 26bd
000000c0: 48f9 92bd 0ba3 203d 9914 a4bc 1747 933d
000000d0: b875 cb3c 0795 553d 41c0 99bd 7d18 37bd
000000e0: e05a b73c b7a0 d2bc ec23 a2bd aebc 09bd
000000f0: a2d3 01bb bd9d 91bd 8872 11bd 5e83 aebc
00000100: 32b9 663d 6b0a bebc d5a9 943d 4403 b43a
00000110: 8d5a afbb 4ee5 9a3d 3987 94bd d915 7bbd
00000120: 7be0 0d3d e905 b2bd e566 d93c c682 453d
00000130: b5aa 2c3a 511b 153d d5f6 e13c 85e7 8dbd
00000140: 4723 9a3d 8225 a1bd 4b0c d33a 907b 9dbd
00000150: 1d6c e43c ad8f cd3c 9c54 b4bc fcc8 debc
00000160: 4557 2e3d 6f02 8b3d befc 443d 6eda 26bd
00000170: ca6c 3dbd 9dc2 8bbd 8865 863d 1d27 bb3c
00000180: c31f 8c3d 049f 8f3d 71c6 45bd a969 aebc
00000190: ccf0 4bbd 1b20 63bd ff44 ec3b 631a a93c
000001a0: d30f ab3d 71b8 25bd 9c77 593c a9aa 1abd
000001b0: 1ca2 9abb 55ed f5bc 7eca 863c 4872 e8bc
000001c0: 1fbb d53c 06d6 00ba 66d1 4c3d c94e 713d
000001d0: b85d af3c ea73 953d 64fa f83c 7c65 8d3d
000001e0: cd03 9d3d fa7b 143b 176d 17bd 6045 abbc
000001f0: 07fd e9bc ac41 673b 7ac4 94bd 1220 a8bd
00000200: 60dc 333d 3b49 d7bd 2ce1 84bd d2b8 94bd
00000210: ec3c 39bc 600f 3a3d 0d59 8ebb c289 93bd
00000220: 6561 153d f2ae b7bb 394a 233c 6bbe debc
00000230: cd5b 673d 37e5 14bc ae82 93bd e937 c3bc
00000240: e8e3 4b3d ae47 073b 57b9 c9bd 7a56 443c
00000250: 6cf1 37bd 3dad 2f3b 6001 5dbc 61b2 723c
00000260: c954 29bd e9bc c43c b34f 433d 5ef5 36bc
00000270: 492a 19bd a038 bc3d 4510 debc fec4 a5bc
00000280: 31a4 4ebd e112 833d 2b5a 5dbd ec0f 19bd
00000290: f1fb 1f3d c08f 7e3d 623e bd3c 1238 d93c
000002a0: cef7 4bbb ccc9 7f3c 58f8 0cbd 99a8 75bc
000002b0: 0938 893d 31d9 b6bd 99a3 e23c 7d8c a93d
000002c0: 63f9 743d 8c21 923d 40fb bd3c 1f94 59bd
000002d0: 19bf e83c 07be 933d d40c a4bd 0420 b7bd
000002e0: 94e0 a33c be62 0c3d c8c4 893d aaa2 b23d
000002f0: e6bc 173c fbbd 6d3d 9acc b33d 714c 413b
00000300: 3b79 533d 43dd 003d 2e20 cb3d ce8a 31bd
00000310: 8959 49bd 0067 893d c2bb 8abd faa5 283d
00000320: d34a 12bd 4d97 7cbd 24a0 d5bc aac9 50bd
00000330: cd63 a43d d75c a0bd eb4e aebd 6b39 2e3d
00000340: 97bd 573d 17cf b1bd 88ef 8ebd 3dba 81bc
00000350: 28f3 1cbd d423 bd3d 0cbb 83bd 8abf 643d
00000360: 4671 4bbc 3503 a4bc 2419 993d 7563 583c
00000370: 2b7c 6fbd 34ac e83c 971e 68bd 1e88 7bbb
00000380: 7d6c 163d 45fd 503d 62b7 723d 8a56 c9bc
00000390: 39a4 913d 6c4b 41bd 1e94 ca3c d662 633c
000003a0: 5386 c03d fcee 843c 85a9 833d db64 413c
000003b0: b887 3b3d 7bc3 453b 23e8 a9bd a670 583d
000003c0: 7430 073d db8b 313d 8a7b a23c c510 b63c
000003d0: 64af a7bd ddc2 25bc 194b b23d 544c 55bd
000003e0: 19e8 08bd 30c0 34bd afbd c53d a97f 993d
000003f0: cb37 78bd 34bf b1bd 5880 803d f484 01bd

gru1.weight_ih_l0_reverse f4 [384, 6]
-0.073261335 -0.08114211 0.09348805 -0.013824153 0.0723936 0.00895797 0.037641082 0.030178228
0.035678715 -0.049865425 0.07773815 -0.013689946 -0.00962393 0.07954179 -0.039693646 0.090220615
-0.003525654 -0.065605566 0.05060679 0.07816665 0.08970927 -0.048037972 0.053769697 0.004737748
-0.08606853 -0.08024318 -0.028594978 -0.07948963 -0.028695054 0.019360157 0.026412394 0.052581295
-0.068870574 -0.0091356505 0.041419093 -0.04776933 -0.03727767 0.06174666 -0.022252237 0.00013921059
-0.043749187 0.09780573 0.027413335 0.028960599 0.002768842 0.05895274 0.06968023 0.12198229
-0.06837664 -0.01712349 -0.06794374 -0.010237711 -0.016979575 -0.030280335 -0.05012001 0.06974795
-0.020419968 0.022875234 -0.0054279473 -0.0065554124 0.08234631 -0.04724904 -0.047384575 -0.054746043
-0.018070262 -0.11099913 0.08599698 0.0020135269 -0.06398416 -0.066348165 -0.034986377 -0.0020664637
0.07470933 -0.06516139 -0.039152592 -0.017069057 -0.010591245 -0.09098058 0.0049157757 0.048694897
0.039857857 0.009013268 -0.04571493 -0.058158398 0.0029141037 -0.003328159 -0.043837056 0.023807492
0.08206482 0.116122335 0.08858893 0.036166713 0.08430248 -0.012060813 -0.016181866 -0.05083257
-0.05863962 -0.08325244 0.006368842 -0.028292017 0.020667868 0.05545392 -0.054598454 0.021847444
0.0032380484 -0.055289704 0.07445874 0.01869599 0.059067268 -0.04601145 -0.014172843 -0.04307459
0.011252417 -0.08579032 0.041971464 0.06628312 -0.060997058 0.010741973 -0.05353923 0.03076306
0.07842262 0.013588042 0.05192615 0.07733465 -0.016907033 -0.015348539 -0.052631177 0.066582054
-0.022846598 0.06679848 0.04149923 -0.074768506 0.0701578 0.02770774 -0.0029775354 -0.031332016
0.069993824 0.043478996 -0.03939817 0.06554521 0.063232265 0.0654957 0.058637332 0.038212743
-0.023522668 0.05750554 0.031696647 0.08112583 0.0096274465 -0.04886917 0.07177823 -0.021311179
0.07994106 -0.0015150215 -0.046703547 -0.033306543 -0.0004868574 -0.011273608 -0.06281207 0.019310009
-0.056191377 -0.03414957 -0.05795234 -0.0688314 0.08422611 0.006127334 -0.054210357 0.016284386
-0.011073171 0.03503723 0.058349933 -0.0042132786 0.042679742 0.07670473 -0.073442824 0.027377924
0.05370894 0.06911037 -0.042642474 9.610942e-05 -0.060995657 0.056994338 0.056443144 0.08512175
-0.080720015 -0.08642572 0.05500676 -0.01649763 -0.053813912 0.0035172496 -0.01976218 0.004183312
0.06829849 0.04176742 0.013150776 0.014691263 0.0064440668 0.024614187 0.05194135 -0.05958032
-0.010187657 -0.020318419 0.047356855 0.021877464 -0.077284805 0.013409761 -0.0103966575 0.027720984
-0.017786384 0.008331076 0.037255578 -0.007208137 -0.036816925 0.07154129 -0.06643893 -0.007865272
0.04773915 0.015777225 -0.08276948 -0.0064856256 -0.07044806 0.049475897 -0.010846689 0.07238473
0.0007888572 -0.027330456 -0.0050423737 0.060898792 0.05502324 -0.055181094 0.022137286 -0.008607797
-0.0434323 -0.039998654 0.020280842 0.024212128 0.06520486 -0.067202106 0.08526533 -0.04914125
0.028889604 0.025738094 -0.012533847 -0.026505558 0.018367676 0.015339509 0.04105349 -0.07600584
-0.0600506 0.084604606 -0.02568628 -0.106086545 0.07817419 -0.053353876 0.057063416 0.044092406
00000000: 0a0a 96bd d62d a6bd aa76 bf3d b37e 62bc
00000010: 1943 943d 73c4 123c 892d 1a3d 5538 f73c
00000020: d823 123d b03f 4cbd 2e35 9f3d cc4b 60bc
00000030: b0ad 1dbc cee6 a23d ce95 22bd 96c5 b83d
00000040: a90e 67bb 365c 86bd 1149 4f3d d615 a03d
00000050: 7eb9 b73d 77c3 44bd 9d3d 5c3d 1c3f 9b3b
00000060: b344 b0bd 8956 a4bd 0440 eabc 76cb a2bd
00000070: e411 ebbc 3199 9e3c ce5e d83c 7c5f 573d
00000080: 040c 8dbd b2ad 15bc 11a7 293d c6a9 43bd
00000090: 78b0 18bd 11ea 7c3d 534a b6bc 0ff9 1139
000000a0: 5932 33bd 5f4e c83d ee91 e03c c73e ed3c
000000b0: 7675 353b 6e78 713d 82b4 8e3d dad1 f93d
000000c0: 0d09 8cbd 9046 8cbc 1626 8bbd 12bc 27bc
000000d0: c018 8bbc 770e f8bc a44a 4dbd 03d8 8e3d
000000e0: c747 a7bc d864 bb3c ecdc b1bb c9ce d6bb
000000f0: 2fa5 a83d 3688 41bd 5416 42bd 633d 60bd
00000100: 1608 94bc 8353 e3bd 2f1f b03d 60f5 033b
00000110: 210a 83bd 8ce1 87bd e04d 0fbd 826d 07bb
00000120: 3501 993d 5673 85bd 785e 20bd 68d4 8bbc
00000130: e786 2dbc 0754 babd 8414 a13b 4d74 473d
00000140: fe41 233d 63ac 133c 943f 3bbd 8037 6ebd
00000150: 8cfa 3e3b 3e1d 5abb 7c8e 33bd ee07 c33c
00000160: 9a11 a83d 8cd1 ed3d 1d6e b53d 8c23 143d
00000170: c7a6 ac3d b79a 45bc d58f 84bc d035 50bd
00000180: 1930 70bd 4180 aabd b8b1 d03b a9c4 e7bc
00000190: a94f a93c a623 633d a1a2 5fbd 69f9 b23c
000001a0: 7035 543b 7577 62bd d37d 983d 5528 993c
000001b0: 85f0 713d 8176 3cbd 3635 68bc fb6e 30bd
000001c0: 0f5c 383c d6b2 afbd 45ea 2b3d 72bf 873d
000001d0: 0dd8 79bd 1aff 2f3c f44b 5bbd d002 fc3c
000001e0: 0a9c a03d 61a0 5e3c 84b0 543d a161 9e3d
000001f0: 9e80 8abc 7078 7bbc ca93 57bd 2c5c 883d
00000200: ca28 bbbc a4cd 883d 19fb 293d 3b20 99bd
00000210: e5ae 8f3d 58fb e23c c122 43bb 0056 00bd
00000220: ec58 8f3d 0817 323d fa5f 21bd 913c 863d
00000230: eb7f 813d 9c22 863d b32d 703d f784 1c3d
00000240: 9cb2 c0bc ee8a 6b3d 58d4 013d 4d25 a63d
00000250: 70bc 1d3c 0a2b 48bd 7700 933d c894 aebc
00000260: 23b8 a33d b093 c6ba 384c 3fbd 716c 08bd
00000270: e540 ffb9 f0b4 38bc 9da3 80bd 0630 9e3c
00000280: ee28 66bd 6be0 0bbd 6f5f 6dbd 7af7 8cbd
00000290: bd7e ac3d cec7 c83b ae0b 5ebd d566 853c
000002a0: 3f6c 35bc 3383 0f3d 5700 6f3d 8b0f 8abb
000002b0: f4d0 2e3d 5f17 9d3d 3169 96bd ab47 e03c
000002c0: e8fd 5b3d bd89 8d3d e0a9 2ebd 5a8e c938
000002d0: 95d6 79bd e572 693d ed30 673d 5054 ae3d
000002e0: 8950 a5bd f8ff b0bd c54e 613d 0a26 87bc
000002f0: fa6b 5cbd a881 663b 4ce4 a1bc 2a14 893b
00000300: 14e0 8b3d 5014 2b3d 5a76 573c a0b3 703c
00000310: c028 d33b b1a3 c93c 74c0 543d 7e0a 74bd
00000320: 21ea 26bc d072 a6bc 43f9 413d 5e38 b33c
00000330: 7f47 9ebd 9db4 5b3c be56 2abc 1e17 e33c
00000340: c0b4 91bc 117f 083c 4e99 183d 3c32 ecbb
00000350: 58cd 16bd 3d84 923d 2211 88bd 58dd 00bc
00000360: 208a 433d 3d3f 813c 0c83 a9bd 5f85 d4bb
00000370: 1347 90bd 3da7 4a3d 50b6 31bc 723e 943d
00000380: 50cb 4e3a 1fe4 dfbc 7f3a a5bb 0371 793d
00000390: 0d60 613d 9205 62bd 4159 b53c b807 0dbc
000003a0: 11e6 31bd a1d5 23bd 0224 a63c 8358 c63c
000003b0: 208a 853d 42a1 89bd 979f ae3d 5648 49bd
000003c0: e4a9 ec3c b2d8 d23c c45a 4dbc 2f22 d9bc
000003d0: cf77 963c 9052 7b3c b427 283d f3a8 9bbd
000003e0: 9ef7 75bd 2e45 ad3d 096c d2bc e743 d9bd
000003f0: ca19 a03d 9889 5abd 54bb 693d 3d9a 343d

gru1.weight_hh_l0_reverse f4 [384, 128]
0.05633907 0.035577852 -0.06584031 0.047645334 0.047069147 -0.014793673 -0.035898536 -0.08797246
-0.05261872 0.050848186 -0.05714494 -0.04643868 0.047337703 -0.004257388 -0.07758945 -0.021575104
-0.024975292 -0.043044377 -0.007162347 -0.072388664 0.016870698 0.064369954 0.08280618 -0.050826237
-0.047687843 0.018367816 -0.030834459 -0.020178227 -0.037484407 0.087417945 0.0036027213 -0.040004656
0.004142036 -0.061688554 0.040138293 -0.028726732 0.03060125 -0.0058969697 0.03657393 -0.050639793
0.0037600324 -0.026796075 0.05605851 -0.05315211 0.012745072 -0.013692719 -0.029826166 -0.0050514215
0.043682247 0.060921077 -0.015097027 0.06515366 -0.007839904 -0.017654933 0.00720708 0.012742459
-0.084741324 0.016116694 -0.03308527 0.034641325 -0.0028302749 -0.058235 -0.058923155 -0.028422974
0.07854982 -0.03149502 -0.0605218 -0.06840782 0.021791697 -0.032787707 0.060784537 -0.017043563
0.021843754 -0.054386266 -0.030669868 -0.056283552 0.05476635 -0.08733819 -0.038073365 0.027562065
-0.06918103 -0.025087973 -0.019320894 0.02039268 0.048380993 0.019052085 -0.0076408167 -0.018437615
0.008931747 -0.03499965 0.03019628 -0.058349784 -0.059954226 0.03478353 -0.054575477 0.042735834
0.03761555 -0.08414006 0.011457839 -0.045403764 0.08845534 -0.084737904 0.075207 0.060039826
-0.07190478 0.03605655 -0.008834725 0.036844492 0.04194763 0.014253118 0.0029063134 0.04911391
0.03728159 0.09260445 -0.05334872 0.022792112 -0.03764954 0.046122737 -0.02905251 0.029987577
-0.0077806576 0.018845828 0.020795252 -0.0071884026 0.037394594 0.032980204 0.052156128 -0.039538186
0.023081556 -0.051208377 0.083269686 0.00070104224 0.03918457 -0.019883411 0.08723227 -0.07106404
-0.0051662843 -0.027413743 -0.03574 -0.053382337 0.074531004 -0.0438396 -0.04656647 -0.010242767
-0.07247488 -0.027263127 0.017746773 -0.035017025 0.07904739 -0.0032563182 -0.07188647 0.02178535
0.078954704 0.0011787126 0.028530607 -0.08236193 -0.031835705 -0.006429028 -0.074788906 0.019871624
0.040646125 0.00041829402 0.0028409325 -0.027423665 0.015664576 -0.020967085 0.011128151 -0.039547708
-0.014419868 -0.010867523 -0.06984731 0.07880914 -0.07321788 0.08424456 -0.05221432 -0.012541315
-0.08482699 0.027627362 0.08140992 -0.042925455 0.07347334 0.075233296 0.045597486 0.011906424
0.01498021 0.046054404 -0.045815412 -0.08690751 0.05814051 0.075142644 0.010261361 0.08473184
0.013070567 0.01901423 0.028812794 0.084762126 -0.08386758 0.08953208 0.012048717 0.018354371
-0.025655147 -0.0002788832 -0.045740746 0.01888487 -0.035971437 -0.03348997 0.04039848 0.0040576793
-0.06464947 0.0030724537 0.0148294335 0.055768203 0.009717817 -0.052155137 -0.05609273 -0.0106968125
0.004236847 -0.0003328932 -0.073207125 -0.015447239 0.048445404 -7.869578e-05 0.039135296 0.03749695
-0.066713765 -0.037800834 -0.05795973 -0.015515757 0.016869804 -0.084224254 0.07616992 -0.006450301
-0.0069810124 -0.018754654 -0.054758504 0.040251505 0.029870609 -0.026850646 0.031486344 -0.008939631
-0.06260112 -0.03215031 -1.7959694e-05 0.0046260473 -0.050906032 -0.08164778 0.018057577 -0.02841743
0.022552669 0.07654549 0.005011694 -0.060189433 0.04922844 -0.0755966 0.0364141 -0.06399794
00000000: ccc3 663d 15ba 113d 49d7 86bd c127 433d
00000010: 94cb 403d 2961 72bc 580a 13bd e82a b4bd
00000020: ba86 57bd 3046 503d d010 6abd 7c36 3ebd
00000030: 2ee5 413d 8f81 8bbb 38e7 9ebd 46be b0bc
00000040: fc98 ccbc 4d4f 30bd 1fb2 eabb 8240 94bd
00000050: 6b34 8a3c 65d4 833d 4996 a93d 2c2f 50bd
00000060: 5454 43bd 1a78 963c 8c98 fcbc cf4c a5bc
00000070: 4089 19bd 2e08 b33d a21b 6c3b ecdb 23bd
00000080: ebb9 873b 23ad 7cbd 0d68 243d 5354 ebbc
00000090: 79af fa3c 5e3b c1bb 8cce 153d ac6b 4fbd
000000a0: e06a 763b 7183 dbbc 9c9d 653d 07b6 59bd
000000b0: b5d0 503c 6d57 60bc 0156 f4bc 6586 a5bb
000000c0: 28ec 323d 6188 793d 8559 77bc 486f 853d
000000d0: f172 00bc 14a1 90bc 5e29 ec3b bfc5 503c
000000e0: dc8c adbd 2807 843c 6c84 07bd 10e4 0d3d
000000f0: 227c 39bb d387 6ebd 6859 71bd 4cd7 e8bc
00000100: bade a03d ec00 01bd b5e5 77bd 6619 8cbd
00000110: 8084 b23c 674c 06bd 35f9 783d f19e 8bbc
00000120: acf1 b23c 22c4 5ebd 603f fbbc 9589 66bd
00000130: ae52 603d 5dde b2bd d1f2 1bbd d7c9 e13c
00000140: c9ae 8dbd 4b85 cdbc da46 9ebc 8d0e a73c
00000150: 262b 463d 1e13 9c3c d15f fabb 7b0a 97bc
00000160: 7656 123c cb5b 0fbd 305e f73c 2f00 6fbd
00000170: 9092 75bd 2d79 0e3d 898a 5fbd c50b 2f3d
00000180: c312 1a3d a051 acbd a9b9 3b3c 4cf9 39bd
00000190: 1328 b53d 118b adbd 2106 9a3d 52ec 753d
000001a0: d042 93bd 08b0 133d 86bf 10bc 40ea 163d
000001b0: 47d1 2b3d e985 693c d977 3e3b ab2b 493d
000001c0: 95b4 183d 67a7 bd3d 3084 5abd 86b6 ba3c
000001d0: 6736 1abd 32eb 3c3d 88ff edbc 82a8 f53c
000001e0: e3f4 febb 9162 9a3c ce5a aa3c b18c ebbb
000001f0: 132b 193d 4016 073d aaa1 553d cbf2 21bd
00000200: 8815 bd3c e0bf 51bd 4c89 aa3d 26c6 373a
00000210: 0080 203d 89e2 a2bc d5a6 b23d 068a 91bd
00000220: ef49 a9bb c992 e0bc 1b64 12bd 70a7 5abd
00000230: b6a3 983d 2791 33bd 7cbc 3ebd 47d1 27bc
00000240: b66d 94bd ec56 dfbc ae61 913c 036e 0fbd
00000250: 99e3 a13d f467 55bb 3739 93bd 3177 b23c
00000260: 01b3 a13d 087f 9a3a 05b9 e93c 5fad a8bd
00000270: 2866 02bd 99aa d2bb ed2a 99bd d1c9 a23c
00000280: 8d7c 263d 794e db39 f02e 3a3b 98a7 e0bc
00000290: ff52 803c 2ac3 abbc d952 363c c7fc 21bd
000002a0: 4f41 6cbc b20d 32bc 1b0c 8fbd b066 a13d
000002b0: 42f3 95bd 6988 ac3d afde 55bd 167a 4dbc
000002c0: c6b9 adbd c752 e23c 3eba a63d 9ad2 2fbd
000002d0: 3179 963d ea13 9a3d 6ec4 3a3d 2913 433c
000002e0: 8e6f 753c 8ba3 3c3d f1a8 3bbd 91fc b1bd
000002f0: be24 6e3d 63e4 993d 441f 283c e387 ad3d
00000300: ee25 563c bbc3 9b3c cf08 ec3c c497 ad3d
00000310: c4c2 abbd 985c b73d fb67 453c e85b 963c
00000320: be2a d2bc 1237 92b9 a65a 3bbd 71b4 9a3c
00000330: c956 13bd c72c 09bd e078 253d 48f6 843b
00000340: f166 84bd 385b 493b 27f7 723c 336d 643d
00000350: 7b37 1f3c a0a0 55bd 7ec1 65bd af41 2fbc
00000360: 40d5 8a3b 2b88 aeb9 9eed 95bd 6b16 7dbc
00000370: b06e 463d 7a09 a5b8 554c 203d 6796 193d
00000380: 3aa1 88bd 0cd5 1abd 2f67 6dbd cd35 7ebc
00000390: 8b32 8a3c c47d acbd fafe 9b3d 0c5d d3bb
000003a0: fac0 e4bb 5ca3 99bc 744a 60bd c3de 243d
000003b0: 35b3 f43c e3f5 dbbc d3f7 003d 8877 12bc
000003c0: 0435 80bd 0bb0 03bd 26a8 96b7 1996 973b
000003d0: d882 50bd f436 a7bd 7ced 933c accb e8bc
000003e0: 60c0 b83c e2c3 9c3d 2339 a43b 3289 76bd
000003f0: c3a3 493d 64d2 9abd f426 153d 5a11 83bd

gru1.bias_ih_l0_reverse f4 [384]
0.03178196 0.010945841 0.0057780617 0.040583916 -0.05053648 -0.022800373 -0.04286735 0.05699798
-0.06028271 -0.05877395 -0.0073029837 -0.024565054 -0.049602363 -0.012210651 0.074958816 0.005950535
-0.023244262 0.050652556 0.007239761 0.05193266 -0.04952798 -0.04524087 -0.09216833 0.08642824
-0.011427857 0.015875185 0.062005322 0.039077718 0.033247277 0.037319727 -0.07693073 -0.025311593
-0.047964115 0.016774224 -0.08394836 -0.060233146 0.061310515 0.06758127 -0.084729865 -0.008575396
0.067541435 -0.008159624 0.024826625 -0.053495757 -0.06435907 0.055964686 -0.02480978 0.0074303243
-0.060074903 -0.04538577 0.032896698 -0.0019743536 0.038454007 -0.06454342 0.003513922 -0.03855384
0.05134881 0.027506009 -0.075998984 -0.025482906 -0.039556615 -0.04713474 0.051306408 0.024919756
0.081320785 0.08092918 0.06132581 0.062859595 -0.005737333 0.039828997 -0.0057569407 -0.051758118
0.057887763 0.028320143 0.0622526 -0.08692974 -0.10106648 0.055183627 -0.002652936 0.013986212
0.053193886 0.07722004 -0.006850663 0.057054143 -0.043143146 0.0897267 0.035751227 -0.057623435
-0.057510566 0.060920786 -0.011178717 0.060449693 -0.007478813 0.08411663 0.009233506 0.027291376
0.0413598 0.028473537 -0.071589604 -0.06082124 -0.014172881 0.055418592 0.04590847 0.04878094
-0.0051048244 -0.07489144 0.022681866 -0.029844582 -0.02452658 -0.042418435 -0.0049629845 -0.066831924
-0.06934217 -0.05672215 0.062261768 -0.07096559 -0.03391423 -0.042138524 -0.05721308 0.079280116
-0.0089089675 -0.02509658 -0.0041496498 0.060914945 0.07138305 0.087599896 0.06043417 -0.059740145
-0.05283535 -0.026965918 -0.012102184 -0.027858198 -0.08094829 0.082918584 -0.027045278 -0.06547885
0.08346998 0.06968557 0.081384234 -0.026063666 -0.06071123 0.07617406 0.043229118 -0.014615506
-0.025414387 -0.0034476225 0.09622441 -0.01557719 0.027873807 -0.04634274 0.08002997 -0.03165232
0.009100134 -0.02097995 0.06804123 0.08794498 0.052972723 -0.050771795 0.035856277 0.03700729
-0.036196034 0.06408802 -0.05215709 -0.080345474 0.028264409 0.08355508 0.007649475 -0.07053815
-0.06679093 -0.03235951 0.03651833 -0.030846 -0.035429787 0.0029240765 0.09698484 -0.029192002
0.07012041 0.02587141 -0.06729223 0.07828118 -0.009438058 -0.0070262956 0.06343441 0.0694043
0.008113104 0.065284826 0.027613303 -0.08600821 0.073374696 0.052595027 -0.07325044 0.082112305
-0.065149166 -0.022052236 -0.023598894 -0.05327679 -0.07103019 0.058183618 0.059867512 -0.012533246
-0.020533908 -0.05306856 -0.0047817826 -0.02074143 -0.032318983 0.05739593 -0.012236409 0.029571515
0.004959517 -0.0388179 -0.077359036 0.0391246 -0.054233722 -0.07953532 0.003642032 -0.05724582
0.07314285 -0.053458143 -0.05520611 -0.008755391 0.08062773 0.057385255 0.0058505205 -0.026410112
0.008203249 -0.028750706 -0.015874073 -0.06934668 0.008430738 0.08320054 0.052415628 0.06940302
-0.08786127 0.021038704 -0.035426088 -0.044857327 0.05005005 -0.016431676 -0.019963985 -0.051634647
-0.025191411 0.008930114 -0.027007645 -0.039218158 0.041870233 -0.0852663 0.0794829 -0.027113901
0.031932615 -0.058299515 0.023360794 0.05030381 -0.07840982 -0.004395579 0.048691597 -0.007296499
00000000: cd2d 023d 2f56 333c e555 bd3b 523b 263d
00000010: 57ff 4ebd d9c7 babc ad95 2fbd b776 693d
00000020: 01eb 76bd f4bc 70bd de4d efbb a73c c9bc
00000030: d92b 4bbd 2f0f 48bc 0284 993d b5fc c23b
00000040: c06a bebc 0e79 4f3d 843b ed3b 57b7 543d
00000050: dadd 4abd 7e4e 39bd c0c2 bcbd 4a01 b13d
00000060: e83b 3bbc ad0c 823c 4bf9 7d3d f50f 203d
00000070: 4c2e 083d 92dc 183d dc8d 9dbd 425a cfbc
00000080: 0576 44bd 196a 893c 1eed abbd 08b7 76bd
00000090: bc20 7b3d 0d68 8a3d da86 adbd d17f 0cbc
000000a0: 2a53 8a3d f2af 05bc 3561 cb3c 5e1e 5bbd
000000b0: b0ce 83bd 3a3b 653d e13d cbbc 147a f33b
000000c0: 1a11 76bd 6ee6 39bd b0be 063d 2864 01bb
000000d0: f381 1d3d 572f 84bd d449 663b a2ea 1dbd
000000e0: 2153 523d 4854 e13c 5ba5 9bbd 87c1 d0bc
000000f0: 1e06 22bd 5b10 41bd ab26 523d 8424 cc3c
00000100: 838b a63d 33be a53d c630 7b3d 88bc 803d
00000110: 3d00 bcbb bb23 233d b8a4 bcbb 5200 54bd
00000120: b81b 6d3d a5ff e73c 95fc 7e3d 3808 b2bd
00000130: f1fb cebd 3a08 623d e1dc 2dbb 6d26 653c
00000140: d5e1 593d 8a25 9e3d 877b e0bb 9bb1 693d
00000150: deb6 30bd a2c2 b73d e16f 123d 8d06 6cbd
00000160: 3390 6bbd 1388 793d f026 37bc 199a 773d
00000170: d510 f5bb 5745 ac3d 2248 173c 2a92 df3c
00000180: e568 293d 5641 e93c 929d 92bd b11f 79bd
00000190: 5f35 68bc 9bfe 623d 850a 3c3d 86ce 473d
000001a0: 5f46 a7bb af60 99bd 52cf b93c a07c f4bc
000001b0: f7eb c8bc f4be 2dbd 88a0 a2bb 2ddf 88bd
000001c0: 4503 8ebd 7c55 68bd 3206 7f3d 6856 91bd
000001d0: a6e9 0abd 7299 2cbd 4358 6abd 9d5d a23d
000001e0: ebf6 11bc 5897 cdbc c9f9 87bb f381 793d
000001f0: 4731 923d 9367 b33d d289 773d 15b2 74bd
00000200: e169 58bd a1e7 dcbc 3d48 46bc e036 e4bc
00000210: 38c8 a5bd 38d1 a93d 0f8e ddbc c619 86bd
00000220: 4ff2 aa3d 4fb7 8e3d c7ac a63d 7883 d5bc
00000230: 57ac 78bd 2501 9c3d 0411 313d e075 6fbc
00000240: d531 d0bc 82f1 61bb 4e11 c53d 7837 7fbc
00000250: 9c57 e43c e3d1 3dbd c1e6 a33d dda5 01bd
00000260: ba18 153c 25de abbc 3359 8b3d 7f1c b43d
00000270: edf9 583d 16f6 4fbd 08de 123d f594 173d
00000280: 4b42 14bd 9440 833d aca2 55bd 2b8c a4bd
00000290: c38a e73c ed1e ab3d 72a8 fa3b 4e76 90bd
000002a0: afc9 88bd 688b 04bd 3f94 153d c0b0 fcbc
000002b0: d31e 11bd dda1 3f3b fd9f c63d 1124 efbc
000002c0: 4a9b 8f3d 47f0 d33c 82d0 89bd e251 a03d
000002d0: 16a2 1abc d73c e6bb e6e9 813d d723 8e3d
000002e0: d3ec 043c 0db4 853d 4b35 e23c 1325 b0bd
000002f0: 7945 963d e26d 573d 5404 96bd 7f2a a83d
00000300: ed6c 85bd e4a6 b4bc 7852 c1bc c338 5abd
00000310: 4778 91bd f251 6e3d a337 753d 3e58 4dbc
00000320: ba36 a8bc 6b5e 59bd 80b0 9cbb eee9 a9bc
00000330: e960 04bd ff17 6b3d 387b 48bc f63f f23c
00000340: 7283 a23b 85ff 1ebd 6a6e 9ebd 1e41 203d
00000350: 2e24 5ebd 6ae3 a2bd 28af 6e3b 987a 6abd
00000360: ebcb 953d edf6 5abd cd1f 62bd c672 0fbc
00000370: 2720 a53d cd0c 6b3d b9b5 bf3b 055a d8bc
00000380: ec66 063c 9a86 ebbc 580a 82bc a205 8ebd
00000390: 1421 0a3c 0b65 aa3d c5b1 563d 2c23 8e3d
000003a0: 9cf0 b3bd 5c59 ac3c f21a 11bd 51bc 37bd
000003b0: 4801 4d3d b99b 86bc 838b a3bc da7e 53bd
000003c0: 385e cebc 9d4f 123c 233f ddbc 38a3 20bd
000003d0: 1f80 2b3d 19a0 aebd eec7 a23d f91d debc
000003e0: c6cb 023d 79cb 6ebd 235f bf3c 5e0b 4e3d
000003f0: 5495 a0bd ca08 90bb d770 473d 7817 efbb
