results/models/SP500_LSTM_model.pth (torch, 904977 bytes, 19 tensors)

lstm1.weight_ih_l0 f4 [512, 6]
00000000: a885 933d 5dac 9f3d eb50 86bc fcd0 af3d
00000010: b4da a1bb 4e56 cd3c ca96 35bd ea9c 4f3d
00000020: cae9 9c3d 559d 87bd 41a5 983d beaf 0d3c
00000030: 657f 993d 695d af3c 02c7 533d 4977 62bb
00000040: aaab 8f3d f1fd 8cbc 9c7e efbc e831 113d
00000050: 2388 f1bc 2f68 cd3a 7a4c 19bd faf3 753d
00000060: 910f 99bd 6065 3abd 5133 f7bc 6f37 6ebd
00000070: dff5 8e3c 73a2 c8bd 1dfb 993d a0bc a2bd
00000080: c88d 823d 45f7 363c dc36 18bd 4d3b b03d
00000090: b9ee 273c 19db 8a3d 9dcb c93b c057 01bd
000000a0: 1368 133d 5935 13bd a316 173d ad73 a13d
000000b0: 7d42 4e3d 3199 20bd 32af 643d 1bce 603c
000000c0: a24d 4a3d 85ce 4abd fcc2 aabd 8add f7bc
000000d0: 605b 50bd a746 7c3d 0536 ff3c c3e6 2c3d
000000e0: 3d22 0a3d f3fd 853b 4d68 853d e968 83bd
000000f0: 5766 843b 1624 7bbd b731 cf3c 7647 01bd
00000100: 1648 303d f6b9 33bc 514a a43d 602d 36bd
00000110: 8ae4 3cbd 2e21 3bbd d3a3 ad3d 497a 113d
00000120: 46a3 b33d 83a9 8fbd 5c0a b0bd acb9 88bd
00000130: d84a 1fbd 9c72 5b3c b12c e33c 1e07 8e3d
00000140: d57c 49bd ca99 82bd 7631 093d 2844 c3bc
00000150: f3a7 813d f07e 3fbc c414 763d d466 72bd
00000160: 3d61 6fbd f86c c23c a375 ed3b e32e 0bbd
00000170: 7ec1 283d d99b 463d 3fe7 60bd aaf6 23bd
00000180: fcab 983d 1f32 14bd e408 1abd 1bf9 bbbd
00000190: ac39 48bd a61b e93c a5d5 d0bc dd57 a0bd
000001a0: d66e 3ebc e3f1 98bd 1c0b 89bd 5056 7fbd
000001b0: 5ac8 96bd 9250 58bd e7d0 bc3d 508a a63c
000001c0: 4722 973c 756b a9bd c22e 68bd cfb8 e4bc
000001d0: ecf6 753c c564 9cbd f76f 34bd 0645 5cbd
000001e0: 2759 a33b 63b3 e5bc 0226 783a 1dc4 61bd
000001f0: e209 8bbd 44a9 32bd 941e 2cbd a8a4 a5bd
00000200: 5654 7f3d c763 e7bc 1bd8 b63d 60c6 403d
00000210: acd6 99bd 6623 783d cc0d c7bc cdd6 08bd
00000220: 0c3c a4bd 4827 a8bd 0a58 143d 6c22 13bc
00000230: 060b 393d 6492 80bd cc06 683d b6cd a0bd
00000240: b9ef d6bc da28 f23b 1b72 0d3d 6864 753d
00000250: 695b a63d 0484 cabd 53dd 1c3c e84a 4ebd
00000260: 8c9f bdbc 5b00 a1bd bf4d cf3d 7a20 53bd
00000270: f8e5 613d 1208 213d 55bc 123d 5b7a 26bd
00000280: 5b4b 9d3d 1d76 323a c4e1 343c 40ba a0bd
00000290: f70d 1a3d c330 52bc b246 53bd 5c00 ba3d
000002a0: ec69 d43c c6f7 2fbd 18ad 1dbd 1f44 d53a
000002b0: b0ce 243d 6ae1 32bd f9b4 4bbd bae4 efbc
000002c0: fae8 86bd 6979 013d 158c c43d 18c3 cfbd
000002d0: 650a e73c ae76 5a3d f419 c43c bac1 bfbc
000002e0: 8c9e 3a3d c94c 7e3d c491 bc3c 713f d1bc
000002f0: a8f0 06bd 7e7c 9cb9 ebf2 5cbc b9e6 57bc
00000300: 528b 6a3d 68ed 9b3d 4890 04bc 0a29 a0bc
00000310: 48bd 413c 87e5 ddbc d357 183d 0467 283d
00000320: 9d5e 85bd 0528 88bc 0e85 913d b71e 133d
00000330: 2df0 43bb 639a 53bd c8e3 57bd c004 9fbd
00000340: ce49 fbbc f898 0d3d 4e16 633d 0074 243d
00000350: 3718 a2bd 3676 5bbd b10a 8dbc 4bc6 dd3d
00000360: 9545 583c a90a babc a5fb 173d c11a 09bd
00000370: 76ff 86bd 10dc 743d 5fc2 11bd 4b4f 54bc
00000380: a665 aabd 12d8 833d 5c5a 803d 5ae1 5e3d
00000390: b5bb 7bbd 8b47 b2bd 45c5 92bd 45c2 873d
000003a0: 1add 243d db4a b73d ab83 1b3d 4d2a 5f3c
000003b0: 61c3 11bc a4f5 9abd 7b07 9abd 412c b2bd
000003c0: 0687 2b3d 76e1 1bbd 1a74 49bc f24c 3cbd
000003d0: 77b7 9bbc f22f d7bd 8515 74bd 677f e73c
000003e0: bee7 edbc ceae 563d 72bd 24bc 23ae 91bd
000003f0: cb88 53bc 9a5a 24bd 3c76 c6bc f347 a7bd
0.07203227 0.077965476 -0.016396007 0.085847825 -0.0049394015 0.025065567 -0.044333257 0.050686754
0.07661779 -0.066218056 0.07453395 0.008647857 0.07495002 0.021406846 0.05170346 -0.0034555963
0.07015164 -0.017210932 -0.029235177 0.035447985 -0.02948386 0.0015671308 -0.03742645 0.060047127
-0.07473672 -0.045506835 -0.030175837 -0.058158334 0.017451225 -0.0979661 0.07518599 -0.079461336
0.06374699 0.011167352 -0.037161693 0.08605061 0.010249787 0.06780071 0.006158306 -0.031577826
0.035987925 -0.03593955 0.036886822 0.078833915 0.050356377 -0.039208595 0.05583114 0.013721014
0.049390443 -0.04951336 -0.083379716 -0.030257005 -0.050868392 0.061590817 0.031153688 0.04221226
0.03372406 0.004089111 0.065140344 -0.064164944 0.00404052 -0.06131371 0.02529226 -0.03156229
0.043037497 -0.0109696295 0.08021987 -0.044476867 -0.04611639 -0.04568594 0.084785126 0.03551701
0.08771376 -0.07014754 -0.08595726 -0.06676039 -0.038889736 0.013394024 0.027731271 0.06934951
-0.049191315 -0.06376989 0.033494435 -0.02383621 0.06330862 -0.011687979 0.060078397 -0.059180096
-0.058442343 0.023733601 0.0072466894 -0.03398026 0.041200154 0.04848847 -0.054908033 -0.04003016
0.074546784 -0.03618061 -0.037606135 -0.091783725 -0.048883125 0.028455567 -0.025492499 -0.078292586
-0.011623105 -0.07468011 -0.06691572 -0.062338173 -0.07362433 -0.052811213 0.092195325 0.020329624
0.018448962 -0.08272449 -0.056685217 -0.027920155 0.015012484 -0.07636408 -0.04405209 -0.053776763
0.004984993 -0.02803964 0.0009466113 -0.05511867 -0.06788994 -0.043618456 -0.04202135 -0.08088046
0.06233629 -0.02824582 0.089279376 0.047064185 -0.075116485 0.060580634 -0.024298571 -0.033407975
-0.080192655 -0.08210617 0.036216773 -0.008980375 0.04517653 -0.06277922 0.056647107 -0.07851736
-0.026237356 0.007390124 0.034532648 0.059910208 0.08122904 -0.09888461 0.009574252 -0.050364405
-0.023147367 -0.07861396 0.10122251 -0.051544644 0.055150956 0.039314337 0.03582414 -0.04064403
0.076803885 0.00068077614 0.011040155 -0.07848024 0.037610974 -0.0128290085 -0.051581092 0.090821
0.025929414 -0.042960905 -0.038495153 0.0016270912 0.040236175 -0.043672003 -0.049733136 -0.02928387
-0.065874055 0.031609926 0.09597031 -0.10144633 0.028203199 0.053335838 0.023938157 -0.023407806
0.04556136 0.062084947 0.023018725 -0.025542947 -0.03294435 -0.00029847393 -0.0134856505 -0.013177567
0.057261772 0.07613641 -0.00809104 -0.019550819 0.011824913 -0.027086986 0.03719313 0.04111387
-0.06512187 -0.016620645 0.07105456 0.035917964 -0.0029897795 -0.051660907 -0.052707464 -0.07764578
-0.030674841 0.03456971 0.055441193 0.04014969 -0.07914775 -0.05357953 -0.017217012 0.10828837
0.013200183 -0.022710161 0.03710522 -0.03347278 -0.06591694 0.05978018 -0.035585757 -0.012958358
-0.08320169 0.064376965 0.06267235 0.05441413 -0.06145831 -0.08705052 -0.071665324 0.06628851
0.04024992 0.089498244 0.037967365 0.013620925 -0.00889668 -0.075663835 -0.07520958 -0.08699847
0.041876815 -0.038056813 -0.012295747 -0.04597182 -0.019008381 -0.10507192 -0.059590835 0.028258992
-0.029041167 0.0524128 -0.010054933 -0.07113292 -0.012911032 -0.040125467 -0.0242263 -0.0816802

lstm1.weight_hh_l0 f4 [512, 128]
00000000: a5a3 c4bc 2310 4e3c 3f27 c2bc bc49 b8bd
00000010: 8255 a0bb 2de2 173d 954d f4bb 771d 5cbd
00000020: dc9d 443c ad84 9f3c 53d7 0ebd ecc3 93bd
00000030: 5ca1 3abd 73fc 52bc de44 293d 57c0 993d
00000040: c7f5 14bc 1912 063d bd31 3e3d e5a9 26bd
00000050: 6a5e c6bc 55af 723d 0cc7 603d d21f e33c
00000060: 1d34 8abd c717 473d 7372 88bd 734b 4e3d
00000070: 03d2 713c d272 0f3d 515e b6bd a557 0ebd
00000080: 75f1 273d 5dfa 6f3d 9b4f c2bc 9af5 b43d
00000090: 563f 6ebc 8190 7abd 2b8a 23bd d763 603c
000000a0: 4fb4 47bc fad5 353d 6521 65bd 2a08 ccbc
000000b0: 1f45 b0bd 60b0 953d a03c 65bc d77b 8dbd
000000c0: cf7e b3bb 96f5 90bb 3853 cb3c b767 acbb
000000d0: f04b 803d dfea 19bd 7c7e 06bd fe83 79bc
000000e0: 7f18 963c f823 a23d 9ed8 f13b 3b22 8e3d
000000f0: 108d 963d c7cb 4cbd 237d efbb 0547 15bd
00000100: 8b95 163d 7fe3 14bd ebfa ed3c 190d 623c
00000110: 8dc4 72bd 58fa 88bd 1570 b6bd 5344 49bd
00000120: 9a1b c13c 8f35 683c 9598 933d 74f7 aabd
00000130: 9961 0bbc ad80 99bd 8c69 56bb 18b9 d63c
00000140: ba74 9abd 2676 813d cf2c 01bd a800 983d
00000150: e510 39bc 9c92 513d c64b ad3d b7ab 01bd
00000160: 2419 90bc 8a19 473d c9f6 97bd 43d1 233d
00000170: f27b 54bd fa69 a03d 92f2 6ebd b536 fabc
00000180: 743e 973d a656 01bd febe a83d 5f7c 6d3d
00000190: 0677 9f3d c27f a9bd 4900 80bb 6554 debc
000001a0: dc47 df3c 164b 80bd 3b4b 293d 87c5 40bc
000001b0: 1e80 4cbd 2e05 98bd 241f 673d 7387 1cbd
000001c0: c28d 913d 1851 733c f7d6 ba3c f748 21bc
000001d0: a983 2abc 49c7 0cbd 5ec2 9fbd 7374 4d3d
000001e0: 86d9 6fbd 450a 463d e4bf cabc 5ea7 673d
000001f0: c0dc 8d3d c050 3ebd aedb 9b3d 6831 c9ba
00000200: c2cb 5dbd 3839 c83c 6228 773d cbb6 b23d
00000210: c392 9bbd 858c 7c3d 9f76 843d 57a2 bc3d
00000220: 43f4 4e3d 4eb2 60bd 2772 8b3d c0f3 c33d
00000230: 067d 1fbd b357 4bba 8fdf 833d 9c18 a33d
00000240: b7e5 303d 3b9a 8a3d 4694 49bd a0f2 13bc
00000250: 6d62 09bd 4bd1 423d 4f98 cc3c 799e 99bd
00000260: 1bb9 99bc 3869 84bd 2863 bcbd 4c44 933d
00000270: ca28 32bd ea00 dc3c 99d5 06bc f96f b0bc
00000280: 34cc 4abc 1aac 933d 74bc 903b 7d04 953d
00000290: 3961 333d 898b 883d 4bf9 96bd 7f84 41bd
000002a0: 52d9 96bd 18c5 c4bc ae5f 34bc 7dea 463c
000002b0: dc99 923d 697f 153d 084e 96bd 3c50 73bd
000002c0: 77be 873d 5a0c 8e3c d756 463c b3be 62bd
000002d0: dd64 83bc edd9 ed3c a0e2 69bd 5fe0 773d
000002e0: 9d0e 073d 877d 44bd 8220 ddbc 8f0f 00bd
000002f0: 37d1 ac3b c067 0abd db9e a63d 0b58 a4bd
00000300: 4785 5ebd 1646 59bd fb65 973c 6ec1 f53c
00000310: 3c8f 04bd 7c5c a83d ef46 9ebd 1fbe c23c
00000320: 7053 5dbd 6de8 8dbc a075 c2bd e8da 89bd
00000330: a922 7bbd 5e7e 193d 6836 bfbc a0a2 4e3d
00000340: a0d5 74bd b7a2 95bc 8299 783c fc50 923d
00000350: 5ab0 e5bc 1574 4c3d c8fd 6a3c 33ff 633d
00000360: 4c44 213d 4e19 183d 75ac 0abd beec 05bd
00000370: 643a 073d 0179 713d 8d5e 403c 8d81 363d
00000380: d953 83bd 6af0 203d 2a75 a0bc 2e2a 55bd
00000390: 2efa 1cbd 0098 a0bd 21bd bd3c 503d 4fbd
000003a0: fb79 e5bc 1912 71bc 1e40 7abd 46eb 943b
000003b0: 4a6e 6cbb 341e c73c c47f 9f3d 928a 70bd
000003c0: 23fd 463d 313f d9bb 44b6 25bd 7de2 36bd
000003d0: 398e 913c b8b5 203c 0021 0a3c 1b8d 54bd
000003e0: 30f9 5d3d ee47 a63c fc9a bebd 7e72 82bc
000003f0: f583 efbc c57e 14bd 499e f9bc 8ad6 9abd
-0.024003813 0.0125770895 -0.023700355 -0.08998439 -0.004893006 0.037080932 -0.0074555376 -0.053739037
0.012000527 0.019472444 -0.034873318 -0.072151035 -0.04556404 -0.012877571 0.041325442 0.07507389
-0.009091801 0.032732103 0.046434153 -0.040689368 -0.024214942 0.05924924 0.054877326 0.027725134
-0.06748221 0.04860666 -0.066624545 0.050364923 0.014759543 0.03502161 -0.08904708 -0.034751553
0.041001756 0.058588374 -0.0237196 0.08835907 -0.014541468 -0.061172966 -0.03992669 0.013695679
-0.012188985 0.044393517 -0.05594005 -0.024906237 -0.08606934 0.073090315 -0.013991505 -0.06908386
-0.0054777632 -0.0044238074 0.024819955 -0.005261387 0.06264484 -0.037577506 -0.03283547 -0.015229223
0.018322228 0.07917017 0.007380559 0.06940123 0.07351124 -0.049999025 -0.0073086186 -0.036444683
0.03676371 -0.03634977 0.029050311 0.013797068 -0.059269477 -0.06688374 -0.08908097 -0.049137425
0.023572732 0.014172926 0.07206837 -0.08347979 -0.008507156 -0.07495246 -0.003271672 0.026211306
-0.07541795 0.06321363 -0.031536873 0.07422 -0.011295532 0.05116521 0.08461718 -0.0316579
-0.017590113 0.04860834 -0.074201174 0.03999449 -0.051876016 0.078327134 -0.0583368 -0.030543664
0.07384959 -0.031576775 0.08239554 0.057979938 0.07786374 -0.08276321 -0.003906284 -0.027139852
0.027255945 -0.062643215 0.04133151 -0.011765844 -0.04992687 -0.07422863 0.056426182 -0.038215112
0.07107116 0.014850877 0.022807581 -0.009844056 -0.010407367 -0.03436974 -0.078007445 0.050159883
-0.058557056 0.048349638 -0.024749704 0.0565561 0.0692687 -0.046463728 0.0761026 -0.0015349807
-0.054149397 0.024441347 0.060341246 0.08726271 -0.07596352 0.061657447 0.06467938 0.09210651
0.050525915 -0.054857545 0.06808882 0.09567976 -0.03893759 -0.00077569037 0.06439125 0.07963678
0.043187823 0.067676984 -0.04921367 -0.009030014 -0.03354113 0.04756288 0.02497497 -0.075009294
-0.018765023 -0.064653814 -0.091986 0.07190761 -0.04349593 0.026855905 -0.008229637 -0.021537768
-0.012377787 0.0721056 0.0044169966 0.07276247 0.04379389 0.06667239 -0.073717676 -0.0472455
-0.07365669 -0.024019763 -0.01100914 0.012140867 0.071582526 0.03649846 -0.07339102 -0.05940269
0.06628125 0.017339874 0.012105665 -0.055357646 -0.016039306 0.02903458 -0.057100892 0.06051671
0.03297292 -0.047971275 -0.02699304 -0.031264838 0.005273964 -0.03379035 0.08135768 -0.08024605
-0.054326322 -0.053045355 0.018481245 0.029999461 -0.03236316 0.08220765 -0.07728373 0.023772297
-0.05403465 -0.017322743 -0.094950914 -0.06731206 -0.06131235 0.03747403 -0.023341373 0.05044806
-0.05977404 -0.018266065 0.015173318 0.07144353 -0.028038193 0.049915392 0.014342733 0.0556633
0.039371774 0.037133507 -0.033855874 -0.032696478 0.03301467 0.05895329 0.011741293 0.044557143
-0.06412477 0.039291777 -0.019587118 -0.05204218 -0.038324527 -0.07841492 0.023161473 -0.05059558
-0.028012266 -0.0147137875 -0.061096303 0.0045446483 -0.003607648 0.024306394 0.07788041 -0.0587259
0.048581254 -0.0066298475 -0.040457025 -0.04464959 0.017768012 0.00980895 0.008430719 -0.05189238
0.05419272 0.02029797 -0.09306905 -0.015923735 -0.029237727 -0.03625371 -0.030470984 -0.07560451

lstm1.bias_ih_l0 f4 [512]
00000000: 5d86 45bd b87d 8cbd 0ebf 903d e265 0fbd
00000010: 6ef3 09bb 84c3 963d 0539 893d 0966 a83d
00000020: 7ddf 39bd eb19 a73b 41d6 d23b 32bf 863c
00000030: 9aa5 aa3d 0049 9f3d 5adf b4bd 4fd0 b23d
00000040: cb13 cc3d 7964 87bd ed71 b7bd 0bfa 853d
00000050: d750 2cbd 33de 82bd fd9b 023d 854a 27bb
00000060: fc46 5e3d 1b2e 46bd c86a b53d 2afb 0abd
00000070: 5226 7dbd e75b 183d e1a2 a8bd 116d 89bd
00000080: 8704 6cbc 0f81 25bb 650a e7bc 429d 3d3b
00000090: 3823 c2bd 335a 523d 599c 9abb 22c9 a53c
000000a0: f14a 493d 6d71 7d3d bea3 883d 381d 6a3d
000000b0: 6702 b83c a3be 56bd 98a3 8d3d 4902 d7bb
000000c0: c9da 083d d01a da3d 99f5 53bd bd40 edbb
000000d0: a7f5 83bd 40e1 17bc bf18 e5bc f6a6 8abd
000000e0: f298 b4bc 22a1 b73c 0b8c a0bd 48dd 3cbc
000000f0: f9c5 953d fb5b 863d ff9f b6bd 83de 4b3d
00000100: 89ad ec3b 5335 dc3c 2122 813d 6cf7 b23d
00000110: 17e2 32bd 4659 6e3d dcf6 f7bb 0e25 b53c
00000120: 274f 283d 95ed c5bd 8909 29bd 1146 d2bd
00000130: 661b 9e3c 9125 173d 6ca6 cabc ab9b 033d
00000140: 1d47 5cbc c107 babc 37d8 65bd e904 c83c
00000150: a944 88bc deb6 123d d12c ad3d 54d1 9bbd
00000160: 3373 323b 1445 f5bc f6af 583d c01c 9c3d
00000170: a0d0 ab3d f59b 31bc 809d 8a3c 1895 0cbd
00000180: 8058 bcbd c604 aebd 86ee be3c d493 98bd
00000190: 96e7 28bd f5fa e23c 39fd a6bd f6b3 823d
000001a0: 2139 6a3d a0d6 1fbb 6822 813c 3762 543d
000001b0: 281f cd3c 8831 b2bd 544f 083d 9458 b8bd
000001c0: 0cee 7abd c837 a2bd f5ab 13bd 7b93 80bc
000001d0: 8023 343c 4c23 483c 2299 f33a 7127 99bd
000001e0: 5151 863c 1538 06bd a0bf a33d 6901 853d
000001f0: 8b39 8f3a 1001 8a3c 7f16 40bd f421 023d
00000200: eb6e 9d3d 4b52 2f3c af0a 0f3d b8c5 4e3b
00000210: fe9f 68bd 7cb9 c4bc c58a 8fbd 00a5 a43d
00000220: b698 18bd d3cb 90bd 155e 173d 2021 9bbc
00000230: 5326 50bc 673e ed3d 54ef 043d eefe 883d
00000240: 2985 14bc 5012 c9bc 5107 9cbd 09f9 1d3c
00000250: a3cb 3e3d dfe1 40bd 7096 07bd 834a 723d
00000260: 4197 0dbd a34b 533d 0747 993d fec0 553d
00000270: 11f0 6ebd 1efb 253c 9fbe 563d f3b2 b03d
00000280: cec9 663d 8acb 6dbd 668c 603d 5432 98bc
00000290: df2f 933d 3f47 83bd 2a33 b33d e73c ac3d
000002a0: 993e 4abc 5c05 efbc b750 a5bd f78e 4c3a
000002b0: b9c3 42bd 229a e8bb 150c 8dbd 0d7f 183d
000002c0: 7a8a 6d3d 8ea6 1b3d f953 b53c d4c0 793d
000002d0: 74b7 f83c 30be 6dbd 63e8 843c 8711 97bc
000002e0: 23d9 72bc 50e9 17bd c0ac 083d 3877 acbd
000002f0: 5e46 99bd 4283 9a3c b1a2 adbd e0d7 023d
00000300: 90b6 16bd b73f 753a 24d8 cfbc a88f 853d
00000310: 3383 95bc abdf 1ebd a8a4 243d 56a6 763a
00000320: 6039 ac3d 12f3 4f3d c288 363a 4810 52bd
00000330: a2e7 f63c 967b 893d a3d2 a43b c794 0f3d
00000340: 936b 48bd 31a6 543d 760a 71bc 193f aebd
00000350: 0ef8 c6bc 98f4 0f3d 2eb3 a8bc 5d08 2fbd
00000360: 3a67 05bc 61ec 4a3d f7f8 74bd fafd 9ebd
00000370: b6a8 0cbd 67b2 b9bd 4600 933d 29c0 2c3c
00000380: f23b 9f3c c86b f43c 17b5 2e3c e1e4 76bc
00000390: f906 2d3d 3ec4 aebd 7e57 abba e0fb 96bd
000003a0: 5195 ffbc 8f6d 9bbd d521 87bb ea4c 9d3d
000003b0: 7318 933d 7e9c 4f3d c058 623d d760 a4bd
000003c0: 19cc 813d 2883 8a3d c91f 61bb 29ff 043c
000003d0: 5573 46bc b392 293d b64c 803c 0d40 d93c
000003e0: e4e9 1d3d b6a8 afbd be64 6d3d 5004 48bd
000003f0: 3e32 d7bb d4b1 9dbd 218d 7abd 3555 603d
-0.048223842 -0.068599164 0.07067691 -0.035009272 -0.0021049636 0.073615104 0.06700329 0.08222587
-0.04537915 0.005099525 0.0064342325 0.01644859 0.08332367 0.077775955 -0.088316634 0.08731138
0.09964713 -0.066109605 -0.089572765 0.065418325 -0.042069282 -0.063900374 0.031887043 -0.0025526595
0.054266915 -0.048383813 0.088582575 -0.033930935 -0.061804123 0.03719702 -0.08234192 -0.06710256
-0.014405376 -0.0025253927 -0.028203199 0.0028932844 -0.09479374 0.051355552 -0.004718345 0.02023751
0.049143735 0.06187575 0.06671856 0.05715677 0.022462083 -0.0524279 0.06915969 -0.0065615517
0.033411775 0.10649645 -0.051747892 -0.0072403834 -0.06443339 -0.009270012 -0.027965901 -0.067701265
-0.022045586 0.022415701 -0.07839211 -0.011527367 0.07313151 0.06560513 -0.089172356 0.04977275
0.0072228354 0.026880896 0.06305338 0.08738598 -0.043672647 0.058190607 -0.0075672697 0.022112396
0.04109111 -0.09664456 -0.04126886 -0.1026727 0.019300174 0.03690106 -0.02473756 0.03213088
-0.013444689 -0.022708775 -0.0561144 0.024416404 -0.016634302 0.035818927 0.08455814 -0.076082855
0.0027229309 -0.029940166 0.052902184 0.07622671 0.083894014 -0.010840406 0.016920805 -0.034321874
-0.091965675 -0.08497004 0.023307096 -0.07450071 -0.041236483 0.027707556 -0.08153767 0.06381981
0.05718339 -0.00243894 0.015763476 0.051851477 0.02503927 -0.087008536 0.03327878 -0.0900127
-0.061262175 -0.07920796 -0.036052663 -0.015695324 0.010994792 0.012215447 0.0018585066 -0.07478226
0.016396197 -0.032768328 0.07995534 0.064944096 0.0010927183 0.01684621 -0.046896454 0.03177066
0.076871715 0.0107007725 0.034922298 0.0031550955 -0.056793205 -0.024014227 -0.0700889 0.08039284
-0.03725501 -0.070701264 0.036954958 -0.018936694 -0.01270445 0.11584168 0.032454804 0.06689249
-0.009064951 -0.024544865 -0.07618583 0.009641894 0.04658092 -0.047090407 -0.033102453 0.05915309
-0.034568075 0.051585805 0.074842505 0.052186005 -0.058334414 0.010130672 0.052427884 0.08627882
0.0563448 -0.058055438 0.054821394 -0.018578686 0.07186865 -0.064100735 0.08749993 0.08410054
-0.012344026 -0.02917736 -0.08072036 0.0007803286 -0.047549937 -0.007098452 -0.0688707 0.03723054
0.05799339 0.038000636 0.022134768 0.06097491 0.030360915 -0.058042705 0.016224092 -0.018440975
-0.014822277 -0.03708774 0.033367872 -0.08421177 -0.074841246 0.018861417 -0.084782965 0.031944156
-0.0367952 0.00093555026 -0.025371619 0.06521541 -0.018251037 -0.038787525 0.04019609 0.0009408941
0.08409381 0.05076892 0.00069631275 -0.05128506 0.030139748 0.06713025 0.0050299927 0.035053995
-0.048930716 0.051916305 -0.014711967 -0.08508129 -0.024288204 0.035145372 -0.020593252 -0.042732585
-0.008142287 0.049541835 -0.059807744 -0.07763286 -0.034340583 -0.09067231 0.071777865 0.010543861
0.019437764 0.02983655 0.010663292 -0.015069217 0.042242978 -0.08533524 -0.0013072339 -0.0737226
-0.03119913 -0.07589256 -0.004123906 0.07680686 0.07182398 0.050686352 0.05526042 -0.08026283
0.06337757 0.06763297 -0.003435122 0.008117476 -0.012112458 0.04139967 0.015661579 0.0265198
0.038553134 -0.08577101 0.057957403 -0.048832238 -0.0065672686 -0.07699934 -0.061169747 0.05476876

lstm1.bias_hh_l0 f4 [512]
00000000: c7e4 63bd 69b0 0cbc d2d9 273c f20f 8dbd
00000010: 5ff6 96bd 0cbc 89bd bfd3 b5bd f516 89bd
00000020: 30d5 863d 5c6f 4fbd 8704 c13d 7351 66bd
00000030: 1437 aabc c6c8 763c 14cf 7d3d 0efd 283d
00000040: 457a 023d 9d6a 16bd b337 e53c 297f 94bd
00000050: 7339 a33b f565 7c3d 5b41 a53c 8e79 1f3d
00000060: 72e4 9fbc 0ecf ae3d e8b1 403c eae0 1a3d
00000070: 7bf0 50bb 3783 853c 9bf7 9ebd 13ea 753d
00000080: 77d4 a9bd 8c94 44bd 9bbc 8d3c c5f7 203d
00000090: e6cb 79bd 8e15 36bd 9e4d 07bd 7672 a4bd
000000a0: 60e9 a7bd 7bf8 253d de7d c3ba 8a09 7cbc
000000b0: 3754 1f3d bd19 fa3c 6374 8ebd 4aa4 c339
000000c0: 5f93 193b da03 293b 9bc1 8b3d a259 60bd
000000d0: 4cc5 1b3d 2304 373d 38e0 97bd fb4c a1bd
000000e0: 754e 5f3d 7130 5dbd 666f 4f3d c499 8b3b
000000f0: 247b 5339 6eac 843d 9b97 dabc 0ab4 3a3b
00000100: a0bf 86bd ffda e0bb 1aca b33d 7662 c63d
00000110: 186a 1cbd a844 4cbd 9e57 993d 08e1 ac3d
00000120: 9108 90bb 082d e7bc 4230 81bd 799f bdbd
00000130: fd7a 153c c085 9fbd dd77 413d 47f5 9e3d
00000140: e088 0cbd 3713 52bd a790 9dbd b0a3 79bc
00000150: 429b 3cbd 9acf ae3d 10ce 3b3d 6d3c 803d
00000160: 71e5 ac3d 4bca bd3a 4061 5dbd e57b 8dbc
00000170: c7cf 76bd 3355 64bd 027e b5bd ecf7 e93c
00000180: cf82 96bd 4c3c 833b 4fbe 673d 07c0 aabc
00000190: 5885 9e3d 2089 843c 071e dbbc 27e7 083d
000001a0: 47fb 973d 4674 3c3d 4b9e adbd 2728 e6bc
000001b0: 66e5 f9bc 6fd4 31bd 8a6b abbb f1e9 a9bd
000001c0: 8210 743d 80aa 48bd 1569 5f3d e96f 163c
000001d0: 6692 003d 2874 7cbd 47f3 83bd c558 90bd
000001e0: d31f 4c3d a287 563d 6a8e 323d 0599 b73c
000001f0: 70bf 383d 34ab 283d d9c9 3cbd 4547 8c3c
00000200: 1fd4 88bc c7ab e83c d5aa 9d3d 773b 053d
00000210: d286 a1bc 5b3c 653d 2ea8 6b3d e8fa 5eb8
00000220: 6d9d a63d 03b4 6cbd ff7d 723d 7a0a 2c3c
00000230: d54b b8bb f87d 7d3b aa7e 933d dce9 97bc
00000240: 4908 56bd 03e0 12bd 2189 4bbd 4490 3d3d
00000250: 726e 753d f181 043d d144 69bc 0203 39bc
00000260: e50f cbbb 24b4 9ebd 4aed 97bc 4ce9 843d
00000270: 89f9 debb 5250 6fbd c54e bbbd e065 ea3b
00000280: e609 08bd 3c2b 55bd 6543 b9bc 9682 9d3d
00000290: ac79 343d d7ce 29bd 1515 9d3d 4b60 a43d
000002a0: ecf2 9a3c 43bb 333d f8fc 1dbd 0245 a03d
000002b0: c936 9cbd a14b 95bd e2a4 88bd 3d18 27bd
000002c0: 9b84 48bb 353a 08bc 7cc3 71bd 7718 6c3d
000002d0: 7d1a 9a3c 92aa 193d cf67 32bc f947 a43b
000002e0: 6384 493d f423 febc c1a9 6bbc a1cc 07bd
000002f0: 26ae 38bd e474 03bc 60ae 193d 53b1 04bd
00000300: e711 133d feb6 373d b86b 89bc 7700 68bd
00000310: 9574 883d d758 563d a438 3dbd f867 de39
00000320: 7394 ad3c 7d03 8ebd 6591 e6bc baf1 60bd
00000330: 9926 b33d fa90 803d 5b19 86bb a9d3 283d
00000340: 6e54 59bc 7b22 693d 7f82 503d 5215 dfbb
00000350: 6764 613d 6df2 5fbd 76c7 a43c 44c2 8abd
00000360: ddd3 81bd 1050 a43c 8d97 2a3d 242d 7b3d
00000370: a96c 17bd ad16 d0bb 5e32 2fbd 87fe 2e3d
00000380: 553a 703d ecfc 0c3d 9ad4 50bd e402 8f3d
00000390: ea0d 073d c7e8 d13c f04c a13b e88a 403c
000003a0: da9a 7f3d 1b56 543d de97 263d ba28 b4bc
000003b0: 8b31 a73d 29f1 933d e2c1 bcbc 02ea 03bd
000003c0: fdae 9abd c6d7 a53d fd19 0bbc c3ce 83bc
000003d0: f9b7 00bd 64dc 913d ed87 5dbc 8b47 6ebd
000003e0: 8cac cebc 0c37 1c3c 7bff 8cbc 1366 bb3c
000003f0: d735 8bbd e598 d03c 0fbd 3cbd 834f 493c
-0.0556381 -0.008586981 0.0102448035 -0.06887807 -0.0737121 -0.0672532 -0.08878278 -0.06693832
0.06583631 -0.05064331 0.09424692 -0.05623002 -0.020778216 0.015062517 0.061965063 0.041256957
0.031854887 -0.036722768 0.027980661 -0.072508164 0.0049812137 0.06162067 0.020172765 0.038934283
-0.01951811 0.08535586 0.011761166 0.03781215 -0.0031881619 0.01629792 -0.07762071 0.060037684
-0.082924776 -0.047993228 0.017301848 0.03929879 -0.06098547 -0.04445415 -0.033033006 -0.08029644
-0.081988096 0.040520173 -0.0014914831 -0.015383134 0.038898673 0.030529851 -0.06955793 0.00037315703
0.0023433787 0.002578965 0.06824037 -0.05477298 0.038029954 0.04468168 -0.07415813 -0.07876011
0.05451818 -0.054001275 0.050643347 0.0042602737 0.00020168402 0.06478201 -0.02668362 0.002848866
-0.06579518 -0.006862044 0.08778782 0.09686749 -0.038187116 -0.049870163 0.07487415 0.08441359
-0.0043955524 -0.028219715 -0.063080326 -0.092589326 0.009123561 -0.07789183 0.04723345 0.07761627
-0.03431022 -0.051287856 -0.07693606 -0.01523678 -0.046046503 0.085356906 0.045850813 0.06261525
0.084422 0.0014479844 -0.054047823 -0.017270992 -0.060256746 -0.055745315 -0.08861925 0.028560601
-0.073491685 0.0040049907 0.056577977 -0.020843519 0.07740277 0.016178668 -0.026747717 0.03342357
0.07420974 0.046009324 -0.084774576 -0.028095318 -0.030504894 -0.043415483 -0.0052313255 -0.08296574
0.059586056 -0.048990726 0.054543573 0.009181955 0.031389616 -0.061634213 -0.06442886 -0.070481814
0.049835037 0.052375443 0.043592848 0.022411833 0.045104444 0.041178897 -0.046090934 0.017123828
-0.01670271 0.028402222 0.07698599 0.032527413 -0.019717608 0.055965763 0.057533436 -5.31626e-05
0.08135495 -0.05778886 0.05920219 0.010500545 -0.0056242743 0.003867982 0.07201894 -0.01854413
-0.052253995 -0.035858165 -0.049691323 0.04628016 0.059919782 0.032350484 -0.0142375985 -0.011292221
-0.006196963 -0.07749203 -0.018545765 0.0648981 -0.0068046493 -0.05842621 -0.091458835 0.0071532577
-0.033212565 -0.052043185 -0.022615144 0.07690923 0.044061348 -0.041457023 0.07670037 0.08026179
0.018914662 0.04387976 -0.038571328 0.07825662 -0.07627637 -0.07289816 -0.06672074 -0.0407946
-0.0030596617 -0.008314659 -0.05902432 0.05764052 0.018811459 0.037516184 -0.010889008 0.0050134626
0.04919852 -0.031023003 -0.014383734 -0.033154134 -0.045087956 -0.008023474 0.037519813 -0.032395672
0.035905745 0.04485225 -0.016774997 -0.05664107 0.06662861 0.052330818 -0.046196595 0.00042420602
0.02118895 -0.06934259 -0.028145501 -0.05491803 0.08747596 0.06277652 -0.004092378 0.04121748
-0.0132647585 0.05691765 0.0509057 -0.0068079615 0.05502739 -0.054674555 0.020114642 -0.067753345
-0.06339238 0.020057708 0.041648436 0.061322346 -0.03696886 -0.0063503594 -0.042772643 0.042723205
0.05864938 0.034420893 -0.050984003 0.06982973 0.032972254 0.025623692 0.0049225017 0.011751868
0.062403537 0.05183993 0.040672176 -0.021992076 0.081637464 0.07223732 -0.02304167 -0.03220559
-0.075529076 0.08097796 -0.008490083 -0.016089803 -0.03142545 0.07122114 -0.013521177 -0.058173697
-0.025228761 0.009534609 -0.017211666 0.022875821 -0.067973785 0.02546353 -0.046078738 0.0122870235

lstm1.weight_ih_l0_reverse f4 [512, 6]
00000000: 4912 6abd aef9 973d 63f0 10bd dda3 90bd
00000010: b64c 8b3b 0032 05bd 2ba8 5bbd c56c b5bc
00000020: 5349 35bd 0910 a4bd ca1d 6ebd 2e39 473c
00000030: 3ccb 353d dea4 5f3d 93b3 acbb 6ff4 94bd
00000040: e400 d03c 30de a0bd 71a6 a43c 3d54 d5bc
00000050: c69b 5aba 4894 1c3d ff47 5e3c 20c5 2fbc
00000060: f646 59bd 12f3 763d 2385 2dbc b135 263d
00000070: b7ed 90bd 7105 ed3c 59c2 4e3d 7d14 9d3c
00000080: 3b39 553d e980 913c 40b1 b1bc 9649 d3bd
00000090: 265f 13bc 6c71 b9bc dd34 923d 06ca 24bc
000000a0: bbc9 60bd 250b 563b d245 44bc 1ee1 9d3d
000000b0: 5170 253d 8185 93bc 0246 7cbd 60b2 67bd
000000c0: 633c a73d ca97 d73c 003e e6bc 0842 72bc
000000d0: fb6f b73d 7b5b 0fbc 9890 d43d ae3c 483d
000000e0: f46f 573c 356a 0f3d 2d30 abbc 43e8 0b3b
000000f0: 924c 103d 650b 56bd 5d17 d2bc 8a43 2cbd
00000100: c7a7 87bd 1b75 d13d 872b 803d a67a 713d
00000110: 885c 1b3d 4275 c33b 4b65 b63c e547 073d
00000120: 6ea1 c83d e376 b53d 6e42 a73b c09d 61bd
00000130: ec51 0b3d 2ae8 833d 50e0 48bb 8da9 813d
00000140: 9544 273d 1929 6cbd 1672 b13d 771f dbbd
00000150: a6ad 96bc d8af aebd e7dc bb3c f999 61bd
00000160: a4af b93c 3803 313c 9b97 45bd b942 7a3d
00000170: db99 6cbd cb78 863d c571 90bd 707c e4bd
00000180: 9a5a a8bd a581 c73c e064 f6bb 80ee e9bc
00000190: c78e 84bb 4e83 b6bd 1ef5 9ebd 042c f73b
000001a0: 2e97 81bd 805b 8fbd 95b5 573a 20ef 95bd
000001b0: 02bf a3bc 4b74 173d 47e1 5f3d bdef 953c
000001c0: 972c 37bd 106b ddbc 19fa 383d cf9e 33bd
000001d0: 32a8 413d 865b e13c 346e acbd ff4b a53d
000001e0: e4f0 cf3b 08ec 83bd 7881 1ebd f1a2 083d
000001f0: c9bc a93c 72cb cd3d 74bd 03bd a4de b13d
00000200: 7359 313d 22fe 183d abf9 a53c e83a 28bd
00000210: 7fe1 c5bd c3d5 d33c 3a1d 253d 015d a93b
00000220: cb7f 263d 713c 0a3e f997 84bd c815 55bd
00000230: 6359 82bb 5311 2d3d 36c7 663d d09e 753d
00000240: 99e3 833c f3a5 393d 3335 a53d e63b 4b3d
00000250: 11d4 38bc 8283 4fbd 4861 edbc 0c71 9d3d
00000260: 1eab b7bd 68a0 0d3c a8e7 a83c 63f6 2fbb
00000270: fb35 42bd a707 73bd 1c50 e93b 7639 3cbd
00000280: ee51 cb3c 5a7b 0dbd a94f f8bc e0b9 a6bc
00000290: c61a df3c 3a18 673d e784 b53d bc22 443b
000002a0: cd4c c3bd 0a30 03bd 576e b83b 7332 c03c
000002b0: 274e aa3d 1593 cbbd 2a7e 10bd 863b 443d
000002c0: 9170 213d bbca 27bd de19 8b3c 8c4c 853d
000002d0: f50e 5abc a4f6 aabc 4914 2ebb 0f86 48bd
000002e0: 6dfc a7bd 0042 813d 546e cc3c aeba 7dbd
000002f0: ddbe 643c a7a1 f2bc f217 a43d c858 f0bc
00000300: dd4d ac3d d638 293d f156 753c 490d eb3c
00000310: adc9 6c3c 223f ef3c 85df 53bd ecfd 12bd
00000320: c6aa 59bd 07f2 7c3b 7cf0 63bd e862 173d
00000330: 5295 f3bc 8c51 973d 867e a33c e52c c3bd
00000340: c6a6 063d fcea cf3c 6bca 45bd dcb8 ae3c
00000350: e118 233d 886a 9cbd b57f b0bd 45b2 10bd
00000360: 13ed 2c3d ecdf 1dbd 6a0e 13bd 5a99 05bd
00000370: 48af e1bb adf7 123c 6259 53bd c7e7 b7bb
00000380: 612e bfbc cb92 d0bc eb68 873d 9527 83bd
00000390: 804f 99bb 544b 9cbb b61b 1b3d 1f74 38bd
000003a0: 0a97 6a3c 56d0 88bd 5ca2 a83d 5373 ea3c
000003b0: 965b 8e3a 31ec 82bd 4eda 743d 4e9a 863d
000003c0: 3aae 943d 5a5d 42bd b6b3 2d3c d08f 2fbd
000003d0: ae05 83bd 1674 a4bd 9cb9 503d c52d bcbc
000003e0: 3ad4 243d 4ada a9bc 55ca cbbb 235b b23c
000003f0: 74e3 62bd a1a2 8bbd 22b0 423d 4baf 133c
-0.057146344 0.074206695 -0.0353855 -0.070625044 0.004251088 -0.032518387 -0.053627174 -0.022146592
-0.04425938 -0.08010871 -0.058133878 0.012159629 0.044383273 0.05460059 -0.0052704304 -0.072731845
0.02539105 -0.07854879 0.020098897 -0.026041145 -0.0008339252 0.03822735 0.01356697 -0.010728151
-0.05304619 0.060290404 -0.010590824 0.040578548 -0.070765905 0.028933259 0.050478313 0.019174809
0.052056532 0.017761664 -0.021690965 -0.1031677 -0.008994853 -0.022637092 0.07138989 -0.010057932
-0.054879885 0.0032660451 -0.011979537 0.07708953 0.040390316 -0.018007996 -0.061590202 -0.056566596
0.08165815 0.026317496 -0.028105736 -0.014786251 0.089569055 -0.008749838 0.103791416 0.048885994
0.01314925 0.035013396 -0.020896995 0.0021348156 0.035229273 -0.05225696 -0.025645906 -0.042056598
-0.06623798 0.10227414 0.06258302 0.058954857 0.03793004 0.005964906 0.022265097 0.03302755
0.09796415 0.088605665 0.0051043546 -0.055082083 0.034013674 0.06440766 -0.0030651279 0.06331167
0.04083689 -0.05765638 0.08664338 -0.10699361 -0.018393349 -0.08529633 0.022932483 -0.05507848
0.02266676 0.01080399 -0.048240285 0.061098788 -0.057763916 0.06566008 -0.0705295 -0.11156547
-0.08220406 0.024353812 -0.0075193495 -0.028556108 -0.0040453407 -0.08911763 -0.07761596 0.007543089
-0.06327663 -0.06999874 0.0008228657 -0.07321 -0.01998854 0.03697614 0.0546582 0.018302793
-0.04472026 -0.02702859 0.045160387 -0.043852624 0.047279544 0.027509462 -0.08419457 0.08071136
0.006345855 -0.06441504 -0.03869769 0.033358518 0.020719903 0.1004857 -0.0321631 0.086850435
0.043298196 0.037351735 0.020260653 -0.041071802 -0.096621506 0.025858765 0.040311076 0.0051685576
0.040649217 0.13499619 -0.06474299 -0.052022725 -0.003977941 0.04225285 0.056342326 0.05996591
0.016099738 0.045324277 0.080667876 0.04961767 -0.011281029 -0.050662525 -0.028977051 0.076875776
-0.08968185 0.008644201 0.020618275 -0.0026849739 -0.04741476 -0.05933347 0.0071201455 -0.045953237
0.02481934 -0.034541465 -0.030311422 -0.020352304 0.027234446 0.05641959 0.0886324 0.002992793
-0.09536133 -0.032028235 0.005628388 0.023461556 0.083156876 -0.09940163 -0.03527657 0.04790833
0.039413992 -0.040964823 0.016980108 0.06508741 -0.01330923 -0.02086956 -0.0026562384 -0.048955973
-0.08202443 0.063114166 0.024954952 -0.06194561 0.013961521 -0.029618097 0.0801238 -0.02933921
0.08413289 0.04131397 0.014974342 0.028692858 0.01445238 0.029204909 -0.051726837 -0.03588669
-0.053141378 0.0038596408 -0.055649266 0.03695956 -0.029734287 0.07388601 0.019957792 -0.09530047
0.03287389 0.025380604 -0.048288744 0.021328382 0.03981865 -0.07637507 -0.08618108 -0.03532626
0.04221828 -0.038543627 -0.03590242 -0.03261695 -0.00688735 0.008970183 -0.051598914 -0.005612347
-0.023337545 -0.025460621 0.066118084 -0.06404034 -0.0046786666 -0.004769722 0.037868224 -0.045032617
0.014318237 -0.06680362 0.082340926 0.028619444 0.0010861035 -0.06392706 0.059778504 0.065724
0.072597936 -0.04745231 0.010601928 -0.04286176 -0.06397568 -0.08029954 0.05095826 -0.022971043
0.040241458 -0.020733971 -0.006219188 0.021771973 -0.055392697 -0.068181284 0.047531255 0.009013961

lstm1.weight_hh_l0_reverse f4 [512, 128]
00000000: 6671 88bd 2a0c 0e3c aec5 9cbc 097e a2bd
00000010: 57cc 1ebd 32f0 123d 070a 57bc 9185 1a3c
00000020: 851a 02bd e9e4 b03c cfa1 bc3c 8426 dbbd
00000030: 94f9 1ebd 3f86 6c3d 0b86 883d c9e5 85bd
00000040: a800 80bd 76af 19bd 8095 5e3d 203e 773b
00000050: 5970 1f3d d3ae 643d 2cf9 b03c b072 66bc
00000060: d490 5abd a2d6 a5ba a404 c33b aa01 3abc
00000070: 4295 ab3d b27d 8b3d b014 0cbd 3dba 51bd
00000080: 7f8b 43bd 7701 873b 0da6 4e3d 2bb6 95bd
00000090: 6b5b 5ebd 3eb7 a93d 320b 373d 663e a5bd
000000a0: 1ec5 76bd f6cb c9bc 555f 373d 4fdd 9a3d
000000b0: 39cb a0bd e4b0 90bd 9989 0a3b 448c 11bd
000000c0: 94d1 a6bd 08d5 94bc 2931 74bc 4f0a c5ba
000000d0: e8c2 7abc 68d8 0a3c 6c86 57bd 5e59 f6bb
000000e0: 62e7 17bd 019a 58bc c454 6a3d 693a efbb
000000f0: 1fd0 94bc 0650 7ebd 0914 7dbd ce94 ffbc
00000100: 5986 b8bd 3597 103d 600e 613c 48b9 843d
00000110: 000e 1cbd 9a68 93bb 19de 86bc 928e 95bd
00000120: 5cfd 763d f221 f5bc 8c90 02bd 0c7f ee3c
00000130: e91c c33a 298e e23b be01 78bd b4f1 27bb
00000140: 657b 8d3d a0e7 3ebd da21 60bd 4c89 613c
00000150: ef5d fbbc 035f a9bd b06f 19bd a048 c5bc
00000160: 79aa dd3c 25d9 a53c 9b27 8dbd bb19 993d
00000170: f2cc 0b3d a14d 243d 8bcd 43bd 1413 a7bd
00000180: 77f9 3b3d 6a2b 873d 0f3d c23d 528a 323d
00000190: f404 ab3c db24 a83c 0867 b83d b5d7 613d
000001a0: a232 c6bb 3bca 74bd 58ca de3d 1349 9d3c
000001b0: 46a4 c5bd 506a 833d e108 813d 14d9 81bc
000001c0: 65b7 d1bc b5f5 9a3c 347d 233d 3904 423d
000001d0: 3086 3dbd 4f71 92bd cf56 00bd 35fb 9dbb
000001e0: 000b 02bd 9a05 59bd b3ef 5cbd 7d50 18bc
000001f0: 22b4 e3bc fe1f 0a3d 5a4a 11bd 0219 2abd
00000200: 65a2 823d 603d 07bd c80e 403d ba06 aebc
00000210: e75e 203d 8a74 c4bc 6a29 423d 79f8 a8bd
00000220: df47 843d 2ae2 753d c196 4c3d 3dd6 a6bd
00000230: 2e9a e43d d9e4 65bd 5c5e 9bbb 74d1 91bd
00000240: 4abd 5c3d 3982 6abd 5568 543a 2c3e 3c3d
00000250: db7b e7bc 74b7 62bc e154 24bd 2180 c23c
00000260: c832 e0bc 8b77 c43c f14c 473d 323a f3bc
00000270: b3f1 5a3d 7db4 393d c7a4 903d d41e 83bd
00000280: 779b 39bd f53f 583c 95da 1c3d f719 ab3d
00000290: f141 a83d 5683 59bd ad25 543d c5e6 9c3d
000002a0: 2c65 b33b 1585 49bd e420 2b3d 07f6 6b3d
000002b0: 8541 4b3c 4aa6 9fbd 120c a7bd 06e9 c2bd
000002c0: 046d 99bb 17ba b63c d95d 5c3d 363b b6bd
000002d0: ffa0 0b3d 2de7 633c 240e 593d 7876 c5bd
000002e0: 6268 5fbd da61 183d 9877 cabd ebad c7bd
000002f0: 4ab1 7b3d f8ca 853b 3bb5 a2bd 6ec4 413d
00000300: 7b9d a8bc cc2d 3c3d 366b bbbb 99ca cf3d
00000310: 4190 2abd c9c7 94b9 2b5c 54bd c5ab 19bd
00000320: 9760 453d 3d73 6abd a451 30bd f90e 7bbd
00000330: d385 75bd 5869 b93a d431 93bd 16cb 573d
00000340: 5be2 7b3d 7426 823b 8c1c 8abd 2880 a43b
00000350: b43e 523d 5104 a83c 8d68 813d cea6 2b3d
00000360: c433 bf3d 284f 31bd 9132 25bd 1ba1 6fbd
00000370: 21f8 163d 9fd4 75bd bcfa 983d 2de3 b53d
00000380: a73d abbd 1492 163d 03ee 43ba 6a27 443c
00000390: d936 fa3c 375b 83bd bfa5 b13d 90a2 97bd
000003a0: 3de8 e1bc 2849 5b3d b8ea 203c cb5a 69bd
000003b0: 7350 c33c 0722 88bd 111b 9dbd 54cc 2a3d
000003c0: 47ea b1bd c63d ff3c 0713 953c 7e68 8f3d
000003d0: 7f2f a2bd 85f5 683d 00e3 743c 43be f4b9
000003e0: d94f 94bd 3839 3ebd d041 0bbd c7de bebd
000003f0: 8da5 78bd 43fa cc3c e4f4 96bd 1539 e63c
-0.06662254 0.008669892 -0.01913723 -0.079341955 -0.038769092 0.0358736 -0.013124949 0.009431259
-0.031763572 0.021593528 0.023026375 -0.10700706 -0.038812235 0.057745215 0.06666192 -0.06537969
-0.06250125 -0.03752085 0.054341793 0.0037726238 0.038925502 0.055830788 0.02160319 -0.01406543
-0.053360775 -0.0012652467 0.005951481 -0.011352936 0.08378078 0.06811084 -0.034199417 -0.051203
-0.047740456 0.0041200477 0.050451327 -0.073101364 -0.0542864 0.08286904 0.04468841 -0.08068542
-0.06024658 -0.024633389 0.04476865 0.075617425 -0.07851262 -0.07064989 0.0021139144 -0.03553416
-0.081454426 -0.018167987 -0.014904299 -0.001503298 -0.015305258 0.008474447 -0.05261843 -0.0075179776
-0.0370859 -0.013220311 0.057209745 -0.007300664 -0.018165646 -0.062088035 -0.061786685 -0.031198885
-0.0901 0.035300452 0.013736337 0.06480652 -0.03809929 -0.0044985535 -0.016463326 -0.07302584
0.060300216 -0.029923413 -0.031876132 0.029113315 0.0014885935 0.0069139195 -0.060548536 -0.0025626244
0.06908301 -0.046607614 -0.054719783 0.013765644 -0.03068444 -0.08270075 -0.03746003 -0.024082482
0.027058827 0.020245144 -0.0689232 0.07475611 0.034130998 0.040113095 -0.047803443 -0.08157936
0.045892205 0.066000775 0.09484302 0.043588944 0.020876385 0.020525387 0.09004027 0.055137355
-0.0060485164 -0.059763175 0.10878438 0.019199884 -0.09650473 0.06416762 0.06300522 -0.015850581
-0.025600145 0.01891599 0.039914325 0.04736731 -0.04627055 -0.07150518 -0.031332787 -0.004821206
-0.03174877 -0.052983858 -0.053939532 -0.009296534 -0.027795855 0.033721916 -0.035471298 -0.041527756
0.063786305 -0.033017516 0.046889096 -0.021243442 0.039153006 -0.023981351 0.047402777 -0.082505174
0.06459021 0.06003014 0.049948458 -0.081463315 0.1116222 -0.05612645 -0.004741473 -0.07120028
0.053891458 -0.057253096 0.0008102705 0.04595773 -0.028257301 -0.013837684 -0.04012001 0.023742737
-0.027367964 0.023982784 0.04865736 -0.029690836 0.05345316 0.045338143 0.07062679 -0.064023644
-0.04531428 0.013198842 0.038294394 0.08354562 0.08215702 -0.053103767 0.051793743 0.07661203
0.005474707 -0.049199183 0.041779414 0.057607677 0.012405758 -0.07795389 -0.08156599 -0.09517102
-0.004682185 0.022305531 0.053800438 -0.08898012 0.034089085 0.013910097 0.052992 -0.09641737
-0.054542907 0.037202694 -0.09886092 -0.09749969 0.061448373 0.0040830337 -0.07944723 0.04730647
-0.020582905 0.045942113 -0.0057195676 0.10146064 -0.041641477 -0.0002837761 -0.05184571 -0.037517328
0.04818782 -0.057238806 -0.04304661 -0.061293576 -0.059942078 0.0014145775 -0.07187238 0.052683912
0.061495166 0.003971869 -0.06743726 0.00502016 0.05132933 0.02050987 0.063187696 0.041907124
0.093360454 -0.04328838 -0.040331427 -0.05850325 0.036857728 -0.060017224 0.07469699 0.08881221
-0.083613686 0.036760405 -0.0007474126 0.011972288 0.030543732 -0.06413882 0.08674192 -0.07404053
-0.02757656 0.053536564 0.009821586 -0.056971353 0.023842072 -0.06647115 -0.07671178 0.04169877
-0.08687263 0.031157386 0.01819755 0.07002352 -0.079192154 0.05687477 0.014946699 -0.00046681063
-0.07241792 -0.046441287 -0.03399831 -0.09319835 -0.060704757 0.025021678 -0.07370928 0.02810339

lstm1.bias_ih_l0_reverse f4 [512]
00000000: da67 bd3c 9ca1 97bd 8f66 5e3d 5320 90bd
00000010: d0c2 803b 70ca 96bd 17ae 9e3c caa3 8dbd
00000020: 39b4 8dbd 6dd8 1dbd 9485 87bd 042a 24bd
00000030: 034f 833d 8980 923d c3a8 01bc 765e 69bd
00000040: 033d 65bd f2f3 403d baa0 02bd 34f0 d13c
00000050: bf94 8fbd d267 c1bc 96e1 073c 9edb 033c
00000060: db3f 3bbd 2ead cabc 9365 91bd 4af8 a3bd
00000070: ae43 88bd 9bbe 87bd 57c9 60bd 20bd 98bd
00000080: 0b11 043d 10ca ef3c 4377 3abd 66ca 8cbd
00000090: 97e8 7fbd b77b ab3d ca1b b2bd 319e 98bc
000000a0: 2a78 afbc c1c3 b43d f04f ccbd fa0e 01bd
000000b0: f6a5 5abd 0fb2 bdbc fde6 c3bc e9ce a03d
000000c0: 59b5 8cbc b6a8 333d 57f0 b13d f6f0 4d3d
000000d0: c285 ca3c b88f ab3c f8b5 373d 72c3 66bd
000000e0: 89d2 e63c 28a0 92bd 0a7e 94bd 29b4 b9bd
000000f0: b216 9f3c e95c a43d 0fc9 8dbd eded 81bd
00000100: 88e6 033d 9bc6 a03d d09a c73c d642 2fbd
00000110: 932f 8bbd a8dd 543d 2ba4 bc3c 4632 11ba
00000120: 5148 883d cd87 1fbc 86ac 603d d651 cdbc
00000130: 821c c3bc 26a2 9bbc 3d63 50bd 8e29 86bc
00000140: 5f3b 46bd 2c88 12bd 6aa4 f0bc e6ca b03c
00000150: 2118 4cbd da01 d8bc 642c 52bd 0c07 213c
00000160: f8a9 ba3d deaa 693b 5e2f e3bb 1db0 923d
00000170: d1f2 0b3d 10f1 5dbd f815 69bd 9f0b 9dbd
00000180: 454e 70bc cdf9 053d 3eec 6b3d c6d2 593d
00000190: 05aa cdbc b155 b3bd eebe 963d b276 fbbc
000001a0: e33e 373d 6818 a2bd cd90 9cbd ca7c 7bbc
000001b0: 465d 463d 5c4f 4f3c 0ea5 fabc e937 adbd
000001c0: 3050 2e3c 47f4 a23d 252d f13c 4816 50bd
000001d0: e952 e23c 12bc 3dbd d843 30bd 3fe8 763d
000001e0: 46ef 30bd a11f ffbc 3f0d a0bd 1da6 f13c
000001f0: e49c d83c b688 9abd 65fc 71bd 572b 97bd
00000200: 5f5b afbd 3c01 ad3c 3de9 6dbd 82c2 8bbc
00000210: 8528 9bbd b193 5cbd c9d5 893d ac2e c93d
00000220: 362f 523d 08ea 843d d03c f43c 5912 28bd
00000230: 1c33 96bc b1f3 e23c 5887 fb3c 049c a03d
00000240: 1593 2a3d c964 843d fdfe b7bd a0a5 c93c
00000250: 85ef 063d 81d6 66bd d4ba 873d a214 333c
00000260: b3a8 a83c 0322 5ebd 8247 adbb 80c2 113d
00000270: 64cb 913d a8d0 893d 5604 7bbd 5dc3 54bd
00000280: ca75 55bd 70e5 5b3d 0cff b43d 3b6c 9f3c
00000290: f37d 41bc e010 4fbd c0f0 a13d e9a5 babc
000002a0: 7274 9fbd 1e23 2bbd 6075 be3b 78a3 613d
000002b0: 7009 96bd bdaa 4a3d c8b3 d6bc 18da bf3c
000002c0: a46a ef3c 886c 8cbd 7512 a53d d11d e03c
000002d0: 8fa2 493c fd8f 8f3b ae13 80bd 0587 c2bd
000002e0: ca62 883d 7430 8d3d f2a7 f23c 9172 0fbd
000002f0: 1147 25bd ff3f 3e3d e690 893d 44af 4abd
00000300: ba8c 2dbb 4403 5a3d 0c76 a6bd 6fea 6ebd
00000310: deb6 433d 7aea abbd 5750 9ebc 8138 6c3d
00000320: 7b80 4abb fcc2 3bbc 7881 99bd 9aab dcba
00000330: ce69 343d ec64 993d 3ecc babd 8369 d1b9
00000340: d58f 83bd 81e4 003d e761 823b 6a23 9c3d
00000350: 57a4 063d 9a61 673c 6d49 52bd 48e0 6bbd
00000360: 980f 61bd dfd9 b1bc 69bb 1fbc 7437 9b3c
00000370: c040 b13d 1b60 803d 72d9 2f3c 004a 123d
00000380: d2a7 55bd 19e6 c9bd 0ad5 b6bd ce87 803d
00000390: a849 5cbd 67d2 c5bd 7824 343d 8e6e 5f3c
000003a0: 763b 013d ebd2 bb3c 1726 223d 4e8a 6d3d
000003b0: d3ca 1b3d 3d5f 763d dafa d53c e100 c0bc
000003c0: 7de6 943d 7d8c bf3d 229e afbd 6b59 2f3d
000003d0: 8f8a 103d 27e8 eabc 6559 263d 4086 2c3d
000003e0: daa4 993d 35b9 a0bd 259b 143c d94e 8abd
000003f0: b445 ed3c e544 e23c 2744 ebbc e116 ad3d
0.02312081 -0.074038714 0.054297026 -0.07037415 0.0039294735 -0.07362831 0.019370122 -0.06916006
-0.0691914 -0.038536478 -0.06617275 -0.04007913 0.06411555 0.071534224 -0.007913771 -0.05697485
-0.05596639 0.047107644 -0.031891562 0.025627233 -0.07010793 -0.023609076 0.00829353 0.008047966
-0.045715194 -0.024740782 -0.07099452 -0.08006342 -0.06653534 -0.06628152 -0.054879513 -0.07457948
0.032242816 0.029271156 -0.045523893 -0.06874542 -0.062477674 0.08373206 -0.086967066 -0.018630119
-0.021419603 0.088263996 -0.09976184 -0.031508423 -0.05338093 -0.023156194 -0.023913855 0.07851965
-0.017176317 0.043862067 0.08688419 0.050278626 0.024721984 0.020942554 0.044851273 -0.056338735
0.028176563 -0.07159454 -0.072506025 -0.09067566 0.019420002 0.08025534 -0.069231145 -0.06344209
0.032202274 0.07850381 0.024365813 -0.04278835 -0.067961834 0.0519692 0.0230275 -0.00055388024
0.06654418 -0.009736967 0.05485203 -0.025063436 -0.023817305 -0.018998217 -0.05087589 -0.016377237
-0.048396464 -0.035774395 -0.029375274 0.021581125 -0.0498277 -0.02636807 -0.051311865 0.00982834
0.0911445 0.0035654823 -0.006933137 0.07162497 0.034167115 -0.054184973 -0.056905717 -0.07668232
-0.014667098 0.03270893 0.057598345 0.053179525 -0.025105486 -0.08756579 0.07360636 -0.030696247
0.044737708 -0.079148114 -0.07644806 -0.015349576 0.048428796 0.012653198 -0.030596282 -0.0845793
0.010639235 0.079567485 0.029440472 -0.0508025 0.027627425 -0.046321936 -0.04303345 0.06028008
-0.04319694 -0.031143012 -0.078150265 0.029498154 0.026441999 -0.07545607 -0.059078593 -0.07381313
-0.085623495 0.021118753 -0.05808376 -0.017060522 -0.07576088 -0.053851787 0.067302294 0.09823355
0.051314555 0.064899504 0.029814154 -0.041033123 -0.018334918 0.027704092 0.030704185 0.078422576
0.041644175 0.06464536 -0.08984182 0.024615109 0.032943267 -0.05635691 0.066274315 0.010930212
0.020588255 -0.054231655 -0.0052880654 0.03558588 0.07118872 0.06729251 -0.061283432 -0.051944125
-0.052114286 0.053685606 0.08837709 0.019460788 -0.011809814 -0.050553203 0.079072475 -0.02278419
-0.07785882 -0.041781537 0.005812332 0.055087537 -0.07326019 0.049479235 -0.026208773 0.023419425
0.029225655 -0.06856638 0.08060161 0.027357968 0.012306823 0.0043811784 -0.062537536 -0.09498409
0.066594675 0.06894007 0.029621098 -0.03502137 -0.040350977 0.04644775 0.0671709 -0.049483553
-0.0026481585 0.05322577 -0.081279844 -0.058329042 0.047781818 -0.08394332 -0.019325418 0.057671074
-0.0030899334 -0.011460062 -0.07495397 -0.0016835809 0.044046216 0.074899524 -0.09120987 -0.000399422
-0.06423918 0.03146792 0.003978956 0.07623942 0.03287157 0.014122391 -0.051339556 -0.05758694
-0.054946512 -0.021710334 -0.009749272 0.01894734 0.08654928 0.06268331 0.010732995 0.035715103
-0.052162 -0.09858341 -0.08927353 0.06275903 -0.05378118 -0.09659272 0.04398009 0.013637198
0.031550847 0.022927722 0.039587107 0.057993226 0.038035225 0.06014942 0.026120592 -0.02343792
0.07270525 0.09352968 -0.08575083 0.042809885 0.03528839 -0.028675152 0.040612597 0.04212022
0.07502146 -0.078478254 0.009070192 -0.0675332 0.028963901 0.027620742 -0.028719021 0.084516294
