results/models/TSXComposite_GRU_model.pth (torch, 683437 bytes, 19 tensors)

gru1.weight_ih_l0 f4 [384, 6]
00000000: 65e3 8b3d 25f0 b03d 9918 a23c d443 98bd
00000010: d465 36bd e745 2a3c bd33 4dbd cc0e 99bd
00000020: 2e2f 6fbd b89b 9cbd db7f 843b 43d6 a03c
00000030: b328 8dbd c943 2ebd 4aea aebd bb90 8cbd
00000040: 2763 6fbd dbeb b33d 41fd 4cbc 5d43 76bd
00000050: d962 eb3c 3481 b3bd 437c a1bd c2e8 74bc
00000060: 97c5 0e3d f626 a43c b3db c9ba 24ac ad3d
00000070: 941c 8dbd 8422 973b b3f7 1abc 4b90 b53b
00000080: 6b22 733d 675e a9bc 5839 2e3c 7c33 143d
00000090: e2ba 373c cacd a93c bf49 a4bd 5f43 913c
000000a0: 7e68 4abd 43ac 87bd 83a7 68bd 6520 703d
000000b0: c996 3c3d ccf8 b03b 9cf8 07bd 68e6 c9bc
000000c0: 8869 ce3c 3302 cd3b 5945 263b 1c41 b53d
000000d0: 58ca adbd adae d93b 9999 553d 4bf1 883d
000000e0: 80fa 663d f47c 21bc 5b8f b7bd d55b c1bd
000000f0: b0e9 993c 01fa 423d fd77 893c e8a4 dfbc
00000100: 2ea4 82bd 30e8 a33d 92a8 15bd 7fde 72bd
00000110: e25d 9abc 12c8 a7bc dd4c 0fbd 9757 19bc
00000120: 1fd9 ddbc 0152 923c 4a0a a83d 5156 4abd
00000130: da11 24bc dbe0 40bd 8ed5 453d 6e67 d03d
00000140: 5b6e 303d 57b2 f1bc 2ff6 833c 47d0 12bd
00000150: c1c6 913d 506b a7bd fba8 9bbd 1175 9d3d
00000160: 84dd 633d 3f24 10bd a134 9ebd f64a 3e3d
00000170: 8bee 953c beb0 60bb 94d5 993c d52a b5bd
00000180: 8d11 8abd 0440 273d 6f56 853d 8722 bcbc
00000190: 34df 4c3d c132 623d 1b7f 7ebd a7ed 863d
000001a0: 3c94 1cbd 3f02 633d 0411 b33d 2954 0ebd
000001b0: 19df 39bd 2a86 3a3d 769c bebc a9dc a33d
000001c0: 6729 1bbd d1c3 6fbb e223 22bc cee1 35bd
000001d0: 5d0c adbd 1d35 573d c8e0 0bbd 731d a5bd
000001e0: 78a7 213d 48f7 f73c d583 503d 60d7 aebd
000001f0: f9bd a6bd 0b06 11bd 4fc2 2ebd 0827 90bc
00000200: d3e9 6ebd 300b 423d 3cac a3bd 5bc9 ccbc
00000210: fdc9 223d 3cff a93c 5282 3cbb d1cb 213d
00000220: 1a75 593d 90f0 84bc 4d5e 1fbd 9813 e5bc
00000230: 1f48 db3b 7a02 b43d 4c0c 3c3d f93c ad3d
00000240: c1b3 a23d e770 aa3d 1957 0c3d 1243 59bd
00000250: 3b9a c0bc c285 a43d 0c1c 863d c517 36bd
00000260: a3ee 30bd f1e6 893d 9b8e 5cbb 66e3 a7bd
00000270: 7cb6 36bd ea16 033d 56af 47bd b70e 88bc
00000280: 3079 a33c 2a8a 013d f06a 20bd 7682 993d
00000290: e064 6cbd 0867 e43c 858a 3b3c 15ac 8bbd
000002a0: d8ab 09bd 0037 26bd 1af9 3bbd 6780 863d
000002b0: 9e47 c73c 7423 86bd 07c2 6a3d 21f8 5c3d
000002c0: 3b24 96bd 2c8c 4abd 38e8 adbd ad25 453d
000002d0: 8173 933c 371f d33c 3f48 873d 11b9 0cbd
000002e0: fc21 943d d631 983d e52a 17bc e220 b63c
000002f0: 4093 a3bd 11c4 bebd d022 7cbc b147 babc
00000300: 3f67 dabc 93e4 783b 6af8 0dbd 0f31 013d
00000310: 42ad b6bd 47f1 be3d a43f 11bd 0bca 8fbd
00000320: 2bb8 b33d 3628 723d dab5 ab3c 515d 4dbd
00000330: 48c9 983d bd53 10bd 269f 8abd 9297 293b
00000340: 41ba 2abd 1969 a4bd 8887 82bd 69f1 52bd
00000350: 2274 883d 724b 853d 833a e4bc f5e7 703d
00000360: 1364 afbd 8e83 63bd 421e 7a3d bba3 8c3d
00000370: 5130 b5bc 1df6 9b3d 0c4c 873d ca87 ed3c
00000380: 9925 d53c d138 7e3d 87d5 953d e5a5 3ebd
00000390: 356b 3c3d 3ae7 3e3d 2d6d 7bbd 35e6 c3bc
000003a0: dd08 83bd 98c5 afbb d74f bdbd 8ead 7bbd
000003b0: 6893 743a 8b83 853c 3bdf b33d a530 52bd
000003c0: 9c31 90bd b6d6 463d 7a5f 31bc 9c34 05bc
000003d0: 892a e63c 2dc7 92bd 0bc8 57bd 73fa 9e3d
000003e0: 9a37 2ebd f6f1 52bc cd55 51bd a06a 273d
000003f0: 401a 253c e9e6 4a3c 34f8 353c 0d63 ec3c
0.068304814 0.08639554 0.01978712 -0.07434812 -0.044530705 0.010392643 -0.05009817 -0.074735254
-0.058394603 -0.076468885 0.004043562 0.019633418 -0.068925284 -0.042545114 -0.08540781 -0.06863543
-0.05844417 0.0878522 -0.012511552 -0.060122836 0.028733658 -0.08764878 -0.07885029 -0.014948072
0.034856405 0.02003811 -0.0015400558 0.08480099 -0.068902165 0.004612269 -0.00945847 0.0055408827
0.059358995 -0.020674897 0.010633789 0.03618191 0.01121399 0.02072801 -0.080218785 0.01773232
-0.049416058 -0.06624653 -0.056800377 0.058624644 0.046042237 0.0054007526 -0.033196077 -0.024646
0.025196806 0.0062563657 0.0025370924 0.08850309 -0.0848586 0.0066431374 0.052148435 0.06686648
0.05639124 -0.009856451 -0.0896289 -0.09441344 0.018788189 0.047601704 0.016780848 -0.027300313
-0.06378971 0.080032706 -0.036537714 -0.05929422 -0.018843595 -0.020481143 -0.034985412 -0.009359262
-0.02708107 0.017861368 0.082050875 -0.049398724 -0.010014022 -0.04708944 0.048299365 0.10175978
0.043073993 -0.029503984 0.0161086 -0.03584316 0.071179874 -0.08174765 -0.0760059 0.07688344
0.055631176 -0.035190817 -0.07724882 0.046458207 0.018302223 -0.0034285034 0.0187786 -0.0884606
-0.06741629 0.040832534 0.065106265 -0.022965683 0.05001755 0.055224184 -0.062132936 0.06588297
-0.038227305 0.055422064 0.0874348 -0.03474823 -0.045378778 0.045538105 -0.023267966 0.08001072
-0.03788128 -0.0036585222 -0.00989625 -0.044404797 -0.08449624 0.052540887 -0.034149915 -0.080622576
0.03946635 0.03026928 0.050906975 -0.08537173 -0.08141703 -0.035406154 -0.042665776 -0.017596737
-0.05832846 0.04737395 -0.079918355 -0.024998358 0.039743412 0.020751588 -0.00287642 0.039501015
0.053090192 -0.01622799 -0.03890829 -0.027963445 0.006691947 0.08789535 0.045910165 0.08458895
0.079444416 0.08322316 0.03426275 -0.05304248 -0.023511043 0.08033325 0.06548318 -0.044456262
-0.04319633 0.06733502 -0.0033654335 -0.0819767 -0.044607624 0.032004274 -0.048751198 -0.01660858
0.019955248 0.031625904 -0.039164484 0.074955866 -0.05771339 0.02788116 0.0114466 -0.068199314
-0.03361115 -0.040579796 -0.04589186 0.065674596 0.024326142 -0.06549731 0.057313945 0.05394757
-0.07331129 -0.049450085 -0.08491558 0.048131634 0.017999412 0.02577172 0.06605577 -0.03435618
0.072330445 0.074313805 -0.009226535 0.022232477 -0.0798707 -0.093147404 -0.015389159 -0.022739263
-0.02666056 0.0037978038 -0.034660734 0.031540927 -0.08919765 0.09323364 -0.035461083 -0.070209585
0.087753616 0.05912038 0.020960737 -0.05013782 0.07460266 -0.03523611 -0.067686364 0.0025877696
-0.04168153 -0.08027858 -0.06373507 -0.051499758 0.066627756 0.06508531 -0.027859932 0.05881496
-0.085640095 -0.055545382 0.061064012 0.068671666 -0.022117766 0.07615302 0.06606302 0.028995413
0.026018905 0.062065903 0.07316118 -0.046544928 0.046000678 0.046607234 -0.061383415 -0.023913482
-0.06398175 -0.005364131 -0.09243744 -0.06144481 0.00093298266 0.016298076 0.08782812 -0.051315922
-0.07040712 0.048544608 -0.010825986 -0.008130219 0.028096454 -0.07166896 -0.05268101 0.07762613
-0.042533495 -0.012875071 -0.051107217 0.04087317 0.010077059 0.012384155 0.0111065395 0.028855825

gru1.weight_hh_l0 f4 [384, 128]
00000000: 69f8 5e3d 494e 183d adb4 103d 6355 24bd
00000010: 9ed1 bfbb c2ab 983d 79af 983d 8a02 a0bd
00000020: 9de8 c1bb 5652 7f3d 46d5 b93d 677a 913d
00000030: 1c14 ba3d ec6d f8bb 5362 583c d97f 953d
00000040: 90ea 623d e989 8d3d 7c44 50bd f044 503d
00000050: b345 b7bd 77d5 9c3d f5ac 51ba 4a68 7bbc
00000060: 918a 7c3d eb42 cb3c 7f3a 653d bc41 adbd
00000070: cafd e83c f4a0 643c f36e a33d 4e31 793d
00000080: 30eb f63c 18ec cd3c 6257 bc3c 06d6 3d3d
00000090: e53d 8a3d 5c61 b8ba 8b7e 9abd 9c88 7dbd
000000a0: d873 c3bd 7ff7 4b3d aacc 743d 67cd 863d
000000b0: 7ca2 aabd d851 9ebd 74a5 673d c3e0 0a3d
000000c0: afa6 963d 92a0 84bd 0379 3d3d d0d2 573d
000000d0: 5ad6 bd3c e6d7 8ebd 7371 5cbd e553 4b3c
000000e0: df64 563d d278 113d 7b69 943c b296 e3bc
000000f0: dc96 3ebd 4fb8 583d 79ca 443d a237 583c
00000100: e6f1 29bc ecf1 9a3d 168f 5cbd 805b 25bd
00000110: a1cc a13d e362 9a3d b21e e43c bcb2 0c3d
00000120: 5df8 b0bc 3c3e f2bc d7da 913d 8d1c 3bbd
00000130: 512b e83c 5f13 99bd 3f16 59bd b63e 65bd
00000140: 1a3a 2abd 957c a0bc b873 623d 5173 65bc
00000150: 1472 be3b cd89 4f3d 7af7 91bd a9f5 17bd
00000160: 418e 6ebd c161 2e3d 4bfb f03c 0819 59bd
00000170: 4a09 aa3d c271 fdbb f3f0 223d 5944 d23c
00000180: 796e 983d 23b7 2cbd c3d2 4abd da69 513d
00000190: 243c 1bbd 36f0 98bd c2aa bc3d ba1e 03bb
000001a0: a602 e2bc 28a9 803d 1d43 a8bd d851 97bd
000001b0: 2e98 a53d b3bb 7abd b027 9c3c 3b1e 333d
000001c0: 248b 513d b8dd 5a3d 57f6 883d 2ec9 483d
000001d0: bb0e 47bd 25bc 92bd 80fb 38bd e4c7 b03c
000001e0: 3b9c f1bc 4bda c8bc 35aa dcbc df8f 60bc
000001f0: 810a 96bd 2757 6cbc b4b1 b2bc 27ff 253d
00000200: 6813 3cbc 9b96 7abd 25ff 2b3d 8a82 6fbc
00000210: 48d5 4c3d 012a f63c 51da d03c f8b6 bc3d
00000220: db31 6dbd 9662 46bd f9da 13bd 000f 0f3b
00000230: 99c3 1dbd ac61 67bd 7407 b63c feb2 933d
00000240: ff05 46bd 8e33 6bbd ea25 46bd a8d9 e23b
00000250: e0ce 883d 4197 0e3d 4be4 5c3d f7a9 24bd
00000260: 6e4d 643d 0f73 d8bc 2594 263d fe12 703d
00000270: 75e8 22bd 32ad 953d fa44 18bd cb9d 85bd
00000280: ee2b 5b3d c356 c0bc 67f2 43bd 518d 523c
00000290: 12af 62bd 0eea d1bc 6300 8c3d b819 7c3d
000002a0: 3a34 32bd 2f34 75bd ddc2 2f3d b2c8 4b3d
000002b0: 8943 55bd b1cf e23c 211c acbc 3e02 5cbc
000002c0: 1196 88bd f164 86bd d282 5b3d 200d b4bc
000002d0: 17ad 063b f630 d13a d136 a4bd 80c5 84bd
000002e0: 4443 803d 9177 9e3c 5652 6ebd 0a02 5a3d
000002f0: 8232 05bd 5b01 f33c f6b7 20bd 1609 d1bc
00000300: bd48 79bd 34b9 953d 2845 373c bef7 98bc
00000310: 478f 96bd 7c92 32bd 7505 923a 6393 7f3d
00000320: 98ef 443d 1b4c b1bd 4abf c43c 4d62 683d
00000330: 8b2d 3f3d bdb8 873d 8c4d 613c 6f2b 3ebd
00000340: c12e 043d db1d 163d 1219 09bc 9da4 6dbd
00000350: f27a 29bd 7d06 c6bc 4a45 4fbd d9cf 0a3d
00000360: 4616 453c f033 46bc 2c21 0abd 19b2 bd3c
00000370: 4935 d2ba 7fd1 3b3d 4c97 5c3c 13d8 363d
00000380: 1368 793c df1c 23bc 68a4 d43b cb4e 043c
00000390: 8115 14bd d98b 423d d4e9 d5bc 8d35 6a3d
000003a0: 29a1 02bc 890c 953d e2c3 c43c 75f9 bb3d
000003b0: b516 a7bb 29bc 0fbd baa9 ed3c 5ee1 a7bd
000003c0: f6c1 4ebc 7122 a13d c5a5 82bc e67f 6e3d
000003d0: e2c8 86bc ce7b 8f3d 642b afbc d3f3 90bc
000003e0: 4266 e6bc a929 44bc 3e1d aa3c eaac 3e3d
000003f0: ad64 9bbd 3081 0a3d 9697 093d 912b d3bc
0.05443612 0.037184034 0.035328556 -0.040120494 -0.0058538457 0.07454635 0.07455344 -0.07812984
-0.0059176222 0.06233438 0.09073882 0.071034245 0.09085867 -0.007581463 0.013207036 0.07299776
0.055399477 0.0691107 -0.05084656 0.050846994 -0.08948841 0.07657903 -0.000799849 -0.015344689
0.061655585 0.024812182 0.05596399 -0.084598035 0.028441329 0.01395439 0.07980146 0.060838036
0.030141443 0.025136992 0.022990886 0.046346687 0.06750087 -0.0014067101 -0.075436674 -0.06189786
-0.0954358 0.049796578 0.059765495 0.06582146 -0.08331773 -0.07730454 0.056554273 0.033905756
0.07356011 -0.06475939 0.046257984 0.05269128 0.0231735 -0.06974773 -0.05381913 0.012410139
0.052342292 0.035515614 0.018116703 -0.027781818 -0.04653059 0.052910145 0.048044655 0.013196858
-0.0103726145 0.07565674 -0.053847395 -0.040370464 0.07900358 0.075383924 0.027846668 0.034350142
-0.021602804 -0.029570691 0.071218185 -0.045681525 0.028340967 -0.07474398 -0.05299973 -0.05596801
-0.041559316 -0.019590655 0.05528614 -0.014004544 0.005811939 0.050668526 -0.071272805 -0.037099514
-0.058241133 0.042573694 0.0294167 -0.053002387 0.08302553 -0.0077345083 0.03978057 0.025667356
0.07442946 -0.04216684 -0.049517404 0.05112634 -0.03789915 -0.074676916 0.09212257 -0.0020007328
-0.027589153 0.06282264 -0.08215926 -0.07388657 0.080856666 -0.06121416 0.019061893 0.043730002
0.051158085 0.053434104 0.066876106 0.049019985 -0.048598032 -0.07164792 -0.045161724 0.02157969
-0.029493442 -0.024518153 -0.02693663 -0.013706177 -0.07326222 -0.014425076 -0.021813251 0.040526535
-0.011479236 -0.061178785 0.04199137 -0.014618525 0.05000809 0.030049326 0.025494726 0.09214586
-0.057908874 -0.048433863 -0.0360975 0.002182901 -0.038516615 -0.05648963 0.02222035 0.072118744
-0.048345562 -0.057422213 -0.048376 0.0069229193 0.06680083 0.034812216 0.053928655 -0.040201154
0.055737905 -0.026422052 0.040668625 0.058611862 -0.03977247 0.07308425 -0.037175156 -0.06524237
0.05350869 -0.023478871 -0.047838595 0.012851075 -0.05534274 -0.025624301 0.06836011 0.061547965
-0.04350684 -0.05986422 0.042910445 0.049751945 -0.05206636 0.027686926 -0.021009507 -0.013428269
-0.06669248 -0.06562222 0.053591557 -0.021978915 0.0020549947 0.0015960026 -0.08018268 -0.06482983
0.0626283 0.019344123 -0.05818399 0.0532246 -0.03251887 0.029663732 -0.03923794 -0.025517028
-0.060860384 0.07310715 0.011185922 -0.01867282 -0.07351547 -0.04359673 0.0011140542 0.06239642
0.048080057 -0.08657094 0.024016995 0.056734372 0.046674293 0.06627033 0.013751399 -0.04642814
0.03227115 0.036649566 -0.008367794 -0.058018316 -0.041377015 -0.024173016 -0.05060319 0.033889625
0.012029236 -0.012097344 -0.03372304 0.023156213 -0.0016037609 0.045854088 0.013463806 0.04463966
0.015222567 -0.009955614 0.0064893253 0.008075426 -0.03615332 0.04749665 -0.026112475 0.057179976
-0.007972994 0.072777815 0.024019185 0.091784395 -0.0050991424 -0.035091553 0.029011596 -0.08197282
-0.012619486 0.07867897 -0.015948186 0.058227442 -0.01645321 0.07006036 -0.021382995 -0.01769439
-0.028124932 -0.011972823 0.020765897 0.046551622 -0.07587562 0.03381461 0.03359183 -0.02577761

gru1.bias_ih_l0 f4 [384]
00000000: cd25 d0bc 711b b0bd 423d 333d 771f acbd
00000010: 2333 323d 76bd 1a3d 6bec 863c 9301 2f3d
00000020: f668 7bbd 3934 2bbd 5380 9c3d e810 c2bc
00000030: 9e28 2f3d f922 8fbd 770d afbc 3f45 56bd
00000040: 634a 0d3c e57a 3abc 48e9 a3bd 442f 303d
00000050: 0efa 5cbc 1e53 3bbd ea4a 053c 0ade 46bd
00000060: cca0 313d 5efe 9ebb 5b8d a03d 241e 5bbd
00000070: 822c b5bd d467 8abb 288d 093d cbdf 56bd
00000080: 348e 15bd 8a70 953d 8ab4 8c3c 4cc3 623d
00000090: dcad dbbb 795c 56bd 080a 923c 3930 8f3d
000000a0: 2c40 2e3d 6f20 093c 99bf ad3d a31a 72bd
000000b0: 2f3e 1fbd 77e0 33bd e6ba adbd 6b8d 58bd
000000c0: c40c 98bd 361b 673d 0aa1 a33c 0620 543d
000000d0: fdd0 273d b214 49bc 7fb4 52bd 42d5 3c3d
000000e0: 23ef 133d 1e91 08bd 890f 593d 97a9 863d
000000f0: 17be 913d f6b6 763d f235 adbc d1ff 91bd
00000100: aa78 f3bb bc84 5b3d 6f6c 9dbd 793b a5bd
00000110: c58c c53b 3d63 52bc 78a3 16bd 8d40 043d
00000120: 4124 363d f966 0f3d 5e73 7ebc a9b3 4ebd
00000130: 19bd b7bd ce72 dbbc 834d 6bbd 4dad adbd
00000140: e836 7dbd e6e3 b1bd d0b5 a93d 9fb7 34bd
00000150: cad8 25bd f66a 353d 1a5a 253d aa67 abbd
00000160: d6d0 78bd aada c43b 53ab 933b 1713 debc
00000170: 601a 493d 1d91 213d 9a81 5dbd 28e2 5ebc
00000180: 8f26 ab3c c397 5c3c e643 34bd cad1 79bd
00000190: b02e 8ebd 0083 43bd f217 61bd 948e 973d
000001a0: 8280 9dbd 3dd2 513d 8ed8 693d 637a 84bd
000001b0: a5ca 5cbd a0fb d6bc 902c 8d3c d44a 3239
000001c0: 9d98 f83c 822d dfbc d321 543d 3410 3fbd
000001d0: d871 e2bc fd8e 493d f32e 84bc 5829 9d3d
000001e0: d7ba 59bd 1baa 0cbd f88e 06bd 4aeb f03c
000001f0: 13c4 dc3c 0c79 9ebd e7e6 cdbc 81bd a03d
00000200: 0dbc 08bd 2c98 813d 9e44 3abd 45a2 9c3c
00000210: 6f2f 72bd 3fa7 a8bd f794 b63d f213 773d
00000220: 96d2 c6bc 0e40 cf3b 6b68 1dbd dd83 553c
00000230: efa7 9d3c 0f2e d13c 1295 6c3d f15b 4abd
00000240: b725 813d 5d6f 2b3d d221 e7bc 68fe 64bc
00000250: 8253 aebd f4e2 d13c f2fe f0bc dff2 60bd
00000260: 9858 943d cd87 8f3d 266e dbbc 8a1d 1b3d
00000270: 4cf9 6dbd 3c58 dc3a bd3e 703d 4ac4 e83b
00000280: f123 963b ef41 42bc 7dc7 af3d c07a edbc
00000290: 8dca 493d 3f69 ba3d 02eb 53bd 5334 163d
000002a0: d0d5 5d3c b0d3 363b 9abc 5c3d d0a3 7fbd
000002b0: bc34 103d 8a92 a4bc b2f3 2b3c 513f 6abd
000002c0: a931 eebb 58b1 2cbd 000e 08bd 411d b4bd
000002d0: a444 923d 95f3 d0bc dd58 5c3d e0c7 cd3b
000002e0: 649f a7bc c83f 163d a084 f13c 1f0e 2ebd
000002f0: d55a 173d 26af 1abd 99e7 2b3d db36 a63d
00000300: 1175 7e3d dd13 793d 4314 5a3d 27fe 183d
00000310: 0b1d 90bb ff1f 9ebc 7656 1b3d 5cc8 cebc
00000320: 0ac9 633d f1e8 0cbd 0014 95bd 529b c73b
00000330: f4b1 27bc f8f5 dabc 2f21 2a3d b87b 773d
00000340: 2828 923d 65e8 86bd 1657 9f3b f6eb d4bb
00000350: dcb7 7abc 2fdb fabd 0e8e 23bd e0e3 8f3d
00000360: 9c3c 933b db63 f0bc 417c 443c e040 923d
00000370: bcc9 d03c a0fc 3d3d 806a 0d3d f64f 363d
00000380: 1fe6 b3bc 6a00 833c b7e4 363d 9c58 873d
00000390: 6cfd dfbc 4f56 913c cd3c 9b3d 6640 a9bd
000003a0: 61cd 9a3d fdc1 d23d 7b3b 37bc 1424 333d
000003b0: ce64 a1bb eb73 0bbd ef1e 9d3d 7439 c3bc
000003c0: 2d28 2b3c f0b0 bd3c 2853 a5bd 8d4b fcbc
000003d0: 9642 aabd 9745 1abd 8e17 8c3d 1582 a6bd
000003e0: d548 b33d 9b64 c13c 192f 943d e3dc 51bd
000003f0: 98a2 a9bd 7f03 5e3c 734c 42bd 9329 8b3b
-0.02540865 -0.08598984 0.043759592 -0.08404439 0.0435058 0.03777834 0.016470155 0.04272611
-0.061379395 -0.04179785 0.076416634 -0.023689702 0.042763345 -0.069890924 -0.021368725 -0.052312132
0.008623692 -0.011381839 -0.08003479 0.043013826 -0.013487352 -0.045733564 0.008135537 -0.048551597
0.04336624 -0.0048521003 0.078394614 -0.05349554 -0.0884638 -0.004223803 0.033581883 -0.05245952
-0.03651257 0.07296856 0.017175931 0.05536203 -0.0067040753 -0.052334283 0.017827049 0.069916196
0.042541668 0.008369549 0.0848381 -0.059107434 -0.038877662 -0.04391524 -0.08482914 -0.05286924
-0.0742431 0.056422435 0.01997425 0.051788352 0.04097079 -0.012273001 -0.051441666 0.046101816
0.03611673 -0.03334152 0.05299333 0.065753154 0.07116335 0.06023308 -0.021143887 -0.07128871
-0.0074301558 0.053593382 -0.07686698 -0.08067984 0.006028744 -0.012841043 -0.03677699 0.032288123
0.04446817 0.03501031 -0.015530435 -0.050464306 -0.089716144 -0.026788142 -0.057446968 -0.0848032
-0.06181994 -0.08686046 0.08286631 -0.044120427 -0.04048995 0.04429146 0.04036913 -0.08369382
-0.060746036 0.006007512 0.0045065074 -0.027108712 0.04909742 0.03944503 -0.054078676 -0.013603725
0.02089241 0.013463917 -0.044010065 -0.060991086 -0.06942499 -0.047732353 -0.054954477 0.074002415
-0.076905265 0.05122589 0.05709129 -0.06468656 -0.053904194 -0.026243031 0.017233163 0.00017003278
0.03034621 -0.02724338 0.05179007 -0.046646312 -0.027642176 0.04920863 -0.016135668 0.07673901
-0.0531567 -0.034341913 -0.03285119 0.02940907 0.026948964 -0.077379316 -0.025134517 0.07848645
-0.033382464 0.063278526 -0.045475595 0.019120345 -0.059127267 -0.08235025 0.089151315 0.060321756
-0.024270337 0.0063247746 -0.03842966 0.013031927 0.019245116 0.025534658 0.057759352 -0.04940409
0.06306022 0.04185425 -0.028214369 -0.013976671 -0.085120216 0.025620915 -0.029418442 -0.05491912
0.072434604 0.07008324 -0.026785921 0.037869968 -0.058099076 0.0016810964 0.058653582 0.0071034776
0.0045819213 -0.01185654 0.08582971 -0.028989196 0.049265433 0.09102105 -0.051737793 0.036670994
0.013539746 0.0027897172 0.053890802 -0.062412083 0.03520654 -0.020089407 0.010495113 -0.05718929
-0.0072691035 -0.042161316 -0.033216476 -0.08794642 0.071419984 -0.025506774 0.053795684 0.0062799305
-0.020461746 0.03668192 0.029482186 -0.042493936 0.03695186 -0.03776469 0.041968916 0.081159316
0.062123362 0.06080996 0.05324198 0.037351754 -0.0043979934 -0.019302366 0.037924252 -0.025242023
0.055611648 -0.034401838 -0.07279205 0.0060915137 -0.010235298 -0.026728615 0.041535553 0.06042072
0.071365654 -0.065872945 0.0048626764 -0.0064978553 -0.015302625 -0.12248837 -0.039930396 0.070258856
0.004493309 -0.02934449 0.011992515 0.0714128 0.02548682 0.0463835 0.034525394 0.04450985
-0.021960316 0.015991408 0.044651713 0.06608698 -0.02734252 0.01774135 0.07579956 -0.08264236
0.07558704 0.102909066 -0.011183615 0.04373558 -0.004925347 -0.034046095 0.07671916 -0.023831107
0.01044659 0.02315566 -0.080725014 -0.030797744 -0.083134815 -0.037664022 0.0684043 -0.0813028
0.08754126 0.023607543 0.07235546 -0.051236045 -0.082829654 0.013550638 -0.04743619 0.0042468994

gru1.bias_hh_l0 f4 [384]
00000000: 7259 a9bd 33a5 8cbd 6bd5 8dbd efe1 c33c
00000010: 5aa6 303d 276c 27bc cc55 a13d 919d 80bd
00000020: f81e 503d ffd2 71bd b91a a9bd fdcb 093d
00000030: b95d afbd 4a28 8a3d ca30 643d e1c6 a6bd
00000040: eb33 80bc bb9a 89bd 2207 543c 9ff9 b5bd
00000050: 1504 f03a c58b 8f3b 1df3 b7bc 5497 8a3c
00000060: f3ac 94bd ec49 423d b8b3 ae3d f17a 453b
00000070: e4f7 a9bd 7b6f 6abd daff ac3d 13b9 eebc
00000080: 4e08 b23d 0fed 423d 9404 5e3d 4d1a 303d
00000090: 93d0 a6bd 436e 20bd 45c4 8fbd ebb8 6a3d
000000a0: 3913 673c 2e91 f4bc c1bb 853d 9b1b 3a3d
000000b0: 51a5 03bd 09bb cabd 9877 973d 88f5 8abc
000000c0: dae0 a9bd ba18 91bb c081 0dbd 9b40 17bb
000000d0: 48bc 28bd f3aa 923d f228 e43b 4803 6bbd
000000e0: 0775 84bd 93d8 63bc 24cf d2bc d1c9 ac3d
000000f0: bcbf 71bd bfd8 3dbd ba3b 573d a98c 823d
00000100: 9db7 9f3a a01f 95ba 82b1 873d ea08 603d
00000110: 716e 68bd 23ec 2ebd 544e 133d 50c0 aa3d
00000120: 1ead f93c d3f5 9d3d 8635 a43d df3d ab3d
00000130: 5afe 8e3d a458 743b bef4 ab3d 608f 533d
00000140: 0317 893b be80 45bd 26ba a9bd 4b78 2b3d
00000150: 6a87 a73c 0661 953d 8855 243d 747c 9abd
00000160: 2269 71bc 2aa3 333d c890 243c 15e5 dabc
00000170: 4c28 0abd 3d16 973d c7e3 adbd 08c2 bdbd
00000180: 5433 973d 252f 7c3d 4c83 773d 06c6 f33c
00000190: dbf5 013d e6ba 1d3d 1ca4 963d d59c 8e3d
000001a0: c29a a83d 9f6b 2e3d a4af 69bd a990 1cbd
000001b0: 1faa 803d 3b6d 40bd bfb6 8dbd 16ee 86bd
000001c0: 8dcf 423d 4449 8c3d 0e4e 42bd d1b4 97bd
000001d0: 2e03 87bd 4ea1 bcbd 7d16 723d cd08 083d
000001e0: 4fde ef3a 633c 403d fce1 453d 58f2 a13c
000001f0: 81c0 e13c 9d15 45bd dfb5 1c3d 3d83 1d3b
00000200: 2e56 803d 724b 293d a358 863d 7bd5 edbc
00000210: 9d68 37bd 8074 203d 2ccc 583d b130 923d
00000220: 093b 803d 16c8 e83c 7e1b 683d b962 ea3b
00000230: 2d8b abbb 29a8 14bd 8461 fd3b 6b59 223d
00000240: d83c 9fbd 18cd d63c 4ee9 63bd 6452 603d
00000250: c4a4 1ebd 931b 883d f0f7 b13c 5b61 c13c
00000260: 177e 9abd a845 a6bd e02f 60bd 47ab 9b3d
00000270: 80c5 7d3d 69e3 653d d7ed f9ba 1869 373a
00000280: c930 9a3d bf19 873d 9d8c 173d 2e1a d2bd
00000290: 462c 173d eb71 923d c774 373d 2c4d adbd
000002a0: c0ba adbd 1477 ecbc 3081 1fbd 30a2 ffbb
000002b0: a0da 5d3c a4b4 c9bc 4a87 7b3d e348 5fbd
000002c0: a766 46bd b25a a93c e2ee 8ebd 8683 47bd
000002d0: 0ea0 953d eee3 303d 778b 90bd 2765 773d
000002e0: 6b48 a83d 7406 b5bc b164 2ebd baa4 8b3d
000002f0: 5be4 5e3d aac8 a3bd d83d da3c d0d1 aabc
00000300: 87ad a23c 9738 573d dc33 dd3c 1913 fbbc
00000310: 5b7b a0bd 5549 62bd a64e 86bc bdc8 c5bd
00000320: 78d5 8ebc 9ef2 de3c 86b6 093c 94eb 3e3d
00000330: 09b7 0f3c 6783 8fbd 0e45 a7bd e1b5 643d
00000340: 6889 44bd 304b babd 037a a0bd 41fd 633c
00000350: 3036 783d f7dc 823c 0526 a43d 50ec 093d
00000360: deb4 303d 3910 0abc 9978 523d 20e9 58bd
00000370: a3bc 303d 05f3 b53d cc95 c6bd d72f 2e3c
00000380: 46d6 f7b8 a004 513d 0298 8f3d 99f0 963c
00000390: 234a 6ebd 7555 933b e45d 773d 98b7 7fbd
000003a0: a0f4 aa3c d7a8 423c 8f9d e0bb 024c cabb
000003b0: c664 84bd 99bd 903d 6fdf e83c 635e 953d
000003c0: bf8e 93bd 60f1 3cbd 473e 7ebd 3440 aa3c
000003d0: ee1f bbbd e91f dcbc 8c74 a43d 359e 9bbc
000003e0: a2ba 2e3c c11c babc 2987 993d 81e3 cd3c
000003f0: 9171 973d 42ed 25bd a55e 5d3d 520a d63c
-0.082690135 -0.06867447 -0.06925472 0.023911444 0.043127395 -0.010218657 0.078776926 -0.062800534
0.050810784 -0.059039112 -0.0825705 0.033641804 -0.08562798 0.06745966 0.05571059 -0.08143402
-0.015649756 -0.067189656 0.012941154 -0.08885502 0.0018311763 0.0043806755 -0.022454793 0.016917862
-0.0725955 0.04743378 0.085303724 0.0030133093 -0.082992345 -0.057235222 0.08447237 -0.029140985
0.0869299 0.047589358 0.054203585 0.042993832 -0.08145251 -0.039167654 -0.07019857 0.057305258
0.014103704 -0.029854383 0.06529952 0.045436483 -0.03214008 -0.098989554 0.073958576 -0.016962782
-0.0829484 -0.0044279965 -0.034547567 -0.002307928 -0.041195184 0.07161512 0.006962889 -0.057376176
-0.06467634 -0.013906616 -0.025733538 0.08436931 -0.059020743 -0.046349283 0.052547194 0.06374485
0.0012185458 -0.0011377223 0.06625654 0.054696 -0.05674595 -0.042705666 0.03596337 0.08337462
0.030478057 0.07712903 0.08018021 0.0836141 0.069821075 0.003728428 0.0839629 0.051650405
0.0041836514 -0.04821848 -0.08287458 0.041862767 0.020450313 0.072938964 0.04012063 -0.07543269
-0.014734538 0.043856777 0.010044284 -0.026720563 -0.033729836 0.073772885 -0.08490711 -0.09265524
0.07382837 0.061568398 0.06042795 0.02975751 0.031728607 0.03850832 0.0735552 0.06963507
0.08232643 0.042583104 -0.05705227 -0.038223896 0.06282448 -0.04697917 -0.06919622 -0.0658838
0.047561217 0.06849912 -0.04743772 -0.07407535 -0.06592403 -0.09210454 0.059103478 0.033211518
0.0018300506 0.04693259 0.04831122 0.019768879 0.027557613 -0.048116315 0.038259383 0.0024034523
0.062664375 0.041331716 0.06559875 -0.02903246 -0.0447775 0.039173603 0.05292909 0.071381934
0.0626126 0.02841572 0.056666844 0.007152882 -0.005235097 -0.036293183 0.007732572 0.039636057
-0.07775277 0.026220843 -0.05564242 0.054766074 -0.03873135 0.06645884 0.021724671 0.023605993
-0.07543581 -0.081187546 -0.054733157 0.07601028 0.06195593 0.05612508 -0.0019068074 0.0006996556
0.07528836 0.065967076 0.036999334 -0.102589 0.036907457 0.071506344 0.044789102 -0.08461985
-0.08482885 -0.028865375 -0.038941562 -0.0078013167 0.013540894 -0.024622269 0.06140832 -0.05451287
-0.04843774 0.02067313 -0.06979157 -0.048709415 0.07305919 0.04318612 -0.07057851 0.0603992
0.08216938 -0.022097804 -0.042576496 0.068185285 0.054416995 -0.07997258 0.026640818 -0.020852
0.019858135 0.052544203 0.027002268 -0.030648755 -0.07836028 -0.055245716 -0.016394924 -0.096574284
-0.017435774 0.027215298 0.008405333 0.046611384 0.008771666 -0.07007485 -0.08167468 0.055837516
-0.047982603 -0.09096372 -0.07835772 0.013915361 0.060598552 0.015974505 0.08015064 0.03367263
0.04314124 -0.008426719 0.051384542 -0.0529567 0.043148648 0.08884243 -0.0969654 0.010631523
-0.00011817789 0.0510298 0.07011415 0.018425273 -0.05817617 0.0044962713 0.060392275 -0.062430948
0.0208686 0.011881075 -0.00685472 -0.0061736116 -0.064645335 0.07067413 0.028426854 0.072933935
-0.07204961 -0.04612863 -0.06207111 0.020782568 -0.091369495 -0.026870685 0.08030042 -0.018996337
0.010664614 -0.022718789 0.07496483 0.025132896 0.07394708 -0.04050947 0.05404534 0.026127968

gru1.weight_ih_l0_reverse f4 [384, 6]
00000000: e29c cd3c 5133 a03c 7ed7 833d acd5 45bc
00000010: 5110 9fbd 3a6a f73c 03f5 e2bc e27f b13d
00000020: a4b5 863c edf1 82bd 9eb2 af3c 6b44 383d
00000030: 47ff 29bd 421d 5d3d 7147 48bd 0fbb 9dbc
00000040: 6749 a7bb d8fc 9e3d 99eb a6bc 4f15 523d
00000050: 02b1 32bc bd35 b2bc b3bd b5bd a16b 9dbc
00000060: 4266 ec3c 0742 ccbd 55d5 0cbd 83c1 243d
00000070: 1289 843d cae8 883c c6fa 55bd f881 c83d
00000080: 1cc1 0abd fee6 1dbd b8e7 0cbd 872d cb3b
00000090: 61c5 27bd 1cf1 8dbc 782d d8bc 7e35 97bb
000000a0: efeb a2bb b5f7 bebc d1af a03d 1fc9 9d3d
000000b0: 5690 e3bc e1aa 423d 567d 003d da81 283d
000000c0: 4c3f 4b3b dff0 19bd 7ebd 6b3d 1f5a 9cbd
000000d0: 4755 d7bc ba58 64bc 5aa7 b73c 9300 ecbb
000000e0: 5624 26bd ff20 cabc 3c93 f1bc 66bd f0bc
000000f0: fc89 183d 298b b93c 4ddf db3c 2650 483c
00000100: 260a 77bd 3ce8 91bd 7c96 6abd 2969 abbd
00000110: 9005 443d 6900 a8bc ff55 823d 276e 77bd
00000120: 2ea6 893d 41d1 eabc a7d6 553d 06c1 a2bb
00000130: 7e6f 3bbd b347 1ebd ed42 af3c 995f 973d
00000140: 2b3a 1fbd 5566 e83c b4f6 8ebc d521 1e3c
00000150: 6384 863c 425d 91bc d1af c5bc 9def 6bbd
00000160: 2ce1 43bb 53b8 563b d672 66bc c0a8 9d3d
00000170: 0193 803d f5ec 9e3d 5b5b 8d3d 7cac f4bc
00000180: 9320 823d 6a2d debc b40f 37bc edb6 7d3d
00000190: 788a 163d 8aa1 1cbb 30e9 163d ec96 21bc
000001a0: 2b98 2c3c f603 9bbc 8b9c a8bb 0a66 18bd
000001b0: c0d6 3abd 96d2 4bb9 4284 fbbb e5ca 4fbc
000001c0: b879 89bc 45a2 113d 3786 c73c cfef 70bd
000001d0: 659d c4bc e37e edbc 366a 0d3d 1c76 9bbd
000001e0: 3d46 873d d4fd 8e3d 3133 9b3d 499a 96bd
000001f0: fb11 8d3d c87a 04bd 5ea3 073d ea40 1dbc
00000200: 58f0 74bd 20f7 a03d da31 26bd c1c4 4cbd
00000210: dc14 9ebc d5ec 893d 8e16 81ba ac00 0abc
00000220: cbdf 883d 0a50 123c 93e6 06bd a46b 663c
00000230: 74b0 923d 56ae adbc 613f e0bc 495a 50bd
00000240: fe02 a63d e18d c53d 08a8 70bd 5939 44ba
00000250: 0d7c 4bbd e305 c53d b80f 51bd 5f44 323d
00000260: 4dfc b63c 1f98 c9bc b52d 093d e620 52bd
00000270: 1738 813d e740 203d e577 6c3d 6de3 13bd
00000280: cf1e 57bd 00b3 3c3d d40d 3e3d f296 103d
00000290: bcfb 2ebd 1463 9a3d 35d1 493d 082b 9b3b
000002a0: 9db3 2abd 37d2 44bd 7061 0fbd d4b0 6dbd
000002b0: 975a 99bd f361 a6bd 9d21 013d 1b0c 403d
000002c0: 80d3 8bbd 9630 5abd 7bed 28bd f752 103c
000002d0: cc2c 203b 9a1a 06bd 35a9 d73c e010 bebd
000002e0: 1857 993c f2f7 c2bc 0c8a b6bc ffdd a33d
000002f0: 4d7f 8d3d 057a 753d 64e1 093d 22c8 16bd
00000300: ff0c 8d3d 59bc 023d a846 a5bc faa7 84bd
00000310: 856b 443d 9a9c 83bd 97fd b7bc b2cc 60bd
00000320: b5d2 843d f791 cd3c 5cd8 e63a 65d6 94bd
00000330: c60f 09bd da02 223d e7d8 81bd cc82 93bd
00000340: d76e 88bc a3fc 263d 04ee ba3c 84be 323c
00000350: 6a2e 1c3d bb4d a93d 8ae7 003d 87ac e9bc
00000360: 1f7e 4d3c 3e51 0bbc 34e3 40ba b4e5 5d3c
00000370: 5008 43bd 3a74 54bd fc3d 51bd 3001 523d
00000380: f4af a93d 4bbf 86bd 5e41 43bd 53e9 893d
00000390: 6e03 63bd 5772 12bd 9942 cc3c c9b6 98b9
000003a0: f479 db3c ecf1 2ebd 17fb 6bbd 2fe4 a53d
000003b0: d62f babd 62d7 9e3d cdae 1dbd f6ac b03d
000003c0: abad 843c 769d 083b c4ba 923d b911 7abd
000003d0: b340 853d a826 383d 3fc7 95bd b408 953d
000003e0: 2553 353d 58dd 5e3d 29a0 bebd 5d9c 5ebd
000003f0: 12fe abbd 0b2a 6f3d c9b1 efbc 7e43 913d
0.025099222 0.01955572 0.06437586 -0.012074869 -0.07766784 0.03020202 -0.027704721 0.0866697
0.016444035 -0.063938 0.021447476 0.044987123 -0.041503217 0.05398298 -0.048896257 -0.019254236
-0.005105186 0.0776307 -0.020376014 0.051289853 -0.01090646 -0.02175414 -0.08874073 -0.01921636
0.028857354 -0.09973531 -0.034383137 0.04022361 0.064714566 0.016712565 -0.05224111 0.097904146
-0.03387557 -0.03855037 -0.03440067 0.0062004956 -0.04095972 -0.017326884 -0.026388869 -0.004614531
-0.004971973 -0.023311475 0.07846034 0.077043764 -0.027778786 0.047526244 0.03136953 0.04113946
0.003101307 -0.03758323 0.05755376 -0.07634377 -0.02628578 -0.01393717 0.022418667 -0.007202217
-0.040561996 -0.024673937 -0.029489152 -0.029387187 0.037240967 0.022649365 0.026839877 0.01222614
-0.060312413 -0.07124373 -0.05727242 -0.08369667 0.047856867 -0.020508008 0.06364059 -0.060407784
0.067211494 -0.028664233 0.05220666 -0.004966858 -0.045760624 -0.038642596 0.021394217 0.07391281
-0.038873833 0.028369108 -0.017451622 0.009651621 0.016420549 -0.017744664 -0.024131687 -0.05760156
-0.0029888852 0.0032763674 -0.014065465 0.07698202 0.06278039 0.0776004 0.0690219 -0.029867403
0.06353869 -0.027121264 -0.0111731775 0.06194203 0.036753148 -0.0023899996 0.03684348 -0.009862643
0.010534327 -0.018922787 -0.0051456145 -0.037206687 -0.045614958 -0.00019438038 -0.0076756785 -0.012682651
-0.016781673 0.035555143 0.02435599 -0.05882245 -0.024000833 -0.028991168 0.03452512 -0.07590887
0.06605194 0.069820076 0.07578123 -0.07353646 0.06888195 -0.032343656 0.033114783 -0.009597996
-0.059799522 0.07859635 -0.040574886 -0.049992327 -0.019297056 0.06734625 -0.0009848641 -0.008423012
0.0668331 0.008930216 -0.032934736 0.014063749 0.07162562 -0.021201294 -0.027373971 -0.050867353
0.081060395 0.09646202 -0.058753997 -0.0007485352 -0.04967885 0.096202634 -0.05104038 0.043522235
0.022337103 -0.02460867 0.033490855 -0.051300906 0.063095264 0.039124396 0.057731528 -0.036105562
-0.052519616 0.046069145 0.046399906 0.035300203 -0.04272054 0.07538429 0.04927178 0.0047353543
-0.0416752 -0.04805204 -0.035005033 -0.058029965 -0.07487982 -0.08124151 0.031526197 0.046886545
-0.0682745 -0.05326899 -0.041242104 0.008808843 0.0024440764 -0.032740213 0.026325801 -0.092805624
0.018718287 -0.02379987 -0.022282623 0.08001327 0.06909046 0.05993082 0.033662215 -0.036811955
0.068872444 0.031917904 -0.020175293 -0.064773515 0.0479541 -0.06426354 -0.022459788 -0.054882713
0.06485502 0.025094016 0.0017612088 -0.07267455 -0.03346231 0.0395535 -0.06340199 -0.07202682
-0.016654415 0.040768277 0.022818573 0.01090968 0.0381302 0.08266779 0.031470813 -0.02852465
0.012542277 -0.008503256 -0.00073580747 0.013543535 -0.04761535 -0.051868655 -0.051084504 0.051270664
0.082855135 -0.06579455 -0.04766976 0.06733956 -0.055423193 -0.035753574 0.0249341 -0.00029127885
0.02679155 -0.042711183 -0.057612505 0.08100163 -0.09091155 0.07755925 -0.03849678 0.0862674
0.016196093 0.0020845807 0.07164529 -0.061052058 0.06506481 0.04495874 -0.07313394 0.072770506
0.044268746 0.05441031 -0.09307892 -0.05434834 -0.083980694 0.058389705 -0.02925958 0.07092951

gru1.weight_hh_l0_reverse f4 [384, 128]
00000000: 965d ad3c 32db 6fbd f438 99bd 42e4 c7bd
00000010: 979f 5e3b 4fa2 2c3d 17a8 9a3d 531b a2bc
00000020: 85fb 0d3c d529 553d 5eef c83d 29a2 9c3d
00000030: b1d4 b5bd 7fc6 bfbd 5c2f a8bc 09e8 9a3d
00000040: 190f 99bd 8a2c 4dbd 4aea 013d 18ea c63d
00000050: ed11 373d bf51 a23d 493b 553d 9211 c8bd
00000060: 9c2d 373d 0e21 ffbc 5f26 95bc e1f0 9fba
00000070: 59ed 063d e41f 0abd 3034 8d3b 682d 2b3d
00000080: 3651 27bd 8a2a 84bd 4cb2 8dbc e446 7fbd
00000090: fc4f 8ebd bf95 3c3d e982 023c cc61 7d3d
000000a0: 00ec feba f494 033d 65a6 acbd 4b9a c5bc
000000b0: ddc6 0c3d 7e96 813d 1232 34bd fe7e ae3d
000000c0: d32a 2dbd 160a d2bc 0f17 ae3d 30cf 713d
000000d0: af0e 83bd bddc 053c 5f0d 9abd 5588 61bd
000000e0: c3df b9bc 3eb1 d7bc 6a6f abbb 4a47 4ebd
000000f0: c888 3a3c cb91 cbbc 88f5 5d3d 8d1d 9f3c
00000100: 0d4f 843d 3c97 623d 07d1 433d 0515 933d
00000110: cea5 fabb b936 553d c9d8 463d 59e0 9bbd
00000120: c7e7 c23b 652b 4abd ea93 833d 05b4 57bd
00000130: 2a9f bdbd 3fff 593d a4a5 cfbd b8d7 eb3c
00000140: faac 5cbc 6a2f 92bd 8fce 85bd 460e bb3c
00000150: abdf 25bd 6cd4 19bd ba95 89bd 8444 463d
00000160: 3dfb 94bd 1532 f73b 8a43 883d c45b 913d
00000170: 25c0 833d d603 a93c 15ef 85bd b5ed 04bd
00000180: 3b24 da3a 6fa8 a1bc b9a5 993d 1f36 233c
00000190: 7f8e 30bd bf29 3fbd dbd4 91bc 7eb3 5dbd
000001a0: 3176 48bd 6b62 7abc 9a46 b73c 0a90 863d
000001b0: f001 ea3a 7dd5 99bd 2461 82bb 18f8 2cbc
000001c0: b4ef 533d 0226 393d 5c55 243d 421a 6ebd
000001d0: 145e b7bd 9b45 2c3d 2de9 98bc 6d86 cdbc
000001e0: 4253 f9bc f67d 88bd 1846 b63d 4807 e23c
000001f0: 95d4 6b3c 0d32 b93d 365d 3e3d 9e29 483d
00000200: 65f2 60bd a8e1 3cbd 1dd8 b3bb 7c47 923c
00000210: 29fb b7bd dad8 99bd cf7e 6ebc cc30 4abd
00000220: 542b 183c 9b13 d0bc bcfd 9f3d 0b02 a53d
00000230: 98d5 3e3c 45ac 85bd 4e97 863d 89cd 833d
00000240: 73e4 24bd 0347 2bbd 7d15 3cbd e3f6 8b3c
00000250: 2b92 9fbd 268b 68bd 04d1 4cbd 6228 1c3d
00000260: f3c1 253d 9171 943d 9c0c a93c 23b2 b73d
00000270: 04f9 513c 359c af3d f504 973d 9dee 37bc
00000280: 1238 06bc be9e 8dbb 5728 303d 5a86 93bc
00000290: e497 aebd 65b2 5b3d 2853 31bd 708d a63d
000002a0: 18e9 c13d ccf3 9fbd 8f8c e4bc fce5 203d
000002b0: d03a 9dbd a6b3 063b 9296 9bbd 5624 01bd
000002c0: 58bf 5f3d 945d a0bd 274c 27bd 64aa a03d
000002d0: 0a36 5dbd b3da 903d c861 f83c 3abc 81bd
000002e0: 28b9 67bc 3a4d 7cbd 7669 80bd f4f8 2d3c
000002f0: 65f7 813d 1238 7d3d 9e1e a0bd 69b7 563d
00000300: f7be 983d 018d 893d 73aa 18bb 099b 83bd
00000310: f76d a03d f15c 15bb 9ffd 25bd 7e01 7c3d
00000320: 657a 02bd 5c9a 70bc c964 51bd d468 543d
00000330: f2cc 9ebd 46e2 2c3d f5b8 5bbd 63f8 02bd
00000340: ab0b 93bd bf97 68bc cc68 78bd 6c24 58bc
00000350: 0b8a ac3b cc46 14bb f3da 473d 20a4 813d
00000360: bbb0 82bd dd12 bbbd f922 73bd 67fb e0bb
00000370: 68c6 9fbd c1c5 4b3b 295e afbc 117c b3bc
00000380: 8da8 d2bc e906 94bd a76a a73d 859e 6e3d
00000390: c517 3bbc cdc9 0a3d fb07 8dbc eaa3 963b
000003a0: fce8 c83d 7dde ccbc 76de 9ebd d10f 9ebd
000003b0: 272c 653c dc7a c4bc fa07 93bd 68a4 123d
000003c0: 81bc 3dbd 0746 42bd 83cf 6abd 5329 493d
000003d0: 5954 ce3c e88a 23bd aaae 7d3d 5e4c 813d
000003e0: b26a bbbd 3d5a 3abc d789 f8bc f0bd 23bd
000003f0: 052b bb3c 3eaf 703c ba90 7a3c 0581 603c
0.02116279 -0.05855865 -0.07481566 -0.097603336 0.0033969635 0.042146977 0.07551592 -0.01978842
0.008665924 0.052041847 0.09811281 0.07648117 -0.08878458 -0.09364032 -0.020530395 0.075637884
-0.07473583 -0.050091304 0.031717576 0.097126186 0.04469483 0.07925748 0.05205849 -0.09768976
0.04472123 -0.031143691 -0.018206773 -0.0012202525 0.032941196 -0.03372182 0.0043091998 0.04179135
-0.040848933 -0.06453426 -0.017296933 -0.062323466 -0.069488496 0.046041247 0.007965782 0.061860844
-0.0019448996 0.032124475 -0.08430175 -0.024121424 0.03436934 0.06327532 -0.043993063 0.085203156
-0.04227717 -0.025639575 0.08500492 0.05903548 -0.06399285 0.008170304 -0.075220816 -0.055061657
-0.022689706 -0.026329633 -0.0052317875 -0.050360955 0.01138515 -0.024849793 0.054189235 0.01942327
0.0646039 0.05532001 0.047806766 0.071817435 -0.00764916 0.05205414 0.048546586 -0.0761115
0.00594804 -0.04935779 0.06424697 -0.052661914 -0.09258874 0.053221937 -0.10139015 0.028789386
-0.013468975 -0.0713795 -0.065335386 0.022833955 -0.04049651 -0.037556097 -0.06718011 0.048405185
-0.072744824 0.007543812 0.06653507 0.07097581 0.06433133 0.020631712 -0.06539742 -0.032453258
0.0016642878 -0.019733636 0.07502312 0.009961634 -0.043104645 -0.04667067 -0.017801693 -0.054126255
-0.04894084 -0.015282254 0.022372533 0.06570442 0.0017853361 -0.07511423 -0.003978865 -0.010557197
0.05174227 0.045202263 0.040120468 -0.05813051 -0.08953491 0.04205857 -0.018665874 -0.025088513
-0.030435208 -0.0666465 0.08900088 0.027591363 0.014393945 0.090427496 0.04647561 0.048867814
-0.054918665 -0.04611364 -0.005488409 0.017856352 -0.08983452 -0.07512064 -0.014556601 -0.049362943
0.009287674 -0.025399974 0.07812068 0.0805703 0.011647604 -0.065269984 0.06571828 0.06435687
-0.04025693 -0.04181577 -0.04591893 0.017085498 -0.07791551 -0.056773327 -0.05000402 0.03812445
0.040468168 0.072482236 0.020635895 0.08969524 0.012815718 0.08574716 0.07373992 -0.011226323
-0.008192079 -0.004321902 0.04300722 -0.0180084 -0.085250646 0.053636927 -0.043292195 0.08132446
0.09468287 -0.078101724 -0.027899055 0.03928183 -0.07677233 0.0020553856 -0.075970784 -0.031528793
0.05462584 -0.078303486 -0.04084411 0.078449994 -0.054006614 0.070729636 0.030320063 -0.063347295
-0.014143266 -0.061597086 -0.06270115 0.010618437 0.06346015 0.06182105 -0.0781834 0.052421007
0.07458299 0.067163475 -0.0023294955 -0.06426055 0.07833474 -0.0022790993 -0.040525075 0.06152486
-0.031855006 -0.01468524 -0.051121507 0.051857784 -0.07753934 0.04220798 -0.053643186 -0.03197516
-0.0717996 -0.014196335 -0.060646817 -0.013192277 0.0052654794 -0.0022625206 0.04879279 0.063301325
-0.06381365 -0.09134457 -0.059359524 -0.006865907 -0.07801515 0.0031093212 -0.021407204 -0.021909745
-0.025715137 -0.072278805 0.08174639 0.058256645 -0.011419241 0.03388386 -0.01721572 0.004597177
0.09810063 -0.025008434 -0.07757275 -0.077178605 0.0139875775 -0.023984365 -0.07179256 0.03580132
-0.04632235 -0.047430065 -0.057326805 0.049111675 0.025186704 -0.039927393 0.06193415 0.06313394
-0.0915121 -0.011374054 -0.030339165 -0.03997606 0.022847662 0.0146902185 0.015293295 0.013702636

gru1.bias_ih_l0_reverse f4 [384]
00000000: e51b 5f3d 4106 cc3c 37ac ab3d e252 c4bc
00000010: f32c 9fbd 162d 11bd 366a 76bd f3c3 70bd
00000020: 6c1e 8a3d 5e7b 513d b076 93bb ef25 f13c
00000030: 45b9 533d 6743 abbd ffee 643d 6118 203d
00000040: 9b36 a43c 68db 343d f59a 85bd f585 db3c
00000050: d0a3 b6bd 7008 f2bc 3164 b4bd fef3 f339
00000060: 83b6 9139 0561 a7bd 140a 00bd 2f4d c7bc
00000070: 048d b0ba 765d aabd 52bd 1dbd c605 23bd
00000080: 40c1 f33c 9373 823d d417 a2bd 992f 5abd
00000090: 5cd0 7ebd aedb abbd 79ed c1bb ff47 6cbd
000000a0: a643 a6bc 2cb7 5abd 954b 8bbc fc94 0e3c
000000b0: e103 133d 3cfa 123c 5700 2d3c 6c95 3b3d
000000c0: 7f4a 033d 58e6 77bb c2e8 353c 4f3e 3ebd
000000d0: ed13 203d c5cf b4bc 618a 8abc bb81 fa3c
000000e0: 0dbb 4e3d 8a9c 833c 0df8 063d ea3a 58bb
000000f0: 3906 98bd 865b 073d 9119 f7ba 23fd 52bd
00000100: 6c09 b13c 929d 133c 8b5b 653d dc25 f4bc
00000110: 07b8 a2bd ef93 b53d cab4 b5bd 9fa0 51bd
00000120: 4264 3f3d f517 8d3d 7eaf ec3c c1bc a33b
00000130: 495e 143c aae6 3dbd 8181 503d 4b7b 1f3d
00000140: 7a4e 533d 54e2 b3bc 5260 9d3d 2268 91bd
00000150: 0a7b f2bb d23f 813d 7570 0ebd e25b 2fbd
00000160: 4603 b43d 63b2 bfbc da5d 5fbd 6000 91bd
00000170: 8239 b1bd 7c47 48bd c461 fcbb e217 a73d
00000180: cda6 7cbd de61 f3bc 4cef 753d 119b 24bd
00000190: 6dc1 713c 357c 503d 51ec cbbc 4650 b33a
000001a0: 1829 223a d175 a4bd 02aa b1bd 0732 a33d
000001b0: 302c a2bd 906b 93bd 0877 13bd 8059 0abc
000001c0: e0ce 76bd f785 41bd 5959 a53c 669d 30bc
000001d0: 1768 a33c 51ec 8f3d 8164 233c e123 8abd
000001e0: 04b6 07bc ddd0 9a3c 5f30 87bd ec83 56bd
000001f0: e810 7bbd 39e9 f33c 1141 ac3d c397 8e3b
00000200: e838 ecbb 22e8 9a3d afc2 43bd 3897 54bd
00000210: a404 45bd 1d76 8e3c c773 6d3d e153 62bd
00000220: c442 a53d b401 773c c422 0bbd 9ac1 57bd
00000230: f6b9 573d 283b 69bd b891 dfbb bebf 07bd
00000240: 4f2b aabd 0ff9 47bd 04bf 12bd ab78 7e3d
00000250: 21bf a43c e0cd 7cbb 655f 9fbd aae0 4d3d
00000260: f465 53bc 65d1 04bb 1e36 a43c 6ca8 18bd
00000270: fac5 8d3d 7f9f 71bc e390 e83a a0b4 96bd
00000280: 4af6 403d 7ac9 4f3d cc27 af3d 72c2 ff3b
00000290: d08a 40bc d152 75bd 1b45 f0bc 8c7b 3e3d
000002a0: 240d 8fbd 5e81 81bd f1d4 25bd 540e 61b9
000002b0: 3ca2 64bd 1f00 543d 91f8 9ebd f265 96bd
000002c0: 141e 893c bfd1 babd f0fa 6d3d 1095 74bd
000002d0: 10ad 9dbd e9e5 41bd 1166 25bc fc8d 333d
000002e0: c5c4 a6bd c5a1 713c e424 cebc b982 43bd
000002f0: e726 c7bd 389f ad3d 79e0 8f3d 33ff 8f3d
00000300: cb12 9a3d 48fe 2e3c bc89 953d ef07 6c3c
00000310: 7f57 1dbd a1a0 ac3d 60fa 203d ab51 9c3c
00000320: b778 6f3d 9adf 393d 5fce c5bc 65c5 a03c
00000330: d523 e8bc ff1a ef3c 1108 05bd e92e 9d3b
00000340: 66b3 113d a289 93bd ebdb b43c 07da e7bc
00000350: ebf2 b7bc ffbd 0cbd 67dc c23b 9ced a3bc
00000360: efa8 aabd 8fb8 563d 1516 d7bc 7ff7 7e3d
00000370: 7719 a3bd 4494 b63c 4680 58bd a69e 62bd
00000380: 611b 873c 2f22 ebbb d97e 80bd d771 933d
00000390: c6bc d73c 9467 35bd 7864 58bd 89e3 88bc
000003a0: 0cbb fcbb a3d1 63bd 157c 503d 74a3 8dbd
000003b0: 49bc 0ebb 2190 87bd 7873 98bd bf3b 75bd
000003c0: 9e0e 6c3d e3b8 883d 7ec6 68bd 9eda 83bd
000003d0: 9dab 093b 1b36 78bd 637b 843d 2ace 4b3d
000003e0: 4f60 afbd 5ca3 9abd 75d2 c83b 1548 513d
000003f0: c24f 2b3d 370a c1bc 01e3 92bd 7605 2c3d
0.05446996 0.024905326 0.08382457 -0.023965303 -0.07772245 -0.035443388 -0.060159884 -0.05878062
0.06744084 0.051143043 -0.0045002326 0.029437033 0.05169036 -0.08362465 0.055891987 0.03908575
0.02004557 0.044154555 -0.06523696 0.026797274 -0.089179635 -0.029545039 -0.088081725 0.0004653036
0.00027792537 -0.08172802 -0.03125961 -0.024328796 -0.001346976 -0.083186075 -0.038510628 -0.039800428
0.029755235 0.063697 -0.07914701 -0.05326805 -0.062210426 -0.0839151 -0.0059182015 -0.05768585
-0.02029593 -0.053397343 -0.017003814 0.008702513 0.03589237 0.008970793 0.010559163 0.045796797
0.032053467 -0.0037826505 0.011102857 -0.04644614 0.039081503 -0.022071728 -0.016911687 0.030579438
0.050471354 0.016065855 0.032951403 -0.00329941 -0.07423062 0.033046268 -0.0018852224 -0.05151094
0.021610938 0.009009736 0.055995505 -0.029803209 -0.07945257 0.08866107 -0.088723734 -0.05117857
0.046726473 0.06889335 0.028892275 0.0049968665 0.009055682 -0.046362557 0.050904755 0.03893594
0.051588513 -0.021958508 0.07684387 -0.0709994 -0.0073999213 0.06311001 -0.034775216 -0.042812236
0.08789687 -0.023400491 -0.054532863 -0.0708015 -0.08653547 -0.048896298 -0.0077020843 0.08158852
-0.06168251 -0.029709753 0.060042664 -0.040186945 0.014755589 0.050899703 -0.024892958 0.001368054
0.0006185933 -0.08030284 -0.086750045 0.07968526 -0.07918584 -0.0719825 -0.03600219 -0.00844419
-0.060255885 -0.0472469 0.020184206 -0.010779714 0.019947095 0.07027496 0.0099726925 -0.067451246
-0.008283142 0.018898422 -0.06601023 -0.052371904 -0.06129542 0.029774295 0.08410848 0.0043515875
-0.007208932 0.07563807 -0.047793087 -0.051902026 -0.04810013 0.017390305 0.057971742 -0.055255774
0.08069375 0.01507609 -0.033968702 -0.052674867 0.05266758 -0.05694118 -0.006822791 -0.033141844
-0.08309042 -0.048821505 -0.035826698 0.062126797 0.020110669 -0.003857486 -0.07781867 0.050263084
-0.0129027255 -0.002026641 0.020045336 -0.037269995 0.06922527 -0.0147474995 0.0017743375 -0.0735867
0.04710988 0.050729252 0.085525125 0.007805162 -0.0117518455 -0.059893433 -0.029329827 0.046504542
-0.06984928 -0.06323503 -0.04048628 -0.0002146301 -0.05581878 0.051757928 -0.07762254 -0.07343663
0.016737975 -0.09122037 0.05810064 -0.05971247 -0.07699025 -0.0473384 -0.010095135 0.04383658
-0.081429996 0.0147480415 -0.025164075 -0.04773209 -0.09724217 0.08477634 0.07025237 0.07031097
0.07523116 0.010680743 0.07301661 0.014406188 -0.03841352 0.08429075 0.039301276 0.019081911
0.058464732 0.04537926 -0.024146257 0.019625375 -0.028337399 0.029187677 -0.032478396 0.004796852
0.03557148 -0.07203986 0.022077521 -0.028302206 -0.0224547 -0.034360882 0.005946684 -0.020010762
-0.08333003 0.052422103 -0.026255647 0.06224775 -0.079638414 0.022287495 -0.052856706 -0.05532708
0.016492547 -0.007175706 -0.06274194 0.071994476 0.026335131 -0.044288233 -0.05283019 -0.01671006
-0.0077127274 -0.055619847 0.050899584 -0.06915942 -0.0021779707 -0.06619287 -0.07443899 -0.05987143
0.057631128 0.06675889 -0.056829922 -0.06438182 0.002100683 -0.060598474 0.06468847 0.04975716
-0.08563291 -0.075506896 0.006128604 0.051094133 0.04182411 -0.023564441 -0.07172204 0.041997395
