results/models/TSXComposite_LSTM_model.pth (torch, 905223 bytes, 19 tensors)

lstm1.weight_ih_l0 f4 [512, 6]
00000000: dec6 15bd 4e98 c93c d52b 85bd 50f2 593d
00000010: 8fc2 66bd 4bac 8a3c b0d5 5abc 719d 513d
00000020: c093 a33b 3377 623c 87aa a7bc ae59 92bd
00000030: 76fa 8dbd 5abf 6b3d 6351 bdbc 739d 8bbd
00000040: a7e7 a9bd 16b9 b33c bbe9 f9bc 386a 11bd
00000050: 99e4 29bd 41f4 7dbd d6f2 a4bd b56b b53c
00000060: 379a a13c 272b 9abd 7fdb ca3b dd42 c5bd
00000070: bf36 893d f269 913d 8b08 083c f9cd 04bd
00000080: 70e3 58bd 717e 59bd 2238 8cbd 4399 8c3d
00000090: fbce f03c aacd 4bbd ccc6 0c3c a1ea c1bc
000000a0: 84e5 2fbd e917 c13d b539 35bd 009d 16bd
000000b0: 3365 483d 9f15 a03d 7a7d 5abc fb20 693d
000000c0: 2d42 033d af8b 6c3d 27b3 893d 5d60 41bd
000000d0: 95c8 223d c19d 3d3d 3ab6 40bd 5e89 b23d
000000e0: f2b9 533c 9435 403d ac0b acbd dbd8 d43d
000000f0: 98d1 713d dbe4 2a3c aad9 b4bc 7abc d3bc
00000100: cfd6 b9bc 6c83 2f3c 7fe9 fdbc 339c a4bd
00000110: cce0 c2bd 45f7 c8bd ad4f 56bd 67fc ddbd
00000120: b7fe 19bd 0dcb 94bd 5bf1 a93d b4bc 0bbd
00000130: f3fd 90bd b297 96bd 6959 cb3d de60 833d
00000140: 84b7 24bc dc02 89bd fd67 22bd e789 79bd
00000150: d2a2 a73d 1991 8d3d ac63 553d 8768 c93c
00000160: 705d 2dbd 3ecf c83d 3590 703d b0bb 5abc
00000170: 2b0b da3d 60d1 853d 63ef 51bd 5138 563d
00000180: 1149 c2bd 2bb8 1ebd 1b55 a1bd 1bfa a7bd
00000190: af26 113d f97d 803d 7aea f23c 7ac9 e13c
000001a0: e162 b43d b9a1 c73d b7ce 8abd a0ec 02bc
000001b0: 94f5 6b3d 90a5 b03d c08a 81bd 9e1e 78bd
000001c0: 34b2 243a 442d 4abc 8e3f 91bd daac 873d
000001d0: a877 6fbc 24a3 743c 80d9 6b3d 4f43 5dbd
000001e0: 7593 b0bd 5438 e23c be63 963d 7094 7cbd
000001f0: c179 7e3d e9ab 0d3d 555c b6bd aef2 88bd
00000200: 2ddc 0ebd 52a6 06bd 9067 4d3d 9dff 3bbd
00000210: f227 1ebc 522c 9f3d 126b 5b3b 0e1b d93c
00000220: cabf 023d ff76 343d 838f 793d e74f 883d
00000230: 6bbc ae3b d1c0 e83c 06d4 ab3d 6666 263c
00000240: 5d2a 253d 45bc 4abd 5c01 213d 6f4d 343d
00000250: 8211 7cbc 4a4e d03d 32ba b139 9c05 0f3d
00000260: f214 71bd 7149 b73d 76b1 983a 207a 50bd
00000270: f5c9 79bd 9fd9 b0bc 3047 5f3d d461 39bd
00000280: 9df7 99bd 2182 1b3d aae0 073d 17ab 2b3d
00000290: d835 413d ccee 93bd 8a27 123d de1d ca3c
000002a0: 65d6 9abd 5598 753d 0476 74bd 85ff 16bc
000002b0: 7440 55bd d069 9abd fb16 53bc 8364 0d3d
000002c0: 2b76 433d 49ac 213d 1331 b4bd 11fa 81bd
000002d0: 8bfe 4c3c 983d efbc 5590 f4bc c609 1ebd
000002e0: 565c 9ebd ebff b83d 2472 663d 0115 e9bc
000002f0: 7f59 b2bc bb51 6e3d f955 1b3d 93df 1dbc
00000300: 45be b33d c81c 81bd 05f9 973c f5ff 8a3d
00000310: 311f a93d f1d4 d3bc 8adc 4abd 7580 06bd
00000320: d0d6 9abd 927e e13c 942b b53c 1136 8fbc
00000330: cfb7 093d 8a3a 72bd 79ea 853d 56e7 973d
00000340: 0e99 35bd 1f39 823d 48f3 043d e476 c2bc
00000350: 7ba7 abba 84fd 823d 67e5 a13d 39c2 4e3d
00000360: 696d 05bd 63f5 b23c 4fd1 86bc 5f0e 20bc
00000370: 67d1 bebd c896 b13c b629 293d 47ea aabd
00000380: a492 ae3d 2af8 863c 1ea2 8c3d 2687 803d
00000390: d348 f0bc b468 99bd 13a3 053d ba89 87bd
000003a0: 15c4 0bbd e93a 60bd cbf0 4d3d 99c7 8dbc
000003b0: c276 673d ef38 b9bc 9bd4 693d 4954 2c3d
000003c0: 92b7 d33b 388d da3c dda1 0dbb ad0b 85bd
000003d0: 9d7b 17bc 6119 ac3d 2805 a03d eae0 b73d
000003e0: 64ed a1bc 348f 193c 1677 993d 5042 653d
000003f0: 855d c7bb 6a24 993d 2caf 34bd 644b 5e3d
-0.036566608 0.024608757 -0.06502501 0.053209603 -0.05633789 0.016927859 -0.013356611 0.05117554
0.0049919784 0.013822365 -0.020467056 -0.07146011 -0.06932537 0.057555534 -0.023110097 -0.068171404
-0.08296137 0.021938842 -0.03050696 -0.03550169 -0.041477773 -0.062000517 -0.0805413 0.022146085
0.019726856 -0.07527762 0.0061907168 -0.09631894 0.06699895 0.071002856 0.008302818 -0.032422993
-0.052951276 -0.0530991 -0.06846644 0.0686517 0.029395571 -0.049756683 0.008592319 -0.02367145
-0.042943493 0.094283886 -0.044244487 -0.03677082 0.048924636 0.07816624 -0.01333558 0.05691622
0.032045532 0.0577504 0.06723624 -0.04721104 0.03974207 0.046293024 -0.047048785 0.08717607
0.012922751 0.046926096 -0.08400664 0.103929244 0.059037775 0.01043054 -0.022076447 -0.025846709
-0.022685437 0.010712486 -0.030995129 -0.08037605 -0.09515533 -0.09812788 -0.05232208 -0.108391576
-0.03759643 -0.07265291 0.08297988 -0.03411551 -0.07079687 -0.07353152 0.09929163 0.0641496
-0.010053519 -0.066899985 -0.039649952 -0.06092253 0.081853524 0.06912441 0.052097008 0.024585975
-0.042325437 0.09805153 0.058731277 -0.013350412 0.10646661 0.06534076 -0.051253688 0.0522998
-0.094865926 -0.038749855 -0.07877561 -0.08202001 0.035437282 0.062740274 0.029652823 0.027561892
0.08807922 0.09747643 -0.06777709 -0.007990986 0.05760725 0.086253285 -0.063252926 -0.060576074
0.0006282658 -0.012339894 -0.070922 0.06624766 -0.014615931 0.014931474 0.05758047 -0.05401927
-0.08621875 0.02761475 0.07343243 -0.061665 0.062127832 0.034587774 -0.0890433 -0.066869125
-0.034877945 -0.03287346 0.050147593 -0.04589807 -0.009653078 0.07772125 0.0033480567 0.026502158
0.031921186 0.044058796 0.06092788 0.06655865 0.0053325198 0.028412255 0.0839005 0.01015625
0.040323604 -0.049495954 0.039307937 0.04401916 -0.015385034 0.101711825 0.00033898797 0.03491746
-0.058857866 0.08949555 0.0011649567 -0.050897717 -0.060983617 -0.021588145 0.05451125 -0.04525931
-0.075179316 0.037965897 0.03317324 0.04191121 0.04717049 -0.07223281 0.03568224 0.024672445
-0.07560424 0.05995973 -0.05968286 -0.009216194 -0.05206342 -0.075397134 -0.012883897 0.034519684
0.047720116 0.039470945 -0.08798423 -0.063465245 0.01251186 -0.029204175 -0.02985398 -0.03858354
-0.077324554 0.090331875 0.056261197 -0.028452398 -0.02177119 0.058183413 0.037923787 -0.009635824
0.087765254 -0.06304318 0.018551359 0.06787101 0.082579024 -0.025858374 -0.04952673 -0.03283735
-0.075605035 0.027526174 0.022115506 -0.017481836 0.03362256 -0.05913786 0.06538863 0.07417171
-0.044335417 0.06358551 0.032458574 -0.023738332 -0.0013096178 0.063960105 0.07905083 0.050478194
-0.032575045 0.021845525 -0.016457228 -0.009769051 -0.09317284 0.021678343 0.041299544 -0.08345466
0.08524063 0.016475756 0.06866859 0.062757775 -0.0293316 -0.07490674 0.032626223 -0.06618066
-0.034122545 -0.05474368 0.050278466 -0.01730709 0.05650974 -0.022610156 0.057087522 0.042072568
0.0064610923 0.026678666 -0.002161137 -0.064963676 -0.00924578 0.08403278 0.078134835 0.08978446
-0.019766517 0.009372521 0.07493417 0.055971444 -0.0060841464 0.074776486 -0.04411237 0.054271117

lstm1.weight_hh_l0 f4 [512, 128]
00000000: 8311 223d 60d9 bdbd 5a62 0d3d c2c2 a8bc
00000010: 4f03 caba 1e41 30bc 226d 7abd 7b93 d2bc
00000020: 5f2f c83d 21fb 6dbd ba8e 8e3c 56bd 45bd
00000030: 1e86 7f3c 42b7 53bc d7e2 403d b6c6 91bb
00000040: 054c 01bd 4c84 9a3c aa4e 913c 675b 38bc
00000050: 095b 8e3d 9616 9bbd 9a23 7e3c 7c8e bebd
00000060: 9137 b33d 5a4a 98bd 22fc 12bb 7e7f 57bd
00000070: 19cf 1d3d c56a 5f3d 82dd 97bd c923 6abc
00000080: 2cb0 b73d 9dab 53bc 4f6a 163d bb98 f73c
00000090: 5b50 823d 81cf 96bd 2723 ec3c 19d7 cabc
000000a0: 73b0 95bb 3c14 073d 3f1c ccbd 3a0a 82bd
000000b0: dc87 15bd 8693 233d f2c9 c0bc 2572 9abc
000000c0: 3681 4e3c a882 2e3d 176e 9b3c ee81 a13d
000000d0: 0a1e a13d e3ad eabb dd32 d6bc 2625 123d
000000e0: b69f 4d3c 7fed 953d 07f6 62bd f4b7 a13d
000000f0: cfc5 92bd ad12 bdbd c70f d1bd b941 0d3d
00000100: 23c3 8d3d 64e4 0a3d 1126 aabd 4031 6fbd
00000110: 825a cb3d 640f a83c 22f7 70bd a127 95bd
00000120: 6dc1 623d ee7a c13d e299 14bd 310b c6bd
00000130: 1898 433d bb13 15bd f9d5 49bc 63e9 bbbb
00000140: 787d 923d 888d 8cbd 691a 21bd 7b13 cc3d
00000150: af33 29bd 659c adbc d068 d23c c6b7 25bc
00000160: e90e bbbd afee fd3c b3dd 113d 5648 ce3d
00000170: 1b1e cabb 9a10 abbd 312c 353d 4c99 933d
00000180: 71ff 5bbd b092 213c ea89 3cbd 64cf 853d
00000190: 4370 653d 8ad0 01bd 3dc6 8e3d 1322 df3b
000001a0: 913d b63c a8f7 39bd 0bac 16bd f5a7 83bd
000001b0: 8510 adbd 0ffe 8b3a 3e4c c13d 1772 1dbd
000001c0: c9ea a13d 7fe2 67bb d577 783d ccba 3c3d
000001d0: e340 a7bb b564 143d 4db1 0ebc c10e 923d
000001e0: 1906 003d 71dd a2bd 7c72 18bd 2c89 8fbc
000001f0: e4d0 d8bb 0409 88bd fd33 8d3d 4b11 8cbd
00000200: 0a6b a8bc 1951 093b be64 7e3b 5d4a 67bd
00000210: 7cde 903d 1c28 c0bd 0f51 09bb e826 b7bd
00000220: 5b86 f03c 41e3 44bd 45d3 3abd 1d9c 9b3d
00000230: 886b 623c d94b 79bd 8e2c 60bd 243f 14bd
00000240: 08f8 81bd e713 4fbd 4f3a d13c 8aa0 85bd
00000250: d547 2bbd 1d24 b2bd 3800 953d 3a20 08bd
00000260: 2325 a2bc 97c8 ddbb 74fb 393d 3bf1 71bd
00000270: 6d98 b1bc 8c77 91bd c4ad adbd ab6d 69bd
00000280: bd76 be3d f777 66bd 0352 da3c 0e50 8a3d
00000290: 0867 b63d 4845 493c 44e7 063d e894 6dbc
000002a0: 9eed 9fbc d652 8ebd f672 6a3d 5d85 ae3d
000002b0: cf9b b4bc 8c75 9d3d 3938 593d 291a 68bd
000002c0: b60d 72bd a71a e0bc 0c1b 363c 3ec4 9dbd
000002d0: 9792 683d 3c3b 03bd 41d3 0dbc c9d8 b0bc
000002e0: 67a1 063d e456 17bc d8a2 203d d36d 903d
000002f0: cfd7 a0bd 5cbb 9b3d b452 933d 35ae 8a3d
00000300: 5748 eebc 267e 62bb 1d72 97bc ea1c 123d
00000310: 4eab afbd 5baa ff3b 13e7 bebc c087 56bd
00000320: 3ad3 673c 68a9 42bd c4af 4c3d 3c72 933d
00000330: 2783 6d3d 67b4 11bd f0ea ad3b 8b11 4ebd
00000340: d308 56bd d4bc 503c 72c1 953d d8b8 3bbd
00000350: 5852 7bbd bc62 06bc c330 ba3c 6c8d 3ebd
00000360: 5c49 203d 039e fc3c ce51 62bb 825e a93c
00000370: 25db 04bc 470c aebd bce9 7ebd 7364 04bd
00000380: 4aeb b63d 842c c4bd e9a8 763d 7c6d 96ba
00000390: 6bb3 98bd 4eb0 0e3d ba69 603d 5b43 d3bc
000003a0: d652 203c b028 57bc 2b2e 56bd 3072 c539
000003b0: a744 69bd f09d fb3b 7ce0 9e3c d13c acbd
000003c0: 6f70 5a3d 25e1 4dbd 16ee 013d dd06 2ebd
000003d0: 6cb0 df3b 0c9c 6b3c 1527 32bb c053 bc3d
000003e0: b4a6 26bd 45f4 44bd a54b e0bc 11fa bb3c
000003f0: 93c5 65bd 56f7 0bbd d916 443d b95f f73c
0.03956748 -0.092699766 0.034517623 -0.02060068 -0.0015412363 -0.010757713 -0.061139233 -0.02570509
0.0977466 -0.058100823 0.017402042 -0.048276268 0.015595941 -0.01292211 0.04709133 -0.004448737
-0.03156664 0.018861912 0.017737705 -0.011252261 0.06950957 -0.07572667 0.015511418 -0.093045205
0.08750833 -0.074360564 -0.0022428115 -0.05261182 0.03852758 0.054545183 -0.07415296 -0.014290758
0.08969149 -0.012919334 0.036722478 0.030224195 0.06362983 -0.07363797 0.028825356 -0.02476077
-0.0045681535 0.03297828 -0.09966325 -0.06349607 -0.03650652 0.03993561 -0.023533795 -0.018853256
0.0126040485 0.042605072 0.018973393 0.0788611 0.078670576 -0.007161842 -0.0261473 0.03567996
0.012550285 0.073206894 -0.05541041 0.078964144 -0.07166635 -0.09232078 -0.102080874 0.034486506
0.06921985 0.033909217 -0.08308042 -0.058396578 0.09929372 0.020515151 -0.058829434 -0.07282949
0.055360246 0.09447275 -0.036279567 -0.09670103 0.04775247 -0.03639577 -0.012319081 -0.005734609
0.071528375 -0.068629324 -0.039331827 0.09964653 -0.041309055 -0.021192739 0.025684744 -0.010114616
-0.09133703 0.030997602 0.03561182 0.10072391 -0.0061681396 -0.08352776 0.044231597 0.072069734
-0.053710405 0.009861633 -0.046029963 0.06533697 0.056015264 -0.03169302 0.06971405 0.006809482
0.022246154 -0.0454022 -0.036785167 -0.0642852 -0.084504165 0.0010680574 0.0943837 -0.038438883
0.0790611 -0.0035382805 0.060661156 0.04607658 -0.0051041706 0.036228854 -0.008709264 0.0713172
0.031255815 -0.07952393 -0.037218556 -0.017521463 -0.0066166986 -0.066423446 0.068946816 -0.06839236
-0.020558853 0.002095288 0.0038817371 -0.056467403 0.070736855 -0.0938265 -0.0020952856 -0.08942968
0.02936094 -0.04806829 -0.04561164 0.075981356 0.013819583 -0.06086335 -0.05472999 -0.036193028
-0.06346136 -0.05055609 0.025540499 -0.06524761 -0.04181655 -0.08698294 0.07275432 -0.03323386
-0.019793099 -0.006768297 0.04540582 -0.059067946 -0.021679128 -0.0710288 -0.08480409 -0.056989353
0.09299991 -0.05626675 0.026650434 0.067535505 0.089063704 0.012284584 0.032935396 -0.014500834
-0.019522484 -0.069493935 0.05723854 0.08521531 -0.022046952 0.07688436 0.053032134 -0.056665573
-0.059095107 -0.027356459 0.011114847 -0.07703446 0.056780424 -0.032038912 -0.008656324 -0.021587746
0.03286877 -0.009237025 0.0392178 0.07052197 -0.07853662 0.07604095 0.07193509 0.067715086
-0.029087229 -0.0034560054 -0.01848703 0.035672106 -0.08577596 0.0078022904 -0.023303544 -0.052375555
0.014149481 -0.04752484 0.04997231 0.07199523 0.057986405 -0.035572436 0.0053075477 -0.0503097
-0.05225451 0.012740333 0.073122874 -0.045830578 -0.061357826 -0.008202251 0.02272833 -0.04652159
0.03913246 0.030837065 -0.0034533623 0.020674948 -0.008108889 -0.084984355 -0.062234625 -0.03232236
0.089315966 -0.09578803 0.06021968 -0.0011476721 -0.07456096 0.034836106 0.05478833 -0.025788954
0.009785375 -0.013132259 -0.052290123 0.00037659844 -0.056950238 0.0076787397 0.019394152 -0.08410037
0.05332988 -0.050263543 0.031721197 -0.042487014 0.006826451 0.014380466 -0.002718394 0.091956615
-0.040686324 -0.048084516 -0.02737982 0.02294639 -0.056096625 -0.034171425 0.04787335 0.030197011

lstm1.bias_ih_l0 f4 [512]
00000000: 9066 9dbd a515 2f3d 7877 cabd 10d6 b3bd
00000010: 831b 1cbd 2271 863d 8488 31bc a6fc 0e3c
00000020: 2aea 673d 10d4 853d 1446 273d d07e 1a3d
00000030: 3229 eebc 8e03 dc3c e011 c2bb d63a dfbc
00000040: 403a 913d d4e6 30bd 868b 2a3d 5650 adbd
00000050: 07f1 643d 9394 553d 5166 38bd 1ecd 9abd
00000060: a173 993a 86eb e8bb 6c8a 053d c2d5 123d
00000070: 38a6 383d 027f b9bd 0234 4f3c d726 eb3d
00000080: 6433 fdbb ac47 623d 905f 873c 76b7 503c
00000090: 176f 97bc 5919 693d 1fb0 37bd 6050 3c3c
000000a0: d164 c3bb 3542 783d 9839 643d 45b9 063d
000000b0: 590e 8f3d e423 a33b 2e30 a63d e9b8 78bc
000000c0: 02c7 743d 5557 0f3c 52a2 2f3c 0a21 813d
000000d0: 2aaf 54bd 08ce 033d 8db0 84bd 9aba 063d
000000e0: 0823 a7ba 217e 4a3d 5e61 823c 3eb5 5aba
000000f0: 8f24 90bd e433 273d 80a4 073c 583e 983b
00000100: 05c1 c43c a1de 593d 47a7 4e3d f015 fb3c
00000110: 556b 763d ee98 dfbc d7b9 503d dd97 583d
00000120: 31e3 203c fd74 b43d 3b92 383d cd3c eabc
00000130: 4523 9abc b7ff 67bd c4a9 ccbc 36d5 303d
00000140: 5b62 a8bc ec0a 80bd 8153 c9bd 3b73 a9bd
00000150: 85ab 89bd 3d48 963d 5d90 7bbd b0ab 39bd
00000160: 192d 943c 3f52 8cbd 51b7 86bd 666d cdbd
00000170: 28b4 183d 8b3b f33c 8de0 65bc 299f 0bbd
00000180: 1f3d 82bd 6258 95bd 2f02 4e3d 402e 8fbd
00000190: ca96 b03a dad5 96bd f72f 923d 9b09 c1bc
000001a0: e288 afbc 2933 8bbd 5760 9b3d 03ce b73c
000001b0: a95b 08bd 72e8 b2bc d904 d4bb 418d 6a3c
000001c0: fee7 3fbd 7ccb 743d bd1c 05bd b889 5fbb
000001d0: a28e ce3c 8ac4 563c 6286 ba3d 1c8f 2d3d
000001e0: be48 6b3d 032f dabc 89e3 293c af47 8abd
000001f0: 3a27 a03d 80ca f03b a52a 57bd a6d1 833d
00000200: 035b a0bd 20a6 bb3c ce4a 4a3d 3023 363d
00000210: 81b5 d4bc 740b e03c faf7 8bbc cb05 99bc
00000220: 1c1f 813d eea0 6dbd db8e 273d 4f06 a83d
00000230: 98fa d33d f38a bdbd 24e1 9dbc 48cb 063c
00000240: 74f5 6cbd 18ce 4abd f6a9 6abd 00a0 853c
00000250: 896c 1dbd a889 edbc 6201 89bd d556 43bd
00000260: ef31 a0bd dd96 163c ed3c 49bd 4072 9f3d
00000270: 59fb f53b 7982 823a 36e9 3f3c 2080 11bd
00000280: af9b 983d 5970 e3bc fdf7 8fbd dd27 a13b
00000290: 1159 50bd bfc7 963d a49b 673d 2278 923d
000002a0: 94c4 3fbd 1bd1 aebd 707d a33d 795b 80bd
000002b0: cf56 a8bc 3e07 25bd 8d3c 5fbc d707 f73c
000002c0: b13e fb3b 63f2 4d3d d3dd 75bd 116a 023d
000002d0: a218 60bd 8ec4 67bd 0b70 75bc ebb9 5d3d
000002e0: 8e04 4d3d 26ad 2ebc 0502 423d 3912 88bd
000002f0: c4b6 19bc cc1e 3cbd e40d 85bd e3f8 95bd
00000300: db11 8ebd 1ba3 bf3d f3b4 133d 72bf 5c3d
00000310: 82ac 78bd 370c 00bc fa28 56bd 6e86 ce3b
00000320: 3552 95bd 36e6 0dbc dc74 44bd b314 433d
00000330: c243 a63d 32a8 d3bd b95b 54bd bba4 41bd
00000340: fdda 813d d721 cbbd fe74 aebd 337d 61bd
00000350: a1b9 b03d 7621 633d 3c8d 1d3d 7faf 69bd
00000360: f0ad 56bd 08c8 953d 1a5e dd3b 10d5 5c3d
00000370: b14d 5e3d 07b5 52bd ac7f b13c 97b1 82bd
00000380: b532 02bd 0990 15bd 05a6 45bc 3616 2b3d
00000390: bf98 4d3d 0342 a0bc 0684 79bc 50df 293d
000003a0: 7238 46bd bf78 403c 7bf4 15bd 1bf2 303d
000003b0: 4d0a 6c3d 333b 153d a2a6 42bd 6dad 3a3d
000003c0: 4f01 733d 06e3 a9bd c183 963d 62d2 cf3c
000003d0: ad30 523d b4ee 933b e2f9 cbbb dcd1 113d
000003e0: 87e2 b23d 97a1 88bc 185f cdbc d0b4 60bc
000003f0: 0394 573d 22b8 09bd 47f8 53bd 1b9c bd3d
-0.07685578 0.04274525 -0.09886068 -0.087810636 -0.038112175 0.06564547 -0.0108357705 0.008727228
0.0566198 0.06534588 0.040838316 0.037718594 -0.029072378 0.026857164 -0.005922541 -0.027249735
0.070911884 -0.043188885 0.041636966 -0.084625885 0.055893924 0.052143645 -0.04501945 -0.07558654
0.0011707434 -0.0071081547 0.032602713 0.035848387 0.045080394 -0.09057428 0.012646677 0.114820175
-0.0077270735 0.055244133 0.01652506 0.012739053 -0.018485589 0.05690894 -0.044845697 0.011493772
-0.005962946 0.060610015 0.05571899 0.03289153 0.069851585 0.0049786437 0.08114658 -0.015180805
0.0597601 0.008748849 0.0107198525 0.0630513 -0.051924862 0.03217891 -0.06478987 0.0328928
-0.0012751529 0.049436692 0.015915569 -0.0008343047 -0.07038223 0.04082097 0.008278966 0.004646104
0.02401782 0.05319083 0.050452497 0.030650109 0.060160954 -0.027294602 0.05095848 0.052879203
0.009819792 0.08811376 0.04506133 -0.028593445 -0.018815646 -0.056640353 -0.024983294 0.043172084
-0.020554712 -0.06252083 -0.0983038 -0.082739316 -0.06722168 0.07337997 -0.061416972 -0.04532975
0.01808791 -0.06851625 -0.065779336 -0.10030632 0.037281185 0.029691478 -0.014030588 -0.034087334
-0.06359314 -0.07292248 0.05029505 -0.06991243 0.0013472673 -0.07365008 0.07138055 -0.02356415
-0.021427575 -0.067968674 0.07586735 0.022437101 -0.03329054 -0.021839354 -0.0064703044 0.014315904
-0.046852104 0.05976437 -0.03249811 -0.0034109186 0.025214497 0.013108382 0.09107663 0.042372808
0.05744242 -0.026633745 0.01036919 -0.06751954 0.07819982 0.0073483586 -0.052530903 0.06436472
-0.07829859 0.022906363 0.049387746 0.04446715 -0.025965454 0.027349211 -0.017086018 -0.01867952
0.06304762 -0.058014803 0.040907722 0.08204328 0.10350531 -0.09255018 -0.019272394 0.008227177
-0.05785127 -0.049512953 -0.057290994 0.016311646 -0.038433585 -0.028996304 -0.06689717 -0.04769023
-0.07822024 0.009191242 -0.04913037 0.07785463 0.0075067696 0.0009957097 0.011713317 -0.03552258
0.07451569 -0.027763532 -0.07029722 0.004918082 -0.05086619 0.07362317 0.056544915 0.0715182
-0.04681833 -0.085359775 0.0798291 -0.06267447 -0.020549206 -0.04029011 -0.013625276 0.030155106
0.0076673855 0.050279986 -0.060026 0.031839434 -0.05471099 -0.056583934 -0.014980326 0.054132383
0.05005317 -0.010661399 0.047365207 -0.06644101 -0.009381954 -0.045927808 -0.0649679 -0.07322862
-0.069369994 0.09357282 0.03606124 0.053893514 -0.06071139 -0.007815412 -0.052285172 0.0063026464
-0.0729107 -0.008660844 -0.04796301 0.047627162 0.081183925 -0.10334815 -0.051845286 -0.04727624
0.06340597 -0.09918564 -0.08518408 -0.05505104 0.08629156 0.055451833 0.03846477 -0.05705213
-0.052411973 0.073135436 0.0067556025 0.05391413 0.05427331 -0.051442172 0.021667324 -0.06381529
-0.03178664 -0.036514316 -0.012063508 0.04176923 0.0501945 -0.019562727 -0.015229231 0.041472733
-0.048393674 0.011747538 -0.036610108 0.04319964 0.05762701 0.03643341 -0.047522195 0.045575548
0.05932742 -0.082952544 0.07349349 0.025368873 0.051315952 0.0045145396 -0.0062248567 0.035600528
0.08734613 -0.016678615 -0.025069758 -0.013714984 0.05263139 -0.03362287 -0.051750448 0.092582904

lstm1.bias_hh_l0 f4 [512]
00000000: fbd4 f83b 57ab 8c3d 98f8 31ba a5d5 d6bc
00000010: b6e8 b83c ddbd 04bc 443a d03d 0409 273d
00000020: 17e0 24bd 55e3 4ebc 54c5 18bd 6eb4 4abd
00000030: 5ef3 413d 5e11 48bc e0ed e3bb 68f6 90bd
00000040: b125 d93a 76bf 903d aa91 b3bc a835 af3c
00000050: 62a2 16bb 0bf3 593a 0c7a c33c 492a 5bbd
00000060: c51d 96bd 5b84 9dbd 02a6 8c3d a8d6 7f3b
00000070: 0486 d6bc 8726 35bd 57dc 8cbd 8394 11bc
00000080: 389c 1e3d e3be fbbc 2309 6ebd ad73 5bbb
00000090: d42c 123d f9b6 ebbc 8a2d 243d 865e 903c
000000a0: 4d62 cf3c 3638 653c 2238 2e3d 4c90 5ebd
000000b0: bfc2 9dbd 1fc1 76bc a455 9a3d 3144 7f3b
000000c0: aabb c43c 6432 7a3d bc75 403d 8af7 cf3d
000000d0: 843b 9b3c 4ac7 1dbc 5ebe 8ebd 61c6 0ebd
000000e0: 878b f03c 638e 4fbd 1040 8fbd 1c18 9abd
000000f0: efab 013d 1032 ecbc ccd6 983d c8cd 3a3d
00000100: bd3e d6bc 5505 1d3d 7efd 0f3d 8701 ccbc
00000110: 7998 923c dd23 9b3d 4bf0 973d 2fd3 9b3d
00000120: 2f28 c53c c0b8 bd3c 3388 a9bd e5cc 8abd
00000130: f5e4 71bd ec87 81bd 5242 503b c750 0cbd
00000140: 9c4c a9bb e04c 8cbd 5bf7 a4bd 17d4 8fbd
00000150: 2e88 513d 7b26 af3d 3c16 acbd 8fe8 a73d
00000160: 16f8 4cbc fb1d a13c 35fb eab9 55e3 92bd
00000170: 5f48 1bbc 448b b53d 5f65 a53d 734f a43d
00000180: cda1 48bb c426 963d 24e9 333b ce83 02bd
00000190: 5a12 15bd 621c 9e3d 2fe5 b8bc 2ab4 af3d
000001a0: b548 a23d 4846 afbc c0ff 8a3d d7ee 48bd
000001b0: 98bc 653b 1c54 cd3b 2913 2b3d 4df8 7a3d
000001c0: 400c 903d 27f2 0ebd f091 6a3c 371f b83d
000001d0: d73b 043d 7f5b b0bc 97fe 98bd 33b6 8ebd
000001e0: f799 28bc 82fa d5bc 0566 463c d490 a3bd
000001f0: b719 723d 746c e53c c017 bcbd 02b3 8a3d
00000200: 3c20 01bd f9fb 5c3d 78c0 cdbd 4491 413d
00000210: 3a6d 413c 7208 7d3d 60c6 993d 2f1a 84bb
00000220: 35a5 49bd 37ad 83bd 4816 c3bb 0e2e 123d
00000230: 36e8 dc3d 3997 c3bd 806c 723d b25e d93c
00000240: 3772 493d 8edd acbd 574a ac3d 5de4 62bd
00000250: 173e 09bd b663 a7bd 6b54 35bc 2519 69bd
00000260: 8ccb febc 43c2 a6bd a093 883d b810 38bb
00000270: 6b02 8abd 82fd 693c 5141 20bd eb45 6f3d
00000280: bdaa c1bd adc4 823d a4ad 1c3d a5b7 4d3d
00000290: e80c 91bd befe 91bd d7cd 07bc d4e6 2f3d
000002a0: f2fb 823d 3d92 17bb cd0e a63d 3c4e 2f3d
000002b0: 212e 67bd 463b 8e39 d7d2 563d 6f7f 8a3d
000002c0: 94c1 50bc e743 133d 9c83 a23d 715a eabc
000002d0: d035 513d 9cff c4bb aa51 0fbd 10bc 333d
000002e0: cbf3 8b3d 7577 413c 5fb6 8c3d 88a3 46bd
000002f0: a490 cf3c 9c2d 95bd 5874 623c b6cf d23c
00000300: e193 7d3d 1f8b febc 8abb 9cbd 9281 133d
00000310: fcaa 99bb 028b b2bd a78c 80bd 2998 bdbd
00000320: ab10 533b 2aef 89bd 5312 97bd 32f5 46bd
00000330: 60e8 a03c cf0e e9bb 4906 50bd 6512 283d
00000340: 010a c7bd 96d4 04bb 217b a83c 4fd3 e3bb
00000350: 2573 a2bd 6287 a13c f20e bcbb 51a6 b93d
00000360: 02f9 323d 3196 65bd 6c29 3abc 1004 0bbd
00000370: bbd4 803d 9563 8f3b 4ee3 dcbb d3ad a1bd
00000380: ecd1 073d 88b6 adbc 2833 f0bc ca05 65bd
00000390: 0e72 7dbb af9e 95bd 003c 9f3d 3f50 8e3d
000003a0: 88bc 4ebd 0753 90bd c2ef 16bc 678a f63c
000003b0: 9d10 07bd 94aa a7bd 05c4 42bd c5dc a5bd
000003c0: 9c95 a8bd 7779 fbbc 1130 83bd d0e4 2cbd
000003d0: bc19 b93c cbfe 86bd 29e8 a2bd 9c0d adbd
000003e0: 8189 8bbd bc78 3f3d 6ef4 94bd bc6e 09bd
000003f0: eefc a43d 2e76 b53c 5a17 91bd 7a7f 083d
0.0075937486 0.06868618 -0.00067890575 -0.02622492 0.022571903 -0.008101908 0.10167363 0.040780082
-0.04025277 -0.012627442 -0.03729756 -0.049488477 0.047351234 -0.012211172 -0.006955847 -0.07078248
0.0016567019 0.07067768 -0.021920044 0.02138789 -0.0022984971 0.0008314109 0.023861907 -0.053507123
-0.07329897 -0.076912604 0.06867601 0.0039037857 -0.02618695 -0.044226196 -0.06877964 -0.008885506
0.0387232 -0.03073067 -0.058114182 -0.0033485696 0.035687283 -0.028773772 0.040082492 0.017623197
0.025315428 0.0139904525 0.042534 -0.05433683 -0.077031605 -0.015060692 0.07535866 0.0038950557
0.024015266 0.061083212 0.04698728 0.10154636 0.018949278 -0.009630034 -0.069699034 -0.034857158
0.029363407 -0.0506729 -0.06994641 -0.0752413 0.03165811 -0.028832465 0.07462844 0.045606405
-0.026152963 0.038335163 0.03515386 -0.024903072 0.01789497 0.075752 0.07418879 0.076086394
0.024067013 0.023159385 -0.08277931 -0.06777362 -0.05905624 -0.06324753 0.0031777811 -0.034256723
-0.0051666033 -0.068506 -0.08054992 -0.07022875 0.05115526 0.085522614 -0.08402678 0.08198654
-0.01251032 0.019667616 -0.00044819122 -0.071722664 -0.009477704 0.088644534 0.080759756 0.08022966
-0.003061402 0.07331613 0.0027452195 -0.03186398 -0.036394455 0.07720257 -0.02257022 0.085792854
0.07924024 -0.021395817 0.06787062 -0.0490559 0.0035055038 0.00626613 0.04176632 0.061271954
0.070335865 -0.034898903 0.014317021 0.08990329 0.03228363 -0.021528004 -0.07470434 -0.069683455
-0.010290614 -0.026120428 0.012109284 -0.07986608 0.059106555 0.028005816 -0.091842175 0.06772424
-0.03152488 0.053951237 -0.10046476 0.047257677 0.011805827 0.061775632 0.0750854 -0.0040314416
-0.04922982 -0.064295225 -0.005953584 0.035688452 0.10786478 -0.09550328 0.059185505 0.026534412
0.04918119 -0.08440696 0.08412617 -0.055393565 -0.03350648 -0.08173315 -0.01106749 -0.056908745
-0.031102918 -0.08142521 0.06668782 -0.0028086137 -0.067387424 0.014281632 -0.03912479 0.05841629
-0.09456394 0.06385169 0.038251534 0.050223965 -0.0708254 -0.07128666 -0.008288822 0.042944744
0.06395711 -0.0023127936 0.08108292 0.04279922 -0.056440476 0.00027128513 0.052447166 0.06762587
-0.012741465 0.03595343 0.07935259 -0.028607579 0.05107671 -0.0060119163 -0.03498999 0.043880522
0.06833609 0.011808266 0.06870722 -0.0484958 0.025337525 -0.0728409 0.013821684 0.02573381
0.061908606 -0.031072197 -0.07652958 0.03601224 -0.0046895724 -0.0871792 -0.06276827 -0.09257538
0.003220598 -0.0673507 -0.07376542 -0.04857368 0.019642055 -0.007112361 -0.050787244 0.041033167
-0.09718705 -0.0020268313 0.020566525 -0.00695268 -0.07932118 0.019717876 -0.0057390863 0.090649255
0.043694504 -0.056051437 -0.011362415 -0.03393942 0.06290575 0.004375885 -0.006740964 -0.078944825
0.03315918 -0.021205202 -0.029321268 -0.055913724 -0.0038672718 -0.07305657 0.07775116 0.069488995
-0.050472766 -0.07047086 -0.009212436 0.030095292 -0.032974828 -0.08186832 -0.04755022 -0.08098749
-0.08231661 -0.030697567 -0.06405652 -0.0422104 0.022595279 -0.06591567 -0.07954437 -0.084498614
-0.06813336 0.046746 -0.07273184 -0.03355287 0.08056055 0.022151079 -0.07084532 0.033324696

lstm1.weight_ih_l0_reverse f4 [512, 6]
00000000: aa1d 96bd 0f6a 983c 7bb7 f2bd 89b4 bbbd
00000010: 8ed1 bd3c e167 47bd 9f70 363d 28ea 2437
00000020: 2ccf 03bd 40d0 8fbd df39 cebc c7f5 e4bc
00000030: c9b4 9a3d cb80 25bd 4fae 9abd a3bf 9f3d
00000040: 806a 413d 0acf ed3c e87f d7bc fb64 213d
00000050: 98df 0e3d eef9 03bc 89cb 81bd 410d 56bd
00000060: bba4 80bd 6da7 03bc 2ee3 a2bc 537b 8bbd
00000070: 3e6d 2dbd daab 9ebd d33a 9ebd b286 fbbd
00000080: e66d b1bd 16a1 0dbd 7f71 0c3d 1df6 86bc
00000090: d314 ea3c d68c 2fbc cffc f0bc e220 d1bc
000000a0: 1040 a23d dba5 c93d 7c3d 7cbd c901 b93b
000000b0: 9e03 7c3d a93f 83bd ab56 6c3d 33c9 863d
000000c0: dd86 693d ee57 a0bd 4ae6 e1bc e17b bc3c
000000d0: aa57 7a3b 5820 bfbc fc30 55bd c925 893d
000000e0: f776 75bd 7745 923d a593 0f3d a69a 343d
000000f0: 5fc8 393d 1b7a 90bb 179b cf3c a58c 3dbd
00000100: 0e89 8dbd 2124 f9ba bfbd 063c af20 69bc
00000110: 2a41 9fbd b114 20bd b4cc 723d 5edf 38bd
00000120: 2e9b 00bc bbd0 0f3c 37b5 6e3d 843a c3bd
00000130: 5efe 0b3d d142 0abc 7d85 91bc a1e8 4ebc
00000140: d44b b1bb 8436 8ebd f890 91bd 97b4 1d3e
00000150: 2ffb 613d 3024 31bc 1475 1bbd aadc aebd
00000160: 032b a93d 82c4 663c ebdb 97bd 660c 06bd
00000170: de4b 1f3d 3a1b 553d 05c8 c1bd 5c21 ffbc
00000180: 2897 523d f53d ef3b f5aa 6abc 0fbb 9b3d
00000190: a67a c03c 6bad 503c 7d24 683d 726e e03c
000001a0: 2ee9 04bd fe6e 713c 5dac ad3d 928f 8d3d
000001b0: aa3d 9d3d 0312 51bd 40cf f5bc 55bb 133d
000001c0: 715e 1cbc 640b 34bd 107e a73c 6e14 9dbd
000001d0: 1242 5ebd 6bda 83bd 8375 e73c e32f 863d
000001e0: 1615 c43c 63c3 6e3c f8a0 a7bd 9afc 57bc
000001f0: 903b a93c 3aa1 01bc b050 933b f5dc 883d
00000200: 14f8 b83d 4e26 19bd c7c9 763d 1e0a 25bb
00000210: 8167 3e3d 50dd d33c b28b 043d 13da 873c
00000220: 81d7 cebb 3746 d93b 2152 8ebc e214 1abd
00000230: 249b 7e3d 5229 ddbc 1f25 153d 89fc d83c
00000240: b443 39bd a08b b33b 6d1c 1cbd 81cf 77bd
00000250: 7774 963d 4f98 88b9 777c a7bd 39ac 5abd
00000260: 7552 d7bc 4c7e 73bb 44fb 843d c819 453d
00000270: 798a 86bd a2df 5bbd 7966 0dbe 8cd4 b0bd
00000280: 7420 5f3a 564e ed3d 232d a7bc c081 d13d
00000290: fe9b d83d 30c3 af3d d42b 173d 3879 93bd
000002a0: 8c4e c83d bcff a5bc a21c 70bd 92de 73bd
000002b0: 0737 acbd a587 99bb 0232 93bd 1b69 2c3c
000002c0: 4eb7 b23d da81 11bb 840a 9e3c 160b bd3d
000002d0: cd82 cbbd 93f4 983d c734 fe3c 7f71 843d
000002e0: ad6c 263d ed15 803d 33e6 43bd 7306 c23c
000002f0: 2460 1dbc cb70 883d b569 a23d 924d 043e
00000300: 31cc a6bd a826 6fbd f6d9 523d e600 453c
00000310: 59b1 303d 0d68 92bc 3598 2dbd ba3f 8c3d
00000320: 8953 a63d 5b85 c63d beb9 b33c 65ed 8abd
00000330: 5b03 1a3d 63b1 023c 4952 623d 837f bfbd
00000340: 4a3a c23d d22a 14bd b679 a53d 242c b7bb
00000350: 21e5 733d 3327 39bd fe3a 6cbd 80ad 853c
00000360: 2a49 a43d 4964 2f3c 2c07 08bd 4d9e 92bd
00000370: e580 a1bb c9d7 163d 3bbe 5c3d ed89 14bd
00000380: 8c0a 763c c2bc 6bbd cdbd b13a 0df4 acbc
00000390: 41fc 823d 6775 06bd 7dab 6b3d bcb3 4fbd
000003a0: 0555 69bd f671 1d3d ef9f 4b3d f01a 90ba
000003b0: d9ae 8a3d 5aa5 0c3d 8f0d b03d 23b3 4fbd
000003c0: 63ec 0abc 7451 98bd 9169 6ebc f4cb d3bc
000003d0: 0654 10bd 7cf9 443d 7b16 cabd 81dd 373c
000003e0: 6d6b fbbb 04aa 2a3d 858c 73bc f609 ef3d
000003f0: 3eb4 11bd 15c9 fa3c 51e2 abbc 3b21 c83d
-0.07329877 0.01860526 -0.11851402 -0.09165294 0.023171213 -0.04868305 0.044540998 9.8296805e-06
-0.032179996 -0.070221424 -0.02517408 -0.027949227 0.07554013 -0.04040603 -0.07552778 0.07800224
0.047220707 0.029029388 -0.026306108 0.039402943 0.034881204 -0.008055193 -0.063376494 -0.052258734
-0.0628142 -0.008035523 -0.019883718 -0.068106316 -0.04234051 -0.07747622 -0.077260636 -0.122815505
-0.086635396 -0.03457745 0.034287926 -0.016474778 0.028574383 -0.01071473 -0.029417424 -0.025528375
0.07922375 0.098460875 -0.061582074 0.0056459648 0.061526887 -0.064086266 0.05769984 0.065813445
0.05701338 -0.07829271 -0.02757563 0.023008289 0.0038199225 -0.023330852 -0.05204867 0.0669666
-0.059927907 0.071421556 0.035052914 0.044092797 0.045357104 -0.0044090874 0.025342507 -0.046276707
-0.06910907 -0.001900796 0.00822395 -0.014228984 -0.07776101 -0.039082233 0.05927725 -0.045134895
-0.007849498 0.008777793 0.05827829 -0.09532645 0.03417813 -0.008438782 -0.017763847 -0.012628705
-0.0054106507 -0.06943992 -0.07107729 0.15400921 0.055171188 -0.01081185 -0.03795345 -0.08538182
0.08260157 0.014084937 -0.07414993 -0.032726668 0.038890712 0.05202792 -0.09461979 -0.031143837
0.051413685 0.007301087 -0.014322986 0.07604038 0.023495983 0.012736659 0.056675423 0.027396414
-0.03244894 0.014735935 0.08480141 0.069121495 0.07677777 -0.051042568 -0.030006051 0.036067326
-0.009544001 -0.043956175 0.020445853 -0.07669912 -0.05426223 -0.06438144 0.028254276 0.065521024
0.023935836 0.014572951 -0.08184999 -0.0131827835 0.020658284 -0.007911975 0.0044957027 0.06682769
0.09031692 -0.037390046 0.060251024 -0.0025183032 0.046485428 0.025862366 0.032359786 0.016583478
-0.006312311 0.0066306847 -0.017373146 -0.03761757 0.062159672 -0.026997242 0.036412355 0.026487606
-0.045230582 0.005479291 -0.038113046 -0.060500626 0.07346433 -0.0002605342 -0.08178037 -0.0533869
-0.026284436 -0.0037154136 0.064932376 0.04812029 -0.0656938 -0.05368007 -0.13808621 -0.0863429
0.0008511611 0.11587207 -0.020407265 0.10229826 0.10576628 0.08582151 0.036907032 -0.07200855
0.097806066 -0.020263545 -0.058621056 -0.05953843 -0.08408933 -0.0046853595 -0.071872726 0.010523106
0.08726369 -0.0022202642 0.019292124 0.0923063 -0.09937058 0.07468524 0.031031026 0.0646696
0.040630985 0.06254182 -0.047826957 0.023684716 -0.009605441 0.066621386 0.07930318 0.12920216
-0.08144415 -0.058386475 0.051477395 0.01202414 0.043137882 -0.01787188 -0.042381484 0.068480924
0.08121402 0.09693404 0.021939155 -0.06783561 0.037600856 0.007976863 0.055254254 -0.09350493
0.09483774 -0.03617365 0.08079855 -0.005589979 0.059544686 -0.0452034 -0.057673447 0.016318083
0.080217674 0.010705062 -0.033209965 -0.071591 -0.0049286955 0.036826883 0.053892355 -0.03626435
0.015017163 -0.05755306 0.0013560593 -0.021112466 0.0639577 -0.032826807 0.05753659 -0.050708517
-0.056965847 0.03843876 0.04971307 -0.0010994356 0.06771631 0.03433738 0.08596336 -0.050707947
-0.008479211 -0.07437411 -0.014551536 -0.025854088 -0.03523638 0.04808949 -0.09867569 0.011222244
-0.0076727183 0.041666046 -0.014865045 0.11671822 -0.035572283 0.030613462 -0.02098194 0.09771963

lstm1.weight_hh_l0_reverse f4 [512, 128]
00000000: 1cbc 12bd 004e 27bd 23d3 a33d 19a7 a4bd
00000010: c6ac 9f3d 5a1b 573d 3ead 84bd e016 7fbd
00000020: 1065 a73d 53c7 733d ee59 d1bc 56a9 2b3d
00000030: 03ff eebb a57d 9f3c 2db3 b3bd ca27 0f3d
00000040: d655 803d e7a9 77bd 4fda ce3c 4866 9e38
00000050: 076c 2fbd 6670 5a3d 0d56 13bd cff2 85bb
00000060: 523b 0ebd 6bb0 b9bc 00aa 3cbb 6322 253d
00000070: 9f2c ad3d 4643 0f3d f5c7 39bc 1578 bbbd
00000080: 60fb 4dbc 8ce6 0ebd 06aa c4bc b8b5 673c
00000090: e244 84bd 5d1a 973c 2299 963d 93d9 373d
000000a0: 6acf 243b 5641 893d 90ce d7bd a8a8 6f3d
000000b0: b186 3abb 2b88 203d 49c1 783d ef91 84bc
000000c0: ba52 68bd fa23 823d 95b1 d03b 2f33 1f3d
000000d0: 61e3 81bd 1fc5 1abd ab05 85bd c652 e9bc
000000e0: 4b12 863d 26c5 c9bc caca 3b3d 487a 7dbd
000000f0: aa4b aebd 0557 8d3c 7169 90bd 3388 b93d
00000100: 8667 843d d338 eabb e1a6 273d 06d0 c2bd
00000110: 808e 53bd 7697 9b3d e6df b63c 88dc cc3b
00000120: 14ad 60bc a655 e6bc 4cf1 0cbd 4805 c5bb
00000130: d77e 893d 2f7d 983d c8c9 4dbd e849 943d
00000140: 27fd bebc 20d0 9ebd 7597 2cbd 2660 1e3c
00000150: 1640 863b c3b5 2cbd 8452 323b 2247 bc3d
00000160: 7c65 013d 57fd 2c3d 9734 5e3d 856d ba3d
00000170: 57e7 b7bd 0445 2cbc 0f5d a8bc f1b0 4d3c
00000180: ae68 86bc ba95 3c3d f6ff 873d c6e1 1cbd
00000190: 0eae 273b 6bb0 cbbd 46e2 8d3c 5c02 b83b
000001a0: d604 53bc 5d96 1fbd a410 06bd 6814 85bc
000001b0: 571b a93b 983e 343d c417 d9ba e9ea 953d
000001c0: d972 323c aa7e 3abd 6020 23bd 6fa3 c9bc
000001d0: 0cec 88bc 336c 6d3c 3e9f 55bd d1d1 99bd
000001e0: 17bc 83bc 268a 853d 35bd 48bb a5d4 78bd
000001f0: 12a8 6e3d c823 7f3d 61f2 e0bc b0bf 9b3c
00000200: fc0b 7a3d 171b 85bd 47cc 92bc fe1a b1bd
00000210: e943 213d 013d 3a3d c45e b53d 8786 2c3d
00000220: a0f6 a13d bb10 943c 5ff1 9abd e858 76bd
00000230: ea30 06bd 4bb2 20bd 5c0e 213d 8d97 8bb8
00000240: fbdd 793d 4f7d 99bd 6ef9 ffbb de5e 8cbd
00000250: 6c26 283d fb9c 8d3d 5e18 b3bd 0492 c3bd
00000260: 79af 233a c002 923c cdaf cdbd 33df c0bd
00000270: 1a70 4d3d 4a69 ae3c c094 60bd 73a1 ef3c
00000280: 6d60 053d 7d8a 233d 96ae 46bd 4de4 4a3d
00000290: 0865 35bd 46e1 703c aa73 55bd 36b1 903c
000002a0: aff4 5cbc 59c7 533d 533a 83bd 9f53 ba3d
000002b0: 56f1 623d 1481 5c3d abb1 8d3d 5cf4 123d
000002c0: 737d c6bc e9fc 3fbd 41dc b2bd 254c e0bc
000002d0: e47b adbc cd00 9f3d 9f62 e8bc bff9 f0bb
000002e0: 31f5 063d 4f7b 2d3d cdf2 ecbb 4019 9f3d
000002f0: 8db8 ac3b 4a5f a33d 0c57 803d 27f9 9a3c
00000300: ad77 03bd 5890 823d 40b0 d33d ba0e 933b
00000310: c9cd 073c 3988 aa3d d2fb ceb8 af40 be3b
00000320: d459 b13c 7b6a 91bd 7ebc 5f3d 52a6 ac3d
00000330: f8f6 f1bc cffd 5f3d b52b 4fbd dabb 12bd
00000340: 12f4 3a3d 0d85 683c 0685 413c 1e72 20bd
00000350: 51fa 0a3d ac27 633c 6279 493d 970d a93d
00000360: 3a60 653d 8c65 293b cbfd 123d d74a a9bd
00000370: 523a d83c 1ffa 363d 2d9e 41bd b46e 9ebc
00000380: 60ed 8c3d 8ef9 81bd 6618 94bd 40b0 83bd
00000390: c452 883d 44d8 513d f678 a9bd 82cf 92bd
000003a0: 4b9a 7d3c 7f85 813d 978b b13b 6d42 983c
000003b0: 597e 943c 541c 90bd 7700 7ebc d801 6bbd
000003c0: bf64 8dbd f2c7 813d 884a bcbd 460a ca3d
000003d0: b89a 1e3c f30a 393d 2e5c 5239 c7a4 b53d
000003e0: 2161 913b 3f95 a13d c097 8bbd f48f 34bd
000003f0: 0481 3dba fe38 a33d b0e6 89bd 5627 933d
-0.035823926 -0.04084587 0.079992555 -0.08039684 0.07796626 0.05251632 -0.06478356 -0.062277675
0.08173573 0.059516262 -0.025555577 0.04190954 -0.0072935834 0.019469092 -0.087744094 0.034950055
0.06266372 -0.060464766 0.025250582 7.5530785e-05 -0.042827632 0.053329848 -0.035970736 -0.004087783
-0.03472454 -0.02266713 -0.0028787851 0.040315997 0.084557764 0.034976266 -0.011339177 -0.09153763
-0.0125721395 -0.034887835 -0.024006855 0.014142446 -0.06458451 0.018445188 0.073534265 0.04488523
0.0025148042 0.06701915 -0.105374455 0.058510453 -0.002846163 0.03919236 0.060731206 -0.016182868
-0.05671952 0.06354518 0.0063688257 0.03886717 -0.06342197 -0.037785646 -0.06495222 -0.028481852
0.06546458 -0.02463014 0.04584769 -0.061884195 -0.085105255 0.017253408 -0.07051361 0.09059181
0.06465058 -0.0071478873 0.040930633 -0.095123336 -0.05164957 0.07597248 0.02232356 0.0062518753
-0.01371314 -0.028117012 -0.034409806 -0.0060125925 0.06713646 0.07445752 -0.05024126 0.07240659
-0.023314072 -0.077545404 -0.04213663 0.009666478 0.004096995 -0.04216553 0.0027209828 0.09193255
0.031590924 0.04223379 0.054249372 0.091029204 -0.089796714 -0.0105145015 -0.020552186 0.012554393
-0.016407337 0.046041228 0.066406175 -0.03830125 0.0025585922 -0.099457584 0.01731981 0.0056155156
-0.012879571 -0.038961757 -0.032730713 -0.016245082 0.00516073 0.044005007 -0.0016562869 0.07320196
0.01089164 -0.045530953 -0.039825797 -0.024614064 -0.016714118 0.014491129 -0.05215382 -0.075107224
-0.0160809 0.0652049 -0.0030630354 -0.06074967 0.058265753 0.062289983 -0.027459325 0.019012302
0.061046585 -0.064993076 -0.017919673 -0.086477265 0.039371405 0.045468334 0.08855966 0.042120483
0.07908368 0.018074384 -0.07565569 -0.06014338 -0.03276149 -0.039232533 0.039320335 -6.656265e-05
0.061002713 -0.07494604 -0.0078117168 -0.06854032 0.041052267 0.06914707 -0.08744882 -0.09549335
0.0006244104 0.017823577 -0.10043297 -0.09417572 0.050155737 0.02129044 -0.05482936 0.02925179
0.032562662 0.039926995 -0.048506342 0.04953413 -0.044285804 0.014702147 -0.05211226 0.017662626
-0.0134860715 0.051703785 -0.06407609 0.09097981 0.055405937 0.053834036 0.06918653 0.03587757
-0.02422974 -0.046872053 -0.08733416 -0.027380059 -0.02117724 0.077638246 -0.028367339 -0.007353991
0.032948676 0.042353924 -0.0072310925 0.07768488 0.0052710236 0.07977159 0.06266603 0.018917633
-0.032096554 0.06375188 0.103363514 0.0044878395 0.008288809 0.08326764 -9.869751e-05 0.0058060507
0.021649279 -0.07100388 0.05462312 0.084301606 -0.02953671 0.05468541 -0.05057879 -0.03582368
0.04564292 0.014191878 0.0118115 -0.03917133 0.033930127 0.013864439 0.049188025 0.08254545
0.055999972 0.002584788 0.035886567 -0.08266228 0.026394997 0.044672128 -0.04726999 -0.019339897
0.06881213 -0.06346427 -0.07231216 -0.064301014 0.06656411 0.051231638 -0.082750246 -0.07168485
0.015478681 0.063242905 0.0054182517 0.018586362 0.018126654 -0.07036653 -0.0155030405 -0.057374805
-0.069039814 0.06336965 -0.09193903 0.09865241 0.0096804425 0.045176458 0.000200615 0.088693194
0.0044366275 0.078897946 -0.068160534 -0.044082597 -0.00072290027 0.07969855 -0.06733453 0.07185237

lstm1.bias_ih_l0_reverse f4 [512]
00000000: 8943 a23d 4d74 9b3b fdce 943d f38e 233d
00000010: 3190 87bd 0369 8e3d bd42 26bd 9620 28bd
00000020: cac3 19bc 822f b7bd 7ab2 d7bc c33b e6bc
00000030: cdef 473d 682f a23d f4b4 aabd 77ab 47bd
00000040: 003e 343d b504 d63c e664 533d d5cf 1d3d
00000050: 5896 803d 3151 9cbd 34c5 6abd 93a5 663d
00000060: 3949 293d 1b69 803d 4f83 4cbd 6f56 923d
00000070: 87ca bcbc 3078 84bd 65bb 59bd 4236 cdbd
00000080: 7b89 2b3d d9cc 013d d80e 903d 528d a4bd
00000090: 276a 9c3d 1519 0fbc 9e0a c93d 0fe0 8ebd
000000a0: 81fd 803d 29bd 83bd 0855 853c bfd2 353c
000000b0: 3196 5d3d 4e5f b5bd c617 fc3c 8d17 483d
000000c0: e6f5 ccbc 06c1 1d3c 9a81 94bd 3848 fb39
000000d0: 77dd 64bd bb5a b4bc 2cea 26bd a213 0c3d
000000e0: aac7 2dbd e3cd 41bd cabc afbc c6b6 983d
000000f0: 70e9 6e3d 9071 8bbb 0990 c9bc 794e f23c
00000100: 90fb 1fbd b764 7f3d 9223 2dbd 6628 91bd
00000110: e649 803d cc96 9a3b 5b97 083d 7fb3 4dbd
00000120: f085 c53d 4e90 983d ec12 9c3d c1c9 483c
00000130: 8c45 8cbd a217 a1bd bfb7 ac3c b874 f8bc
00000140: f7b1 46bd ae5d 2d3d af25 8d3c b3f8 e23c
00000150: e022 9e3d 07be 6a3d 8e87 433d 73b2 9fbb
00000160: 7033 f03b b7e8 523d c4a1 bc3c 37a9 e8bc
00000170: e02c abbd f9f8 f7bc f59a 853d af55 5b3d
00000180: 1aa9 2cbd 0ece 84bc 8c8d d2bc 077d 77bd
00000190: cd81 553d 1499 af3d e7d0 9fbd 0e1c b5bc
000001a0: 3f28 8bbc 8d79 37bd 047c 0dbc 0cc3 c13d
000001b0: ea0c 60bd 84a5 fabc 1e69 963d 5d0b a73d
000001c0: 2544 5dbd 5ef7 6b3d 5e94 b73d 05cc 9bbd
000001d0: 9702 a3bd 4cb0 0dbc ef4d 283c f67d ac3d
000001e0: e1b1 18bc d65a 5b3b 4673 67bd 6722 8d3d
000001f0: d9b0 983b 247c 9ebc f7fe 923d 832b 93bd
00000200: 1e20 d93d ea46 9fbc a66d 43bd 218c 85bd
00000210: 72d9 273d a351 133d a668 fc3c fea5 373d
00000220: aba9 6dbd 1c57 47bd 3d76 dcbc c326 b03d
00000230: 9dcd da3d 5be3 77bd a39e 9d3c 04b0 343d
00000240: f493 9bbd 2aa0 adbd d9e7 963d 6f44 9abd
00000250: 33e7 03bd a5e6 2b3d 4486 773d 0a5d ac3d
00000260: be26 2c3d 7828 6cbd be9a ab3d 1927 423d
00000270: a2b7 5abd 3bbb 44bd a397 8fbd 2888 bdbd
00000280: 3cf6 a1bc e5f7 b03d 0e62 7abd 40f7 f23b
00000290: 5b24 913d 940d 613a bb65 d23d bae0 5f3d
000002a0: 3c80 16bd 2567 babd 908b 043d b1bd 88bd
000002b0: 324d e23c c881 a6ba fb50 52bc 687c 78bd
000002c0: 9924 c7bd 1760 f43c b5a3 46bd b256 2abd
000002d0: 72c0 d3bd 9d05 61bd c365 2c3d d1a0 c8bc
000002e0: 6405 8b3a 446e 55bd c0f0 143c 4179 80bc
000002f0: d92a f83c 4072 2e3d caa6 503d 7bbb cf3c
00000300: 6c39 893d c2c6 ba3c 2a5a 3f3c a766 acbb
00000310: 1a98 363c 277b b63c 8547 2dbd 3c23 66bd
00000320: 644b 9dbd d405 07bd 8c0e ec3b 03ff 21bd
00000330: bdc4 96bd ab6a acba 398f b53d 741e 6dbd
00000340: 8dad 453d 8714 cd3d 40e4 73bc 7983 adbd
00000350: ae92 9a3d 79ba 573b f11a c8bd 3598 b9bd
00000360: c921 343d 7f46 313d 9e5f 11bd a9fa 71bd
00000370: 194d 543d f510 513d d74e b3bd 445e 0cbd
00000380: 5312 1e3d 6638 7fbd 7d18 1dbd c719 7c3d
00000390: 4a03 cdbc 81ad 95bd 0513 e1bd d89b 1c3d
000003a0: 00a2 71bc 64a4 77bd e0f9 943d 4cf4 353d
000003b0: 24dc 07bd 7139 f5bc 53fd 12bc 52a3 183d
000003c0: 1fc6 3aba 4d6a d9bc 95e8 cf3a 7763 b8bd
000003d0: 9c58 acbd 6f6d 9b3d 8ccb 4cbd 6d2b 6d3c
000003e0: 7379 83bd 002a dabc d12c 50bd 16c0 c0bd
000003f0: 9ca6 843d 62ec d5bc cf3d 103d e2a5 bfbc
0.079230376 0.0047440887 0.072660424 0.03993125 -0.06619299 0.06953623 -0.04059099 -0.0410467
-0.009385059 -0.08944608 -0.026330221 -0.028104668 0.048812676 0.07919198 -0.08335295 -0.048747506
0.04400444 0.026125291 0.051609896 0.038528282 0.06278676 -0.076326735 -0.057316974 0.056310248
0.041329596 0.06270047 -0.049929913 0.07145392 -0.023045791 -0.064682364 -0.05315723 -0.100201145
0.04187916 0.0316895 0.07034081 -0.08034767 0.076374345 -0.008734007 0.09816478 -0.069763295
0.06298352 -0.06432564 0.016275898 0.011097609 0.05409831 -0.088560686 0.030773055 0.048850585
-0.025019597 0.00962854 -0.07251282 0.00047928258 -0.055875268 -0.02201592 -0.040750667 0.03419841
-0.042426743 -0.04731549 -0.021452326 0.07456736 0.058328092 -0.004255481 -0.024604814 0.029578434
-0.039058268 0.06235191 -0.04227025 -0.070877835 0.06264095 0.0047176834 0.03334747 -0.05022001
0.09644687 0.07449399 0.076207966 0.012255133 -0.068492025 -0.07865836 0.02108371 -0.030329093
-0.048509564 0.042325668 0.017229883 0.02770648 0.07721496 0.05731013 0.047736697 -0.0048735677
0.0073303506 0.051491465 0.023026355 -0.028401 -0.083581686 -0.030270087 0.06523696 0.05354851
-0.042153455 -0.016211536 -0.02570226 -0.06042197 0.05212574 0.08574119 -0.07803517 -0.022108104
-0.016986964 -0.044793654 -0.008635525 0.0946103 -0.054699816 -0.030596502 0.07344268 0.08156464
-0.054020066 0.057608955 0.08963846 -0.07607273 -0.07959478 -0.0086479895 0.010272487 0.08422463
-0.009319753 0.003347089 -0.056506418 0.06891327 0.0046597538 -0.019346304 0.07177537 -0.071860336
0.10601829 -0.019442994 -0.04771199 -0.06520868 0.040978856 0.035966527 0.030811619 0.044836037
-0.058023136 -0.04866706 -0.02691185 0.08601143 0.10683749 -0.060519557 0.019240683 0.044113174
-0.07596579 -0.084778145 0.0736844 -0.07532584 -0.03220291 0.041968007 0.06043078 0.08416183
0.042029135 -0.05765578 0.08379124 0.047400568 -0.053397782 -0.04803012 -0.07011344 -0.09254485
-0.019770734 0.08641032 -0.06112867 0.0074147284 0.070870124 0.0008585092 0.1027331 0.054657675
-0.036743388 -0.091017045 0.03235966 -0.06676806 0.0276247 -0.0012703473 -0.01283669 -0.060665518
-0.09723777 0.029830975 -0.048495967 -0.041586585 -0.103394404 -0.054936994 0.042089235 -0.024490746
0.0010606465 -0.05210711 0.009090602 -0.015682818 0.030293869 0.042589426 0.050940312 0.025357952
0.067004055 0.022799853 0.011679212 -0.0052612606 0.011144662 0.02227552 -0.042304534 -0.056185946
-0.07680395 -0.032964543 0.0072038826 -0.03954984 -0.073617436 -0.0013154348 0.08865208 -0.05789037
0.048261214 0.10013681 -0.014885962 -0.08472342 0.07547508 0.0032917543 -0.09770764 -0.09062234
0.043977533 0.04328012 -0.03549158 -0.05907694 0.05183134 0.051041562 -0.08755272 -0.034269586
0.038591694 -0.062309645 -0.038353432 0.06154802 -0.025025982 -0.07308484 -0.10989956 0.03823456
-0.0147480965 -0.06045951 0.072742224 0.044422433 -0.033168927 -0.029934617 -0.00897153 0.03726513
-0.0007124859 -0.026539946 0.0015862162 -0.090033464 -0.084153384 0.07589232 -0.049998805 0.014475686
-0.06419649 -0.026631355 -0.05082399 -0.094116375 0.06477091 -0.026113693 0.035215195 -0.023394529
